best performing models/less gamma/q_eval_dqn.onnx (onnx, 286110 bytes, 6 tensors)

qnet.fc1.weight f4 [256, 11]
000000 c8 9e 20 be 49 14 90 3e 12 b8 ec 3c 75 be 2c 3e
       -0.1568557 0.28140476 0.028896365 0.16869529
000010 8f 64 ff bd d4 60 e7 3d 89 0a b6 bb c2 74 39 be
       -0.12470352 0.112977654 -0.005555455 -0.18110946
000020 4e bc 37 3d 86 21 31 3e bc 28 16 3e 9b 91 27 be
       0.044857316 0.17297944 0.14663976 -0.16364138
000030 e5 d6 8a bd 67 3a 4e 3e 4d 57 44 bd 65 4b 2a be
       -0.06779269 0.20139466 -0.04793482 -0.16630323
000040 03 a5 96 3c e0 b8 59 3e 23 21 5c 3e e7 61 2c 3d
       0.01838923 0.2126193 0.21497016 0.042085554
000050 70 62 38 3e 1d 6d 5d be 22 09 5c 3d 21 60 1d 3d
       0.18006301 -0.21623655 0.053719647 0.038421754
000060 72 01 51 3d 67 4e 3e bd a2 f0 53 bd 60 1e 5e bc
       0.05102677 -0.04646149 -0.051743157 -0.013557047
000070 05 0e ab bd 8e d3 6e bb 26 84 ae bc 9c e8 a3 bc
       -0.083522834 -0.0036442014 -0.021303248 -0.020008378
000080 6f 14 c5 bc b1 cd a9 bd 1b c6 cc 3c 12 1b 8d 3d
       -0.024057595 -0.08291186 0.024996808 0.06889929
000090 c9 ad 05 bd 94 f8 18 3e 03 69 fd bc d0 79 9e 3d
       -0.032636438 0.14938575 -0.030933863 0.07738078
0000a0 f8 be 12 be 30 3c 1d 3e 46 0c f0 bd 56 0a da bd
       -0.14330661 0.15354991 -0.11721091 -0.10646503
0000b0 5d 56 0d be 48 48 08 3e 1f 6f 16 bc 72 88 1a 3e
       -0.13802476 0.13308823 -0.009181767 0.15091112
0000c0 cc 19 b2 bd 43 7c 04 bb 0a 42 27 bc a4 57 d9 bb
       -0.086963266 -0.0020215667 -0.010208616 -0.006632762
0000d0 9a 6a 92 3d c7 3d 05 3c 28 fa 50 3e 36 69 93 3e
       0.07149239 0.008132405 0.20407927 0.28791207
0000e0 94 ce 96 bd 17 84 0a 3e af 6f cf bd d9 b4 a9 ba
       -0.073636204 0.13526951 -0.10128724 -0.0012947574
0000f0 15 d5 d4 3d 6e e1 49 be ce c3 30 bd 19 d3 fd bc
       0.10392205 -0.19714901 -0.043155484 -0.030984448
000100 7b e6 15 3e cf c9 12 be 96 7b 34 3e 39 60 0b 3e
       0.14638703 -0.14334796 0.1762527 0.13610925
000110 01 85 1f 3e cd 4e 1a be 7f b1 de 3d 70 8c 93 bd
       0.1557808 -0.15069123 0.108736984 -0.07204521
000120 6f e5 cd bd d8 c5 25 be 08 44 14 ba 71 4d cd bd
       -0.100535266 -0.16188753 -0.00056558894 -0.100245364
000130 58 92 fb 3d e6 07 2a be d6 09 dc bc 0e 03 d6 3d
       0.12283772 -0.16604576 -0.026860159 0.104498014
000140 98 f5 e9 3d 42 19 47 be cb d6 ca 3d c4 d3 2d 3e
       0.114237964 -0.19443229 0.0990425 0.16975313
000150 9b a6 b1 3d 63 af 94 bd 43 07 ed 3b 7f 79 b3 3c
       0.086743556 -0.07260015 0.0072335317 0.02190852
000160 e7 1d 8b bc cd 1d 98 3d 0e 1a 72 bd c9 6a 1f 3e
       -0.016982032 0.07427559 -0.05910688 0.15568079
000170 5c fd 8c 3a ff 1e 42 be a9 49 9c bc 79 cf 84 be
       0.0010756659 -0.18957137 -0.019078093 -0.2593954
000180 80 5f 0d 3b 0e e7 47 bd 6e aa 8f 3d 6f 03 47 be
       0.0021571815 -0.048804335 0.07014929 -0.19434904
000190 21 01 b1 3d a2 b7 82 3e 40 83 a9 3c de d2 ad 3c
       0.086427934 0.25530726 0.020692468 0.021218713
0001a0 cb a5 68 bd 28 4b 8e 3d 8d 82 8b 3c 05 b9 23 bd
       -0.056798737 0.06947929 0.017030025 -0.03997137
0001b0 f7 05 35 bd 45 9d 8e 3d 12 23 9b 3d 7c 90 42 bb
       -0.04419514 0.069635905 0.075750485 -0.002968817
0001c0 ae d3 84 bc 5b 60 16 be 85 f9 f5 bc 98 54 34 3d
       -0.016214218 -0.14685194 -0.030026207 0.044025987
0001d0 c8 47 8a 3c 0f 7f d6 3d 38 89 c3 3d 4e 53 dc 3c
       0.016879931 0.10473453 0.09547657 0.026895192
0001e0 39 6d 3e be df 91 90 3d db b1 1f 3e d9 e3 56 3e
       -0.18596353 0.07059073 0.1559519 0.20985354
0001f0 4b fd b9 bd 4e 76 52 be f0 8b 8c be d1 45 e7 3c
       -0.09081515 -0.20552942 -0.27450514 0.028231533
000200 6b 49 77 3d b6 54 82 3b 05 6b 80 3d 87 ac 99 3e
       0.06037275 0.0039773835 0.06270412 0.3001444
000210 ba 7e 81 be 80 a2 5c 3e eb 1a 63 3e 80 5a 40 3e
       -0.25291997 0.21546364 0.22178237 0.18784523
000220 aa 25 4a be 85 f2 10 3e c1 9b 79 3d 59 b6 3e bc
       -0.1974093 0.14155014 0.060939554 -0.011640155
000230 68 f6 2e bc 2e 0d 60 bb a8 e5 cf bd a5 e1 0d 3e
       -0.010678865 -0.0034187543 -0.10151225 0.13855608
000240 06 45 37 3d b6 33 c3 3d c0 7f bd bc 71 03 39 be
       0.04474356 0.095313475 -0.023132205 -0.18067719
000250 60 f5 91 bd 9c 37 f5 bd 9c f0 05 3e 5f 6c 77 bb
       -0.0712688 -0.11973497 0.13080066 -0.0037753803
000260 72 75 eb 3b b5 7f bf 3d e1 e6 91 3e ea c5 cc bd
       0.0071856314 0.0935053 0.2849646 -0.099986866
000270 63 32 00 be ea a3 e2 bd 11 d2 97 3d 8d 25 0e be
       -0.12519221 -0.110664204 0.07413114 -0.13881512
000280 f2 bb 4d be 66 f0 09 3d 56 0e 15 3d d3 a9 b4 3c
       -0.20091227 0.033676527 0.036390625 0.022053635
000290 7e 97 a9 3e b6 e7 8a 3d 07 58 bc bc 92 8d 00 3e
       0.33123392 0.067824766 -0.022991193 0.12554005
0002a0 45 3a 6e 3c 47 07 1f be 06 c9 96 bd e3 ef aa 3c
       0.01454026 -0.1553012 -0.07362561 0.02086634
0002b0 f8 96 5f 3e a9 bb f2 bc b3 1d 70 3e 54 d9 8c 3c
       0.21834934 -0.029630499 0.2344883 0.017193474
0002c0 9e 4c 0d be 1e 79 86 3e 16 a4 69 be ba c1 50 3e
       -0.13798758 0.2626428 -0.228165 0.20386401
0002d0 9b 99 25 be 16 5b 14 3e 4b 20 f0 bd 65 89 f0 bd
       -0.16171877 0.14487872 -0.117249094 -0.11744956
0002e0 50 a5 50 3d a8 ed ce 3d a6 0c 69 3e 43 f1 2c be
       0.050938904 0.10103923 0.22758731 -0.16888909
0002f0 3b de f8 3d fe 47 bd 3c 67 49 84 bc a8 c7 4e be
       0.12151762 0.023105618 -0.016148282 -0.2019335
000300 f1 43 e9 3c 27 35 2f 3e 62 30 f0 3d a4 08 7f 39
       0.02847478 0.1711012 0.11727978 0.00024321914
000310 b7 e9 9d 3c 92 bb a0 3b 29 d0 2f 3e 1b b9 97 bd
       0.019276483 0.0049051726 0.1716925 -0.07408353
000320 c2 48 2f 3e 12 0b 70 bd d6 47 3f bd a5 fb f1 bd
       0.17117599 -0.058604307 -0.046699367 -0.118155755
000330 5d 7b fa bd a1 75 92 3d 7c d5 d5 3d 73 43 04 bd
       -0.12230561 0.07151342 0.104411095 -0.032290887
000340 bb c3 d7 3d 7a a5 a5 3c 09 f6 92 3d cc d8 0d bb
       0.105353795 0.020220507 0.07175834 -0.0021644114
000350 50 75 ff bd 6c a4 20 be dd ff 4e be cd a7 0a be
       -0.124735475 -0.15687722 -0.20214792 -0.13540573
000360 85 cb 22 bd 04 b7 0b 3e 67 f4 3f bd ce 68 1b be
       -0.039744873 0.13644034 -0.04686394 -0.15176699
000370 1f 5b 30 3e 4b 3c 50 bd 19 e6 f5 bb a4 c6 84 bd
       0.1722226 -0.05083875 -0.0075042364 -0.064832
000380 a2 28 91 3d 66 2a f9 bc 5c 58 aa bd 50 06 c6 ba
       0.07087828 -0.030415725 -0.083176345 -0.0015108082
000390 30 73 3f 3d b1 6a 42 be 0b 9a 29 3d 95 f1 75 bd
       0.04674071 -0.18986012 0.041406672 -0.060044844
0003a0 5e 0b 27 3d d6 92 41 3e 0a 90 a7 3e 80 c5 86 ba
       0.040782325 0.1890367 0.3272708 -0.0010282248
0003b0 bd 1f 29 be e2 d4 87 be 3c 3b 2c bd 53 8d d4 be
       -0.16516013 -0.26529604 -0.042048678 -0.41514072
0003c0 bf d8 f4 bd 60 94 8a 3d 5f 4e 34 3e 99 b5 22 be
       -0.119554035 0.067665815 0.17608021 -0.15889587
0003d0 37 4a 58 bc 50 c0 8b be ac 09 e4 3d fc 92 b7 3b
       -0.013201288 -0.2729516 0.11134657 0.0056022387
0003e0 a6 33 ba 3d 86 65 69 3d b3 9a 80 3e 4a 7e 8f bd
       0.090918824 0.056981586 0.25118026 -0.070065096
0003f0 44 25 0d bd 44 a2 4b 3e 89 8e 07 be b1 b6 a9 bd
       -0.034459367 0.19886118 -0.13237967 -0.08286799

qnet.fc1.bias f4 [256]
000000 1e be 09 3d 63 1a a4 be ef a8 64 be 98 8f 20 3e
       0.033628576 -0.3205138 -0.22330068 0.15679777
000010 2e 8f ab be 43 3f d6 bd a2 9a 3e be 96 6e f2 3d
       -0.33507675 -0.10461285 -0.18613675 0.11837499
000020 e6 4a c8 3d f8 b9 74 be 7b dd 00 3e b8 a6 79 be
       0.09779911 -0.23899066 0.12584488 -0.24380004
000030 0a c6 1d be ee 60 29 3e ce 57 be bd e0 6d 94 be
       -0.15407577 0.16540882 -0.09294091 -0.28990078
000040 93 17 f3 bb cc 88 9c bd 48 2b f7 bd 66 13 6f 3e
       -0.0074185818 -0.076432794 -0.12068802 0.23347244
000050 01 65 1e bd ab a2 30 bd 7e 76 08 be 9f e2 c7 3d
       -0.038670544 -0.043123882 -0.13326451 0.097600214
000060 b3 39 08 3e 31 f0 2d be 43 7e 63 3e b0 1e 2d be
       0.1330326 -0.16986157 0.22216134 -0.16906238
000070 c3 10 2f bd ee 60 3a be 69 b9 f9 3d fe 56 42 be
       -0.042740595 -0.18201038 0.12193567 -0.18978497
000080 f8 1f f5 3b c7 70 6e bd fb 57 42 be ee b3 c3 3d
       0.0074806176 -0.05821302 -0.18978874 0.09555803
000090 42 fc a5 be b2 ab 69 bd 78 53 66 3d 51 d6 44 b9
       -0.3241902 -0.057048507 0.056231946 -0.00018771856
0000a0 98 65 78 be 62 c4 8f be 65 fd c1 bd b7 e0 0a 3e
       -0.24257505 -0.28079516 -0.09472159 0.13562284
0000b0 52 fc 90 3c 35 ea 8d be c6 b7 b7 be 96 46 c1 3d
       0.01769844 -0.27717748 -0.35882396 0.09437291
0000c0 4b d4 89 bd 57 67 5c be c4 15 a0 3e 7e 7d 71 3d
       -0.06729945 -0.21523796 0.31266606 0.05895757
0000d0 4b 46 16 be 27 19 60 bd 55 19 ea 3d 5f a9 5d bd
       -0.14675252 -0.054711487 0.11430613 -0.054116603
0000e0 f2 87 3f be e0 1f 95 3d 3f fc 08 3e a4 50 0c 3e
       -0.18704203 0.0728147 0.13377474 0.13702637
0000f0 06 4f 3a bd b3 17 a3 bc 79 ef 64 be 45 f3 a9 bd
       -0.04548552 -0.019908762 -0.22356977 -0.08298353
000100 aa 0e 51 3e 5d af 53 3e 7a 50 59 be 6a bb 9e 3d
       0.2041575 0.20672365 -0.21222106 0.0775059
000110 5a ec ae 3d ae 92 d1 3d 3d c1 7a 3d 9f 4a 18 3e
       0.08541174 0.10233055 0.061219443 0.14872216
000120 e1 b5 67 3d e7 05 82 be 2b 54 73 be c3 a6 31 be
       0.056569938 -0.25395128 -0.23762576 -0.17348771
000130 19 a0 7e bc 45 87 73 3e f7 f2 99 3d d9 a0 41 3e
       -0.0155411 0.2378207 0.07517045 0.18909015
000140 9c d5 a1 3d dc d3 76 bc 75 a8 4d 3e 8b da 8c 3e
       0.07902071 -0.01506516 0.20083793 0.27510485
000150 9d 74 82 3d 30 5c 7f 3d 23 ef 74 3e 94 f2 4e be
       0.063698985 0.062343776 0.23919348 -0.20209724
000160 44 83 57 be a4 30 9b be 86 ea b8 bd d3 4f 4c 3d
       -0.21046168 -0.30310547 -0.09029107 0.049880814
000170 14 79 d6 bd 4e 64 bd be b7 2a 0f 3c a8 cd 98 bd
       -0.104723126 -0.3699059 0.008738211 -0.07461101
000180 f9 dd cf bd fe c3 90 3d 04 50 b5 bd db bd 96 3e
       -0.1014976 0.070686325 -0.088531524 0.29441723
000190 a3 9a d5 3d 6d cc c8 bd 58 68 8c 3e da bb 3a bd
       0.10429885 -0.09804616 0.27423358 -0.045589305
0001a0 e8 22 ba bd 34 09 9c 3e 8d 94 e3 3d 5c 54 1f be
       -0.09088689 0.3047577 0.11112318 -0.15559524
0001b0 46 f9 ec bd b7 b1 6e be b9 96 38 be 89 32 53 bc
       -0.11570983 -0.2330998 -0.18026246 -0.0128904665
0001c0 33 d8 a3 3e a0 54 34 be bb d7 7c be b2 18 3f be
       0.32000884 -0.17610407 -0.2469167 -0.18661764
0001d0 f4 15 51 be 89 78 4d 3d 0c 13 de bd d7 f9 d1 bd
       -0.2041853 0.05016378 -0.10843477 -0.10252731
0001e0 e7 9f 9e 3e 15 15 5f be f1 d4 8a be e6 a7 bd 3d
       0.3098137 -0.21785386 -0.27115586 0.0926054
0001f0 12 db bc bd 62 eb 40 be 56 12 06 3e e9 f7 5b be
       -0.09221472 -0.18839791 0.13092932 -0.21481289
000200 bc 24 6a be 05 1f 6f 3d b3 ae 2c 3e b7 cf 6d be
       -0.22865576 0.058379192 0.16863517 -0.23223768
000210 05 a0 18 bd ae d2 f3 3c 48 41 0a 3e 98 45 59 be
       -0.03726198 0.029763546 0.13501465 -0.21217954
000220 e1 cb 80 be 3e 8f 25 be 57 11 b0 be 3f 90 8d 3d
       -0.25155547 -0.16167924 -0.3438823 0.069122784
000230 b8 c0 d4 3d c5 4e 38 3e bb fd 2e bd fc ae ad 3d
       0.10388321 0.17998798 -0.042722445 0.08480641
000240 4f 37 a8 be 9a d1 85 bd 07 03 c4 bd 46 dd 59 3d
       -0.32854697 -0.06534119 -0.0957089 0.05318954
000250 09 ad 81 3c 01 6e 83 bb e4 50 1b be eb af f0 bb
       0.01582958 -0.004010916 -0.15167576 -0.00734519
000260 7a e9 b4 be 30 03 8d 3d 68 d5 8c bb 09 2b a3 3e
       -0.35334378 0.068853736 -0.004297901 0.3186877
000270 f3 d1 2a bd 4a 25 c1 3d f0 13 06 be df 7f 6b 3e
       -0.04170413 0.094309404 -0.13093543 0.22997998
000280 0d c6 9f be 1d 1e 8a be d0 92 0c 3e 0e cf 4f bd
       -0.31205788 -0.269761 0.1372788 -0.050734572
000290 68 83 0e 3e 80 21 3e be 98 72 a6 3d 4d 4b f2 3d
       0.13917315 -0.18567467 0.08127326 0.11830769
0002a0 82 71 00 be 9b 0b 82 3e 20 12 ae be 5c 36 88 3e
       -0.125433 0.2539948 -0.33998203 0.26603973
0002b0 bb 15 7d bc 09 e8 ea bd e5 1d 78 be 11 21 96 3d
       -0.0154470755 -0.114700384 -0.24230154 0.07330526
0002c0 2b 93 b8 be 14 5a ab be 0a 8d 19 3d 3d e7 96 3e
       -0.3604978 -0.33467162 0.03748802 0.29473296
0002d0 09 f1 a0 3e 63 75 43 be 60 05 8f be ca 39 87 be
       0.31433895 -0.19087748 -0.27933788 -0.26411277
0002e0 ab ff 3c be 07 ce 91 be 84 5e 0d be e6 ec 15 bd
       -0.18456905 -0.284775 -0.13805586 -0.036602877
0002f0 8f e3 74 be 8c b3 2d 3d 7e ea 82 be 0e 2a 8d 3e
       -0.23914932 0.042407557 -0.25569528 0.27571148
000300 15 ff 94 be ea 68 45 be 38 76 ae be 48 33 58 bd
       -0.29100862 -0.19278303 -0.3407457 -0.05278328
000310 8f ac c6 bc 1d c9 20 3e 03 3d 77 3e 6d 1f fd 3d
       -0.024252204 0.15701719 0.24144368 0.123595096
000320 88 3a fe 3d 0b a8 7f be f2 f5 99 3e 15 46 7b be
       0.12413508 -0.24966447 0.30070454 -0.24538453
000330 9e 8e ea bd c7 d9 9d 3d 9e f3 19 3e 28 04 1f be
       -0.11452983 0.07707553 0.15034339 -0.15528929
000340 d1 67 59 3d 35 8e 93 be 8b f7 dc 3d b9 61 61 3e
       0.053077523 -0.28819433 0.107894026 0.22009934
000350 dd 8b 8d bd d7 b9 4b 3e 5f f0 7c 3d 39 c7 1d be
       -0.069114424 0.19895111 0.061752673 -0.15408029
000360 12 f6 6d be 48 c7 03 3e d7 10 b5 3d 3e f0 b4 bd
       -0.232384 0.12868989 0.088411026 -0.08834885
000370 99 df c7 bd e4 36 2d 3e 66 d1 81 be ca f1 07 be
       -0.09759445 0.1691547 -0.2535507 -0.13275829
000380 91 91 10 bd d5 5a e7 3d a7 dd 8f bb 54 10 93 bd
       -0.035295073 0.11296622 -0.0043904367 -0.07180849
000390 e7 5e 1c be b6 e2 b4 3d b8 c7 97 bc 8a 42 89 3e
       -0.15270577 0.08832304 -0.01852785 0.26808578
0003a0 01 e8 ba 3e 41 e0 66 3e 25 52 8b 3e 97 d9 7c 3e
       0.3650513 0.22546484 0.2721111 0.24692379
0003b0 49 ab bc be c0 2b 77 3e d2 ed 28 3e f3 6a 53 be
       -0.3684943 0.24137783 0.16496971 -0.20646267
0003c0 23 10 c9 3d 89 6f 79 3e d7 7d 0a 3e e6 ae 10 be
       0.09817531 0.24358954 0.13524567 -0.14129218
0003d0 20 ef c6 3d 92 a5 a1 bd d1 84 a5 bb 3d aa 3e 3e
       0.09713578 -0.07892908 -0.0050512333 0.18619628
0003e0 bc bc 19 be 09 a4 c5 be d1 7e e4 3c ae 5a 62 3e
       -0.15013403 -0.3860171 0.027892502 0.22104904
0003f0 58 ed 97 be 15 8f 8a 3d 49 5b 62 be 97 3f 31 be
       -0.29673266 0.06765572 -0.22105135 -0.17309414

qnet.fc2.weight f4 [256, 256]
000000 04 4b dd 3c dd 67 7f 3d 44 ae 33 3d 8a 42 9c bd
       0.02701331 0.06235491 0.043867365 -0.07629879
000010 7a f8 31 bc b5 0f 81 bc 34 b4 2a bb 36 5b c0 3c
       -0.010862464 -0.01575456 -0.002604735 0.023480993
000020 7f 3c 10 3d 36 92 17 bd 1c 98 08 be 4f c8 8f bd
       0.035213944 -0.037004672 -0.13339275 -0.07020628
000030 4c 1a 2f bd 97 54 e4 bc b9 95 82 3c 9c 44 5b 3d
       -0.042749688 -0.027872367 0.015940534 0.053532228
000040 3f e3 77 3d 65 fb cc 3b 20 de 4b bd c9 4f 61 bc
       0.060519453 0.0062555545 -0.04977238 -0.013751932
000050 09 a0 10 be 1f 7c 40 3a aa 92 d0 bd 3d bb 81 bc
       -0.14123549 0.0007342714 -0.10184224 -0.015836352
000060 07 b2 2c 3d ed 77 16 3d b9 31 ec bc 46 7e 6b bd
       0.042161968 0.036735464 -0.028832303 -0.05749347
000070 30 27 8c bd 92 2a f8 bd 4e eb 8f 3d c5 ed dc bc
       -0.06843412 -0.12117495 0.07027303 -0.026968846
000080 e8 0c 9b bd f5 27 b8 3c 2a 03 2e 3d db 1f 9b 3d
       -0.07570821 0.02247999 0.042483486 0.07574435
000090 2d 86 6f 3d d5 56 94 bc 99 55 83 bd f8 a8 d9 3c
       0.05847757 -0.018107811 -0.06412811 0.026569828
0000a0 d2 b6 4a bc 37 a7 e2 3c 1a 12 1b 3d de 0c 25 bc
       -0.012372689 0.027667625 0.03785906 -0.010073869
0000b0 ed fd be bc ff 6e 4f 3d 0e 2b 75 bc 8b cb 1d 3d
       -0.02331444 0.050642963 -0.014963878 0.03852419
0000c0 6e 2d 51 bd 23 70 78 3d f1 d8 06 3d 30 bd 01 bd
       -0.051068716 0.060653817 0.032921735 -0.031674564
0000d0 a7 55 a2 bd b1 bd 63 3d 47 2c 6f bd 53 69 83 3d
       -0.07926493 0.055600826 -0.058391836 0.064165734
0000e0 b0 54 dd bc fb 45 66 bd 27 7c ea bd 20 62 60 be
       -0.027017921 -0.056219082 -0.114494614 -0.21912432
0000f0 c6 76 2c bd 45 71 7c 3c 3f 49 8f 3c 6f dd d2 bd
       -0.04210546 0.015407865 0.017490981 -0.10296141
000100 f4 83 59 3c cc b3 71 3d 3c 62 09 bd 53 03 d3 3c
       0.013276089 0.05900936 -0.03354095 0.025758421
000110 b9 bb d5 3c f2 f5 a2 3d 13 7c 1a bc e6 8f 18 bd
       0.02609049 0.079570666 -0.009428996 -0.037246607
000120 3d aa 42 bd 62 10 2e bd 3a 26 cc bc 1d c4 b4 bc
       -0.047525633 -0.042496093 -0.024920572 -0.02206617
000130 60 c9 3e bd e7 bc 36 3d 19 1b da 3c 62 79 54 3c
       -0.046578765 0.044613745 0.02662425 0.012968393
000140 30 bd 03 3b 19 17 4a 3d df 72 82 bb e1 66 d0 bc
       0.0020101778 0.049338434 -0.003980979 -0.025439681
000150 2a 3f 77 3d 9a 97 5b bd c5 42 8f bc 64 9a 1d bc
       0.060362972 -0.053611375 -0.017487893 -0.009619329
000160 14 71 e6 bc e7 2d 57 3d bd 22 ea 3c 07 4c c8 bd
       -0.028130092 0.05253401 0.028581018 -0.09780126
000170 98 4f e0 bc 17 e0 85 bc 4d 4b 1f bd 64 86 79 3b
       -0.027381703 -0.016342206 -0.03889017 0.0038074488
000180 81 49 49 bc 90 9d 03 be 62 34 b3 3d 36 5e f1 3c
       -0.012285591 -0.12853074 0.087502256 0.029463869
000190 bb b2 96 bd 1f 31 63 3d a6 c9 3f bc 75 8f e3 bd
       -0.07358309 0.055466767 -0.011705792 -0.11111347
0001a0 4f de 39 3c d9 04 88 3c 0d 3d e6 3c d2 66 50 be
       0.011344506 0.016603874 0.028105283 -0.20351723
0001b0 38 44 96 3c 7c 9b 94 3d fd c1 7e bc c6 ba 3d bb
       0.018343076 0.07256219 -0.01554918 -0.0028950437
0001c0 71 27 16 bc 0b bc 6f 3d f8 4e 57 3c aa c3 24 bd
       -0.009164677 0.05852894 0.013141386 -0.040225662
0001d0 9e 27 7e 3c 3f 9e 0c be 1b 26 ac bb 24 b8 e4 bc
       0.015512375 -0.13732241 -0.005253566 -0.027919836
0001e0 7c b9 5b 3c 74 b5 77 bd 17 6e ce 3c 84 6d 03 3c
       0.013410922 -0.06047578 0.02519898 0.008021716
0001f0 fe 6f 10 bd 87 e3 91 bc d8 e0 d2 3b 33 3e e6 b9
       -0.035263054 -0.017808689 0.006435495 -0.0004391536
000200 48 db 15 3d 7a f7 7f 3c 24 ee e6 3c 02 c6 f7 bc
       0.036586076 0.015622968 0.028189726 -0.030245785
000210 72 62 d6 bc 36 64 5b 3c 97 05 ee 3c 23 04 5e bd
       -0.02616999 0.013390591 0.0290554 -0.054203164
000220 ed 91 9d be d3 04 81 bb ba b4 b5 3c ef 65 28 bd
       -0.30775395 -0.0039373427 0.022180904 -0.041112836
000230 84 77 06 3d ec 52 11 bb 1a ea 51 bd db 86 c2 bc
       0.032828823 -0.002217467 -0.051248647 -0.023745945
000240 4b 0a 01 bd fb 05 0c 3c 02 cc 15 bd e2 90 c1 3c
       -0.031503957 0.008546348 -0.03657151 0.023628656
000250 49 75 75 3d d9 41 09 bd 43 e1 4b 3d 06 52 fe bd
       0.059926305 -0.033510063 0.049775373 -0.124179885
000260 31 42 93 3c 66 9f 23 3d 47 dc 53 3d 6c ac d6 bb
       0.017975898 0.039946936 0.051723745 -0.006551316
000270 c3 1f 9a 3c 5c fd b3 bc 8f af e4 3c c9 39 2a 3c
       0.018813973 -0.021971397 0.027915744 0.010389754
000280 b3 ac 8f bb 8d c2 10 ba fb 5a e6 3b e4 f8 52 3d
       -0.004384601 -0.00055221544 0.0070298887 0.05150689
000290 f0 ff ed bc c7 5c ec bc 1c 5f 16 bd c6 13 4b bc
       -0.029052705 -0.028852833 -0.036711797 -0.012394851
0002a0 95 eb ec 3c f7 ac 63 bd a5 47 19 bd 74 67 d1 bb
       0.028920928 -0.055584874 -0.03742184 -0.0063905064
0002b0 f1 58 dc bd e7 29 80 bc 39 48 01 be ee ed 3d bd
       -0.10759152 -0.01564498 -0.12625207 -0.046369486
0002c0 80 50 55 bd 66 68 3e 3d 55 43 6b bd 30 42 a1 bd
       -0.052078724 0.04648628 -0.05743726 -0.078739524
0002d0 b9 c0 8b 3d 27 66 1d bd 50 4a 37 3d a5 ef 52 bc
       0.06823868 -0.0384275 0.044748604 -0.0128745185
0002e0 a7 a8 2d bc f0 f9 31 3d 4e 89 59 bd ba b4 0a 3d
       -0.010599292 0.04345125 -0.05310946 0.03386376
0002f0 86 89 69 3d d9 07 c2 bd d6 ff e8 3c ab 4c 26 bd
       0.05701592 -0.09474153 0.028442305 -0.04060046
000300 6f d1 0e 3c e6 4e e5 b9 e6 bd 45 bd b3 a9 1e bd
       0.008716925 -0.00043737068 -0.048276804 -0.038736057
000310 f3 e4 a5 3c a8 2f e0 3c 1c 5f c3 3c 3b 19 85 bc
       0.020250773 0.027366474 0.023849063 -0.016247382
000320 b0 ab f0 bb eb a1 33 be 89 1f a2 3a 48 38 8f bc
       -0.0073446855 -0.17542236 0.0012369017 -0.017482892
000330 3e e0 da 3a 4f 59 d9 3c e1 b8 16 3b a2 ea 2b 3b
       0.001669891 0.026531843 0.002299838 0.0026232381
000340 52 fe a7 bd a4 b1 3a bd 7d 0a 0e 3c 73 d8 a8 bc
       -0.082028046 -0.045579568 0.008669493 -0.020611024
000350 89 09 68 bc 72 b1 29 bd f6 90 e0 3c f6 09 93 3b
       -0.01416243 -0.04142899 0.027412873 0.0044872714
000360 53 5b 86 3d 0f 5b e2 3d 73 05 4e bd ec 18 b5 3d
       0.065603875 0.11052524 -0.050298166 0.08842644
000370 77 18 9c 3c d7 54 29 3d 91 f8 0a 3d 6a 5f fa bd
       0.019054634 0.041340675 0.033928458 -0.1222523
000380 59 db 6f 3c 9e 32 96 3b 82 1b d6 3a 5a 1a 1d 3d
       0.014639699 0.0045836708 0.0016335102 0.03835521
000390 f1 4b 35 bd a4 c9 f8 bc 0f ff ca bc 61 9a 58 3c
       -0.044261876 -0.030369587 -0.024779825 0.013220401
0003a0 1f e7 8b bd e2 8d bf bd bb 6b 3f bc 4f 9e b1 be
       -0.06831192 -0.09353234 -0.0116834 -0.34691092
0003b0 1c a2 83 bd 32 ac 49 bd 0c 36 cc bd 8b 6e 8b bc
       -0.06427404 -0.049236484 -0.09971246 -0.017020484
0003c0 5b e5 86 3b 07 e7 6a bd ee f2 7a 3d 41 e8 b3 3c
       0.004116697 -0.05734923 0.061266832 0.021961333
0003d0 2a a8 f8 3c cc 7c 55 bc 65 09 db bb ff bb 7f bc
       0.030353624 -0.013030242 -0.0066844695 -0.015608787
0003e0 84 e5 a1 3d 1a 14 a2 bb 06 31 f5 bd 6a 94 11 3c
       0.07905105 -0.004946244 -0.11972241 0.008885482
0003f0 63 e6 22 bd d2 81 c4 bc 5a a1 00 3d 28 66 fd bc
       -0.039770495 -0.023987684 0.031403877 -0.030932501

qnet.fc2.bias f4 [256]
000000 f2 01 81 bd f6 d8 6b bc 15 1b 4e bd b8 01 bb bc
       -0.06299199 -0.014394989 -0.050318796 -0.022827968
000010 bd 65 b6 3c 1e 43 ca bb 91 f4 00 bd 31 2c 16 3d
       0.02226531 -0.006172552 -0.031483237 0.036663238
000020 fe ff 02 bd 34 a5 64 3d e2 d7 5e 3d fe 11 0f 3d
       -0.031982414 0.055821612 0.0544051 0.034929268
000030 6b 17 49 3d f0 f8 8a 3c 71 99 4f 3b 60 54 2e bd
       0.0490946 0.016964406 0.0031677152 -0.042560935
000040 c9 b2 0b bd be ee 26 bc 0c 8a 1f 3d a6 f5 2a 3b
       -0.03410605 -0.0101887565 0.03895001 0.002608636
000050 50 1a 19 3c 2e f5 7c bd 59 5d 08 3d 69 46 49 3c
       0.009344652 -0.06175726 0.03329215 0.0122848535
000060 57 9f ed bc 6f a6 9e bc 6a d2 d3 bb b9 a7 ba 3c
       -0.029006643 -0.019366471 -0.0064642923 0.022785055
000070 76 55 34 bc 1d 2b b9 3c 0f b2 65 3d 7b da 12 3d
       -0.011006704 0.022603566 0.056078013 0.03585289
000080 8d 0e e9 bc 2b 8f 32 3d 24 49 8f bd 89 8a 21 3c
       -0.028449321 0.043593567 -0.06996372 0.0098596895
000090 a6 46 77 bd f1 2f b0 ba 11 a3 0b bb 9d b0 e1 3c
       -0.06037011 -0.0013442022 -0.0021306912 0.027550036
0000a0 a5 9a d7 bc 8c 2a 07 bd 97 5f d6 ba 6f e5 39 bd
       -0.026318857 -0.03299956 -0.0016355392 -0.04538482
0000b0 7a c3 cf bc e1 7f 6b bd 5d ed a8 bc c5 2d 22 bd
       -0.025361765 -0.057495 -0.020620996 -0.03959443
0000c0 47 36 a0 bd 44 0c e1 3c fc 78 3e 3d 68 9e 6e bd
       -0.078228526 0.027471669 0.0465021 -0.058256537
0000d0 6d d1 81 bb d8 f2 0a bd 41 4d 58 bb c3 5b f8 bc
       -0.003961733 -0.033923 -0.0033005031 -0.030317193
0000e0 b9 0c 33 bc 4f 42 a7 bd 0c bb 4a bd b6 64 5d bd
       -0.010928326 -0.08166944 -0.049494788 -0.054051124
0000f0 b3 31 33 3d 52 d6 a2 3c 3b e6 63 3c 72 ef 8a 3d
       0.04374857 0.019877587 0.013909872 0.06783952
000100 8b 75 3a 3c a3 31 5e 3c 95 3b 17 3d 78 98 bd 3c
       0.0113805635 0.013561639 0.036922056 0.023143992
000110 fd 93 cf 3b 22 5a 9c bd 8e fa 61 bd a9 fd 23 bd
       0.0063347802 -0.07634379 -0.05517059 -0.04003683
000120 fb 94 15 bc cf b1 e2 bc 95 40 71 bd 28 ec c8 bd
       -0.009129758 -0.027672676 -0.05889948 -0.09810668
000130 63 fe 81 bd ae 34 24 3d d5 0b 59 3d 48 2d 7c bb
       -0.063473485 0.0400893 0.0529898 -0.0038479138
000140 b8 cc 50 bb 07 d4 40 3d d5 8b 86 3d 82 f2 4d bd
       -0.0031860303 0.047077205 0.065696396 -0.0502801
000150 84 96 99 bd a0 3d 1a bd 8b 63 1b 3d 14 cb 48 3d
       -0.07499412 -0.037656426 0.03793673 0.049021795
000160 5c d7 d3 bc f0 18 75 bd b3 ce 68 bd 56 fb 1c 3d
       -0.025859527 -0.059838235 -0.05683775 0.03832563
000170 83 57 c3 3c 79 77 2d 3c 29 ee dd bc 4b 7c 2d bd
       0.02384544 0.0105875665 -0.027091103 -0.042354863
000180 df 8d a1 bc 32 00 7d bc ea 4c 1b bb 2f f5 27 bd
       -0.01972097 -0.015441941 -0.0023696967 -0.04100531
000190 8d 90 97 bd 81 9c 07 3d 14 df 22 3d e0 18 27 bd
       -0.07400618 0.033108238 0.039763525 -0.040795207
0001a0 80 13 d2 bb 65 d3 30 bc 2c 3c 96 bc fe 47 4a bd
       -0.006411016 -0.010792588 -0.018339239 -0.049385063
0001b0 ba 68 9f 3c 4b 7a 42 3d 0b 17 55 bd 09 76 2c 3d
       0.019459117 0.04747991 -0.05202393 0.042104755
0001c0 0a 76 0d bd 7d 00 58 bb d3 e0 38 bd 42 20 28 3d
       -0.0345364 -0.0032959275 -0.045136284 0.04104639
0001d0 8d 5d 00 3c 86 a0 8e bd 39 25 3c bc 20 8f 2b bd
       0.007834804 -0.06964211 -0.011483484 -0.04188454
0001e0 3c ad 5b bd 7c 42 63 3b 1f 35 5c 3c 05 21 1e bd
       -0.053632006 0.003467708 0.013440399 -0.03860571
0001f0 83 21 53 bc e7 63 dc bc 40 9e 9f bd 2c a0 0f 3c
       -0.012886408 -0.026903106 -0.07793856 0.008766215
000200 19 22 13 bd 23 c2 28 3d 62 1f 25 3d c5 f7 42 bd
       -0.03592119 0.04120077 0.040313132 -0.047599573
000210 2c ec 09 3c c5 b1 e0 bc af 23 59 bc 9a 11 30 3c
       0.008418124 -0.027428517 -0.013253137 0.010746384
000220 38 42 4f ba aa ef 42 3d ee ef ca 3c 41 10 52 bd
       -0.00079062907 0.047591843 0.02477261 -0.051285032
000230 b4 5f 80 bd ae 72 46 3d 14 90 e4 3b 42 c0 c0 bc
       -0.06268254 0.04844921 0.0069751833 -0.023529176
000240 7f 5d a5 bc 5b 34 c3 3c 08 3f ca 3c 7d 1c fc 3b
       -0.020186184 0.023828676 0.024688259 0.0076938258
000250 d5 4f 89 3c 2b 59 be bc 84 0c 9d 3d 8a bd 36 3c
       0.0167617 -0.023235878 0.07668403 0.011153588
000260 96 6a 43 3d bc 24 b9 3b b5 2e 79 3d 6b b3 3d 3d
       0.04770907 0.005650131 0.06083556 0.046313684
000270 c0 1d 14 bd 6e 73 3b bd 4c 1e 13 bc f8 98 93 3c
       -0.036161184 -0.04576438 -0.008979391 0.018017277
000280 d1 59 2e bd 18 d3 24 bc 75 6e 3d bd dc 15 89 bd
       -0.042566124 -0.010060094 -0.04624792 -0.066936225
000290 45 79 25 3d 73 61 06 bd 5a 10 20 bd 31 fa 0c 3d
       0.040398855 -0.03280778 -0.039078094 0.03441829
0002a0 0d d3 35 3d a7 2c a1 bc 6a ee 52 3d df 5a 7d bd
       0.044390727 -0.019674612 0.0514969 -0.06185424
0002b0 e7 74 40 3d de 3f 08 3c eb 58 0b 3d 10 7f 23 3d
       0.046986487 0.008316008 0.034020346 0.039916098
0002c0 e5 d2 ce bc c6 6d 9c 3c 28 1f 52 3d 53 27 2d 3c
       -0.025247047 0.019095313 0.051299244 0.010568458
0002d0 4f 50 0a bd 1a d6 e3 bb 7f 4b 6f 3b 95 ae 66 bc
       -0.033767994 -0.006953013 0.0036513505 -0.01407971
0002e0 dc b6 39 3d 12 8f e2 3c f8 28 34 bd 3a fd 7e bc
       0.045340404 0.027656112 -0.043984383 -0.015563304
0002f0 0f c4 80 bd 2f 85 db 3c f0 34 90 3c 9c 88 bc bc
       -0.06287395 0.026796905 0.017603368 -0.02301436
000300 af 62 36 ba 93 73 ac bc 02 6e 8d 3c 80 8b 27 bd
       -0.0006957454 -0.021051204 0.01726437 -0.040904522
000310 20 b6 fe 3c 65 7b cd 3c d5 d0 1c 3c 70 bb 44 bc
       0.031092703 0.025083253 0.009571274 -0.012007579
000320 a4 53 8a bb 11 fe e5 bc 90 12 1c 3d 50 24 93 3d
       -0.0042213965 -0.02807525 0.03810364 0.071846604
000330 d4 4d 94 bd 6f bf e7 3b d7 e2 20 3d b0 e4 cc bb
       -0.07241407 0.007072381 0.03927883 -0.0062528476
000340 dd 61 68 3d fd 33 ef bb be 8b 3f 3d 29 01 5a bb
       0.056733955 -0.0072998987 0.046764128 -0.0033264852
000350 81 36 e4 bc f9 0b 9e bc 81 91 3b 3d 1e ed ab ba
       -0.02785802 -0.019292818 0.04579306 -0.0013116931
000360 24 4b 91 bd 31 c9 db 3c 9f c8 4a bd f3 ff f8 3b
       -0.0709441 0.026829334 -0.049507733 0.007598871
000370 29 7e 2b bd 99 3b 3a 3d 68 b7 84 bc 88 f8 84 3c
       -0.041868363 0.045466993 -0.016200736 0.01623179
000380 c7 8a 5a 3c 2f 09 8d bd 65 39 52 3d 8d d5 53 bd
       0.013338751 -0.06886517 0.051324267 -0.05171733
000390 42 7b ad bc 92 dd 73 bc 44 33 da 3a 63 3a 5c bd
       -0.021176938 -0.014884369 0.0016647358 -0.05376662
0003a0 a4 62 0b bd 27 9a 1c bd ec 7a 08 bd e6 ce 03 3d
       -0.034029618 -0.03823295 -0.033320352 0.032179736
0003b0 68 60 d0 3c 6d 27 18 3c 11 e4 d1 3c 27 2d 77 3d
       0.025436595 0.009286744 0.025621446 0.060345795
0003c0 06 4b 39 3d fa ba 61 bc 80 6c a8 bc d6 22 a9 3b
       0.045237564 -0.013777489 -0.02055955 0.0051616235
0003d0 fe 26 5e 3c 79 77 bb bd 7d 48 94 bc 75 31 38 bc
       0.013559101 -0.09153647 -0.018100971 -0.01124226
0003e0 1e b8 98 bc 6b bf 05 bd d9 fb 52 3d b3 8a 8b 3c
       -0.018642481 -0.032653254 0.051509712 0.01703391
0003f0 e2 4f 80 bd 53 93 9a 3c ef 16 37 bd ed 8b 68 bb
       -0.062652364 0.018869078 -0.044699606 -0.0035483793

qnet.A.weight f4 [9, 256]
000000 50 f5 88 3a ff fb 77 3c 39 21 ca 3d 78 0d 6b 3d
       0.0010449085 0.015135764 0.09869618 0.05738589
000010 37 e9 a5 bc b3 f9 1f bc 46 67 c5 ba 26 f3 b8 3c
       -0.020252807 -0.009764123 -0.0015060685 0.02257688
000020 47 6b 91 ba d5 aa e3 bb 4b 5c d5 3b 4b d5 33 3d
       -0.0011094593 -0.006947855 0.0065112463 0.043904584
000030 86 8e 68 3c 96 d8 68 bd 42 d2 5a 3b 58 5b 09 3d
       0.0141941365 -0.056847177 0.0033389484 0.033534378
000040 e8 e7 f8 3c bc c7 d7 bb 70 35 40 3c 87 11 92 bc
       0.030384019 -0.0065850895 0.0117314905 -0.017830623
000050 bb 77 01 3c ff b5 0a 3d 5b bc 85 3c f0 0e 45 3c
       0.007902081 0.03386497 0.016325166 0.012027487
000060 2d e9 76 bc cf c4 c8 3c 14 18 48 3c 84 cf ec bb
       -0.015070242 0.024507908 0.012212772 -0.007226886
000070 2b 0d 2c bd ad 1b cd 3c d7 ae 6e 3b c4 37 23 3c
       -0.042004745 0.02503761 0.003642013 0.009962026
000080 6a 63 95 bc f7 86 56 bb 46 bc 2d 3d 73 10 8a 3b
       -0.01823588 -0.0032734254 0.04241588 0.0042133867
000090 6b 1d 46 3c 4b a8 cb bb de 93 05 bb a0 f3 ca 3b
       0.012091975 -0.0062151304 -0.0020382325 0.006193593
0000a0 d0 7e 29 bd 02 b7 e2 b9 c6 d2 85 bc 12 c5 09 3d
       -0.041380703 -0.0004324243 -0.016335856 0.033635207
0000b0 39 6e 55 3c 10 1e 47 3d 67 26 85 3d c4 cb 94 3b
       0.013026767 0.048612654 0.06501465 0.0045408923
0000c0 0f 01 bf 3d f2 27 12 bc 7f 53 7f 3d 1e ad 7f 3d
       0.09326374 -0.0089206565 0.062335487 0.062420957
0000d0 c8 61 b1 bb bf d0 35 bc bb c2 39 3c 96 3c 7d 3c
       -0.0054132678 -0.011097132 0.011337931 0.015456339
0000e0 54 52 18 bc 92 aa 82 bb c9 1f 1d 3c c6 2f 2b 3c
       -0.009296972 -0.0039876187 0.009590098 0.010448402
0000f0 9d 99 e9 bb 92 39 e5 3c b9 e4 f2 3b 89 7c 0d 3c
       -0.007128908 0.027981553 0.00741252 0.0086356485
000100 2e 46 1b 3d c5 dc 83 bc 57 78 d6 3c 72 d9 f5 bc
       0.037908725 -0.016096482 0.02618043 -0.030010913
000110 16 31 18 3c 9b f3 4a bc 46 7b d8 bc 36 cb 3d bc
       0.009289047 -0.012387182 -0.026425969 -0.011584094
000120 dd db bc 3c 06 73 e3 bc a6 b8 a0 3d b6 f2 bd bc
       0.023054058 -0.027764808 0.07847719 -0.023187023
000130 58 f8 36 3d 69 c7 2a 3c a1 51 69 bc a4 d7 fe 3a
       0.044670433 0.01042352 -0.014240653 0.0019442928
000140 46 a0 e3 bc a8 e5 03 bd f0 11 ad bb 23 c0 a6 3b
       -0.027786385 -0.03220144 -0.0052816793 0.0050888225
000150 fa 44 74 3b 5f 7e d2 3b 26 00 a3 3a f8 7e d1 bd
       0.0037272559 0.006423756 0.0012435957 -0.102292955
000160 f2 91 1c bc 51 ec bc 3b ea a6 9d 3a 72 c7 1d bc
       -0.00955628 0.005765476 0.0012027894 -0.009630071
000170 34 7b 9b bb 8b 24 73 3b bd 02 70 3c a0 11 46 3c
       -0.0047449116 0.0037100639 0.01464909 0.012089163
000180 5d 15 37 bd 60 35 4e 3c d6 6d 11 3c 9b 1f 47 3c
       -0.044698108 0.012585968 0.008876285 0.012153531
000190 ee 42 50 3d a4 21 0e 3c 3a 68 25 3c aa f9 99 bc
       0.05084508 0.008675013 0.01009565 -0.018795807
0001a0 71 a3 8c 3c 3e 85 c0 3a 4e 65 a8 3c 24 08 1d bc
       0.017167779 0.0014688147 0.020556118 -0.00958446
0001b0 e9 41 80 3c 59 c0 53 3b d8 ee 67 3b dd 8f 27 3c
       0.015656428 0.0032310693 0.0035390165 0.010227171
0001c0 89 3f c5 ba 8d b8 0a 3d 82 3b 17 be 76 18 1f 3c
       -0.0015048842 0.033867408 -0.14768794 0.009710422
0001d0 86 05 04 bb 6a 5a d8 3b 8f 98 90 3c 6b 7f ae bc
       -0.0020144894 0.006602575 0.01765087 -0.021300992
0001e0 cf 30 1b bb dd ae 8c bc f0 7d be 3c 1e 0e 9b 3c
       -0.0023680215 -0.017173225 0.023253411 0.01892763
0001f0 96 7f da bb 12 d1 a3 bb 4f cc 49 bb 09 ed 10 3c
       -0.0066680415 -0.0049992884 -0.0030791943 0.008845576
000200 ed 91 1f 3c f0 54 24 3c eb 41 e2 b9 c9 e8 f1 3c
       0.009739381 0.010030016 -0.00043155192 0.029529946
000210 dc 6b 21 3d 9e 9b 2d bc 80 97 08 3c c0 46 ad bc
       0.039409503 -0.010596184 0.008336902 -0.0211519
000220 5c fe 7f 3d 49 aa e3 bc b9 24 f5 3c 83 64 96 bc
       0.062498435 -0.02779116 0.029924737 -0.018358475
000230 da f2 b9 bb 4c ce 0f 3b 22 57 19 bb 84 c9 c7 bd
       -0.005674702 0.002194303 -0.0023397882 -0.09755233
000240 b7 59 8f bc 1e a3 3e bc 09 b1 00 3d 5d ea 8c 3b
       -0.017498834 -0.01163557 0.031418834 0.004300399
000250 b0 34 6e bc 3f 13 31 3b 6c fb aa ba 52 ab 46 3c
       -0.014538929 0.0027019528 -0.00130449 0.012125807
000260 f4 36 8f 3c 50 2d 04 bc 34 48 27 bc fc 4d 13 bc
       0.017482258 -0.008067444 -0.010210086 -0.008990761
000270 01 61 57 bc a6 30 c0 3c d6 83 31 3d 25 cd 1e bb
       -0.013145686 0.023460697 0.04333862 -0.0024231162
000280 b2 2e fd bb f3 a2 40 3c 52 50 92 bb fc ab be 3c
       -0.007726514 0.0117576 -0.0044651413 0.023275368
000290 9f c1 fc 3b 01 2d c6 bc 76 a2 0c bd d8 57 d4 bd
       0.007713511 -0.024191381 -0.034334622 -0.10368317
0002a0 13 39 78 bc d1 6c 2d 3d 9a b1 ef bb 7f 0f f9 bb
       -0.015150326 0.042340104 -0.007314873 -0.007600724
0002b0 f6 01 e2 bc 15 7c 52 3c d3 84 9a 3c 24 72 83 bc
       -0.027588826 0.012846966 0.018862164 -0.016045637
0002c0 06 bd 0d bd 3a 6d 20 3c 93 e2 d6 3b ca 35 63 3d
       -0.034604095 0.009791667 0.0065577715 0.05547122
0002d0 88 ec fc 3c 52 12 d4 ba 4b 62 90 bc 87 3d f9 3c
       0.030874506 -0.0016179776 -0.017624995 0.030424846
0002e0 64 15 38 39 5d c9 13 bc 53 e1 ef 3b 90 90 8c 3d
       0.00017555576 -0.009020177 0.007320562 0.068635106
0002f0 49 be c8 bb a3 1b ec 3a 2e 40 c9 bc c4 8c 0b ba
       -0.0061261994 0.0018013607 -0.024566736 -0.0005323405
000300 09 bc 75 3d c2 9a 7b bd ea 40 54 3d 96 b9 46 bc
       0.059993777 -0.061426885 0.05181972 -0.012129208
000310 80 ad 25 3d da 5f cd 3c 95 90 e8 3c 0a 5d 42 3c
       0.040448666 0.02507012 0.028389255 0.011863003
000320 a1 04 fe 3c 68 6f f3 39 29 35 c4 bc 3d ff 08 bc
       0.031008067 0.00046431576 -0.02395113 -0.008361635
000330 bf e3 69 3d b0 c6 1f 3c 9b 52 54 3c b2 b5 62 3c
       0.05710196 0.009751961 0.012959148 0.013837265
000340 a5 d4 38 3c 4b 84 a8 3b 59 9b aa ba b7 a4 1c b9
       0.011281167 0.0051427237 -0.0013016268 -0.0001493868
000350 64 7f 19 3d dc e4 7e 3c 7b 7c 45 3d d9 d9 61 3d
       0.037475005 0.015557494 0.048214417 0.055139396
000360 59 f8 03 bc 24 73 fe bd cb bc b3 bc 7a 49 d4 3c
       -0.008054816 -0.12424305 -0.02194061 0.025913943
000370 26 b4 de 3b c2 c2 6e 3d 1a c8 5f bd 95 05 be bb
       0.0067963777 0.058291204 -0.05463419 -0.0057990053
000380 d1 9f 4b 3c 29 0f e4 3b 6a e6 8c 3b 63 9b 5e bc
       0.01242824 0.006959815 0.0042999284 -0.013586852
000390 86 d0 15 3c 75 fa fb bb 50 a0 ac bc 5a 95 40 bd
       0.009143954 -0.007689769 -0.021072537 -0.047017433
0003a0 2d 8d cf 3a 3b 3c 16 3c 4b 14 23 bc 25 e4 89 3d
       0.001583492 0.0091696335 -0.009953569 0.06732968
0003b0 39 5c 33 3b 53 86 41 bc 8d 73 6f bb 00 3a b0 bc
       0.0027368201 -0.011811811 -0.003653738 -0.021512032
0003c0 dc dd 6d ba 56 af 76 3c 57 9c 91 3b 23 8d 4d 3c
       -0.0009073892 0.015056452 0.004443686 0.012545857
0003d0 01 99 25 3c 7a 27 e3 bd 14 43 a3 3b 7c a6 f8 bc
       0.01010728 -0.11091514 0.0049823616 -0.030352823
0003e0 95 c7 49 bc ef 68 22 3c 7c 0a bb bc ed d0 93 bc
       -0.0123156505 0.009912713 -0.022832148 -0.01804396
0003f0 bf 4e cd bc 94 a6 fb 3a 29 89 18 3c 32 c0 83 3c
       -0.025061963 0.0019199424 0.009310045 0.016082857

qnet.A.bias f4 [9]
000000 68 de 89 3a 9e 06 07 3c 7e 92 15 bd ff f1 68 bd
       0.0010518553 0.008241324 -0.03651666 -0.05687141
000010 e4 15 4f 3c 58 bd 2f 3d 3e a3 76 3c f4 ca e3 bc
       0.0126394965 0.04290518 0.015053568 -0.027806737
000020 d9 d2 11 bd
       -0.03560147
