models/backup/less_gamma_04/less_gamma_04.onnx (onnx, 286110 bytes, 6 tensors)

qnet.fc1.weight f4 [256, 11]
0	0xbe254f73	-0.16143589
1	0x3e94cccf	0.29062507
2	0xbc67ef6d	-0.014156205
3	0x3e2926a0	0.1651864
4	0xbdeb29c0	-0.114825726
5	0x3d78109f	0.060562726
6	0xbc08b412	-0.008343713
7	0xbe353045	-0.17694195
8	0x3db3236d	0.08746991
9	0x3e1285fc	0.14308923
10	0x3d9f43bf	0.077765934
11	0xbe29702c	-0.16546696
12	0xbd83d9b5	-0.06438009
13	0x3e2c8921	0.16849186
14	0xbd50d716	-0.050986372
15	0xbe1fde4f	-0.15612148
16	0xbd018c68	-0.031628042
17	0x3e531b65	0.20615919
18	0x3e602f6b	0.21893089
19	0x3dc1a72d	0.094557144
20	0x3e7d83cb	0.24757306
21	0xbe88f352	-0.2674814
22	0x3d952730	0.07282865
23	0x3d45dcf9	0.04830644
24	0x3d3cca51	0.04609138
25	0xbd104ba8	-0.0352284
26	0xbd4af77b	-0.049552422
27	0xbc4581cf	-0.012054875
28	0xbd81a4b6	-0.06330244
29	0x39fdfba7	0.00048443416
30	0xbcb4ab68	-0.02205439
31	0xbc8be5bc	-0.01707732
32	0xbc24e4ec	-0.010064345
33	0xbd94aafc	-0.07259175
34	0x3cac9c08	0.021070495
35	0x3dc4fef9	0.09618945
36	0xbcbc8564	-0.023012824
37	0x3e01a894	0.12661964
38	0xbd04bde1	-0.032407645
39	0x3dc58a95	0.09645573
40	0xbe2a91b7	-0.16657148
41	0x3df82362	0.12116124
42	0x3c8a4697	0.016879363
43	0xbdeb0ddc	-0.11477253
44	0xbe116468	-0.14198458
45	0x3e003d18	0.12523305
46	0xbd8f7ac4	-0.070058376
47	0x3e17f96e	0.14841244
48	0xbdc61967	-0.09672814
49	0xbd3aadea	-0.045576014
50	0xbbae8ddb	-0.005326969
51	0xbcb5a159	-0.022171663
52	0x3c64b527	0.013959206
53	0xbb17e07c	-0.0023174575
54	0x3e1bfa22	0.15232137
55	0x3e946e81	0.28990558
56	0xbd076dad	-0.03306358
57	0x3db4c442	0.08826496
58	0xbddc5640	-0.107586384
59	0x3cd79fb4	0.02632127
60	0x3d5ee06d	0.054413248
61	0xbe3c865a	-0.18410626
62	0x3c99fc5d	0.018797094
63	0xbd93199a	-0.071826175
64	0x3deb6e5b	0.11495658
65	0xbe1f1a3a	-0.15537348
66	0x3e548c0e	0.20756552
67	0x3de745a2	0.11292578
68	0x3dc56be6	0.096397206
69	0xbdf0f18d	-0.11764822
70	0x3d9ff4d3	0.078103684
71	0xbde8360f	-0.11338436
72	0xbdb55d0b	-0.08855637
73	0xbe489544	-0.1958819
74	0x3cb8c32d	0.022554005
75	0xbb2b5433	-0.0026142716
76	0x3ddab937	0.10679858
77	0xbe4daae0	-0.20084715
78	0x3be05b66	0.006846833
79	0x3d34b2be	0.044115774
80	0x3da0fc45	0.078606166
81	0xbe204e22	-0.15654805
82	0x3aa4bde6	0.0012568801
83	0x3e03415d	0.12817903
84	0x3e0c98d0	0.13730168
85	0x3b7dc9d2	0.003872503
86	0x3da4e587	0.08051591
87	0xbd98e050	-0.07464659
88	0xbd4a54ab	-0.049397152
89	0x3ddfcbde	0.109275565
90	0xbdacc30a	-0.08435638
91	0x3e097e01	0.13426973
92	0x3d0d58c5	0.034508485
93	0xbe32e59a	-0.17470399
94	0xbd97813a	-0.07397695
95	0xbe38d50e	-0.18050024
96	0xbd539e2f	-0.051664528
97	0xbc178191	-0.0092472
98	0x3dd45255	0.10367266
99	0xbe1f93e2	-0.15583757
100	0x3d61bd28	0.055112034
101	0x3e5fb5fe	0.21846768
102	0x3d3aa75c	0.045569763
103	0xbc1d8a44	-0.009615485
104	0xbde7662b	-0.11298784
105	0x3dd7a457	0.10529392
106	0xbcf28255	-0.029603163
107	0x3b10d281	0.0022098126
108	0xbc863e0a	-0.016387004
109	0x3d86813c	0.06567618
110	0x3dbac067	0.09118729
111	0x3c44eda8	0.012019552
112	0xbb104972	-0.0022016433
113	0xbdf16631	-0.117870696
114	0x3c2cdbd6	0.01055046
115	0x3cea186a	0.028576095
116	0x3d5358b6	0.051598273
117	0x3b15a570	0.0022834204
118	0x3e686cd1	0.2269776
119	0xbe5aa869	-0.21353306
120	0xbea37bb6	-0.3193032
121	0x3d96e1ba	0.07367273
122	0x3e1a9f66	0.15099868
123	0x3e6c647c	0.23085207
124	0xbdc5148a	-0.09623058
125	0xbe548a00	-0.20755768
126	0xbe92b3f7	-0.28652927
127	0x3ca308bd	0.019901628
128	0x3d640e62	0.05567778
129	0x3c89a4f6	0.016802292
130	0x3ce96345	0.028489718
131	0x3ea46312	0.32106835
132	0xbe7fa58a	-0.24965492
133	0x3e586740	0.21133137
134	0x3e8556d8	0.2604282
135	0x3e445239	0.1917199
136	0xbe4af588	-0.19820225
137	0x3e27849b	0.16359179
138	0x3d6a64fe	0.05722522
139	0xbc46e2d3	-0.01213904
140	0xbcaa1c29	-0.020765381
141	0xbc6bab52	-0.014384108
142	0xbdc3e412	-0.09564985
143	0x3e1a60bd	0.15075965
144	0x3d42ddf9	0.04757497
145	0x3ddce591	0.10785974
146	0xbcda5926	-0.026653837
147	0xbe3cf653	-0.1845334
148	0xbdaf6c43	-0.08565571
149	0xbdff921d	-0.12479041
150	0x3e097e03	0.13426976
151	0xbc8de59f	-0.017321406
152	0xbd077d3f	-0.03307843
153	0x3dd113a8	0.10208827
154	0x3e964650	0.2935052
155	0xbdd3ca1a	-0.10341282
156	0xbe0f3ed5	-0.13988812
157	0xbdc2c86c	-0.09510884
158	0x3d626332	0.05527038
159	0xbe1571a0	-0.14594126
160	0xbe4d05c3	-0.20021729
161	0x3d367e42	0.044554003
162	0x3d275b06	0.04085829
163	0xbccdfc27	-0.02514465
164	0x3eb97b43	0.36226854
165	0x3d280d71	0.041028444
166	0xbd17af50	-0.037032425
167	0x3dcc00ea	0.09961112
168	0xbc596bca	-0.013270328
169	0xbe22bc16	-0.15892062
170	0xbd9e4c57	-0.077294044
171	0xbcdf6d24	-0.027273722
172	0x3e4844ed	0.19557543
173	0xbc85d6bf	-0.01633775
174	0x3ef5385a	0.47894555
175	0x3d234523	0.039860856
176	0xbdf81a56	-0.12114398
177	0x3e89ff88	0.26952767
178	0xbe8039de	-0.2504415
179	0x3e5c7578	0.21529186
180	0xbe1f1bf4	-0.15538007
181	0x3de2d697	0.11076086
182	0xbdc88626	-0.09791212
183	0xbddea043	-0.10870411
184	0x3b522bc0	0.0032069534
185	0x3de197a3	0.110152505
186	0x3e4334b9	0.19063081
187	0xbe2b0964	-0.16702801
188	0x3dcb20f2	0.09918393
189	0xbc8f7ae1	-0.017514648
190	0x3aee38e2	0.0018174911
191	0xbe578c4e	-0.21049616
192	0x3cd28de1	0.025702419
193	0x3e32423f	0.17408083
194	0x3dccd3ba	0.10001321
195	0x3c817b74	0.015805937
196	0x3c67edfb	0.01415586
197	0xbcf7efe9	-0.030265765
198	0x3e3739b8	0.17893112
199	0xbd766f73	-0.06016488
200	0x3e18921e	0.1489949
201	0xbd462c40	-0.048382044
202	0xbcd749c7	-0.026280297
203	0xbe08c84f	-0.13357662
204	0xbe0577b6	-0.13033947
205	0x3dae7447	0.08518272
206	0x3e66fb46	0.2255679
207	0xbd9f7277	-0.07785504
208	0x3dcf4a6a	0.10121615
209	0x3d89bb91	0.067252286
210	0x3db8ed66	0.09029655
211	0xbd32fe0f	-0.04369932
212	0xbdc18f30	-0.09451139
213	0xbe0637a8	-0.13107169
214	0xbe521f4c	-0.20519751
215	0xbd847401	-0.064674385
216	0x3ba6b9ca	0.0050880658
217	0x3da64090	0.08117783
218	0xbd80540b	-0.0626603
219	0xbdf290ad	-0.11844001
220	0x3e304c5b	0.17216627
221	0xbd8736a7	-0.06602221
222	0xbc9fb10f	-0.019493608
223	0xbdaa7499	-0.083230205
224	0x3d8be5fc	0.068309754
225	0xbd28e56f	-0.04123443
226	0xbdb9338d	-0.09043036
227	0xbb2aa602	-0.002603889
228	0xbd18bfdf	-0.037292358
229	0xbdba6dc3	-0.09102967
230	0x3d576c6a	0.052593626
231	0xbd655996	-0.05599364
232	0x3d2512bd	0.040301073
233	0x3e2ca884	0.16861159
234	0x3ea20d7d	0.31650916
235	0x3b0be90f	0.002134863
236	0xbe2ddb6c	-0.16978234
237	0xbe84f284	-0.25966275
238	0xbd2007c1	-0.039069895
239	0xbf016201	-0.5054017
240	0xbdaeaa37	-0.0852856
241	0x3dcff4cf	0.101541154
242	0x3e641451	0.22273375
243	0xbe2677af	-0.16256593
244	0x3c8fc84a	0.01755156
245	0xbe92624a	-0.28590614
246	0x3dcc2153	0.099672936
247	0xbc63873f	-0.013887226
248	0x3d876459	0.06610937
249	0x3d8328ce	0.06404267
250	0x3e78e93f	0.24307726
251	0xbc9be595	-0.019030372
252	0xbd21a836	-0.03946706
253	0x3e8118c3	0.25214204
254	0xbe0f0ec2	-0.13970473
255	0xbdd99a32	-0.106251135

qnet.fc1.bias f4 [256]
0	0xbce90996	-0.028446954
1	0xbec661cb	-0.38746485
2	0xbe5c6234	-0.21521837
3	0x3df7cf48	0.12100083
4	0xbebbe1a6	-0.36695594
5	0xbe1ff356	-0.15620169
6	0xbe580046	-0.21093854
7	0xbc010256	-0.007874092
8	0x3e022b04	0.12711722
9	0xbe9ff958	-0.31244922
10	0x3da141d0	0.07873881
11	0xbe91ce18	-0.2847755
12	0xbe157be9	-0.14598049
13	0x3e020ed0	0.12700963
14	0xbdb97c3a	-0.090568975
15	0xbe8ccac1	-0.2749844
16	0xbd4dc1e2	-0.05023373
17	0xbd407246	-0.04698398
18	0xbe037b23	-0.12839942
19	0x3e89d5a5	0.2692081
20	0xbd4ab009	-0.049484286
21	0xbd200d78	-0.039075345
22	0xbe491664	-0.19637448
23	0x3dea9ac1	0.11455298
24	0x3df18abc	0.117940396
25	0xbdb37969	-0.087633915
26	0x3e31d8cc	0.17367858
27	0xbe5ab69d	-0.21358724
28	0x3bfafd0a	0.007659559
29	0xbe3912ad	-0.1807353
30	0x3df882e8	0.121343434
31	0xbe6b373b	-0.22970288
32	0xbccba5f1	-0.0248594
33	0xbc9fe882	-0.019520048
34	0xbe54e1a0	-0.20789194
35	0x3de1ea57	0.11031025
36	0xbebea2ac	-0.37233484
37	0xbe0ce1a6	-0.13757953
38	0xbbdb63d5	-0.0066952505
39	0xbc53810b	-0.012909184
40	0xbe4139bb	-0.18869679
41	0xbe97de84	-0.29661953
42	0xbe1d33b8	-0.1535176
43	0x3e161144	0.14655024
44	0x3d97b53a	0.07407613
45	0xbe8817e6	-0.26580733
46	0xbeb0a1bc	-0.34498394
47	0x3dc00ec3	0.093778156
48	0xbd8e08cb	-0.06935271
49	0xbea13eaf	-0.31493136
50	0x3ec1ba6c	0.3783754
51	0x3d7f4ca2	0.062328942
52	0xbe20de62	-0.15709832
53	0xbd9b6887	-0.075882964
54	0x3d9587c6	0.07301287
55	0xbd7fb011	-0.06242377
56	0xbe27b38d	-0.16377087
57	0x3de4daaa	0.11174519
58	0x3e18dffa	0.1492919
59	0x3e269e45	0.16271313
60	0xbe117022	-0.14202932
61	0xbd697ac8	-0.05700186
62	0xbe825955	-0.2545878
63	0xbd87b3f7	-0.066261224
64	0x3e61f310	0.22065377
65	0x3e3f2494	0.18666297
66	0xbe632967	-0.22183762
67	0x3e0302a6	0.12793979
68	0x3e157069	0.14593662
69	0x3d7aa115	0.061188776
70	0x3d33853e	0.04382824
71	0x3e08fb05	0.13377006
72	0x3d237936	0.039910518
73	0xbea8acbd	-0.3294429
74	0xbe8c1230	-0.27357626
75	0xbe5bbf7c	-0.21459764
76	0xbdbfd85f	-0.093674414
77	0x3e6f54d8	0.23372209
78	0x3e4f4062	0.20239404
79	0x3e4f7a89	0.20261587
80	0x3e169321	0.14704563
81	0x3cedfee5	0.029052207
82	0x3e60407f	0.21899603
83	0x3e910b44	0.28328907
84	0x3d6f6de6	0.058454417
85	0x3d36d33e	0.04463505
86	0x3e17786f	0.14792036
87	0xbe4eb4bc	-0.20186132
88	0xbe7f3e14	-0.24926025
89	0xbebd9dc0	-0.37034416
90	0xbde4328e	-0.11142455
91	0x3c407cbd	0.01174849
92	0xbe36c653	-0.17849092
93	0xbedccd6e	-0.4312548
94	0xbce2cb3a	-0.027684797
95	0x3b9c8d9b	0.004777623
96	0xbdffdea0	-0.12493634
97	0x3e26301d	0.16229291
98	0xbd9c306d	-0.07626424
99	0x3e9f11d3	0.31068286
100	0x3e281c9f	0.16417168
101	0xbdb480cc	-0.088136286
102	0x3e7788c5	0.24173267
103	0xbdb6b684	-0.08921531
104	0xbd8461c0	-0.06463957
105	0x3eb9f58a	0.36320144
106	0x3e088e2c	0.13335484
107	0xbe224421	-0.15846302
108	0xbe1bb095	-0.1520408
109	0xbe5328ef	-0.20621084
110	0xbe1b92aa	-0.15192667
111	0x3d346621	0.04404271
112	0x3eae4024	0.3403331
113	0xbe255c23	-0.16148429
114	0xbe879906	-0.26483935
115	0xbe20213d	-0.1563768
116	0xbe4ea867	-0.20181428
117	0x3df9772b	0.121809326
118	0xbe1dbb70	-0.15403533
119	0xbd0d1a36	-0.034448825
120	0x3e9b601d	0.30346766
121	0xbe4c633c	-0.1995973
122	0xbea85cec	-0.32883394
123	0x3e154031	0.14575268
124	0xbc5b261d	-0.013375786
125	0xbe127ec0	-0.14306164
126	0x3deeed61	0.1166637
127	0xbe62a07a	-0.2213153
128	0xbe3034b1	-0.172076
129	0x3ce6c41d	0.028169686
130	0x3e22583a	0.15853968
131	0xbe8515f5	-0.25993314
132	0xbd3367f2	-0.0438003
133	0x3c946243	0.018113261
134	0x3e391c41	0.18077184
135	0xbe91597e	-0.2838859
136	0xbe89782a	-0.2684949
137	0xbddd4c6f	-0.10805594
138	0xbec55af3	-0.3854595
139	0x3c096884	0.008386735
140	0x3d8de693	0.06928744
141	0x3e3952a2	0.18097928
142	0xbd4aaf55	-0.049483616
143	0xbcd48014	-0.025939979
144	0xbea13bbd	-0.3149089
145	0xbd748da9	-0.05970541
146	0xbd98f214	-0.07468048
147	0x3d181550	0.0371297
148	0x3d711178	0.05885455
149	0xbdc0be52	-0.09411301
150	0xbe02a868	-0.12759554
151	0x3d5aacaf	0.05338734
152	0xbecbe4e8	-0.3982308
153	0x3cec29fe	0.028828617
154	0x3d0cab81	0.034343246
155	0x3eb16ea4	0.34654725
156	0xbde599fb	-0.1121101
157	0x3e2ddcf2	0.16978815
158	0xbdf65fd3	-0.12029996
159	0x3e7b444c	0.24537772
160	0xbec244a8	-0.37943006
161	0xbe8186c5	-0.25298133
162	0x3dd289a4	0.10280159
163	0x3d19e818	0.037574857
164	0x3e3db3af	0.18525575
165	0xbe547dc3	-0.207511
166	0xbb71b8b4	-0.0036883773
167	0xbcb13ebe	-0.021636363
168	0xbe423e24	-0.18969017
169	0x3e7a9809	0.2447206
170	0xbecdc1a4	-0.401868
171	0x3e9ec936	0.31012887
172	0x3dba07cd	0.09083519
173	0xbd8eb3a5	-0.06967858
174	0xbe9bcdf3	-0.30430564
175	0x3d87c8d0	0.06630099
176	0xbec3f1bb	-0.38270363
177	0xbebb4ae1	-0.36580566
178	0x3cea1d56	0.028578442
179	0x3ebb4dfa	0.3658293
180	0x3ebaaf1b	0.3646172
181	0xbe2ccb9d	-0.16874547
182	0xbeb5f40c	-0.35537755
183	0xbe7c4491	-0.24635531
184	0xbe704e1a	-0.23467293
185	0xbeb8863a	-0.36039907
186	0xbe2eaf8e	-0.17059156
187	0xbdbeaf7f	-0.09310817
188	0xbe6b8059	-0.2299818
189	0x3dfd9085	0.123810805
190	0xbe51ccde	-0.20488307
191	0x3e838217	0.25685188
192	0xbeabefdd	-0.3358144
193	0xbe4f0241	-0.20215704
194	0xbed7c180	-0.42139816
195	0xbc982c0d	-0.018575693
196	0x3c0ee859	0.008722388
197	0x3e67da08	0.22641766
198	0x3ea2f134	0.31824648
199	0x3d8ced5b	0.068812095
200	0x3d95fe20	0.07323861
201	0xbe455999	-0.1927246
202	0x3ea045de	0.31303304
203	0xbe35fb85	-0.17771728
204	0xbdf7250f	-0.12067615
205	0x3db11562	0.086466566
206	0x3dc86806	0.09785466
207	0xbe2b4812	-0.16726711
208	0x3ddc3c99	0.107537456
209	0xbea55087	-0.32288
210	0x3e103a3d	0.14084716
211	0x3e513be6	0.20433006
212	0xbda65091	-0.081208356
213	0x3e67b847	0.2262889
214	0xbc8842aa	-0.01663335
215	0xbe35134b	-0.17683141
216	0xbe90f5b8	-0.2831247
217	0x3e60b0d2	0.21942452
218	0x3ddd02ae	0.10791527
219	0xbc143fbc	-0.009048399
220	0xbe2202b1	-0.15821339
221	0x3e459b3c	0.19297498
222	0xbe43315d	-0.190618
223	0xbc2fbf6b	-0.01072679
224	0xbd4090bf	-0.04701304
225	0x3e2ed6d6	0.17074141
226	0x3c373b3a	0.011183554
227	0xbda017a2	-0.078170076
228	0xbe34b866	-0.17648467
229	0x3e042b7c	0.12907213
230	0xbd742791	-0.059608046
231	0x3e8791dc	0.2647847
232	0x3eea2080	0.4572792
233	0x3e69760f	0.22798942
234	0x3e987862	0.29779345
235	0x3e74c6a5	0.23903902
236	0xbecd0083	-0.40039453
237	0x3e81d72a	0.2535947
238	0x3e0d9c3b	0.13829128
239	0xbe9a764a	-0.30168372
240	0x3db15aec	0.0865992
241	0x3e66691d	0.22501035
242	0x3e0ec1a0	0.1394105
243	0xbd9cde85	-0.0765963
244	0x3dbbd30b	0.091711126
245	0xbe459b1e	-0.19297454
246	0xbc105301	-0.008808852
247	0x3e15d5cb	0.14632337
248	0xbe40b835	-0.1882027
249	0xbee35489	-0.44400433
250	0x3d5138ad	0.05107944
251	0x3e5adfb3	0.21374397
252	0xbeb02abd	-0.34407607
253	0x3cb90944	0.022587426
254	0xbe5ec063	-0.21753077
255	0xbe483cc9	-0.19554438

qnet.fc2.weight f4 [256, 256]
0	0x3c85e50f	0.016344575
1	0xbc86d1a9	-0.016457396
2	0xbde4e319	-0.11176128
3	0x3cedad63	0.029013341
4	0xbd69decf	-0.057097252
5	0xbca3052e	-0.01989993
6	0x3d17fe4c	0.03710775
7	0xbce8e592	-0.02842978
8	0x3d05337c	0.032519802
9	0xbd00812d	-0.03137319
10	0xbdd76241	-0.10516787
11	0xbe0df233	-0.13861923
12	0xbd111f25	-0.035430092
13	0x3c7cbbf3	0.01542567
14	0x3d0bd64b	0.034139913
15	0x3ce05d39	0.027388202
16	0x3d5050eb	0.05085842
17	0x3b497ebf	0.0030745713
18	0xbd90e999	-0.07075805
19	0x3d184552	0.037175484
20	0x3c4964b9	0.012292081
21	0x3c958701	0.018252851
22	0xbdc1aa79	-0.09456343
23	0xbe803446	-0.2503988
24	0x3d985075	0.07437221
25	0x3d832d2d	0.06405101
26	0xbc589e6f	-0.013221367
27	0xbe28460c	-0.16432971
28	0xbd5ecc68	-0.054394156
29	0x3e163831	0.14669873
30	0x3dc6510a	0.09683426
31	0xbdde2d97	-0.10848539
32	0xbd29babf	-0.04143786
33	0xbd082af3	-0.033244085
34	0x3df2b831	0.11851538
35	0x3d6b7d91	0.057492796
36	0x3d6d2e3b	0.057905417
37	0xbccfb667	-0.02535553
38	0xbd6a55a8	-0.057210594
39	0x3ccdf2c6	0.025140177
40	0x3ccdd360	0.025125206
41	0x3ca5ea7b	0.02025341
42	0x3cfd01fa	0.030884732
43	0xbb192df6	-0.0023373342
44	0xbc4a0c6f	-0.012332066
45	0x3d7a84ac	0.061161682
46	0x3dd641c7	0.10461765
47	0x3d375087	0.04475453
48	0xba8e01d8	-0.001083429
49	0x3d83c22d	0.064335205
50	0xbd14869e	-0.036261193
51	0x3d472069	0.048614893
52	0x3cc7d919	0.024395512
53	0x3d2e70d0	0.042588055
54	0xbe8ff7c5	-0.2811872
55	0xbc172481	-0.009225012
56	0x3dc3309a	0.095307544
57	0xbdcd21ed	-0.100162365
58	0xbda63df6	-0.08117287
59	0xbdf8abbc	-0.12142131
60	0x3e1c1666	0.1524292
61	0xbdeb66fe	-0.114942536
62	0x3cf1d0c6	0.029518496
63	0xbeb87da4	-0.36033356
64	0x3c82b4ab	0.01595529
65	0x3d787c33	0.06066532
66	0x3d892346	0.06696181
67	0xbcd1607b	-0.0255587
68	0xbd3fe4c7	-0.04684904
69	0xbce88808	-0.028385177
70	0xbc42c049	-0.011886665
71	0xbd1b49cf	-0.037912186
72	0x3c10542e	0.0088091325
73	0xbd21123e	-0.039324038
74	0xbe547324	-0.20747048
75	0xbc9c1421	-0.019052567
76	0x3d6f8f38	0.058486193
77	0x3db971a2	0.09054877
78	0xbd55b529	-0.05217472
79	0x3c641a69	0.013922312
80	0xbcde7646	-0.027156007
81	0x3d4b8af6	0.04969307
82	0xbc2d7ed8	-0.010589324
83	0x3b81eda2	0.0039650956
84	0x3d13194f	0.035912808
85	0xbd488180	-0.048951626
86	0xbc75bd99	-0.014998817
87	0x3e235c01	0.15953065
88	0x3d7f3d42	0.06231428
89	0x3d25a80c	0.040443465
90	0xbc4ca662	-0.012490841
91	0xbde0ae11	-0.109707005
92	0xbdcce7d0	-0.10005152
93	0xbc8bed60	-0.017080963
94	0xbd251623	-0.040304314
95	0xbe514d80	-0.2043972
96	0x3e002831	0.12515332
97	0xbd17a9c0	-0.03702712
98	0x3d3f76d4	0.046744183
99	0x3c43408c	0.011917245
100	0x3bba1a20	0.005679384
101	0x3cb4fc44	0.022092946
102	0xbd45b18d	-0.04826503
103	0xbebe63ab	-0.37185416
104	0x3ca9514e	0.020668652
105	0x3c11d5d7	0.008901081
106	0x3dcfb7e3	0.101424955
107	0xbcafbbf9	-0.021451937
108	0x3c40d225	0.011768852
109	0x3e121712	0.14266613
110	0xbd6cc345	-0.05780341
111	0x3c02c673	0.007981884
112	0xbde0a3c5	-0.109687366
113	0x3d65a415	0.056064684
114	0x3d80963e	0.062786564
115	0xbbd699c1	-0.0065490906
116	0xbcef6c34	-0.0292264
117	0xbdaac710	-0.083387494
118	0xbdaba0fd	-0.083803155
119	0x3c6969fa	0.014246458
120	0xbd887e22	-0.06664683
121	0xbd9554be	-0.07291554
122	0xbdd3cfcd	-0.10342369
123	0xbec9795b	-0.393504
124	0x3cc3635b	0.023851087
125	0xbd06d188	-0.03291467
126	0x3c65d869	0.014028647
127	0x3b820342	0.0039676735
128	0x3cc6d78a	0.024272699
129	0x3cfd2dfc	0.030905716
130	0x3dc935f4	0.09824744
131	0xbd3d8fd5	-0.046279747
132	0xbdbecc84	-0.09316352
133	0x3b61370d	0.0034365088
134	0x3d9a062c	0.075207084
135	0xbc17f70d	-0.00927521
136	0xbe24bc82	-0.16087535
137	0x3a58b5b4	0.0008266822
138	0x3cab43d7	0.020906372
139	0x3bd12278	0.006382283
140	0x3cb760dc	0.022385053
141	0x3cd79361	0.026315393
142	0xbd4a202b	-0.049347084
143	0xbd560c9d	-0.052258123
144	0xbd97ce43	-0.07412388
145	0xbc989273	-0.01862452
146	0xbd97141c	-0.073768824
147	0x3d6ac5eb	0.057317656
148	0x3db49f4c	0.08819446
149	0xbd43993c	-0.047753558
150	0x3d89d64f	0.06730329
151	0xbd3954a5	-0.04524674
152	0x3ddcf39b	0.107886516
153	0x3d314655	0.043279964
154	0x3d1fca21	0.039011125
155	0x3e391d63	0.18077616
156	0x3cc01cab	0.02345117
157	0x3e14f409	0.14546217
158	0x3deaaa89	0.11458308
159	0x3c546939	0.01296454
160	0xbaa64562	-0.0012685473
161	0x3d161609	0.036642108
162	0x3bca3321	0.006170646
163	0x3cc46f08	0.023978725
164	0x3c889465	0.016672323
165	0xbdb06daa	-0.08614667
166	0x3ce39c7a	0.027784575
167	0xbd2e9b4a	-0.042628564
168	0x3e2ffd33	0.17186432
169	0xb9ea9f8d	-0.00044750833
170	0xbc1183fe	-0.008881567
171	0x3b0dc8cc	0.0021634577
172	0xbe1e3e30	-0.1545341
173	0xbc9fbfa6	-0.019500565
174	0xbe1144a7	-0.14186345
175	0xbd561cf2	-0.0522737
176	0xbd29f915	-0.04149731
177	0x3d5416c8	0.05177954
178	0xbc9bd3a6	-0.01902182
179	0xbd3bf400	-0.045886993
180	0xbd1d99e2	-0.038476832
181	0x3d434251	0.047670666
182	0x3cf0c366	0.029390048
183	0xba5d24ae	-0.00084359467
184	0xbd0c8d18	-0.034314245
185	0x3cfd3e3f	0.03091347
186	0xbcbbe11d	-0.02293449
187	0x3cd5c20b	0.026093503
188	0x3eb0aa0a	0.3450473
189	0xbecbc603	-0.39799508
190	0x3d32aa8c	0.043619677
191	0xbcc49786	-0.023998033
192	0x3cb9c9c1	0.022679212
193	0x3bd3e36a	0.006466319
194	0xbe017dab	-0.12645595
195	0x3dcb4c5a	0.09926672
196	0xbe4ac0b5	-0.19800074
197	0xbe1d504b	-0.1536266
198	0x3dee7f6e	0.11645399
199	0xbcc79ec5	-0.0243677
200	0x3df8149b	0.12113305
201	0xbea18988	-0.3155024
202	0xbc24e46c	-0.010064226
203	0x3c561aec	0.013067942
204	0x3d2edf18	0.042693228
205	0xbc916d6b	-0.01775237
206	0x3d05c9d8	0.032663196
207	0xbc108d14	-0.008822698
208	0x3d975756	0.07389705
209	0xbbc988ed	-0.006150356
210	0xbcc15d2e	-0.023604002
211	0x3c6d45df	0.014481991
212	0x3d25251b	0.04031859
213	0x3de71bbb	0.11284586
214	0x3d29258f	0.041295584
215	0x3c0a68d6	0.008447846
216	0x3cea13c6	0.028573882
217	0x3c1eb672	0.009687053
218	0xbcbc95ea	-0.023020703
219	0xbd0475d4	-0.032338932
220	0x3cdd7cfc	0.027037136
221	0x3db627a4	0.088942796
222	0xbc791ec9	-0.015205094
223	0xbdccdeb3	-0.10003414
224	0x3d3f17b5	0.04665347
225	0xbd8a3d06	-0.067499205
226	0x3d151ff1	0.036407415
227	0xbe084da7	-0.13310872
228	0xbd88669a	-0.06660195
229	0xbcc0f534	-0.023554422
230	0xbe921c41	-0.2853718
231	0x3c076c7c	0.008265611
232	0xbdaef556	-0.08542888
233	0xbdb8b166	-0.09018211
234	0xbd006f1a	-0.031355955
235	0xbda7900e	-0.08181773
236	0xbc54b950	-0.012983635
237	0xbd89e102	-0.0673237
238	0xbc3b475b	-0.011430587
239	0xbc4b1562	-0.012395235
240	0x3ce0db7e	0.027448412
241	0xbd3f6969	-0.046731386
242	0xbc44f1ee	-0.012020571
243	0x3e17d41e	0.1482701
244	0x3cdc5dca	0.02690019
245	0xbc28420a	-0.010269651
246	0xbda8ee7d	-0.08248613
247	0xbc3359b6	-0.010946682
248	0x3e40ae30	0.18816447
249	0xbcbc228b	-0.02296569
250	0xbd9317ac	-0.071822494
251	0xbcfc2e49	-0.03078379
252	0xbd04bbd1	-0.03240568
253	0x3dd37de8	0.10326749
254	0x3bd6b3d1	0.0065521975
255	0xbb883124	-0.0041562486

qnet.fc2.bias f4 [256]
0	0xbd51e61f	-0.05124485
1	0xbcbd78e3	-0.023128932
2	0xbd53c0a7	-0.0516974
3	0xbcbb01b8	-0.022827968
4	0x3c18dd0f	0.009330048
5	0x3b3e5fd8	0.0029048827
6	0xbd2d129b	-0.04225407
7	0x3cc3938f	0.023874072
8	0xbd03d6db	-0.032187324
9	0x3dbc1659	0.0918395
10	0x3d531f79	0.051543687
11	0x3cfb6ad9	0.030690597
12	0x3d81719f	0.063205
13	0x3c6d3d89	0.014480003
14	0xbcd3c4e3	-0.025850719
15	0xbd3a9cbe	-0.045559637
16	0xbd522e82	-0.051313885
17	0x3b8605d6	0.004090051
18	0x3cd5c553	0.026095068
19	0xbb3e0da0	-0.002899982
20	0x3b913bf3	0.0044321953
21	0xbd87f50f	-0.06638538
22	0x3cec58fc	0.028851025
23	0x3ba60687	0.005066696
24	0xbcba2328	-0.022721842
25	0xbc989c03	-0.01862908
26	0xbcfa7515	-0.030573407
27	0x3cbb71c2	0.022881392
28	0xbc64a21c	-0.0139546655
29	0x3c888682	0.0166657
30	0x3d92cb78	0.07167715
31	0x3ccf6b50	0.025319725
32	0xbd1c45d0	-0.038152516
33	0x3d03052e	0.03198736
34	0xbd9825a9	-0.07429058
35	0x3b3e1c2a	0.0029008486
36	0xbd83d313	-0.064367436
37	0xbc665513	-0.014058369
38	0xbc23fdc1	-0.01000923
39	0xb8fe89be	-0.0001213732
40	0xbcf56441	-0.029955031
41	0xbd3f4bf3	-0.04670329
42	0xbc0bb29f	-0.008526473
43	0xbd54efd9	-0.05198655
44	0xbced8767	-0.028995229
45	0xbd6b7fe1	-0.057495
46	0xbcc14d9f	-0.023596583
47	0xbd69b256	-0.05705484
48	0xbdab4503	-0.08362772
49	0x3c924448	0.017854825
50	0x3d251db7	0.04031154
51	0xbd7658c7	-0.06014326
52	0xbcdc6165	-0.02690191
53	0xbd67b412	-0.056568213
54	0xbb1549e7	-0.0022779645
55	0xbcf9a63d	-0.030474776
56	0xbd1fc637	-0.03900739
57	0xbdb14136	-0.08655016
58	0xbd69d4f5	-0.057087857
59	0xbdab93d1	-0.08377803
60	0x3cb187c8	0.02167119
61	0x3b9e2f79	0.0048274365
62	0x3c6a2f90	0.014293566
63	0x3daf48b4	0.08558789
64	0x3aa672ae	0.0012698972
65	0x3c095482	0.008381965
66	0x3cfae711	0.03062776
67	0x3c667ee4	0.014068339
68	0x399240c5	0.00027895547
69	0xbdad4f9d	-0.08462451
70	0xbd7c4cb4	-0.061596587
71	0xbd5f4edd	-0.05451857
72	0x3b6f99cc	0.0036560176
73	0xbce2b1cf	-0.027672676
74	0xbd736a15	-0.05942734
75	0xbdd81d3d	-0.10552452
76	0xbd883e76	-0.066525385
77	0x3cf27eb8	0.02960144
78	0x3d3b8fac	0.045791313
79	0xbc2be20b	-0.010490905
80	0xbbf60b0b	-0.0075086406
81	0x3d2513a8	0.04030195
82	0x3d768d46	0.060193323
83	0xbd8a16e3	-0.067426465
84	0xbdc506b6	-0.09620421
85	0xbd4e4f70	-0.050368726
86	0x3ceca8de	0.028889116
87	0x3d3e723b	0.046495657
88	0xbd20e9da	-0.03928552
89	0xbd8c6646	-0.068554446
90	0xbd8aa2e9	-0.06769354
91	0x3cdb42be	0.026765224
92	0x3c765156	0.01503404
93	0x3c027323	0.007962021
94	0xbcfa53aa	-0.030557472
95	0xbd6d5c3f	-0.0579493
96	0xbcadfea1	-0.02123958
97	0xbcc2b8fb	-0.023769846
98	0xbc884c54	-0.016637959
99	0xbd4629c6	-0.048379682
100	0xbda7a6cf	-0.08186113
101	0x3ca7e371	0.020494195
102	0x3d0d1713	0.034445833
103	0xbd5e2f30	-0.05424422
104	0xbc0ffece	-0.0087887775
105	0xbc6d96b8	-0.014501266
106	0xbd03323b	-0.032030325
107	0xbd6fca9b	-0.05854283
108	0x3ca4cb01	0.020116331
109	0x3d30b56b	0.043141764
110	0xbd36e9c1	-0.04465652
111	0x3cd33fa6	0.025787186
112	0xbd6478bd	-0.055779207
113	0xbc2b442c	-0.010453265
114	0xbd522d21	-0.05131257
115	0x3d3d1065	0.046158213
116	0xbabd9851	-0.001446495
117	0xbdaae454	-0.083443314
118	0xbccbe45f	-0.02488917
119	0xbd31bb5e	-0.043391578
120	0xbd6a892f	-0.057259735
121	0xbc2c6473	-0.010521996
122	0x3b04090f	0.0020147
123	0xbd34729d	-0.044054616
124	0xbc6b8a09	-0.014376172
125	0xbcd17be2	-0.025571767
126	0xbdd813dd	-0.105506636
127	0xbbc48804	-0.0059976596
128	0xbd44eb66	-0.048076056
129	0x3c80ab2f	0.015706627
130	0x3c74ca81	0.014940859
131	0xbd71d7f2	-0.059043832
132	0xba469295	-0.0007574943
133	0xbd41450b	-0.047184985
134	0xbc6cded6	-0.014457425
135	0x3c17a249	0.009255
136	0xbbd7b837	-0.0065832394
137	0x3d42efaa	0.047591843
138	0x3d045c0d	0.03231435
139	0xbd52fc0a	-0.051509894
140	0xbd805fb4	-0.06268254
141	0x3d4f0efe	0.050551407
142	0xbb0f99a4	-0.0021911645
143	0xbd12544d	-0.035724927
144	0xbd0bea9d	-0.03415929
145	0x3cb05b70	0.021527976
146	0x3a798946	0.00095190515
147	0xbc8739a3	-0.016506976
148	0x3c752e8f	0.014964714
149	0xbd11e00b	-0.035614055
150	0x3d8629ad	0.06550918
151	0x3ab4edbb	0.0013803759
152	0x3d0cafb0	0.034347236
153	0x3a7fe105	0.00097610086
154	0x3d719684	0.058981434
155	0x3d314503	0.043278705
156	0xbd4bf0ea	-0.0497903
157	0xbd8ed636	-0.06974451
158	0xbc8e84e7	-0.017397357
159	0x3b0f86a5	0.0021900323
160	0xbd3839ee	-0.04497712
161	0xbc81ed9b	-0.01586037
162	0xbd62b31f	-0.055346604
163	0xbd978646	-0.073986575
164	0x3d0ebd2a	0.03484837
165	0xbd2519be	-0.040307753
166	0xbd2e8d7a	-0.04261539
167	0x3cf4a1ad	0.02986225
168	0x3cdb7e50	0.026793629
169	0xbcc3fd74	-0.023924567
170	0x3d32f25d	0.043688167
171	0xbdb09fb1	-0.08624209
172	0x3d19fce7	0.037594702
173	0xbc738632	-0.014863538
174	0x3c532e8e	0.0128895175
175	0x3cedcfc7	0.02902974
176	0xbc8ceff5	-0.017204264
177	0x3c62aa2f	0.01383452
178	0x3db3869e	0.087659106
179	0x3c084772	0.008317815
180	0xbd0a504f	-0.033767994
181	0xbc884337	-0.016633613
182	0xb9a3cfec	-0.00031244697
183	0xbc68487d	-0.014177439
184	0x3d03595a	0.032067634
185	0x3cadd2b9	0.021218644
186	0xbd49aebd	-0.04923891
187	0xbcc8cf1f	-0.024512826
188	0xbd9ef72d	-0.07761989
189	0x3cc1eba2	0.023671929
190	0x3c2961c3	0.01033825
191	0xbd21054a	-0.039311685
192	0xbc2cb73d	-0.010541734
193	0xbcb62f26	-0.022239279
194	0x3ca5341b	0.020166447
195	0xbcbe0ba1	-0.023198904
196	0x3d0a97ad	0.033836056
197	0x3c871e59	0.016493963
198	0x3c13ffe1	0.009033174
199	0xbcb73637	-0.022364719
200	0xbc06b4c3	-0.008221808
201	0xbd02d5ea	-0.031942286
202	0x3d4ef208	0.050523788
203	0x3d87800d	0.066162206
204	0xbd94bbf9	-0.072624154
205	0x3c41ee2d	0.011836571
206	0x3d0356cc	0.032065198
207	0xbc7247fd	-0.014787671
208	0x3d395af2	0.045252748
209	0xbc96ecd5	-0.018423477
210	0x3cf1e23a	0.029526819
211	0xbcc739d8	-0.024319574
212	0xbcd7ffeb	-0.026367148
213	0xbcf41d98	-0.029799268
214	0x3d280e24	0.04102911
215	0xbbbd7ac6	-0.005782458
216	0xbdacc49d	-0.084359385
217	0x3cd74377	0.026277287
218	0xbd3c5001	-0.045974735
219	0xbb743b62	-0.003726684
220	0xbd27e52d	-0.040990043
221	0x3d2db8c1	0.042412523
222	0xbc93a1c6	-0.018021476
223	0x3c9e0037	0.019287212
224	0xbb2057a4	-0.00244663
225	0xbdb47f15	-0.088133015
226	0x3d45bbd4	0.04827483
227	0xbd837751	-0.06419242
228	0xbd2d8c80	-0.04237032
229	0xbc99fedf	-0.01879829
230	0xbbe12d0b	-0.0068718246
231	0xbd7231bb	-0.059129458
232	0xbd1c9bf8	-0.03823468
233	0xbd44bd12	-0.048031874
234	0xbd51c835	-0.051216323
235	0x3d0c4f55	0.034255344
236	0x3c7e9fb3	0.015541005
237	0x3bf92fdf	0.0076045836
238	0xbaf30525	-0.0018540962
239	0x3d46fc0f	0.048580226
240	0x3d097b98	0.033565134
241	0x3b6c59a0	0.0036064163
242	0xbd179a36	-0.0370123
243	0xbcb3bb49	-0.02193989
244	0x3c3af6c8	0.011411376
245	0xbdc3b1f1	-0.09555424
246	0xbcd2fbdd	-0.025754863
247	0xbc84c5bb	-0.016207566
248	0xbcc69a03	-0.02424336
249	0xbd18eb1a	-0.037333585
250	0x3d800a6b	0.06251987
251	0x39b9e857	0.00035459056
252	0xbd804fe2	-0.062652364
253	0x3c6b9714	0.014379282
254	0xbd6ff523	-0.05858339
255	0xbc09e401	-0.008416177

qnet.A.weight f4 [9, 256]
0	0x3bbc685b	0.005749745
1	0xbd4a4a3a	-0.049387194
2	0x3dc34626	0.09534864
3	0x3d6b0d78	0.05738589
4	0x3c920871	0.01782629
5	0xbc60f746	-0.01373083
6	0x3d4dcc1c	0.050243482
7	0x3d0a07cd	0.033698846
8	0x3a126697	0.0005584745
9	0x3a480c26	0.0007631205
10	0x3b013733	0.001971674
11	0x3d3aab6b	0.045573633
12	0x3ca842b9	0.020539628
13	0xbd32010f	-0.04345804
14	0xbc2e8227	-0.010651148
15	0x3dc798a0	0.09745908
16	0x3d48c4a7	0.049015667
17	0x3b26b612	0.0025438112
18	0x3dd385ac	0.1032823
19	0x3d80fa52	0.06297745
20	0x3cb2daa6	0.021832775
21	0x3da35802	0.079757705
22	0xbce1d4ee	-0.027567353
23	0x3d3024f9	0.04300401
24	0xbcbeff4a	-0.02331509
25	0x3cbbde4e	0.022933152
26	0x3c65717c	0.014004108
27	0x3d5023ae	0.050815277
28	0xbd09f537	-0.03368112
29	0x3d4897ff	0.04897308
30	0x3c39eac9	0.011347481
31	0x3d922ab3	0.071370505
32	0xbc848441	-0.016176345
33	0x3d1d2fa6	0.03837552
34	0x3d3ec030	0.046570003
35	0xbcfbb59c	-0.030726247
36	0x3d0156e0	0.03157699
37	0x3c8f79d3	0.017514145
38	0xbd4e6629	-0.050390396
39	0x3c52252b	0.012826244
40	0xbd089edb	-0.03335462
41	0x3b0f1da8	0.0021837745
42	0x3d9cd0d9	0.07657022
43	0x3d14b7a3	0.036307942
44	0x3dc107f4	0.09425345
45	0x3d471e10	0.048612654
46	0x3d118406	0.035526298
47	0xbb12a2c4	-0.0022374848
48	0x3e01fddc	0.12694496
49	0x3d538395	0.05163916
50	0x3d3d660f	0.04623991
51	0x3daeeaa3	0.08540847
52	0x3d83ff7d	0.06445215
53	0x3c8a5396	0.01688556
54	0x3d8abf38	0.06774753
55	0x3d728de3	0.059217345
56	0x3b133c30	0.0022466294
57	0xba9753b7	-0.0011545335
58	0x3cc818bc	0.024425857
59	0x3c800db2	0.01563153
60	0xbd8867ca	-0.06660421
61	0x3dc50ee0	0.09621978
62	0x3d011f6c	0.031524107
63	0x3c0440bb	0.008072074
64	0x3dd1ab16	0.1023771
65	0xbbcbe128	-0.006221909
66	0x3ceb8c27	0.028753353
67	0xbcb8a5fd	-0.022540087
68	0xbc0bea09	-0.008539685
69	0xbccd9257	-0.025094194
70	0x3d4f8ca9	0.050671253
71	0xbc78537a	-0.015156621
72	0x3cd9ecf3	0.026602244
73	0xbce37306	-0.027764808
74	0x3da1ec76	0.079064295
75	0x3bdfaf26	0.0068262992
76	0x3d3c4bd8	0.045970768
77	0x3d8278ab	0.06370672
78	0xbd4561d1	-0.048188988
79	0xb9821120	-0.0002480829
80	0xbd267f08	-0.04064849
81	0xbe07e8c9	-0.13272394
82	0xbbc264c2	-0.0059324214
83	0x3d029b40	0.03188634
84	0x3bb75c28	0.0055957027
85	0xbcf462fe	-0.02983236
86	0xbb5ec268	-0.0033990387
87	0xbdbba770	-0.091627955
88	0x3c4fd2b7	0.012684516
89	0x3d0d049f	0.034428235
90	0x3d15adb5	0.036542613
91	0xbd91a1be	-0.07110928
92	0xbcaa409d	-0.020782763
93	0xbd1710f7	-0.036881413
94	0xbcb20a2b	-0.021733364
95	0x3d9c8809	0.07643134
96	0xbd3497f0	-0.04409021
97	0x3d5302a9	0.05151621
98	0x3d7f93c7	0.06239679
99	0x3cec3d63	0.028837865
100	0x3e4b0d46	0.19829282
101	0x3c17fa62	0.0092760045
102	0x3e237300	0.15961838
103	0xbd06069b	-0.032721143
104	0xbc40a6bb	-0.011758502
105	0x3d7c453c	0.061589465
106	0x3d8043e3	0.06262948
107	0xbd89793a	-0.06712575
108	0x3c74c694	0.014939923
109	0x3daa1eb9	0.08306641
110	0x3b744d26	0.003727743
111	0x3c265029	0.010150948
112	0x3a1a99bb	0.00058975414
113	0x3d080d46	0.033215784
114	0xbd8dc1e0	-0.06921744
115	0x3d0ac015	0.03387459
116	0x3df040cb	0.11731108
117	0x3d968cf0	0.073511004
118	0xbcb30aba	-0.0218557
119	0xbcc2e6bd	-0.023791665
120	0x3de11e5e	0.1099212
121	0xbd1c7dd0	-0.03820592
122	0x3c8e739f	0.017389117
123	0xbc751eb2	-0.014960932
124	0xbb1be448	-0.002378719
125	0x3ab1a49a	0.0013553083
126	0xbd114b38	-0.035472125
127	0x3d731f22	0.059355862
128	0xbdb02707	-0.08601194
129	0x3c976f28	0.01848562
130	0xbba20ffa	-0.004945752
131	0xbc09faf4	-0.008421648
132	0x3dd9e5fb	0.106395684
133	0xbd6b056d	-0.05737822
134	0xbba15bb9	-0.0049242643
135	0xbd2e509e	-0.04255735
136	0x3d132408	0.035923034
137	0xbce3aa49	-0.02779116
138	0x3e52b698	0.20577466
139	0xbc9cc726	-0.01913793
140	0xbbb9f2da	-0.005674702
141	0x3bc40dec	0.005983105
142	0x3d303525	0.043019433
143	0xbd768802	-0.0601883
144	0xbd7fbd39	-0.062436316
145	0x3ad519b9	0.0016258276
146	0x3d56a917	0.05240735
147	0x3dd20794	0.10255352
148	0xbd1205f2	-0.0356502
149	0x3c49ac7a	0.012309188
150	0x3bc141e8	0.005897749
151	0x3c9f4fc2	0.019447211
152	0x3ad7749f	0.0016437954
153	0x3d2af58f	0.04173809
154	0x3d169757	0.036765423
155	0x3cb3580c	0.02189257
156	0xbcddeab2	-0.02708945
157	0x3d547e35	0.051878173
158	0x3ddda39c	0.10822222
159	0x3dcca09c	0.09991571
160	0x3d412b28	0.047160298
161	0x3daf982b	0.085739456
162	0x3d7ade7c	0.061247334
163	0x3d472193	0.048616003
164	0x3cdec3b0	0.02719292
165	0xbd2bde96	-0.04196032
166	0xbcc447f9	-0.0239601
167	0xbe048781	-0.12942316
168	0x3d475a2c	0.04866998
169	0x3d223a93	0.039606642
170	0xbd124ab8	-0.03571579
171	0xbdd7f2b7	-0.10544341
172	0xbc4535f2	-0.012036787
173	0x3d404053	0.046936344
174	0x3d2ccda8	0.042188317
175	0x3c8dddff	0.01731777
176	0xbe05336c	-0.13007897
177	0x3c118a40	0.008883059
178	0x3c73b9b2	0.014875816
179	0x3c3f85b9	0.011689597
180	0x3cfcec88	0.030874506
181	0x3c8bb1d8	0.017052576
182	0x3bf817aa	0.0075711804
183	0x3d715c4b	0.058925908
184	0xbd2addd7	-0.04171547
185	0xbe1d0e86	-0.15337572
186	0x3ca45b59	0.02006309
187	0x3dbe159f	0.09281468
188	0x3db8d6a0	0.090253115
189	0x3d07e8b4	0.033180907
190	0xbcbe18fa	-0.02320527
191	0xbcd0b628	-0.025477484
192	0x3d844330	0.064581275
193	0xbd7f86e1	-0.06238449
194	0x3cabe7cf	0.020984558
195	0xbc07761c	-0.008267906
196	0x3da84a3e	0.082172856
197	0x3db717ae	0.089400634
198	0x3ce41ce9	0.027845817
199	0x3d28096e	0.041024618
200	0x3d0f90b5	0.035050113
201	0x3d218195	0.03943022
202	0xbcb6531f	-0.022256432
203	0xbda106c3	-0.07862618
204	0x3cdd91e4	0.027047105
205	0x3d559149	0.052140508
206	0x3d4ab924	0.04949297
207	0x3cd7ed4e	0.026358273
208	0x3bd96254	0.006634036
209	0x3d2c1241	0.042009596
210	0x3d168a1d	0.03675281
211	0xbd1a0793	-0.03760488
212	0xbcf0f19a	-0.02941208
213	0x3df6d40d	0.12052164
214	0x3d674573	0.056462716
215	0x3d59feb0	0.053221405
216	0x3dec6e6d	0.115444995
217	0xbe32cb44	-0.17460352
218	0xbd8d74e7	-0.06907063
219	0x3db6df33	0.089292906
220	0x3dba5b36	0.09099428
221	0x3d606384	0.054782405
222	0xbdbfe728	-0.093702614
223	0x3d20585e	0.039146774
224	0xbd5dddbe	-0.054166548
225	0x3dc9f0c5	0.09860376
226	0xbcd46bb5	-0.025930265
227	0xbd1e33e9	-0.038623724
228	0x3ccb041e	0.024782237
229	0xbbe77b2b	-0.0070642433
230	0xbcfc8673	-0.03082583
231	0x3d6a105c	0.057144508
232	0xbcc338e0	-0.023830831
233	0x3cd602f5	0.026124457
234	0x3dc2bdc4	0.09508851
235	0x3e083b15	0.13303788
236	0x3d93c176	0.07214634
237	0xbdfea27e	-0.12433337
238	0xbd0f790c	-0.03502755
239	0xbd1be985	-0.0380645
240	0xbdbf9f4f	-0.093565576
241	0x3cf7d303	0.030251985
242	0x3c37f985	0.011228924
243	0xbc0490da	-0.008091176
244	0x3d929b18	0.07158488
245	0xbd8481f3	-0.06470098
246	0xbd7b9d47	-0.06142929
247	0xbcc88220	-0.024476111
248	0xbbca2583	-0.0061690225
249	0x3b87d82d	0.004145643
250	0x3d14ee4c	0.03636007
251	0xbbb77a79	-0.0055993167
252	0xbccd4ebf	-0.025061963
253	0x3d8dedad	0.06930099
254	0xbdd4d031	-0.10391272
255	0x3d114171	0.0354628

qnet.A.bias f4 [9]
0	0x3cadb176	0.021202784
1	0x3c7e35df	0.015515774
2	0x3bbef6cc	0.0058277603
3	0x3b474534	0.0030406239
4	0x3c3d00db	0.0115358485
5	0xbca29225	-0.019845078
6	0xbc45bcbf	-0.012068926
7	0xbc84cfa1	-0.016212286
8	0xbd68fb79	-0.056880448
