models2/backup/training_3,4,5 and more probably/q_eval_dqn.onnx (onnx, 286110 bytes, 6 tensors)

qnet.fc1.weight f4 [256, 11]
-0.29028735 0.001110908 -0.21124347 0.20095752 0.184205 -0.04339709 0.25833097 0.23597749
-0.066986896 0.24312331 -0.033498794 -0.03257688 -0.18536778 0.07296268 0.30733457 -0.1338034
-0.17095484 -0.07620127 0.2757665 0.13593438 0.0021918411 0.18712594 -0.25525075 0.16229679
-0.12576655 -0.28932327 0.06702138 0.001590919 -0.21477447 0.09364728 0.070091605 0.038388785
-0.17494574 -0.33585715 -0.08618304 0.016819054 -0.17249231 0.1331548 -0.060266037 -0.04549568
0.21325791 -0.071607046 -0.13589527 -0.18026061 0.015135687 0.01941872 0.13957001 0.2217871
-0.2290866 0.029500324 -0.025454024 0.10479881 -0.11321207 -0.15976065 -0.19205536 0.099512234
0.15456772 0.052004658 -0.22307988 0.06616427 -0.033298906 0.2200633 0.05195583 -0.083893046
-0.111456245 -0.33072612 -0.01848389 0.31673774 -0.19343165 0.13958234 0.27983996 0.09249924
-0.09893597 -0.03433368 -0.03684655 0.093488075 -0.21629347 0.1877293 -0.35888916 0.17146821
-0.024339288 0.100662924 0.043112714 -0.11645545 -0.10189566 0.09578337 -0.1591403 0.16368395
0.0012493104 0.29756263 0.0025538362 -0.2697579 -0.11520497 0.011484515 0.13514096 0.3238033
0.00011166427 0.01667359 -0.00070484134 -0.13279454 0.21969485 0.036020342 -0.28943774 0.2763371
0.0068982355 0.22167104 -0.28116608 -0.14324026 0.08765786 0.08589708 -0.19354634 -0.12182926
-0.23875001 0.1494977 -0.11105443 0.15041168 -0.3313683 0.048027776 -0.016873112 0.04083169
-0.208503 -0.098745756 0.061955936 0.017952502 0.014154261 -0.21422441 0.04125424 0.20358196
-0.23044083 0.1322028 -0.16489808 0.037839003 -0.22133452 0.03871291 -0.30976304 0.15018103
0.10536466 0.20176946 -0.10780247 0.19708309 -0.04383981 -0.17161092 -0.118267976 0.06452929
-0.08170416 -0.106320724 -0.053911302 -0.08203634 -0.20312253 -0.2745202 -0.113888346 -0.019688275
0.07029325 -0.14622213 0.056135636 -0.12874006 0.26196274 -0.11062276 0.12005322 0.06264782
-0.14959492 -0.20680942 0.06281157 0.07033586 0.116715446 -0.051253464 0.2548004 0.122322015
-0.011049476 0.2726811 0.095279 0.16948384 0.21834245 -0.1489673 0.22561175 0.100775726
0.2773133 0.11365234 -0.091385975 -0.23202762 -0.05039078 -0.05917079 -0.05358509 -0.18223006
-0.20317641 -0.122281335 0.11601234 0.1567108 -0.23974782 0.10224321 0.26765195 -0.029916253
-0.062061712 -0.05140066 0.10832113 -0.004287096 0.00042375826 -0.09943394 -0.1370648 0.10086033
0.18931307 -0.33078572 0.22987807 -0.13736717 -0.12804373 -0.045575336 -0.16265075 0.114755765
0.16283521 0.30583447 0.18447205 -0.0681896 -0.17745203 -0.24195293 -0.1278892 0.21828334
-0.17878608 -0.02522086 0.22982751 0.16526023 -0.018778974 0.2046722 0.16277476 0.263549
0.016205482 0.060196508 0.13769552 -0.14953566 0.13387862 -0.10738607 -0.08871496 0.23327765
-0.2308485 0.18851635 0.18482247 -0.28818735 0.08765116 -0.22895025 0.056429423 -0.070994295
0.26650885 0.045082062 -0.027570328 -0.020397771 -0.09378859 -0.21237585 0.2422846 0.070163906
0.21506944 -0.27130657 0.23296839 -0.037221223 0.1271258 0.28823808 0.15907611 0.08714299
00000000: 8ba0 94be e39b 913a 3550 58be cfc7 4d3e
00000010: 3ca0 3c3e 26c1 31bd f543 843e 15a4 713e
00000020: 6d30 89bd 51f5 783e 0836 09bd 566f 05bd
00000030: 0dd1 3dbe 756d 953d f55a 9d3e c203 09be
00000040: c90e 2fbe 690f 9cbd 4431 8d3e 6232 0b3e
00000050: fea4 0f3b f19d 3f3e 3ab0 82be 2131 263e
00000060: f2c8 00be 2e22 94be 8142 893d 6286 d03a
00000070: d7ed 5bbe 25ca bf3d 308c 8f3d 8f3d 1d3d
00000080: fa24 33be 78f5 abbe bc80 b0bd 1dc8 893c
00000090: d3a1 30be bb59 083e 85d9 76bd ae59 3abd
000000a0: 4860 5a3e b7a6 92bd 2128 0bbe 3d96 38be
000000b0: acfb 773c 0214 9f3c 71eb 0e3e 281c 633e
000000c0: ad95 6abe aaaa f13c f584 d0bc c2a0 d63d
000000d0: bbdb e7bd 4c98 23be 29aa 44be 12cd cb3d
000000e0: 0047 1e3e d602 553d 0d6f 64be 2281 873d
000000f0: 6f64 08bd 4658 613e a3cf 543d 1ed0 abbd
00000100: 2c43 e4bd ef54 a9be 876b 97bc 732b a23e
00000110: f212 46be acee 0e3e 2f47 8f3e 3e70 bd3d
00000120: f19e cabd 79a1 0cbd 68ec 16bd ad76 bf3d
00000130: 097c 5dbe 1c3c 403e 52c0 b7be 5d95 2f3e
00000140: 3063 c7bc 5d28 ce3d f596 303d 3280 eebd
00000150: acae d0bd 122a c43d adf5 22be c49c 273e
00000160: e7bf a33a 215a 983e 435e 273b b51d 8abe
00000170: 95f0 ebbd 8c29 3c3c 6462 0a3e 8cc9 a53e
00000180: 4c2d ea38 0d97 883c 1ac5 38ba 4bfb 07be
00000190: b0f7 603e 118a 133d 2f31 94be 0e7c 8d3e
000001a0: 980a e23b bcfd 623e 00f5 8fbe 93ad 12be
000001b0: f785 b33d cfea af3d 0331 46be 9e81 f9bd
000001c0: e27a 74be ed15 193e 8170 e3bd 8505 1a3e
000001d0: 1ba9 a9be c6b8 443d 7b39 8abc 213f 273d
000001e0: cf81 55be 373b cabd 82c5 7d3d 2011 933c
000001f0: 46e7 673c a55d 5bbe 35fa 283d ca77 503e
00000200: aef8 6bbe 2c60 073e 0bdb 28be 12fd 1a3d
00000210: 84a5 62be 6e91 1e3d 4399 9ebe 0ec9 193e
00000220: 6dc9 d73d a79c 4e3e 8bc7 dcbd 26d0 493e
00000230: 5f91 33bd c6ba 2fbe 7b36 f2bd ef27 843d
00000240: 8354 a7bd aebe d9bd 19d2 5cbd ab02 a8bd
00000250: 5aff 4fbe e98d 8cbe 4b3e e9bd 4e49 a1bc
00000260: e8f5 8f3d 41bb 15be 7bee 653d 6fd4 03be
00000270: fb1f 863e 308e e2bd 76de f53d 804d 803d
00000280: 692f 19be d9c5 53be 5aa3 803d 3f0c 903d
00000290: 8208 ef3d 27ef 51bd 3375 823e f783 fa3d
000002a0: dd08 35bc db9c 8b3e a321 c33d 2c8d 2d3e
000002b0: 2a95 5f3e e28a 18be c406 673e 8163 ce3d
000002c0: 02fc 8d3e 8fc2 e83d 9228 bbbd a698 6dbe
000002d0: 9066 4ebd 125d 72bd 0a7c 5bbd 849a 3abe
000002e0: 7a0d 50be a36e fabd e197 ed3d cc78 203e
000002f0: 7480 75be e364 d13d ad09 893e ee12 f5bc
00000300: 6c34 7ebd 8089 52bd 78d7 dd3d c57a 8cbb
00000310: df2b de39 06a4 cbbd b75a 0cbe dc8f ce3d
00000320: 49db 413e bf5c a9be 2865 6b3e fba9 0cbe
00000330: e51d 03be 34ad 3abd eb8d 26be 1205 eb3d
00000340: 46be 263e 5696 9c3e 3ee6 3c3e fda6 8bbd
00000350: fcb5 35be 82c2 77be 63f5 02be ab85 5f3e
00000360: b313 37be fa9b cebc e757 6b3e fa39 293e
00000370: 5dd6 99bc 9795 513e 6dae 263e e5ef 863e
00000380: 5cc1 843c 9d90 763d 0e00 0d3e e01f 19be
00000390: 7a17 093e 3aed dbbd 30b0 b5bd 56e0 6e3e
000003a0: 8d63 6cbe 6e0a 413e 1a42 3d3e 4b8d 93be
000003b0: 7482 b33d ef71 6abe 8a22 673d 7565 91bd
000003c0: d973 883e f8a7 383d 2bdb e1bc 3a19 a7bc
000003d0: 3b14 c0bd 0e79 59be 7419 783e 18b2 8f3d
000003e0: 2a3b 5c3e b2e8 8abe 448f 6e3e 4875 18bd
000003f0: 442d 023e f193 933e d9e4 223e 0678 b23d

qnet.fc1.bias f4 [256]
0.2393957 0.28722912 0.04688269 -0.062736265 0.1455227 -0.21031168 -0.17177872 -0.30582002
-0.09499893 0.2515912 0.011536676 0.12381971 0.17333327 -0.16353312 0.2378176 0.06304487
-0.16690762 -0.2954679 0.27353585 -0.09742415 -0.07551638 0.08904885 0.14159414 0.25890028
-0.22019641 -0.15681753 0.23363164 -0.1274261 -0.2316651 0.08438955 0.2624437 -0.01878524
0.28787687 -0.004995238 0.15836845 -0.03147649 -0.2355582 -0.14295201 -0.17500764 0.0043734857
-0.28172547 -0.21931787 -0.15908043 -0.29108346 0.2314317 0.016177954 -0.19358714 0.24288654
0.24789797 0.12867777 -0.17185766 -0.09319264 0.2146763 0.02986498 0.03544009 -0.126191
-0.29969972 -0.04009418 -0.16212493 -0.005871703 0.18092738 -0.25329304 -0.084060766 0.22076651
0.034497444 0.01840527 0.27736062 0.068707444 0.3344849 -0.30631325 0.050930224 0.02799466
-0.113837406 0.33497426 0.14621913 0.35955846 -0.23393233 -0.16427626 0.27553806 -0.26221037
0.10194593 -0.112737805 0.09155582 -0.24258769 -0.1586215 -0.25620365 0.12965359 0.01690749
-0.0032542106 -0.12590043 -0.10989087 -0.02739335 -0.05070426 -0.14101158 -0.17536575 0.1114668
-0.3119978 -0.003623463 -0.11410793 -0.19465864 0.1671591 0.18260066 0.22059335 -0.08221657
0.08984504 0.108559415 -0.22840239 -0.001694845 -0.07783274 0.18717246 -0.05362192 -0.16205604
0.2452826 -0.21549422 -0.04305323 0.046869416 0.20788851 -0.1577861 -0.16529736 0.09369788
-0.10353533 0.02150386 -0.18362546 -0.02773508 0.24130358 0.2613466 -0.1963957 0.31209037
0.0004702274 -0.19917282 -0.10466446 -0.21961744 -0.19152291 0.051035866 0.15113044 -0.25926095
-0.1413896 0.371709 0.18396889 0.026290383 -0.068860866 0.0009294803 -0.10755318 0.15333112
-0.29440746 0.0807268 -0.059302993 -0.16204967 0.29541132 -0.23662318 0.3346556 -0.20087029
0.36205018 -0.27274328 -0.06399368 -0.119722284 -0.17696251 0.101363875 0.058039423 -0.27983484
-0.29374787 0.072264984 0.08148275 -0.020401858 0.15309967 0.3200244 -0.08400038 0.0004386419
-0.18413427 -0.098630495 0.12784027 -0.22286068 -0.14631389 -0.24750343 0.1561696 0.024612859
-0.15169972 -0.21431157 0.26434955 -0.08838901 0.15704551 0.039244033 0.24082944 -0.12337278
0.11107378 -0.080815226 0.25386465 -0.13312364 -0.3653999 -0.12088464 0.19545306 -0.019593183
0.20642799 -0.2580892 -0.17078808 -0.28314546 -0.12594399 -0.24864092 0.19348823 0.18772934
-0.23397017 0.10858619 -0.08516286 0.12859161 -0.036674373 -0.21216394 0.27401024 -0.27891648
-0.2265211 -0.19524428 -0.098904 -0.007005551 0.15214801 -0.26451108 -0.17555529 0.23327471
-0.3030371 0.051264793 0.2036586 0.257869 -0.23376118 -0.26191428 0.21946667 0.009593869
-0.25421563 0.2133781 0.2848926 0.017912176 -0.31905338 0.13714245 -0.04054468 -0.18112068
0.17617914 0.052279614 0.1134303 -0.17090735 0.04342653 0.1312908 -0.09452512 0.17545508
0.103591025 -0.053395215 0.0988759 0.27414066 0.2722651 0.016622648 0.10133276 -0.111305706
-0.13996072 -0.0478796 -0.19791465 -0.24693322 -0.11415859 0.38815114 -0.076605275 0.17121875
00000000: 2524 753e b20f 933e 1008 403d df7b 80bd
00000010: e703 153e f25b 57be c3e6 2fbe 7194 9cbe
00000020: cd8e c2bd 90d0 803e 5404 3d3c 3095 fd3d
00000030: 477e 313e 3a75 27be 7586 733e ab1d 813d
00000040: d5e9 2abe 9247 97be e40c 8c3e 5086 c7bd
00000050: 55a8 9abd 3e5f b63d 0efe 103e 948e 843e
00000060: 2b7b 61be c694 20be 223d 6f3e fd7b 02be
00000070: 9e39 6dbe 6ed4 ac3d 055f 863e 81e3 99bc
00000080: 9964 933e 18af a3bb 572b 223e 7eed 00bd
00000090: 2b36 71be 0362 12be 3435 33be 754f 8f3b
000000a0: 523e 90be dd94 60be fbe5 22be e408 95be
000000b0: 6efc 6c3e a187 843c b53b 46be 40b7 783e
000000c0: f7d8 7d3e 1bc4 033e 74fb 2fbe c8db bebd
000000d0: 1bd4 5b3e 67a7 f43c a129 113d 3738 01be
000000e0: 3e72 99be cb39 24bd 1404 26be 6a67 c0bb
000000f0: 0745 393e a0af 81be 0d28 acbd 9e10 623e
00000100: 314d 0d3d a6c6 963c 3602 8e3e 7db6 8c3d
00000110: 9b41 ab3e 17d5 9cbe 369c 503d 0f55 e53c
00000120: 9623 e9bd bf81 ab3e 78ba 153e 0c18 b83e
00000130: f58b 6fbe 0938 28be 5313 8d3e 7040 86be
00000140: 07c9 d03d 14e3 e6bd 9e81 bb3d e868 78be
00000150: ad6d 22be 202d 83be e9c3 043e 9481 8a3c
00000160: 9844 55bb 0bec 00be 770e e1bd 0568 e0bc
00000170: 45af 4fbd 5765 10be 1493 33be b548 e43d
00000180: 2dbe 9fbe 9f77 6dbb 6bb1 e9bd 9854 47be
00000190: c12b 2b3e abfb 3a3e 39e3 613e 2961 a8bd
000001a0: ad00 b83d 6654 de3d 51e2 69be 9025 deba
000001b0: c666 9fbd 23aa 3f3e a9a2 5bbd 05f2 25be
000001c0: 5d2b 7b3e 84aa 5cbe 9558 30bd 25fa 3f3d
000001d0: bae0 543e ae92 21be b643 29be ade4 bf3d
000001e0: 550a d4bd dd28 b03c 5008 3cbe ae34 e3bc
000001f0: 4918 773e 39cf 853e f41b 49be 4fca 9f3e
00000200: da88 f639 f6f3 4bbe 525a d6bd 65e3 60be
00000210: 951e 44be fc0a 513d f0c1 1a3e dabd 84be
00000220: 6fc8 10be a450 be3e 5762 3c3e ee5e d73c
00000230: ed06 8dbd 5ea8 733a d744 dcbd d502 1d3e
00000240: 93bc 96be 1854 a53d b2e7 72bd 59f0 25be
00000250: 2740 973e 594d 72be fb57 ab3e f1b0 4dbe
00000260: a45e b93e 02a5 8bbe 1e0f 83bd f530 f5bd
00000270: a935 35be dd97 cf3d bfba 6d3d 8346 8fbe
00000280: 1f66 96be aaff 933d 6ee0 a63d cc21 a7bc
00000290: 29c6 1c3e 3dda a33e 6408 acbd 85f9 e539
000002a0: b28d 3cbe c9fe c9bd 8fe8 023e 9735 64be
000002b0: 4fd3 15be 8a71 7dbe ecea 1f3e e8a0 c93c
000002c0: 2c57 1bbe 7e74 5bbe d358 873e 4c05 b5bd
000002d0: 8ad0 203e 5abe 203d fe9b 763e deaa fcbd
000002e0: a67a e33d 7482 a5bd 8cfa 813e 9051 08be
000002f0: b215 bbbe 5e92 f7bd d924 483e e281 a0bc
00000300: dc61 533e 4524 84be 12e3 2ebe 71f8 90be
00000310: 76f7 00be ba9b 7ebe c721 463e 1f3c 403e
00000320: e095 6fbe 7062 de3d de69 aebd 85ad 033e
00000330: de37 16bd 8141 59be 124b 8c3e 24ce 8ebe
00000340: 26f5 67be 1eee 47be 2e8e cabd d28e e5bb
00000350: b0cc 1b3e ff6d 87be c4c4 33be 91df 6e3e
00000360: ae27 9bbe 08fb 513d e18b 503e 6807 843e
00000370: 175f 6fbe a119 86be dfbb 603e 9a2f 1d3c
00000380: 8d28 82be ca7f 5a3e 71dd 913e 8ebc 923c
00000390: f75a a3be 126f 0c3e 2e12 26bd b377 39be
000003a0: 4e68 343e 2623 563d 254e e83d 5602 2fbe
000003b0: 04e0 313d 1871 063e 6396 c1bd 7faa 333e
000003c0: 8827 d43d f1b4 5abd 737f ca3d 2a5c 8c3e
000003d0: 5566 8b3e 382c 883c 8d87 cf3d 3ff4 e3bd
000003e0: dd51 0fbe 661d 44bd 23aa 4abe 10dc 7cbe
000003f0: fbcb e9bd bfbb c63e 3ae3 9cbd f853 2f3e

qnet.fc2.weight f4 [256, 256]
-0.0082985 0.08205608 -0.040269848 0.0008908104 -0.007995872 -0.0018246133 -0.023121811 0.037883356
-0.018837886 -0.04596831 0.0036950742 -0.0053869113 0.014699839 0.04139684 0.04464502 0.01927215
0.041650604 -0.037999425 0.030022947 0.046056174 0.016849192 -0.010715263 0.053710286 -0.057067126
0.047471795 0.04382986 -0.04308485 0.034856293 -0.014824021 -0.05103169 0.004256337 -0.024032852
-0.0069909142 0.0107993325 0.013343032 -0.048984088 -0.057088375 0.046952903 0.04296869 0.059601624
-0.048901048 0.05146319 -0.030855043 -0.036018077 0.054204155 0.003301733 -0.038605053 -0.018570168
-0.05119236 -0.050344396 -0.025385926 -0.017841518 -0.029163767 -0.0537534 -0.034407828 0.041272927
0.029801866 -0.00855626 -0.030815426 -0.035059974 0.023399342 -0.027567882 -0.023817185 -0.054968763
-0.009711894 0.03300207 -0.011849087 -0.03877135 -0.03116921 0.030729484 0.0089575285 -0.024657134
-0.042571627 -0.027113184 0.0103895515 0.03013377 0.0015240462 0.027950682 -0.013300362 0.0011099619
-0.041041836 0.0078768525 0.009685277 -0.014629696 0.017354302 0.028694646 -0.020139588 0.07530096
-0.016252808 0.04869119 0.03205408 0.050897863 0.048871636 -0.0018640888 -0.037252728 -0.033408076
-0.011030928 0.01958791 0.041338596 -0.046884097 0.06387523 0.049767274 0.012077375 0.030661294
0.020731537 -0.052494977 -0.029659174 -0.021761242 -0.01832832 -0.03208377 0.025793253 0.015241808
0.05718688 0.015789393 0.024533685 0.039631907 -0.045870744 -0.10121583 -0.011174679 0.05971428
-0.0037163512 -0.041334916 -0.0018383465 -0.009504465 0.039490532 0.031231618 -0.04285591 0.0050430554
0.009065347 0.033585522 -0.021591734 -0.04420064 -0.035845883 0.0025903366 -0.043235105 -0.04069415
0.040615596 -0.01312935 -0.018956829 0.027634569 -0.013720843 0.037788253 0.0135457795 -0.012318646
-0.035378177 0.01938644 0.018559512 0.12110409 0.0503411 0.044744406 -0.06805543 -0.023914052
0.0012999921 -0.0071168276 -0.01938789 -0.013767538 0.018547216 -0.030463936 0.0026817804 -0.016906282
-0.044283304 -0.008843943 -0.014010388 -0.02175246 0.036658544 0.026462669 -0.040954 0.0034252207
0.036942884 -0.0026006117 -0.036730736 0.0048907045 0.016290622 -0.014993662 -0.04080687 0.025020102
-0.05035925 -0.027315453 0.018738072 -0.01763864 0.043457005 -0.025881892 0.007592073 -0.022499856
-0.012096159 -0.056675345 -0.025686583 -0.055671815 -0.040349223 0.044409655 0.02490606 0.027264496
-0.019302074 -0.030335119 -0.037018273 0.044184435 -0.018115133 0.042288706 -0.024383647 0.0365094
0.042669777 -0.0438179 0.028418623 -0.020828437 -0.023224507 0.019016998 0.009067694 -0.06933743
-0.02427294 -0.008885665 -0.021433502 -0.04118773 -0.030157628 -0.03569087 0.030284965 0.060127106
-0.029111803 -0.016815381 0.033458844 0.089058235 0.0060025495 0.034939647 0.05392109 -0.003562773
0.03327997 0.000105995954 0.019310405 -0.032787904 -0.0319377 0.046891082 0.015056055 0.027360156
0.06282116 -0.06564254 -0.0053381156 -0.031593286 -0.02885247 -0.027091537 0.01112551 0.044255987
-0.00588484 0.05028127 0.008873362 -0.030884782 -0.039817438 0.03297105 0.011024828 -0.043675568
-0.015470299 0.026786257 0.00673457 0.043102838 0.018719504 0.009948496 -0.029862886 0.014045998
00000000: 6ff6 07bc 050d a83d fff1 24bd 4685 693a
00000010: 1e01 03bc dd27 efba f469 bdbc 942b 1b3d
00000020: e951 9abc 4449 3cbd 0f29 723b b084 b0bb
00000030: 98d7 703c bc8f 293d b2dd 363d a1e0 9d3c
00000040: d399 2a3d 49a5 1bbd aff2 f53c 66a5 3c3d
00000050: 5107 8a3c 128f 2fbc 51ff 5b3d 38bf 69bd
00000060: c971 423d f086 333d bd79 30bd 79c5 0e3d
00000070: 73e0 72bc 9b06 51bd be78 8b3b 8be0 c4bc
00000080: 0a14 e5bb afef 303c bc9c 5a3c 8aa3 48bd
00000090: 80d5 69bd b051 403d f0ff 2f3d d520 743d
000000a0: 774c 48bd 11cb 523d b7c3 fcbc b187 13bd
000000b0: 2d05 5e3d e361 583b 5520 1ebd 7720 98bc
000000c0: 15af 51bd ed35 4ebd 25f6 cfbc 6028 92bc
000000d0: dae8 eebc 862c 5cbd 39ef 0cbd cd0d 293d
000000e0: 0b23 f43c 8e2f 0cbc a270 fcbc 0c9b 0fbd
000000f0: faaf bf3c 0ad6 e1bc 421c c3bc ed26 61bd
00000100: a31e 1fbc 2e2d 073d ac22 42bc b5ce 1ebd
00000110: 9256 ffbc 66bc fb3c 99c2 123c c2fd c9bc
00000120: 965f 2ebd 781c debc f038 2a3c 19db f63c
00000130: 81c2 c73a d4f8 e43c c3e9 59bc 247c 913a
00000140: 7c1b 28bd ea0d 013c ffae 1e3c 64b1 6fbc
00000150: 9c2a 8e3c 0911 eb3c c7fb a4bc 6437 9a3d
00000160: 9c24 85bc 6a70 473d 244b 033d 477a 503d
00000170: a02d 483d 7154 f4ba 5196 18bd e8d6 08bd
00000180: 11bb 34bc d376 a03c a952 293d 8a09 40bd
00000190: 04d1 823d c5d8 4b3d 2fe0 453c 652d fb3c
000001a0: 2fd5 a93c f904 57bd ccf7 f2bc a244 b2bc
000001b0: 4625 96bc 456a 03bd 5f4c d33c c7b8 793c
000001c0: ca3c 6a3d c258 813c defa c83c 1155 223d
000001d0: f6e2 3bbd 3f4a cfbd 0016 37bc f696 743d
000001e0: 078e 73bb cd4e 29bd acf4 f0ba 9eb8 1bbc
000001f0: d3c0 213d 73d9 ff3c ae89 2fbd 3740 a53b
00000200: d286 143c f990 093d 26e1 b0bc bb0b 35bd
00000210: 22d3 12bd a3c2 293b 4b17 31bd e9ae 26bd
00000220: 8a5c 263d 7c1c 57bc 5a4b 9bbc e461 e23c
00000230: 63cd 60bc dbc7 1a3d 1eef 5d3c 25d4 49bc
00000240: b5e8 10bd 50d0 9e3c 1e0a 983c 6c05 f83d
00000250: 7832 4e3d e945 373d a560 8bbd 67e7 c3bc
00000260: 7f64 aa3a 4734 e9bb 5ad3 9ebc 3d91 61bc
00000270: 55f0 973c 818f f9bc cfc0 2f3b 0b7f 8abc
00000280: 6962 35bd 2fe6 10bc d48b 65bc 3732 b2bc
00000290: 4527 163d 3dc8 d83c 62bf 27bd ab79 603b
000002a0: 6c51 173d 066f 2abb f872 16bd 3442 a03b
000002b0: e973 853c faa7 75bc 1b25 27bd f5f6 cc3c
000002c0: 8045 4ebd a8c4 dfbc 9680 993c e97e 90bc
000002d0: f9ff 313d 4306 d4bc edc6 f83b 9e51 b8bc
000002e0: f82e 46bc 6824 68bd ab6c d2bc 2108 64bd
000002f0: 3a45 25bd e6e6 353d cb07 cc3c cb59 df3c
00000300: 621f 9ebc 5b81 f8bc 79a0 17bd bdfa 343d
00000310: 3066 94bc ec36 2d3d 37c0 c7bc e18a 153d
00000320: 81c6 2e3d 667a 33bd 2cce e83c 66a0 aabc
00000330: 5241 bebc 89c9 9b3c aa90 143c c800 8ebd
00000340: 0bd8 c6bc 2e95 11bc 5095 afbc 77b4 28bd
00000350: 210d f7bc 9730 12bd 2d18 f83c d747 763d
00000360: e07b eebc 69c0 89bc 240c 093d 2a64 b63d
00000370: 09b1 c43b e01c 0f3d 5cdc 5c3d 6a7d 69bb
00000380: 9450 083d 254a de38 db30 9e3c 9c4c 06bd
00000390: 1bd1 02bd dd10 403d acad 763c 6822 e03c
000003a0: 61a8 803d 996f 86bd 5ceb aebb f667 01bd
000003b0: 045c ecbc 12ef ddbc c547 363c c445 353d
000003c0: 9ed5 c0bb bcf3 4d3d 9461 113c 1502 fdbc
000003d0: 9c17 23bd a70c 073d 7ba1 343c 27e5 32bd
000003e0: 2377 7dbc da6e db3c abad dc3b 9a8c 303d
000003f0: a559 993c 04ff 223c 03a3 f4bc 3021 663c

qnet.fc2.bias f4 [256]
0.06432571 0.050062314 -0.0506361 -0.011223496 0.017754273 0.0355255 0.07208052 -0.044017393
-0.028939363 -0.049071908 -0.060196683 0.042323284 0.06723768 0.031599138 0.026006445 -0.010713781
-0.02129895 -0.05239192 -0.022655511 -0.026340265 0.003733566 -0.032401882 0.036767352 -0.030661969
-0.015440797 0.032637347 0.068197496 -0.033297807 -0.05124141 0.03425154 -0.0072262073 0.023108747
-0.060164955 -0.010346713 0.031727064 0.062676884 -0.024386864 -0.003924283 0.028569214 0.018202
0.020752657 0.049381718 -0.009821832 0.06426103 0.03071132 0.03267367 -0.009788204 0.0019326847
-0.058306 0.04691186 0.056782037 -0.026449002 0.006650989 -0.050720595 0.011348118 -0.027319515
-0.06132907 -0.027023332 0.011499375 0.0472665 0.052677114 -0.02060623 -0.007956183 0.053628333
0.02183745 -0.03364412 -0.050645303 -0.0021375483 0.039868657 -0.060723156 -0.0017311797 -0.031196553
-0.03619162 0.031766094 0.010421783 -0.019708073 -0.037667107 0.015812626 -0.0639295 -0.010235349
-0.02604507 -0.010805662 -0.013046869 0.0075886967 0.022093527 0.054455217 -0.0012049272 -0.011080879
0.029554544 -0.012562832 0.033543058 -0.043135915 -0.04561816 -0.0062615178 -0.018723637 -0.021774588
-0.040356074 0.016444122 -0.018677775 -0.031870894 0.051053107 -0.04314616 0.058572557 -0.014590969
-0.039225988 -0.021785237 0.0136974165 0.057518944 -0.057479624 0.00222848 0.02312751 -0.012447869
-0.039690282 0.052253503 0.068712 -0.027726466 0.029457498 0.036021776 0.044518158 -0.048161406
-0.05651914 -0.010514384 -0.015568234 -0.036252525 -0.03864636 0.0482541 -0.04222869 -0.0005640551
-0.049285367 -0.034792654 0.009272376 0.01173907 0.008325507 0.044254337 -0.015115096 0.035957508
-0.08171097 0.060350604 0.036231596 -0.044233296 -0.010465826 -0.01081002 -0.0064893495 -0.0029650473
0.042285245 -0.038470317 0.066971205 -0.04386581 0.068898745 -0.0064834664 -0.044767022 -0.0066817487
-0.003644753 0.041433107 -0.05036431 0.031023946 0.014835489 0.02224761 0.027882645 0.036588762
0.031426728 -0.001629777 -0.053446278 -0.023822548 -0.049283788 0.026464703 0.014147875 -0.0053815683
-0.020119106 -0.009949251 0.0362532 0.014263762 0.04692706 0.0229749 0.05872946 0.013418332
0.003358295 0.06432198 -0.013372807 -0.0307343 0.058037575 -0.050419897 0.039946593 -0.03860896
-0.021394115 -0.02040901 0.018068142 0.043661103 0.0053919735 -0.044565424 0.038939793 -0.031714946
0.0016011067 -0.03002816 0.055824723 0.045050908 -0.028561188 -0.059401095 -0.022224642 -0.013435625
0.0039305096 -0.013887113 0.007039947 -0.0054287645 0.012653235 0.006845349 -0.008325684 -0.03842491
0.020958846 -0.023405507 0.03948732 0.0023743815 -0.053399853 -0.013723241 -0.03353634 0.033170946
0.06860099 0.004683434 -0.059369937 0.01904942 0.03780221 -0.011738963 -0.043590914 -0.05531358
-0.039494243 -0.06633404 -0.019099507 -0.053909414 -0.048268616 -0.0042548086 0.00027146694 0.0038113066
-0.022223813 0.027033618 -0.06813932 0.06168067 -0.05865855 -0.021556841 -0.0326503 -0.06522074
0.05344786 -0.00045651587 0.04529254 0.021576654 -0.045912925 -0.01662205 -0.011738913 -0.03940242
0.004141813 -0.04538126 -0.041108195 0.03359419 0.015729474 0.03577934 -0.043479618 -0.05390068
00000000: 33bd 833d 240e 4d3d cd67 4fbd c1e2 37bc
00000010: 6971 913c 3083 113d f49e 933d 954b 34bd
00000020: 3e12 edbc a0ff 48bd cc90 76bd 2e5b 2d3d
00000030: e9b3 893d 196e 013d 780b d53c db88 2fbc
00000040: 237b aebc e998 56bd 0d98 b9bc 8ac7 d7bc
00000050: d8ae 743b d6b7 04bd 5d99 163d cf2e fbbc
00000060: 66fb 7cbc bdae 053d 21ab 8b3d 4863 08bd
00000070: 83e2 51bd 584b 0c3d d2c9 ecbb 8e4e bd3c
00000080: 876f 76bd 4285 29bc 3df4 013d bd5c 803d
00000090: f6c6 c7bc 4697 80bb fc09 ea3c 5c1c 953c
000000a0: 7a01 aa3c 7c44 4a3d c0eb 20bc 499b 833d
000000b0: 4e96 fb3c d4d4 053d b45e 20bc 2352 fd3a
000000c0: 46d2 6ebd a726 403d 4894 683d 94ab d8bc
000000d0: 8af0 d93b 66c0 4fbd 75ed 393c 2dcd dfbc
000000e0: 3134 7bbd 0960 ddbc e067 3c3c 849a 413d
000000f0: f5c3 573d 65ce a8bc a65a 02bc 62a9 5b3d
00000100: 74e4 b23c 6bce 09bd 7371 4fbd 1c16 0cbb
00000110: 514d 233d d8b8 78bd c0e8 e2ba ea8f ffbc
00000120: aa3d 14bd 2a1d 023d 20c0 2a3c d372 a1bc
00000130: d348 1abd 7b89 813c 78ed 82bd 2ab2 27bc
00000140: 785c d5bc 3b0a 31bc 89c2 55bc 9aaa f83b
00000150: 7cfd b43c 6f0c 5f3d a6ee 9dba 938c 35bc
00000160: 5f1c f23c 56d4 4dbc 7264 093d 49af 30bd
00000170: 1cda 3abd 6b2d cdbb 5062 99bc 9f60 b2bc
00000180: 694c 25bd d3b5 863c 2202 99bc 0e8b 02bd
00000190: 101d 513d 07ba 30bd c7e9 6f3d f60e 6fbc
000001a0: 6eab 20bd f476 b2bc 216b 603c fc98 6b3d
000001b0: c16f 6bbd b10b 123b e775 bd3c 26f2 4bbc
000001c0: 4792 22bd c507 563d e1b8 8c3d 9d22 e3bc
000001d0: da50 f13c 928b 133d ac58 363d e544 45bd
000001e0: 9d80 67bd 8644 2cbc e811 7fbc 877d 14bd
000001f0: a54b 1ebd 17a6 453d fef7 2cbd 19dd 13ba
00000200: 74df 49bd be82 0ebd 2aeb 173c 3a55 403c
00000210: b567 083c 0944 353d 4fa5 77bc 2e48 133d
00000220: 1558 a7bd 3232 773d 9567 143d f92d 35bd
00000230: db78 2bbc 831c 31bc 9ca4 d4bb 3d51 42bb
00000240: 4b33 2d3d 0d93 1dbd 3328 893d a3ac 33bd
00000250: c91a 8d3d 4273 d4bb a05d 37bd 92f2 dabb
00000260: cfdc 6ebb c3b5 293d cf4a 4ebd ee25 fe3c
00000270: 8d10 733c 9f40 b63c 256a e43c 19de 153d
00000280: 50b9 003d 3e9e d5ba 7cea 5abd 8127 c3bc
00000290: ccdd 49bd 81cc d83c 7dcc 673c de57 b0bb
000002a0: d3d0 a4bc 2f02 23bc 3c7e 143d 8eb2 693c
000002b0: 9736 403d dc35 bc3c 4d8e 703d 90d8 5b3c
000002c0: d716 5c3b 3ebb 833d 9e19 5bbc 80c6 fbbc
000002d0: cfb8 6d3d 1885 4ebd 0a9f 233d 6e24 1ebd
000002e0: b642 afbc cc30 a7bc a403 943c fcd5 323d
000002f0: 27af b03b 3c8a 36bd 557f 1f3d 88e7 01bd
00000300: 3adc d13a 9efd f5bc 77a8 643d 4d87 383d
00000310: 27f9 e9bc 904e 73bd 7410 b6bc 1821 5cbc
00000320: 81cb 803b c686 63bc 5baf e63b c7e3 b1bb
00000330: 844f 4f3c f34e e03b 7368 08bc 7063 1dbd
00000340: e3b1 ab3c e8bc bfbc 75bd 213d 839b 1b3b
00000350: ceb9 5abd 72d7 60bc 675d 09bd 42de 073d
00000360: ad7e 8c3d 7e77 993b e42d 73bd 870d 9c3c
00000370: 7dd6 1a3d c854 40bc 638c 32bd 7e90 62bd
00000380: b7c4 21bd 24da 87bd 9276 9cbc 1ed0 5cbd
00000390: 50b5 45bd ec6b 8bbb ad53 8e39 1dc7 793b
000003a0: b70e b6bc 9b75 dd3c a18c 8bbd dfa4 7c3d
000003b0: f343 70bd f997 b0bc 52bc 05bd 7492 85bd
000003c0: 25ec 5a3d 8658 efb9 ac84 393d 86c1 b03c
000003d0: 310f 3cbd f72a 88bc 9254 40bc 6f64 21bd
000003e0: 0cb8 873b b3e1 39bd 1161 28bd 109a 093d
000003f0: 19db 803c 5b8d 123d af17 32bd f6c6 5cbd

qnet.A.weight f4 [9, 256]
-0.036787692 0.0061912676 0.043257203 0.036793258 0.05837943 0.01595294 -0.0018747433 0.013350708
-0.035910845 -0.0141181415 0.010595525 0.036790725 -0.03314391 0.04305074 -0.024994379 -0.038560472
0.014412521 0.017895024 0.0528006 0.0435643 0.015507302 0.0058214217 0.02843571 0.02910597
0.009765186 -0.010439 0.038270287 -0.017210618 -0.03896764 -0.050058443 0.046733703 0.05841466
0.017616663 0.052839924 0.0024146521 0.014829559 0.05500089 -0.022456096 -0.027559372 -0.035285804
0.02505359 -0.036146183 -0.01000554 -0.038917035 -0.043150987 0.023500662 0.028119063 0.043369148
0.023107758 0.04463309 -0.0010781904 -0.024744961 0.06970856 -0.026685894 0.008535903 -0.03411309
-0.026777733 0.027447555 -0.0045939 0.033980303 -0.039469916 -0.004323965 0.008732474 0.009017861
-0.033604547 -0.008352636 0.017431509 0.02788155 -0.032429714 0.012150144 0.018260606 0.027629897
-0.04842779 -0.020480545 -0.0101635875 0.04633226 -0.048814215 -0.039961316 0.032082215 -0.031981178
0.048572592 0.00038099263 0.021484308 0.011383289 -0.034559067 0.0072227656 0.04680843 0.036383178
-0.018793233 -0.03351949 0.0071529225 0.030688668 0.008198257 0.02046595 -0.006123566 0.032181613
0.021048 -0.0026783443 -0.010923826 -0.00021873091 0.055161014 0.047177292 -0.023904892 0.06147748
0.00060168887 -0.03631203 -0.029520394 0.05470635 0.0484798 -0.016717697 0.0025306519 -0.01989275
0.031204436 0.009589732 -0.015984656 -0.028510131 0.036340214 -0.023872172 0.025701609 0.058649454
-0.0041505266 -0.00064863515 0.009769196 -0.02127233 -0.03988603 0.03034093 -0.005427377 -0.03889187
-0.035674047 0.008772171 -0.007385488 -0.026720699 -0.01814438 0.03979202 0.021448638 0.022231707
0.018887604 -0.022504097 0.04351024 0.037743807 0.008355715 -0.0033889331 -0.034345634 0.0009203093
-0.008408029 -0.03637304 -0.02052698 -0.031240268 -0.008446926 -0.037848547 0.0057357373 -0.011784868
0.030489437 -0.030609135 -0.017515203 0.040891606 -0.016888168 0.0395411 -0.035024483 0.008084994
-0.0048928917 -0.012289192 -0.017591747 0.041837927 -0.02515723 -0.0035134347 0.039560437 0.024103733
-0.004086341 0.019607538 0.020793967 0.0120063145 0.018560847 -0.041432537 0.017789602 0.019709235
-0.006873901 -0.022701427 0.038958117 0.026290515 -0.0122388145 -0.03640295 -0.026998853 -0.026628282
0.019164892 -0.008568132 0.050998714 0.02317154 0.037704617 0.04446035 -0.026920883 -0.015530532
0.0011600121 -0.006587066 -0.02812309 -0.03637515 0.014574897 0.006124203 0.015926205 -0.040186472
0.00979221 0.035577573 -0.04881792 5.200984e-05 -0.031590078 0.03832347 0.026929578 -0.035498854
-0.026802244 -0.04260698 0.046141088 0.012461945 0.02826092 0.021247532 0.0057959952 0.004610215
-0.038545817 0.027472122 0.03378017 -0.005763745 -0.026878824 0.045233272 0.014649946 0.0055468096
0.0029477365 -0.014734879 -0.031135973 -0.023662841 0.013938502 0.0009701778 0.034824505 -0.009318141
-0.0067118937 -0.038147885 0.049117554 -0.0046533714 0.002432641 -0.003044651 -0.03325323 0.027473323
-0.023223132 -0.02699692 -0.014438884 0.05262578 0.02524108 0.010203287 -0.022480587 -0.0031048309
-0.011820857 -0.040378947 -0.019178562 0.02029411 0.056244787 0.0005615136 0.00549595 -0.016377393
00000000: b1ae 16bd 1ee0 ca3b 772e 313d 87b4 163d
00000010: 451f 6f3d bdaf 823c f2b9 f5ba eebc 5a3c
00000020: 4017 13bd c74f 67bc da98 2d3c dfb1 163d
00000030: e9c1 07bd f955 303d 03c1 ccbc 96f1 1dbd
00000040: 7f22 6c3c 9698 923c 7145 583d 7b70 323d
00000050: 5712 7e3c a0c1 be3b 02f2 e83c a56f ee3c
00000060: 29fe 1f3c 5708 2bbc 4ec1 1c3d 48fd 8cbc
00000070: 889c 1fbd 150a 4dbd d76b 3f3d 3644 6f3d
00000080: d250 903c ad6e 583d 243f 1e3b aef7 723c
00000090: 9d48 613d d9f5 b7bc 31c4 e1bc d987 10bd
000000a0: 303d cd3c 050e 14bd 47ee 23bc 7867 1fbd
000000b0: 17bf 30bd 7684 c03c f359 e63c d9a3 313d
000000c0: 7b4c bd3c 30d1 363d 1152 8dba f2b5 cabc
000000d0: 5dc3 8e3d 609c dabc 2cda 0b3c 2bba 0bbd
000000e0: fa5c dbbc b2d9 e03c 6d88 96bb ee2e 0b3d
000000f0: 35ab 21bd 0cb0 8dbb a712 0f3c a7bf 133c
00000100: eca4 09bd 7fd9 08bc 86cc 8e3c d967 e43c
00000110: 05d5 04bd 6611 473c 4497 953c 1858 e23c
00000120: 385c 46bd d1c6 a7bc 2d85 26bc e5c6 3d3d
00000130: 6af1 47bd 7aae 23bd a468 033d b2fe 02bd
00000140: 0ef4 463d f7bf c739 dcff af3c f980 3a3c
00000150: cf8d 0dbd f3ac ec3b 32ba 3f3d 8706 153d
00000160: 44f4 99bc bc4b 09bd 1063 ea3b cd66 fb3c
00000170: fb51 063c 35a8 a73c 32a8 c8bb ded0 033d
00000180: db6c ac3c 2987 2fbb d9f9 32bc 225b 65b9
00000190: 84f0 613d fa3c 413d 31d4 c3bc cfcf 7b3d
000001a0: a8ba 1d3a ecbb 14bd c1d4 f1bc c413 603d
000001b0: c192 463d 8df3 88bc 4bd9 253b 1ff6 a2bc
000001c0: 72a0 ff3c 401e 1d3c 41f2 82bc 148e e9bc
000001d0: 7ad9 143d 938f c3bc 2e8c d23c 693a 703d
000001e0: 2401 88bb 2b09 2aba fa0e 203c 4f43 aebc
000001f0: 895f 23bd 8b8d f83c 23d8 b1bb 154d 1fbd
00000200: f31e 12bd 27b9 0f3c f701 f2bb 5ee5 dabc
00000210: 86a3 94bc f5fc 223d 0eb5 af3c 451f b63c
00000220: 2dba 9a3c 835a b8bc cb37 323d 4099 1a3d
00000230: 69e6 083c dd18 5ebb 02ae 0cbd e940 713a
00000240: d4c1 09bc e6fb 14bd 3228 a8bc 97eb ffbc
00000250: fa64 0abc 1407 1bbd daf2 bb3b 5215 41bc
00000260: fcc4 f93c 02c0 fabc 0b7c 8fbc f57d 273d
00000270: 0e59 8abc d9f5 213d d575 0fbd ec76 043c
00000280: 8d54 a0bb 9b58 49bc 911c 90bc 3f5e 2b3d
00000290: 8916 cebc a741 66bb 200a 223d 3175 c53c
000002a0: b6e6 85bb fd9f a03c 1c58 aa3c 22b6 443c
000002b0: eb0c 983c 2ab5 29bd 80bb 913c 4375 a13c
000002c0: 763e e1bb 58f8 b9bc 8c92 1f3d 355f d73c
000002d0: 4f85 48bc 421b 15bd b32c ddbc 8e23 dabc
000002e0: b1ff 9c3c 5a61 0cbc 07e4 503d 3ed2 bd3c
000002f0: 2870 1a3d 0e1c 363d 2f89 dcbc c673 7ebc
00000300: 8c0b 983a 51d8 d7bb 6562 e6bc 1cfe 14bd
00000310: 8ccb 6e3c 8aad c83b ac77 823c 929a 24bd
00000320: 816f 203c cab9 113d 4df5 47bd 2425 5a38
00000330: 9964 01bd 12f9 1c3d 6b9b dc3c 3f67 11bd
00000340: 6190 dbbc a884 2ebd 70fe 3c3d 302d 4c3c
00000350: 7283 e73c 4e0f ae3c 55ec bd3b 4911 973b
00000360: 38e2 1dbd 370d e13c 135d 0a3d ccdd bcbb
00000370: fb30 dcbc 8646 393d 5406 703c 03c2 b53b
00000380: d02e 413b 906a 71bc de10 ffbc 93d8 c1bc
00000390: 515e 643c 8853 7e3a 24a4 0e3d 1eab 18bc
000003a0: 72ef dbbb f540 1cbd 7d2f 493d 4f7b 98bb
000003b0: f26c 1f3b c488 47bb 8a34 08bd bc0f e13c
000003c0: 703e bebc a528 ddbc 1291 6cbc 218e 573d
000003d0: 62c6 ce3c b02b 273c 3529 b8bc 6b7a 4bbb
000003e0: 45ac 41bc 6564 25bd 5c1c 9dbc d53f a63c
000003f0: ef60 663d 8a32 133a 5f17 b43b e229 86bc

qnet.A.bias f4 [9]
-0.063113175 0.066264 0.04262631 -0.006501245 0.011956145 -0.062203575 -0.05034422 0.05105814
-0.017323246
00000000: 7b41 81bd 6cb5 873d ed98 2e3d 6508 d5bb
00000010: b5e3 433c 2dc9 7ebd be35 4ebd 5722 513d
00000020: 7be9 8dbc
