dqn models/ship_dqn.onnx (onnx, 283052 bytes, 6 tensors)

qnet.fc1.weight f4 [256, 8]
0.2640859 -0.29174444 0.005136067 0.24088931 -0.31896362 -0.117288195 -0.31417364 -0.029671444
-0.2702337 0.29089665 -0.16719966 -0.08646127 0.19687091 0.20930988 -0.045427293 -0.031208381
-0.00034374185 -0.29040986 0.2133335 -0.09460497 0.2058816 0.06926778 -0.08157704 -0.3335852
-0.18223706 -0.26197693 -0.3315483 0.19288163 -0.29593584 -0.27513617 0.098094635 0.13137405
0.045554955 0.033903398 -0.34034413 -0.07256379 0.08581098 0.15422784 -0.18700525 0.29244533
0.058547884 0.2798282 0.15175271 -0.22745062 -0.33567196 -0.34938794 0.2309277 0.18128411
-0.18972278 0.27735785 0.19537772 0.18860617 0.23699513 -0.10576681 -0.023100084 -0.010093261
0.037281927 0.1162811 0.036034603 -0.23068057 0.28499734 0.035981122 0.22297037 -0.007834355
0.23122184 -0.065522626 -0.266254 0.2699897 -0.0779767 -0.19003166 0.048979916 -0.021211369
0.3286457 0.14453624 0.32504675 0.27903047 -0.21990182 -0.2573961 0.07662837 0.18414235
-0.09530741 0.22176506 0.15711895 -0.034770932 -0.26293114 -0.2971613 0.028541015 -0.26540235
0.30549365 0.27485687 0.26798406 -0.3276077 0.04343211 -0.282772 0.2710313 -0.33626124
0.24594803 -0.22567195 -0.052653544 -0.10109595 0.03104995 -0.29467258 0.16476685 -0.08948844
-0.19898379 0.25416255 0.1347481 0.24927545 -0.26525852 0.18095708 0.19231543 0.179684
-0.30941325 0.34162393 -0.11356919 -0.075992286 0.19951066 0.12973605 -0.16984308 -0.15277006
0.038286842 -0.042768538 -0.11441503 0.32219476 -0.136966 0.3405857 0.13279499 -0.19887967
-0.10504033 -0.04246679 0.1435053 -0.15132636 0.13313648 -0.09825102 0.15924303 0.13547911
-0.2740098 0.29869878 -0.22074826 0.13987975 -0.1449205 -0.22135279 0.24670026 -0.16329972
-0.2500985 -0.30165443 0.24217786 0.09225847 -0.050391283 -0.19262879 0.069498874 0.0650419
-0.14275303 -0.057839323 0.14593238 -0.22629294 -0.005679379 0.29034168 -0.067209914 0.14588188
0.051266924 -0.0065557063 0.18214914 0.022633493 -0.022468347 -0.25124934 0.105385974 0.05374004
-0.30935052 -0.31321815 -0.11213532 -0.10213019 0.16651966 -0.16421309 0.1320612 0.06726887
-0.1624765 -0.15199313 -0.110160604 0.24913977 0.28191662 0.051827747 -0.3177191 0.17966868
0.28860512 0.16826211 0.3436382 -0.27126703 -0.07777474 0.072069645 -0.053950682 0.07575528
-0.24324505 0.27198604 0.33709052 -0.16028534 0.3026618 0.26918548 0.31528407 -0.25337306
-0.2372021 0.32234246 -0.24274114 -0.005827309 0.2642906 0.16455363 -0.11204031 -0.037648134
0.2598789 -0.22354677 -0.2669673 0.31415704 -0.3136022 -0.012491815 0.32537442 0.10830184
0.3330568 -0.24772373 0.084331945 0.012309999 0.20173919 0.054235883 -0.22761187 -0.010967403
-0.1568307 0.20383902 -0.18096076 -0.3203952 -0.30947274 -0.3474807 -0.17534043 -0.26771542
-0.19450462 -0.07565741 0.15057412 -0.25250575 0.14725788 -0.3371237 -0.03931622 -0.1957963
-0.30251738 0.02798499 0.0069082 -0.019839065 -0.024000859 -0.11554918 0.32216352 0.2217083
0.03838597 0.3107664 0.030813333 0.20455687 0.13023053 -0.18820041 0.07483454 -0.06859263
00000000: 4436 873e 875f 95be 744c a83b b0ab 763e
00000010: 334f a3be cb34 f0bd 5edb a0be 8711 f3bc
00000020: 125c 8abe 68f0 943e 6336 2bbe 9b12 b1bd
00000030: 8798 493e 5455 563e f811 3abd b8a8 ffbc
00000040: 4038 b4b9 9ab0 94be 1974 5a3e 40c0 c1bd
00000050: a0d2 523e 44dc 8d3d dd11 a7bd aecb aabe
00000060: 5a9c 3abe d721 86be b3c0 a9be c382 453e
00000070: e784 97be a6de 8cbe d7e5 c83d eb86 063e
00000080: d597 3a3d 4ade 0a3d 9641 aebe 539c 94bd
00000090: abbd af3d e7ed 1d3e 4e7e 3fbe 65bb 953e
000000a0: e8cf 6f3d a445 8f3e 1065 1b3e d1e8 68be
000000b0: 32dd abbe fae2 b2be 5078 6c3e 8ba2 393e
000000c0: b046 42be d901 8e3e 1911 483e fa21 413e
000000d0: daae 723e 459c d8bd 633c bdbc 345e 25bc
000000e0: efb4 183d c924 ee3d 0599 133d 8737 6cbe
000000f0: 2ceb 913e f160 133d 5852 643e ab5b 00bc
00000100: 6bc5 6c3e ba30 86bd 7252 88be 173c 8a3e
00000110: 40b2 9fbd a997 42be 2a9f 483d 77c3 adbc
00000120: 4044 a83e 4f01 143e 876c a63e 15dd 8e3e
00000130: f12d 61be 6cc9 83be 56ef 9c3d d08f 3c3e
00000140: 8830 c3bd 6116 633e cae3 203e f76b 0ebd
00000150: e99e 86be 8725 98be d9ce e93c d1e2 87be
00000160: aa69 9c3e 0aba 8c3e 3535 893e 32bc a7be
00000170: dee5 313d 7ec7 90be 9dc4 8a3e 6f2a acbe
00000180: cdd9 7b3e 8c16 67be 3eab 57bd 650b cfbd
00000190: 775c fe3c 53df 96be a4b8 283e b745 b7bd
000001a0: 68c2 4bbe 9821 823e 68fb 093e 1042 7f3e
000001b0: f7cf 87be d04c 393e 56ee 443e 15ff 373e
000001c0: 6a6b 9ebe 55e9 ae3e f796 e8bd d8a1 9bbd
000001d0: 864c 4c3e 87d9 043e 58eb 2dbe c16f 1cbe
000001e0: aad2 1c3d 102e 2fbd 6d52 eabd b6f6 a43e
000001f0: d140 0cbe 4061 ae3e 69fb 073e 1da7 4bbe
00000200: 621f d7bd a8f1 2dbd 0ef3 123e 4cf5 1abe
00000210: ee54 083e d537 c9bd 9b10 233e 09bb 0a3e
00000220: 034b 8cbe 0cef 983e d50b 62be a33c 0f3e
00000230: 0a66 14be 4eaa 62be fe9e 7c3e 0b38 27be
00000240: e90c 80be 7372 9abe 79fd 773e 02f2 bc3d
00000250: 1767 4ebd 7b40 45be 6d55 8e3d b034 853d
00000260: da2d 12be ede8 6cbd 4c6f 153e 56b9 67be
00000270: 161a babb aaa7 943e 5aa5 89bd 0f62 153e
00000280: 44fd 513d 40d1 d6bb 4e85 3a3e e069 b93c
00000290: 8a0f b8bc c1a3 80be 9ad4 d73d 841e 5c3d
000002a0: 3163 9ebe 215e a0be 34a7 e5bd a229 d1bd
000002b0: 2184 2a3e 7a27 28be 0d3b 073e 43c4 893d
000002c0: 3d60 26be 16a4 1bbe e29b e1bd 7f1e 7f3e
000002d0: 6057 903e 5549 543d 14ac a2be 11fb 373e
000002e0: 0dc4 933e e74c 2c3e 59f1 af3e 83e3 8abe
000002f0: 5d48 9fbd 4099 933d 64fb 5cbd 9625 9b3d
00000300: 3b15 79be c141 8b3e 2197 ac3e d721 24be
00000310: 7df6 9a3e aed2 893e ea6c a13e 1dba 81be
00000320: 1be5 72be 120a a53e 2291 78be 03f3 bebb
00000330: 1951 873e bf80 283e 6475 e5bd ee34 1abd
00000340: d90e 853e 72e9 64be f0af 88be 31d9 a03e
00000350: 7890 a0be 78aa 4cbc 7a97 a63e 5bcd dd3d
00000360: 6c86 aa3e 4aab 7dbe 3ab6 ac3d e1af 493c
00000370: b894 4e3e 7226 5e3d 1613 69be 9fb0 33bc
00000380: 3a98 20be 2dbb 503e c74d 39be d70a a4be
00000390: 3673 9ebe fee8 b1be 718c 33be ff11 89be
000003a0: 382c 47be 46f2 9abd 1a30 1a3e 6f48 81be
000003b0: c5ca 163e 7a9b acbe 0b0a 21bd d37e 48be
000003c0: 8fe3 9abe c740 e53c 2f5e e23b 8985 a2bc
000003d0: 739d c4bc 0ca5 ecbd 9ef2 a43e 8007 633e
000003e0: 9b3a 1d3d c61c 9f3e 3e6c fc3c 5b77 513e
000003f0: 275b 053e 9cb7 40be da42 993d 4b7a 8cbd

qnet.fc1.bias f4 [256]
-0.09976483 -0.19502443 -0.29034424 -0.2870941 0.05627619 0.33555213 0.31416696 0.11814372
0.34907576 0.13772283 0.023987843 0.20623463 -0.04932192 -0.21457273 -0.070875235 0.04694243
0.26701158 0.12526959 0.19412646 -0.069276586 -0.25974306 0.03631297 -0.31618944 -0.06090827
-0.31841555 -0.015728904 0.10390754 -0.30917245 -0.06550529 0.068523094 0.1423761 -0.3105864
-0.35192233 -0.183871 -0.29396465 0.20644467 -0.14386834 0.1655691 -0.12242714 0.22065492
-0.033502374 -0.25622422 -0.15082902 0.3056845 0.17029029 0.009677428 0.21772876 0.19279131
-0.17409144 -0.11482699 0.09197656 0.20621036 0.29894766 0.21109591 -0.27206513 -0.017214939
-0.1885797 -0.34371984 0.10032918 0.08315008 0.055609804 0.10771257 0.013732015 -0.17095807
0.24691729 -0.038785756 0.14524573 -0.30805522 -0.17962697 0.030340495 -0.001961865 -0.26792806
0.16477798 0.118646756 -0.10966104 0.33575597 -0.32793778 0.038088333 -0.13580742 -0.06854765
-0.3168944 0.11053185 0.3098247 0.090604424 -0.19003507 0.33418125 -0.0442271 0.040762495
-0.2437978 0.13428146 -0.34973878 -0.09959233 -0.013827476 -0.13210167 0.23666944 -0.30230153
0.07908856 0.23819982 0.005944164 -0.21103364 0.1943175 -0.013313172 -0.11009272 -0.0053085755
-0.06610504 0.04547523 -0.3166515 0.10687584 0.15330803 -0.05078062 -0.08588374 -0.22988774
0.080117196 0.34132996 0.036027703 0.15558521 -0.036345135 0.017708376 -0.2453808 -0.22565064
0.15184282 -0.20352411 0.1731232 0.049433537 -0.048723932 0.22728544 0.33208603 -0.21505293
0.21155062 -0.14873338 -0.08995077 0.26093856 0.20803298 0.22446594 0.08202704 0.04253888
0.3101661 -0.085148945 -0.094585784 -0.34802037 -0.07696447 -0.1372675 -0.22971277 0.25922137
-0.29263812 -0.2527292 -0.29517972 -0.21645924 -0.20565143 -0.06131845 -0.35253653 0.007306012
0.0023172311 -0.33531174 -0.31791946 -0.19708984 -0.33631128 0.052483063 -0.00096165854 -0.076602876
0.05630699 0.1429159 -0.20477004 -0.01922625 0.2985694 -0.2962372 0.3260194 0.13725208
0.053020094 0.2270878 -0.18376245 -0.3351506 -0.2209915 0.03096352 0.24816479 -0.33468243
0.118749976 -0.21288618 -0.167319 -0.07513401 0.23382637 -0.25689346 -0.17426994 0.32177383
0.30683032 -0.29234138 0.077419974 -0.15513702 0.091474056 0.21930858 -0.26093972 0.25638044
-0.2229514 0.23318553 -0.22364682 -0.14841853 0.32044837 0.1854728 -0.17321156 0.25675312
0.08876888 -0.06792885 -0.21917242 -0.3083004 -0.17688778 0.3037236 0.10179472 -0.10438179
-0.26219264 0.10608445 -0.07575264 0.19660954 0.19911465 0.21811673 0.3347374 0.26915595
0.027023267 0.24533935 -0.3307094 -0.21066205 0.046454262 0.32614744 -0.15311281 -0.34728146
0.005481211 -0.014694913 0.04590407 -0.12334656 -0.07500842 -0.12527774 -0.12901594 0.07253193
-0.2678045 0.038271423 0.3503624 0.099554725 0.27824214 -0.19750752 -0.109374225 -0.26337537
0.31342497 -0.31473306 -0.26946303 -0.13630904 0.03303522 -0.1809673 -0.05314159 0.033969592
0.2995182 0.09596937 -0.26085392 -0.23594472 -0.28481936 0.035351586 0.14930272 -0.29489535
00000000: 8151 ccbd 7cb4 47be 00a8 94be fffd 92be
00000010: dd81 663d 7dcd ab3e 7eda a03e 56f5 f13d
00000020: 0fba b23e 3707 0d3e 2782 c43c 2c2f 533e
00000030: c805 4abd f4b8 5bbe 0927 91bd b546 403d
00000040: beb5 883e ac46 003e 16c9 463e e2e0 8dbd
00000050: 0bfd 84be e9bc 143d 95e3 a1be f37a 79bd
00000060: 5d07 a3be e7d9 80bc 7acd d43d da4b 9ebe
00000070: a327 86bd d655 8c3d 0acb 113e 2e05 9fbe
00000080: 2a2f b4be ae48 3cbe 8982 96be 3b66 533e
00000090: 3952 13be f28a 293e 15bb fabd 5df3 613e
000000a0: c939 09bd d22f 83be ec72 1abe ae82 9c3e
000000b0: 9460 2e3e 138e 1e3c 4af4 5e3e 166b 453e
000000c0: 0745 32be 6a2a ebbd 355e bc3d cf28 533e
000000d0: ab0f 993e 8729 583e 1f4c 8bbe 5806 8dbc
000000e0: 091b 41be 0cfc afbe 6379 cd3d 974a aa3d
000000f0: 1bc7 633d 6898 dc3d 3ffc 603c a20f 2fbe
00000100: e3d7 7c3e d0dd 1ebd 4cbb 143e 6ab9 9dbe
00000110: 22f0 37be a18c f83c a292 00bb de2d 89be
00000120: 8fbb 283e 12fd f23d f895 e0bd 35e8 ab3e
00000130: 76e7 a7be 8302 1c3d 1a11 0bbe b662 8cbd
00000140: fc3f a2be 865e e23d 58a1 9e3e d08e b93d
00000150: 8e98 42be ce19 ab3e 7a27 35bd 93f6 263d
00000160: 21a6 79be 1481 093e f610 b3be 10f7 cbbd
00000170: a38c 62bc a945 07be 7959 723e 44c7 9abe
00000180: 2ff9 a13d a7ea 733e 43c7 c23b 3419 58be
00000190: 2bfb 463e 7e1f 5abc 4b78 e1bd 8ff3 adbb
000001a0: 1462 87bd 3c44 3a3d 2520 a2be b8e1 da3d
000001b0: c8fc 1c3e 57ff 4fbd d0e3 afbd b167 6bbe
000001c0: 7c14 a43d cdc2 ae3e c991 133d bb51 1f3e
000001d0: a3de 14bd 2811 913c 1b45 7bbe f610 67be
000001e0: af7c 1b3e a068 50be 3547 313e d27a 4a3d
000001f0: bf92 47bd 84bd 683e 2e07 aa3e d636 5cbe
00000200: baa0 583e 904d 18be 1c38 b8bd bd99 853e
00000210: 9906 553e 66da 653e cbfd a73d 403d 2e3d
00000220: 17ce 9e3e 9262 aebd 31b6 c1bd ba2f b2be
00000230: 8c9f 9dbd da8f 0cbe d339 6bbe aab8 843e
00000240: aad4 95be b965 81be cc21 97be 7ea7 5dbe
00000250: 4a96 52be 0e29 7bbd ab7f b4be 4567 ef3b
00000260: b0dc 173b fbad abbe 57c6 a2be ebd1 49be
00000270: fe30 acbe 7bf8 563d d017 7cba f8e1 9cbd
00000280: 29a2 663d 8c58 123e 3daf 51be 5e80 9dbc
00000290: 17de 983e 67ac 97be 04ec a63e cf8b 0c3e
000002a0: 992b 593d b489 683e 392c 3cbe dc98 abbe
000002b0: 994b 62be 35a7 fd3c e91e 7e3e 7f5b abbe
000002c0: 3033 f33d d6fe 59be ac55 2bbe dcdf 99bd
000002d0: 2e70 6f3e 8a87 83be d273 32be 8abf a43e
000002e0: dd18 9d3e c5ad 95be 5d8e 9e3d 3ddc 1ebe
000002f0: c056 bb3d 6e92 603e e499 85be 4c44 833e
00000300: 5f4d 64be 30c8 6e3e ac03 65be 07fb 17be
00000310: cf11 a43e 95ec 3d3e 5f5e 31be 2575 833e
00000320: 75cc b53d 481e 8bbd bc6e 60be 8dd9 9dbe
00000330: 1222 35be a981 9b3e c079 d03d 1fc6 d5bd
00000340: 1d3e 86be ce42 d93d 3324 9bbd 0354 493e
00000350: b6e4 4b3e fe59 5f3e b362 ab3e cfce 893e
00000360: e65f dd3c 3d3a 7b3e be52 a9be cbb7 57be
00000370: d346 3e3d ccfc a63e 9bc9 1cbe e0ce b1be
00000380: bb9b b33b efc2 70bc e805 3c3d 1f9d fcbd
00000390: 049e 99bd cf48 00be c11c 04be 9f8b 943d
000003a0: ac1d 89be 7fc2 1c3d b362 b33e 59e3 cb3d
000003b0: c175 8e3e 693f 4abe 98ff dfbd 23d9 86be
000003c0: 3d79 a03e b124 a1be 0ff7 89be 9994 0bbe
000003d0: f04f 073d 7e4f 39be ffaa 59bd b323 0b3d
000003e0: 735a 993e 978b c43d a58e 85be 7e9b 71be
000003f0: d8d3 91be d3cc 103d d0e2 183e 86fc 96be

qnet.fc2.weight f4 [256, 256]
-0.06242113 -0.055290602 -0.018491536 -0.018981472 0.012079112 -0.0012034625 -0.043379165 -0.039826557
0.017323047 -0.039756984 0.02221483 0.061655648 -0.017244503 -0.0328981 0.027394101 0.029580295
-0.026229665 0.056658447 -0.029811583 -0.056497984 -0.0045299903 0.02330406 0.043089963 0.01681342
-0.01536651 0.0020645559 0.02221094 -0.009737566 0.049631238 -0.032476544 -0.008672848 0.06023851
0.04346375 0.02618327 -0.057539202 0.037748203 0.027739868 0.009462543 0.048926435 -0.035923563
0.04738883 0.060170703 0.03762763 -0.04506453 0.0152729675 0.046378613 -0.047888964 0.0035566613
-0.001553297 0.0069450587 -0.026286855 0.046456 0.014827274 0.008250229 -0.041453257 -0.03491409
0.028173149 0.0346182 0.052727 0.06151554 0.011911549 -0.007861875 -0.022207856 0.031252317
-0.045046918 -0.05563169 -0.060926035 -0.033038355 -0.010335788 0.0011684 0.008608192 -0.06244944
-0.052022733 -0.011898905 -0.061257474 0.006768286 -0.0052240044 0.020671666 -0.037433974 -0.015521437
-0.0623004 0.0064341873 -0.030647837 -0.024701633 -0.04872994 0.01867079 -0.036560416 -0.044687696
-0.046851724 0.0156114325 0.057688132 0.051223263 -0.045788206 -0.023102075 -0.057367243 -0.0181266
-0.061794505 0.05483508 -0.04287882 0.042366438 0.04827576 -0.033438616 -0.007772438 0.044927046
-0.025760338 -0.055028982 -0.03679508 -0.020113245 -0.037977315 0.03114272 -0.03657248 -0.026785232
0.04207746 -0.025899708 -0.05875863 -0.05456149 0.0007773116 0.048833303 -0.05556432 -0.006112233
-0.020264097 -0.024768293 0.012274094 -0.01984685 0.022739917 0.003126055 -0.03781613 0.05781308
-0.00082147866 -0.03981366 -0.062262125 0.05070901 -0.03282 -0.0518485 0.0062140226 0.058340646
0.010451093 0.047425777 -0.013035148 -0.03356438 0.0027512312 -0.014679886 0.03429898 0.05908136
-0.056264423 0.035093203 0.039788365 0.027490586 -0.014139682 -0.051779427 -0.014728241 -0.04593017
0.016938977 0.012706436 0.03686014 -0.022328615 -0.043876432 0.028537586 0.008151494 -0.020621486
-0.033553436 -0.036861874 -0.031471677 -0.0063599274 0.040549293 0.009817518 -0.038441733 0.010519795
0.005185172 -0.018282577 -0.025055513 -0.05306931 0.03983815 -0.03463787 -0.04233703 0.007330194
-0.018599689 -0.053026758 0.05367706 -0.0066061914 0.057886496 -0.052615143 -0.012929589 0.041679814
-0.01929015 0.00735268 0.03833829 -0.05234517 0.00055396557 0.04509841 0.038665585 0.0036530867
-0.0012935922 -0.033753432 0.0043885186 -0.03801223 0.032502607 0.035823748 -0.05101329 -0.05280737
0.009383686 0.016405582 -0.018220335 0.022151187 0.059254333 0.0013932735 0.044156693 0.016356304
0.040466122 -0.02753821 0.04957214 0.049561493 0.02393806 0.0041035116 0.0022261217 0.03825859
0.02286353 -0.044919178 0.020797282 0.061338797 0.003747195 0.018902503 0.018450618 -0.045635045
-0.004618317 -0.0102722645 -0.011665635 0.017819293 0.04281798 -0.057820402 -0.024508968 0.009661809
-0.044624403 -0.026056103 -0.059242718 -0.018117018 0.008355178 -0.04156679 -0.03274624 -0.056604832
0.054456174 -0.029310435 -0.0014485419 -0.05560159 0.04357572 0.051088005 0.02998653 0.032147385
-0.011824273 -0.03740187 -0.001171276 0.040665634 -0.061608247 0.002839379 -0.036950663 -0.040107384
00000000: 4cad 7fbd 6678 62bd 907b 97bc 087f 9bbc
00000010: 78e7 453c 80bd 9dba 5aae 31bd 2c21 23bd
00000020: 10e9 8d3c 38d8 22bd e0fb b53c a28a 7c3d
00000030: 5844 8dbc 28c0 06bd 9869 e03c 6052 f23c
00000040: 98df d6bc b012 683d 6c37 f4bc 6e6a 67bd
00000050: 5070 94bb 28e8 be3c 1a7f 303d 4cbc 893c
00000060: d0c3 7bbc 804d 073b b8f3 b53c 508a 1fbc
00000070: 204a 4b3d 2006 05bd 9018 0ebc a8bc 763d
00000080: 0c07 323d 4c7e d63c 3aae 6bbd dc9d 1a3d
00000090: b83e e33c c808 1b3c 1667 483d 9624 13bd
000000a0: ca1a 423d 8e75 763d 6e1f 1a3d 9695 38bd
000000b0: 783b 7a3c 80f7 3d3d 3827 44bd e016 693b
000000c0: 0098 cbba 6093 e33b 8857 d7bc a648 3e3d
000000d0: 18ee 723c f82b 073c e4ca 29bd 1402 0fbd
000000e0: 60cb e63c d0cb 0d3d 44f8 573d b8f7 7b3d
000000f0: a828 433c 18cf 00bc 40ed b5bc 6e02 003d
00000100: 1e83 38bd 0ede 63bd 948d 79bd 3a53 07bd
00000110: 7057 29bc 0025 993a 6009 0d3c fcca 7fbd
00000120: ca15 55bd a0f3 42bc 1ee9 7abd 80c8 dd3b
00000130: 202e abbb a057 a93c 5e54 19bd a04d 7ebc
00000140: b42e 7fbd e0d5 d23b 2c11 fbbc 145b cabc
00000150: 0c99 47bd 7cf3 983c 60c0 15bd 720a 37bd
00000160: 98e7 3fbd 18c7 7f3c 644a 6c3d 7ccf 513d
00000170: 6a8c 3bbd 9040 bdbc eaf9 6abd 3c7e 94bc
00000180: 3c1c 7dbd c09a 603d b4a1 2fbd 6e88 2d3d
00000190: cebc 453d eef6 08bd f0af febb 6c05 383d
000001a0: 5807 d3bc 1266 61bd 70b6 16bd 88c4 a4bc
000001b0: 1a8e 1bbd 041f ff3c 06cd 15bd b46c dbbc
000001c0: 6a59 2c3d a02b d4bc e4ac 70bd de7b 5fbd
000001d0: 80c4 4b3a 6e05 483d 6a97 63bd 2049 c8bb
000001e0: e400 a6bc e0e6 cabc 4819 493c dc95 a2bc
000001f0: 1049 ba3c 80de 4c3b 16e5 1abd 68cd 6c3d
00000200: 8058 57ba a613 23bd 9206 7fbd 40b4 4f3d
00000210: 446e 06bd 185f 54bd 009f cb3b 9af6 6e3d
00000220: 103b 2b3c 8841 423d 6091 55bc ce7a 09bd
00000230: 004e 343b e883 70bc 167d 0c3d 4cff 713d
00000240: 8675 66bd e4bd 0f3d 20f9 223d f033 e13c
00000250: 20aa 67bc aa16 54bd b84e 71bc 4621 3cbd
00000260: 9cc3 8a3c a82e 503c a8fa 163d 80ea b6bc
00000270: c6b7 33bd a8c7 e93c d88d 053c 64ee a8bc
00000280: 546f 09bd 7afc 16bd 72e8 00bd f066 d0bb
00000290: 0417 263d a8d9 203c 1475 1dbd 385b 2c3c
000002a0: 60e8 a93b 58c5 95bc 3841 cdbc 345f 59bd
000002b0: 542d 233d 70e0 0dbd 9869 2dbd 2032 f03b
000002c0: 605e 98bc 9632 59bd 7adc 5b3d c078 d8bb
000002d0: 641a 6d3d fa82 57bd a0d6 53bc 74b8 2a3d
000002e0: 6006 9ebc c0ee f03b 9c08 1d3d e467 56bd
000002f0: 0038 113a 1cb9 383d ce5f 1e3d a068 6f3b
00000300: c08d a9ba 0a41 0abd 90cd 8f3b b6b2 1bbd
00000310: 7421 053d ecbb 123d 50f3 50bd 8a4c 58bd
00000320: 08be 193c 0065 863c d042 95bc 6876 b53c
00000330: acb4 723d 809e b63a a6dd 343d a8fd 853c
00000340: cebf 253d d097 e1bc 280c 4b3d fe00 4b3d
00000350: c019 c43c c076 863b 20e4 113b 0ab5 1c3d
00000360: 4c4c bb3c 2cfd 37bd 105f aa3c 643e 7b3d
00000370: 8093 753b 6cd9 9a3c c025 973c d0eb 3abd
00000380: 4055 97bb 004d 28bc 3821 3fbc c4f9 913c
00000390: e861 2f3d 16d5 6cbd 08c7 c8bc 904c 1e3c
000003a0: 14c8 36bd 9c73 d5bc 7ea8 72bd 246a 94bc
000003b0: 28e4 083c f041 2abd ec20 06bd 78da 67bd
000003c0: 700d 5f3d 701c f0bc 00dd bdba 7ebe 63bd
000003d0: 747c 323d a841 513d 50a6 f53c faac 033d
000003e0: 98ba 41bc b432 19bd 8085 99ba 0291 263d
000003f0: ee58 7cbd e014 3a3b 9459 17bd a447 24bd

qnet.fc2.bias f4 [256]
-0.032618485 0.0442979 -0.006202484 0.052041817 -0.012315924 0.040426753 -0.013222491 -0.0059905006
-0.045220308 0.0012151725 -0.05833851 0.048949994 0.054135505 0.042448122 0.060357757 0.0516292
-0.024288002 0.030909715 -0.058255047 0.05662813 0.046224017 -0.04003779 0.00064821675 0.0069885044
-0.021186553 0.05110743 0.016709376 0.017911626 -0.04995225 0.034855187 0.04018022 -0.029168554
0.04512591 0.058480993 -0.03658621 -0.0106334165 -0.042102862 -0.038906693 0.05778834 -0.053346477
0.061567653 0.025406986 -0.06098178 0.018835267 0.023051625 -0.011130412 -0.027712673 -0.0016454597
-0.025034072 -0.02356532 0.036320284 -0.028205158 0.022476122 0.061067663 -0.035408095 0.027185384
0.04013289 0.023690525 0.031412106 0.037506126 -0.060829867 -0.019748768 -0.0006810704 -0.05425619
-0.03361931 0.014850951 -0.05083871 0.039427582 0.033740293 -0.045494 -0.008302675 0.03074475
0.04649047 -0.021110728 0.05702469 0.021171205 0.059023347 0.056347422 0.013928876 -0.05232163
0.041715916 0.001751018 0.014624327 -0.00025009463 -0.034667015 0.03476689 0.0010393678 0.049409714
0.023142533 0.02138761 0.056241892 0.017847138 -0.0013419804 -0.045047555 0.047678355 -0.03674991
0.016909095 -0.033225764 -0.006828323 0.0046543106 -0.053235296 -0.04356353 0.0072214915 -0.053651035
0.025424413 0.028091677 0.037190307 -0.018796938 0.0037454583 -0.05945026 0.01906477 -0.054489836
-0.012818677 0.0011419826 0.06285651 -0.046771143 -0.040310428 0.04709625 -0.040573157 0.036344975
0.032984007 -0.003107173 0.009626921 0.030666528 0.0051861107 -0.025187079 -0.0092875725 -0.012839881
-0.049006168 -0.0018890022 -0.030552762 -0.04024301 -0.053400792 0.031239456 0.055346083 0.035531636
-0.038787533 0.04171107 -0.034657687 0.05969946 -0.018367656 -0.046420276 -0.0105561465 0.0027800936
0.007641 -8.731825e-05 -0.03688305 0.028173335 -0.010198414 0.05207379 -0.018689502 0.0395026
-0.0011749695 0.018169492 -0.0028269086 -0.010449846 -0.017279753 0.04584942 0.0077022766 0.038869254
-0.0054509873 -0.050325457 -0.00816513 -0.006205242 0.026330039 -0.032421507 0.031648178 -0.017297022
-0.036729373 -0.030327091 -0.026142873 0.054277133 0.009220298 -0.03041335 0.04619957 -0.0021267813
-0.032698475 -0.05750745 0.034518506 0.0011993366 -0.05290062 -0.044492498 0.05205559 0.036611218
-0.048992842 -0.029691955 -0.054717798 -0.031770207 0.022042727 -0.056432724 0.02315535 0.03352616
-0.054192662 -0.01520113 -0.0020842296 0.055569295 -0.023403717 -0.047135253 -0.04417218 0.04998837
-0.04493839 -0.045289747 -0.033716023 -0.0010994496 0.028776765 0.055316083 -0.026030226 -0.017663034
0.023534108 -0.03732361 0.0016661909 0.017368287 -0.013964849 0.0054542487 0.0031205507 0.0008254794
-0.002299065 0.033305533 0.030754205 -0.034422267 0.016060682 -0.0007529196 -0.029509943 -0.016557083
0.026419617 0.039154876 0.0076604816 0.057512194 -0.051375233 0.024254495 -0.05633053 0.047628533
0.03902274 0.0149986 -0.0047095567 0.026187697 -0.014040408 -0.024144465 -0.024346936 0.03188889
0.006878651 -0.036219142 0.059774127 0.034717344 0.025160179 -0.062264547 0.057748977 -0.058914095
0.024591826 -0.022927277 -0.021218292 -0.027643628 0.05435112 -0.009248354 -0.054990638 -0.039296493
00000000: f69a 05bd b771 353d 353e cbbb cd29 553d
00000010: bbc8 49bc 8696 253d 26a3 58bc f64b c4bb
00000020: ee38 39bd 6c46 9f3a 5df4 6ebd ca7f 483d
00000030: 31bd 5d3d 15de 2d3d b239 773d 2479 533d
00000040: a2f7 c6bc 5f36 fd3c d89c 6ebd e6f2 673d
00000050: 6555 3d3d aafe 23bd 17ed 293a d3ff e43b
00000060: 6c8f adbc 0656 513d 1ae2 883c 67bb 923c
00000070: bb9a 4cbd 50c4 0e3d 0494 243d e4f2 eebc
00000080: f2d5 383d c489 6f3d 6cdb 15bd c837 2ebc
00000090: 0d74 2cbd a05c 1fbd 77b3 6c3d d681 5abd
000000a0: 5d2e 7c3d 5022 d03c 08c8 79bd 6b4c 9a3c
000000b0: c3d6 bc3c 555c 36bc b005 e3bc 77ac d7ba
000000c0: 4114 cdbc 0f0c c1bc 94c4 143d 810e e7bc
000000d0: d81f b83c 1622 7a3d 1408 11bd e2b3 de3c
000000e0: 6362 243d a212 c23c fba9 003d 06a0 193d
000000f0: bd28 79bd 2bc8 a1bc dc89 32ba bd3b 5ebd
00000100: 67b4 09bd 6751 733c 403c 50bd d17e 213d
00000110: 4333 0a3d eb57 3abd f107 08bc 6adc fb3c
00000120: cb6c 3e3d 68f0 acbc b992 693d 3c6f ad3c
00000130: 77c2 713d 8ecc 663d f135 643c 354f 56bd
00000140: 4fde 2a3d 6a82 e53a e09a 6f3c 221f 83b9
00000150: 00ff 0dbd ba67 0e3d 653b 883a d761 4a3d
00000160: 6995 bd3c 1235 af3c e65d 663d 2934 923c
00000170: 64e5 afba c983 38bd 614a 433d 1387 16bd
00000180: f184 8a3c bd17 08bd 20c0 dfbb 3083 983b
00000190: 410d 5abd ac6f 32bd 43a2 ec3b 30c1 5bbd
000001a0: dc46 d03c 8420 e63c dd54 183d 09fc 99bc
000001b0: 5d76 753b 1e82 73bd b82d 9c3c bc30 5fbd
000001c0: 6e05 52bc 94ae 953a eaba 803d 1993 3fbd
000001d0: 8c1c 25bd ffe7 403d 0a30 26bd 78de 143d
000001e0: 3d1a 073d b6a1 4bbb 3cba 1d3c 5f38 fb3c
000001f0: 40f0 a93b 2255 cebc e72a 18bc 5d5e 52bc
00000200: b1ba 48bd 6598 f7ba c949 fabc dbd5 24bd
00000210: caba 5abd e3e9 ff3c 93b2 623d 9f89 113d
00000220: addf 1ebd 3ad9 2a3d 38f5 0dbd 6c87 743d
00000230: c477 96bc 3023 3ebd b0f3 2cbc 3b32 363b
00000240: 5b61 fa3b a11e b7b8 ae12 17bd c4cb e63c
00000250: 4017 27bc 544b 553d ba1a 99bc 7acd 213d
00000260: 6f01 9aba 30d8 943c a843 39bb d535 2bbc
00000270: 458e 8dbc 9acc 3b3d 6163 fc3b 5e35 1f3d
00000280: 329e b2bb 1122 4ebd 0ac7 05bc 5855 cbbb
00000290: 18b2 d73c 6acc 04bd 85a1 013d 7cb2 8dbc
000002a0: 8a71 16bd 8570 f8bc 9429 d6bc b351 5e3d
000002b0: bc10 173c 6b25 f9bc c33b 3d3d 7861 0bbb
000002c0: d6ee 05bd ef8c 6bbd 4763 0d3d 0f33 9d3a
000002d0: 52ae 58bd c43d 36bd 3e38 553d a5f5 153d
000002e0: b8ac 48bd 8b3c f3bc c51f 60bd 7a21 02bd
000002f0: f392 b43c 0026 67bd 4ab0 bd3c ba52 093d
00000300: 20f9 5dbd 290e 79bc 9297 08bb a19c 633d
00000310: 27b9 bfbc e510 41bd e3ed 34bd 9bc0 4c3d
00000320: 5111 38bd be81 39bd d019 0abd 681b 90ba
00000330: 40bd eb3c 1e93 623d 573d d5bc 11b2 90bc
00000340: 9aca c03c a4e0 18bd 1764 da3a f047 8e3c
00000350: d2cc 64bc 8eb9 b23b 2782 4c3b fc64 583a
00000360: e9ab 16bb 626b 083d 3ef0 fb3c 5dfe 0cbd
00000370: b191 833c 945f 45ba d6be f1bc b8a2 87bc
00000380: f46d d83c dd60 203d c704 fb3b e891 6b3d
00000390: d66e 52bd 5db1 c63c d8ba 66bd 2316 433d
000003a0: 4fd6 1f3d b0bc 753c a052 9abb 9587 d63c
000003b0: bd09 66bc 9dca c5bc 3a73 c7bc ed9d 023d
000003c0: 4f66 e13b 865a 14bd b7d5 743d c633 0e3d
000003d0: b81c ce3c 1c09 7fbd 318a 6c3d e84f 71bd
000003e0: cc74 c93c fcd1 bbbc fcd1 adbc e474 e2bc
000003f0: 489f 5e3d 6886 17bc dd3d 61bd 5cf5 20bd

qnet.fc3.weight f4 [9, 256]
0.02801796 -0.006475979 0.024121316 0.051432602 0.012613569 -0.040198524 0.010333756 0.06108166
0.024035744 -0.03175355 0.05215332 0.019138612 -0.04702005 -0.06088836 0.012186021 -0.010928772
-0.047643002 -0.026732815 0.0010770117 0.037960775 -0.023999946 0.04740743 0.057947103 0.057734363
0.047025874 -0.056741886 0.024844497 -0.0061153695 0.055843983 -0.022331841 0.062301204 -0.04248756
-0.0261418 -0.05471553 0.04952953 -0.045181975 0.037554115 -0.057606455 0.0038828775 0.036290713
-0.005824027 -0.0328513 -0.030296803 0.046452023 -0.051198922 0.048276544 -0.011197709 0.042703897
0.027799381 -0.050770674 0.03569884 -0.023597732 -0.014147204 -0.04511586 -0.024688598 0.053508505
0.02598761 -0.020377368 0.008515423 -0.0023553884 0.025031453 0.01977823 -0.05876171 0.034234174
-0.013153631 -0.05452846 0.020273762 0.052970354 0.053611156 0.0322387 -0.03466237 -0.03591927
-0.05192551 -0.029952109 0.002045156 0.044140913 4.5581322e-07 -0.024679936 -0.05964527 -0.025450518
-0.046238676 -0.04626825 0.048400067 0.004312464 -0.023537368 0.051222842 0.021715445 -0.02621884
0.0016849572 0.0051506925 0.005570487 0.0550204 -0.008423953 -0.035659708 -0.013891894 -0.011557477
-0.06058746 0.018782433 -0.055048622 0.030827574 0.053919405 -0.0056152693 0.021541689 -0.02026099
-0.056994155 0.006639815 -0.058070544 0.0026358587 -0.0003237455 0.0069166273 -0.048152782 -0.03495424
-0.051306058 -0.054823406 -0.058860607 0.043596894 0.017301844 -0.0003300012 -0.013098888 0.00037475527
-0.031256832 -0.03491542 -0.023277763 0.016897328 0.020617437 0.0471088 -0.024275366 0.033936687
0.025010638 -0.059613578 0.016206574 -0.05751845 0.019585734 0.05391255 -0.0168524 -0.010424632
-0.038098495 0.03915161 0.009146899 0.051744256 -0.021441478 -0.010064614 0.033269685 -0.019714538
-0.04913979 -0.03905979 0.0155642545 -0.016891666 -0.004733788 -0.016722329 0.022150971 0.019351214
0.049330603 0.043375038 -0.048546534 0.05664652 -0.020287883 -0.048409782 -0.044485457 0.01497113
0.011826169 -0.009121307 0.057198327 0.015672408 0.03395163 -0.017556492 -0.031004338 -0.037673257
-0.059565056 0.057569962 -0.027443638 0.058823414 -0.038444094 -0.023644205 -0.028663462 -0.05417142
0.018849475 -0.046335123 0.01043535 -0.060044415 -0.04959861 0.03453074 -0.008963715 -0.026527837
0.011254736 0.034423668 -0.03635592 -0.0111308405 -0.008556572 -0.016682861 -0.0009996789 0.051838946
-0.03656958 0.043016247 -0.045275647 0.0027268776 -0.029791612 0.021584883 -0.04938863 0.037893742
-0.028721541 0.009789153 -0.012466446 -0.060980745 0.006640691 0.015541696 0.0073645343 -0.02332964
0.03201086 -0.055316657 0.002554306 0.050961655 -0.03451282 -0.044624627 -0.03617069 -0.026959516
0.041034177 0.008961612 -0.05565977 0.04093428 -0.037677824 -0.006574125 -0.056312583 0.0067535117
-0.029552875 -0.0429795 -0.0054453984 0.059214465 0.053138778 0.048315205 -0.047588818 0.014094764
0.031416655 -0.057980925 0.04553073 -0.024501659 -0.02975786 -0.021033796 0.04608156 -0.007146448
0.047361262 0.04570065 -0.05670385 0.04276981 0.008223229 -0.043016825 0.035612646 -0.00032172352
-0.04084782 -0.030192204 -0.006384344 -0.030524012 0.0066827927 -0.06129679 0.042375404 -0.030058516
00000000: ec85 e53c 7334 d4bb 119a c53c feaa 523d
00000010: 25a9 4e3c 35a7 24bd ea4e 293c c330 7a3d
00000020: 9ce6 c43c 0310 02bd b89e 553d 94c8 9c3c
00000030: 1998 40bd 1366 79bd e0a7 473c 980e 33bc
00000040: 4f25 43bd c7fe dabc 842a 8d3a c27c 1b3d
00000050: 899b c4bc 4b2e 423d f159 6d3d de7a 6c3d
00000060: 349e 403d 2e6a 68bd b086 cb3c 7063 c8bb
00000070: a9bc 643d 44f1 b6bc 8c2f 7f3d 7007 2ebd
00000080: 5427 d6bc 641d 60bd 7adf 4a3d bc10 39bd
00000090: 58d2 193d bff4 6bbd e077 7e3b 92a5 143d
000000a0: 7bd7 bebb 168f 06bd 0031 f8bc 7a44 3e3d
000000b0: f6b5 51bd a0bd 453d 9876 37bc 48ea 2e3d
000000c0: 87bb e33c e9f4 4fbd f238 123d 0850 c1bc
000000d0: adc9 67bc 68cb 38bd be3f cabc bc2b 5b3d
000000e0: f8e3 d43c 70ee a6bc 4684 0b3c dc5c 1abb
000000f0: c30e cd3c f405 a23c 1eb0 70bd 2239 0c3d
00000100: 5482 57bc 3c59 5fbd 2915 a63c 71f7 583d
00000110: 5f97 5b3d ba0c 043d 21fa 0dbd 1620 13bd
00000120: d8af 54bd 205e f5bc 0608 063b 1acd 343d
00000130: 7eb6 f434 942d cabc 994e 74bd 9b7d d0bc
00000140: c464 3dbd c783 3dbd 263f 463d 924f 8d3b
00000150: 70d1 c0bc 0bcf 513d 97e4 b13c e5c8 d6bc
00000160: c8d9 dc3a 24c7 a83b a288 b63b 125d 613d
00000170: 9f04 0abc ea0f 12bd d49a 63bc 925b 3dbc
00000180: 8e2a 78bd 9edd 993c aa7a 61bd 1c8a fc3c
00000190: 98da 5c3d 4b00 b8bb 3278 b03c 60fa a5bc
000001a0: b472 69bd ce92 d93b 61db 6dbd 5fbe 2c3b
000001b0: 63bc a9b9 e0a4 e23b da3b 45bd 2d2c 0fbd
000001c0: 4d26 52bd 828e 60bd d217 71bd a892 323d
000001d0: 99bc 8d3c 0304 adb9 b89c 56bc cd7a c439
000001e0: 2a07 00bd 7903 0fbd 02b1 bebc 446c 8a3c
000001f0: e6e5 a83c 28f5 403d 22dd c6bc 3201 0b3d
00000200: 1ce3 cc3c 5e2d 74bd a6c3 843c 7798 6bbd
00000210: 4372 a03c 68d3 5c3d 0b0e 8abc 13cc 2abc
00000220: 2b0d 1cbd 705d 203d e0dc 153c c9f1 533d
00000230: 0aa6 afbc 0de6 24bc cb45 083d 6280 a1bc
00000240: ce46 49bd 29fd 1fbd 3701 7f3c 6460 8abc
00000250: e41d 9bbb 44fd 88bc f475 b53c 7086 9e3c
00000260: e30e 4a3d 06aa 313d bbd8 46bd 2e06 683d
00000270: c632 a6bc 5649 46bd 6236 36bd 7849 753c
00000280: 8cc2 413c 8971 15bc cb48 6a3d 6c63 803c
00000290: dd10 0b3d a2d2 8fbc cffc fdbc 464f 1abd
000002a0: 7dfa 73bd 7bce 6b3d 7bd1 e0bc d2f0 703d
000002b0: 8e77 1dbd 7eb1 c1bc a3cf eabc dae2 5dbd
000002c0: 376a 9a3c e6c9 3dbd 08f9 2a3c 22f1 75bd
000002d0: e927 4bbd 1b70 0d3d 8cdc 12bc e850 d9bc
000002e0: c965 383c d5ff 0c3d f2e9 14bd 215e 36bc
000002f0: dd30 0cbc 7faa 88bc a807 83ba 1355 543d
00000300: fcc9 15bd ce31 303d f572 39bd 6ab5 323b
00000310: 8a0d f4bc c8d2 b03c bb4b 4abd 7836 1b3d
00000320: 7049 ebbc af62 203c 1040 4cbc f2c6 79bd
00000330: 279a d93b 99a2 7e3c 3152 f13b cd1d bfbc
00000340: d21d 033d b893 62bd 2566 273b 2bbd 503d
00000350: 515d 0dbd 50c8 36bd b827 14bd 34da dcbc
00000360: 7413 283d bad3 123c 80fb 63bd b4aa 273d
00000370: 1054 1abd c26b d7bb 06a8 66bd 904c dd3b
00000380: df18 f2bc 460b 30bd 506f b2bb de8a 723d
00000390: 0ca8 593d 2ae6 453d 7eec 42bd baed 663c
000003a0: c0ae 003d 687d 6dbd 6e7e 3a3d b4b7 c8bc
000003b0: c1c6 f3bc 114f acbc 05c0 3c3d c02c eabb
000003c0: e2fd 413d 9b30 3b3d 4c42 68bd 652f 2f3d
000003d0: b9ba 063c 6932 30bd 91de 113d 00ad a8b9
000003e0: 0b50 27bd a455 f7bc c233 d1bb 7e0d fabc
000003f0: 54fb da3b 5812 7bbd d591 2d3d 473d f6bc

qnet.fc3.bias f4 [9]
0.05462453 0.007851448 -0.02971275 -0.055387974 -0.019390205 -0.02449628 0.03361737 -0.03584181
-0.023593307
00000000: f9bd 5f3d 5ca3 003c 2768 f3bc 80de 62bd
00000010: 35d8 9ebc 6cac c8bc 5eb2 093d ddce 12bd
00000020: c046 c1bc
