dqn models/ship_dqn.onnx (onnx, 283052 bytes, 6 tensors)

qnet.fc1.weight f4 [256, 8]
000000 f6 d1 37 3e 24 a6 9b 3e 44 8d a7 3e 49 26 02 3e
       0.17951187 0.30400193 0.32724965 0.12709917
000010 9a f6 18 be ae 73 41 3e b0 a4 93 be fe 55 76 bd
       -0.14937821 0.18891785 -0.28836584 -0.060140602
000020 67 11 0b be 25 9b 34 3e f6 6e 97 be 6d b7 90 3c
       -0.13580857 0.17637308 -0.29576844 0.01766559
000030 dc e7 6b bd 5f 1a 45 3d cb 3e 7b 3e cd 48 0c be
       -0.057594165 0.048120853 0.24535672 -0.13699646
000040 5b 1a aa bd 5a c2 47 be cf 3f 85 bd 82 c1 05 be
       -0.08305808 -0.19507733 -0.06506311 -0.13062099
000050 23 3d a8 3e 14 f5 82 3d c0 4f 7b 3e fb 6a b4 be
       0.32859144 0.06394401 0.24542141 -0.3523787
000060 78 c9 dd bd 04 ab 15 bd f1 da 07 be 8c fd 15 3e
       -0.10829443 -0.036540046 -0.13267113 0.14647502
000070 00 2e a5 3d b7 ad 6a 3e ee a8 37 be 14 06 07 3e
       0.080654144 0.2291783 -0.17935535 0.13185912
000080 dc d0 67 3e 1a 29 6e 3e 1c c0 0f 3e 2c 23 4c be
       0.22638267 0.23257867 0.14038128 -0.19935292
000090 04 c0 bd bd 83 20 e1 bc e7 fb 91 be 4c be 98 3e
       -0.0926514 -0.027481323 -0.285125 0.29832685
0000a0 49 29 06 3e 5e 3f a0 3e d0 e5 a3 be 21 90 51 3e
       0.13101687 0.31298345 -0.3201127 0.20465137
0000b0 9b b3 19 be 95 2c 5d 3e 60 bf cf bd ef 1d fd bd
       -0.1500992 0.21599038 -0.10143924 -0.12359225
0000c0 5c e6 5e 3c e7 5c 2f be d4 bb a4 bd bd 23 a3 be
       0.013604727 -0.17125283 -0.08043638 -0.31863204
0000d0 0f 9b df 3c 6e 3e 7c 3e 41 24 18 be eb 92 91 3e
       0.027295617 0.2463319 -0.1485758 0.28432402
0000e0 05 27 5d be 5c 41 5f 3c 53 d5 f9 bd 9a ec 84 3e
       -0.21596916 0.013626423 -0.121988915 0.25961763
0000f0 7f f8 22 3e b4 55 0d 3e bf 3b 40 bd ab 3a 65 be
       0.15915106 0.13802224 -0.04693198 -0.22385661
000100 79 3e 73 3e 12 63 47 3e 93 e1 d3 bd 01 66 47 be
       0.237543 0.19471386 -0.10345759 -0.19472505
000110 7f b1 0f 3e 78 9a 64 3e 8e 5c 83 3e b8 71 23 3e
       0.14032553 0.2232455 0.2565655 0.15961349
000120 5c 95 76 be bf 86 aa be 0a 3c 6b be 40 86 f0 3d
       -0.24080414 -0.33305928 -0.22972122 0.11744356
000130 f7 d5 a8 be 3b 4e ad 3d 19 7d 17 be a2 bf a5 be
       -0.32975742 0.08462187 -0.14793815 -0.32372767
000140 ea 1e 48 be 7f 3f 20 be d7 2c 4f be bd 7f 82 be
       -0.19543043 -0.15649222 -0.20231949 -0.25488082
000150 5b b7 c6 bd 87 8f 19 be d3 2d 21 3e a0 db ef 3d
       -0.09702941 -0.14996158 0.15740137 0.11711812
000160 6d 4d 14 be e4 82 12 3d 5f 5a 3a be dd 6d 42 3c
       -0.1448266 0.03576936 -0.18198536 0.011867014
000170 61 a6 6b 3e 74 95 13 be 99 43 88 3e 41 67 c5 bd
       0.23012687 -0.1441248 0.26614073 -0.09638835
000180 62 9d 86 3e fb 54 2f 3d ab 14 f9 bd d3 50 8c 3e
       0.2629195 0.042805653 -0.12162145 0.27405414
000190 2b ee 0c be d5 79 ca bc 4e 17 0c 3e 4a 55 ae 3e
       -0.13762729 -0.024716297 0.13680765 0.34049445
0001a0 7b 5c 52 3d 59 a9 50 be 88 a8 a5 3e 74 2b 94 be
       0.051357727 -0.20377101 0.32355142 -0.28939402
0001b0 35 b0 7d 3e cf 72 67 be 18 e9 dd 3d f8 40 70 be
       0.24774249 -0.2260239 0.10835475 -0.23462284
0001c0 89 81 b0 ba c5 54 93 3d 2f 85 8a 3e e9 95 76 3e
       -0.0013466339 0.07193903 0.27054736 0.24080624
0001d0 7c 0e 86 be 46 c1 a8 be 8f f2 7a 3e 62 c0 06 3e
       -0.26182926 -0.32959956 0.24506591 0.13159326
0001e0 6b 2b a1 bd 3b 6e 76 3e 8b 42 8e be c5 47 c2 3d
       -0.078696094 0.24065487 -0.27785143 0.09486345
0001f0 d9 be 0d 3e 87 0c 4c bd d0 0d 2e 3c a9 a3 44 be
       0.13842334 -0.049816635 0.01062341 -0.19203056
000200 c0 22 fd 3d a9 fc cd bd af b8 82 be 00 86 09 be
       0.12360144 -0.10057957 -0.25531527 -0.13430023
000210 c1 63 7c be 1d a0 74 3a 1f 0a 00 be ad 11 8a be
       -0.24647428 0.000933172 -0.12503861 -0.2696661
000220 98 b1 42 be da 6f 18 3d 05 2f 6e be 86 90 80 be
       -0.19013059 0.037216045 -0.23260124 -0.25110263
000230 dd d8 ff bd 5d e1 79 3e 94 74 bc 3d a3 09 1d 3e
       -0.12492535 0.24402376 0.09201923 0.15335707
000240 1c eb 44 3e db d1 de bd a0 b5 ad 3b 15 3a 26 3e
       0.19230312 -0.108798705 0.0053011924 0.16233094
000250 78 0b 3c be aa be 46 3e c4 05 90 3e c5 16 08 bd
       -0.1836375 0.1940867 0.281294 -0.03322484
000260 58 a1 f1 3d 91 d2 d8 3d 92 47 00 3e 8b c3 d7 bd
       0.11798352 0.10587037 0.12527302 -0.10535344
000270 39 a5 9b 3e b4 bf c8 3d d8 29 7c 3d f0 f0 13 3e
       0.30399492 0.098021895 0.061563343 0.14447379
000280 68 3f 74 3e d4 35 10 3e 1a 1b 2c 3e ca e4 f1 bd
       0.23852313 0.14083034 0.16807213 -0.11811216
000290 9f 87 94 be bd 2c 1a 3e e8 90 45 3e a4 ba a2 3e
       -0.2900972 0.15056129 0.19293559 0.3178302
0002a0 81 98 26 3e 37 ee 2e 3e 89 44 3e 3e d2 d9 78 3d
       0.16269113 0.17083059 0.18580832 0.060754605
0002b0 6d c5 93 3d e7 f0 47 3e 90 d2 7d 3e 30 44 ab bd
       0.0721539 0.1952549 0.24787354 -0.08362615
0002c0 c4 f2 7d 3e 07 b8 a6 3e 38 96 16 bc 2d 23 9b 3e
       0.24799639 0.32562277 -0.009191088 0.30300274
0002d0 91 10 f3 3d c6 bf 70 be df ee 89 3e 8c 22 2c be
       0.11868394 -0.23510656 0.26940057 -0.16810054
0002e0 2d a5 9c bb 74 52 88 be 45 8b 42 be 0d 14 6b 3e
       -0.0047804327 -0.26625407 -0.1899844 0.22956868
0002f0 e9 90 d5 bb d6 16 cf 3d 0f b7 84 be aa 57 6c 3e
       -0.006517519 0.101117775 -0.25920913 0.23080316
000300 f5 3d f7 bd 72 e6 26 3e 31 72 a2 bd 40 db 75 3e
       -0.12072364 0.16298845 -0.079319365 0.24009418
000310 ec ff 2d 3d 22 9a cd 3d 02 33 de 3d 47 eb 64 3e
       0.042480394 0.10039164 0.10849573 0.22355376
000320 86 9b 97 bd a9 a8 a8 3d 2b 7e 99 bd fd 01 c1 3d
       -0.074027106 0.08235294 -0.07494768 0.09424207
000330 d2 50 5e bd 2d 0d f5 3d c3 a6 94 bd 1a 68 ae be
       -0.054276295 0.11965404 -0.0725837 -0.34063798
000340 59 46 a3 bd f5 9f 7b be 0a 6f 7e 3d da 1b 22 be
       -0.07972402 -0.24572738 0.062117614 -0.15830937
000350 70 09 90 3e 6a 37 95 3e c1 f2 0d 3e 23 c9 76 3e
       0.281322 0.2914384 0.13862135 0.24100165
000360 de cc a1 3e 77 2b 5a 3e 0c 43 88 bd ef 10 23 be
       0.31601614 0.21305643 -0.06653413 -0.15924428
000370 cc 41 37 be 37 0d e7 bc 62 12 5d 3e 94 e2 aa be
       -0.17896193 -0.028204544 0.21589044 -0.3337599
000380 7b b7 3b 3d e6 d7 23 3e a4 9a 93 be 6e 9d 4e 3e
       0.045829277 0.16000327 -0.2882892 0.20177242
000390 e6 ad 2a 3e 17 e9 8b 3e ae 3e dc bd 49 eb 99 be
       0.166679 0.2732627 -0.10754143 -0.3006232
0003a0 e9 f5 b5 3e 3a 12 84 3e d8 cf bd bd 36 a2 19 3e
       0.35539177 0.25795156 -0.09268159 0.15003285
0003b0 37 ad 8f 3d 5a 87 7c be 7a 7d 83 3e 3a 32 3a be
       0.0701546 -0.24661008 0.2568167 -0.18183222
0003c0 67 a2 18 bd 2d b7 80 be ed 4c e8 bd 37 87 8a be
       -0.037264254 -0.25139752 -0.113427974 -0.27056286
0003d0 11 1b be 3d 59 30 2e be bf dc e6 3d 89 53 9b 3e
       0.09282506 -0.1701063 0.11272573 0.3033717
0003e0 df bf 11 be 54 13 37 be c0 50 4d 3e fe 20 b6 bd
       -0.1423335 -0.17878467 0.20050335 -0.088930115
0003f0 83 d1 da 3d 60 2e ff bd 6c 0c 3c 3e df 83 ea bd
       0.106844924 -0.12460017 0.18364114 -0.11450934

qnet.fc1.bias f4 [256]
000000 8d 22 9b 3d c6 8d f3 3d ce 17 67 3e 2a 59 c7 be
       0.075749494 0.118922755 0.22567675 -0.38935214
000010 2b 85 09 3d a6 95 83 3d 13 d6 b3 bc 85 a7 eb 3c
       0.033574264 0.064250275 -0.021952664 0.028766403
000020 ff e6 87 3e 80 8c 14 bc d4 c3 17 be f0 d4 a3 be
       0.26543424 -0.009066701 -0.14820796 -0.31998396
000030 39 7a 78 bd 53 ba 07 3e 9a aa 65 be d8 59 bf bd
       -0.060663436 0.13254671 -0.2242836 -0.09343308
000040 2e 98 f9 bd 37 1d 54 3e 00 76 f6 3d 24 1f b9 be
       -0.12187229 0.2071427 0.120342255 -0.3615657
000050 d5 d5 39 3d ff 2e fe 3d c9 a5 c9 3c ee 91 fa 3d
       0.04536994 0.124113075 0.024615185 0.12234865
000060 1f 22 7a 3e 14 74 ed bc 9c 09 ab 3d 40 08 dd 3d
       0.24427079 -0.028986014 0.08351442 0.10792589
000070 2f 87 86 bc 12 df 23 3c 3f 4d fc bd 92 c6 f8 3d
       -0.016421882 0.010001915 -0.12319421 0.12147249
000080 47 31 4e be f7 26 2d be 1d 99 9e 3e 67 70 49 be
       -0.20135985 -0.16909395 0.3097619 -0.19671784
000090 83 40 39 3e ba ff b0 be 0f d5 6f 3e 04 6a 92 bd
       0.18091016 -0.34570104 0.23421119 -0.07149127
0000a0 64 9f 6b be 6d 93 2b be 2b 03 04 be 39 11 06 be
       -0.23010021 -0.16755457 -0.12891833 -0.13092507
0000b0 18 c8 b3 3e a9 52 2b 3e bb d0 17 be b4 c8 91 be
       0.35113597 0.16730751 -0.14825718 -0.28473437
0000c0 13 0a a6 be 25 53 ed 3b ea 2a e6 bc 49 5f 9e be
       -0.3242956 0.0072425776 -0.028096635 -0.30932072
0000d0 6f 49 8e be 7a 15 3e 3d f1 79 e9 3d 77 d2 2a 3e
       -0.277904 0.0464072 0.114002116 0.16681848
0000e0 04 bd 7d be 40 99 e3 bd 0b b6 b0 be 2e df 9b 3e
       -0.24779135 -0.111132145 -0.34513888 0.3044371
0000f0 7a 27 34 3e b6 f6 8f be 0d 22 5c 3e 8d c5 07 3d
       0.17593184 -0.28117913 0.21497364 0.033147383
000100 4b f3 60 3d 67 09 17 3e 33 46 3a be ef ba b9 3d
       0.054919522 0.1474968 -0.18190841 0.09068858
000110 60 c2 0a be 05 9e 8a be 49 c8 b4 bd b2 2e 88 3e
       -0.1355071 -0.27073684 -0.08827264 0.26598126
000120 26 b6 2e bd 56 45 67 bd 56 28 9c be 4e 43 ab be
       -0.04265418 -0.05646261 -0.30499524 -0.33449787
000130 f8 90 a5 3d 6b e9 bd 3e a3 f6 19 3e 91 a3 43 3e
       0.08084291 0.37092146 0.1503549 0.19105364
000140 33 79 86 3d 7a a3 9a be 56 6f 39 3e a8 df 51 be
       0.06566086 -0.30202848 0.18108878 -0.20495474
000150 ad b3 81 3c 74 0a 5b 3e d9 44 b5 be 8d 95 96 bd
       0.015832746 0.21390706 -0.3540409 -0.07352743
000160 9e 03 4e 3e 2e ba ab 3d b1 10 aa be e8 f9 82 3e
       0.20118567 0.0838512 -0.3321586 0.25581288
000170 0e fe a1 be a2 ba 80 3e 30 91 38 3e 59 20 3a 3e
       -0.3163914 0.2514239 0.18024135 0.18176402
000180 64 4e e4 3d 96 7b 31 3e e8 6e e3 bd a6 0d 88 3e
       0.11147764 0.173323 -0.11105138 0.26572913
000190 fb 50 9e 3d 71 30 a0 3e a0 6d a3 3e 07 64 1d 3c
       0.077302895 0.31286958 0.31919575 0.009606368
0001a0 bd dc 53 bd 82 c6 92 be 50 83 62 3e 21 35 6c 3e
       -0.051724184 -0.28667074 0.22120404 0.23067142
0001b0 fe 47 06 be e1 73 43 be 08 8c 88 3e 05 c1 43 bd
       -0.131134 -0.19087173 0.26669335 -0.0477915
0001c0 e7 f0 2d 3e 61 0a 81 3e fb 4b 1c 3e 8c 13 a3 be
       0.16986428 0.2520323 0.15263359 -0.3185085
0001d0 d1 86 a7 bd 7b 73 6d bd bc a8 97 be d5 9d a2 3e
       -0.08180011 -0.05797146 -0.29620922 0.3176104
0001e0 5c 48 cd bd b8 f2 79 3d 6f 8c 27 be 4e e6 89 3e
       -0.10023567 0.06102249 -0.16362165 0.2693352
0001f0 97 b9 b2 3e 7f 4d bf 3d d2 70 81 be 5e cc cb bd
       0.3490722 0.09340953 -0.25281388 -0.09951089
000200 23 f5 ca bd bf c1 0d 3d 48 35 0c 3d d3 03 51 3e
       -0.09910037 0.0346086 0.0342305 0.20411615
000210 59 b6 91 be 17 06 52 3e 0d 45 89 bc f8 7b e6 3d
       -0.28459433 0.20510136 -0.016756559 0.11254114
000220 33 0e 04 3e 30 48 81 3e b2 79 1c 3e 1e a6 a4 be
       0.12896042 0.25250387 0.15280798 -0.32157987
000230 98 15 38 be d0 73 42 3e 3c a9 8e 3e 3a 62 57 3e
       -0.17976987 0.18989491 0.2786349 0.21033564
000240 ff bf 94 3e 02 5d 98 be 27 9a fa bd d6 0f a8 3e
       0.2905273 -0.2975846 -0.122364335 0.32824582
000250 78 9d e8 3d 10 9a 31 3e 5e e8 ab 3e 60 c7 70 bd
       0.1135816 0.17343926 0.3357572 -0.05878389
000260 c3 5a 75 3e b6 13 b7 be cc 53 24 be c4 ea da 3d
       0.23960404 -0.35757226 -0.16047591 0.10689309
000270 3e 8d 93 bd 44 a6 90 be f1 7f 96 be 1b 87 4d 3e
       -0.07204674 -0.2825185 -0.29394487 0.2007107
000280 33 05 a4 3e 18 fe 07 3e 50 0f e5 bd 3d 19 a2 be
       0.32035217 0.13280523 -0.11184561 -0.3165988
000290 ad 90 87 be 46 d6 c1 3e 84 f9 9f bd 93 5f a9 3e
       -0.26477566 0.3785879 -0.07811263 0.3308073
0002a0 a1 b4 83 be ca 66 d8 3d 93 00 34 be 63 eb 0d 3e
       -0.25723746 0.105664805 -0.17578344 0.13859324
0002b0 44 90 40 3d a0 5f 9b 3e 1b 59 8c 3e 81 bb 47 be
       0.047012582 0.30346394 0.27411732 -0.19505121
0002c0 c1 46 c4 3e b0 af db bd 66 8b 88 bd 19 a2 ff 3c
       0.3833523 -0.10726869 -0.06667213 0.031205224
0002d0 3b 02 1a 3e 09 e6 7a 3e 5a 59 48 3e fd a1 ab be
       0.15039913 0.24501814 0.19565335 -0.33522025
0002e0 1b 1b 63 3e 4f c7 84 be f8 99 a8 3e 18 40 2f be
       0.22178309 -0.2593331 0.3292997 -0.17114294
0002f0 c3 ce a9 be 68 fb 23 be 8a ec d3 bc 4c 9b de bd
       -0.3316556 -0.16013873 -0.025869627 -0.10869464
000300 da 78 9d 3e 74 4a af be 07 3b 82 3d 63 f4 65 3d
       0.30756265 -0.3423649 0.06358915 0.05614127
000310 5f d9 55 3e 7c 00 70 be 9f 51 28 3e 73 72 d7 3d
       0.20883702 -0.23437685 0.16437386 0.10519876
000320 e5 f2 4a be 0a 12 62 bd 74 b0 b1 3d 3d de 8a be
       -0.1981922 -0.055192985 0.08676234 -0.2712268
000330 7e 41 28 3e 8f 6f 21 3e 80 c8 90 be 05 d6 98 be
       0.16431233 0.15765212 -0.2827797 -0.29850784
000340 24 79 bb 3d 8a c3 88 3e f9 e4 c7 bd c7 23 a4 3e
       0.09153965 0.26711684 -0.0976047 0.32058546
000350 30 36 93 3e 83 00 9f be b4 26 20 3e 33 95 0a bd
       0.2875228 -0.31055078 0.15639764 -0.033833694
000360 47 ff 83 3e b2 29 37 3d dc 5d 83 3c 0b 80 47 bd
       0.257807 0.044717498 0.016035967 -0.048706096
000370 79 e8 01 3e 5e aa 9f bc b5 4e fd 3d f5 59 7e be
       0.12686338 -0.019490417 0.12368528 -0.24839003
000380 e9 44 b6 3e 0a ca 72 be df 70 35 bd a7 64 0e 3e
       0.3559945 -0.23709884 -0.044297095 0.13905583
000390 13 dc 77 3e 40 89 26 3d e9 f6 71 3e 57 6a a9 3e
       0.24205045 0.040658236 0.23629345 0.33088943
0003a0 fa a7 41 be 90 99 97 be 60 30 31 3d 0e 4b 6b 3e
       -0.18911734 -0.29609346 0.043259025 0.2297785
0003b0 d6 83 08 bd 64 da 74 3e 02 87 5c be d1 5d ad 3e
       -0.033328854 0.23911434 -0.21535876 0.3386064
0003c0 f9 c2 81 3e e0 11 4f 3e 91 f3 64 3e 08 0a 09 bd
       0.25344065 0.20221663 0.22358538 -0.033456832
0003d0 c8 43 ad 3e 35 8b e0 bd 39 1f ac bd 6d 18 2f 3e
       0.33840775 -0.10964052 -0.08404393 0.17099161
0003e0 6f 70 a1 be 42 78 ba 3c ca 7b a1 bc 27 4d 81 3d
       -0.31531093 0.022762422 -0.019712348 0.06313544
0003f0 4b 2f af bd 70 d8 9f 3e eb 4f 05 be 01 cb c1 bd
       -0.08553942 0.31219816 -0.13018768 -0.09462548

qnet.fc2.weight f4 [256, 256]
000000 38 3d 34 3c 08 d4 3b bd f2 ab 1c 3d e5 0b 28 ba
       0.011000924 -0.045856506 0.038249917 -0.0006410464
000010 1c cf 5c bd e3 6b c9 bb b4 e0 f2 bc 5e 65 ba bc
       -0.053908452 -0.0061468943 -0.029648162 -0.022753414
000020 5e be d1 3c 8a 93 05 bc c5 99 7c bc e6 fd 86 bc
       0.02560347 -0.008152852 -0.015417521 -0.01647849
000030 ba f1 95 bb 76 55 77 bc 64 f9 1d 3d 7a 03 26 bc
       -0.004575935 -0.015096059 0.038567916 -0.010132665
000040 85 e1 44 3d 1b 0d 09 bd a9 38 f5 3c 20 a5 a2 bc
       0.048066635 -0.033459764 0.029934244 -0.019854128
000050 fd ae 2b bc 81 79 93 3c 13 c5 55 3d c3 83 8e 3d
       -0.010478732 0.018002274 0.052189898 0.06958725
000060 6c 9d 4e bb 30 7c 1f 3d 1a 62 10 bd 43 5c ff bc
       -0.0031526936 0.038936794 -0.035249807 -0.031171924
000070 d7 90 d0 3a dc 6a c0 3b f6 5b 2e 3d 6c c8 19 3d
       0.0015912306 0.0058721136 0.04256817 0.037544653
000080 94 37 b5 bc 64 e0 02 bc aa 88 60 bb ed 26 e1 bc
       -0.022121228 -0.007988069 -0.0034261146 -0.027484382
000090 1d fd 8e 3c 56 26 60 bc 1a b6 df 3b e2 39 58 bd
       0.017454678 -0.013681015 0.006827128 -0.052789576
0000a0 92 86 17 3d 75 d1 5e bd 1c c5 b8 bb 74 3e 06 bd
       0.03699357 -0.054398973 -0.0056387316 -0.032774404
0000b0 6e 1c 52 bc 56 01 16 3d b9 cb 21 bc 58 9e 4a bb
       -0.012824161 0.036622368 -0.009875231 -0.0030917134
0000c0 d6 80 f3 3c 1d a5 60 bc 57 e6 23 bd 06 71 1e 3d
       0.02972452 -0.013711241 -0.04001459 0.038682006
0000d0 8e f5 e5 3c d3 86 07 3b aa b4 56 bd af b1 22 bd
       0.028071191 0.0020679727 -0.05241839 -0.039720234
0000e0 46 0a b8 bc 8a 88 94 3c 82 e7 6b bc 6c f3 cf 3c
       -0.022465836 0.018131513 -0.0143984575 0.025384627
0000f0 e4 b7 28 bc cf fc e7 3c f8 4f 45 3d 44 6d a6 bb
       -0.010297749 0.02831879 0.048171967 -0.0050789434
000100 4f 2c 3e 3c 51 17 93 bc db db d9 3c 24 11 d7 3b
       0.011607244 -0.017955454 0.026594093 0.0065633226
000110 18 a2 1a bd 92 76 11 3c 53 f7 8c 3c b5 21 f7 bc
       -0.03775224 0.008878367 0.017207777 -0.03016744
000120 dd 38 22 bd a7 63 45 bd 30 14 f3 bc 3b 41 72 3d
       -0.03960501 -0.04819074 -0.029672712 0.05914424
000130 ed 90 ed bc 94 c2 08 3d 95 ea 97 3c 27 7c f8 3c
       -0.02899977 0.03338869 0.018544475 0.030332638
000140 50 34 3d bc f8 06 c3 bb 8e b5 64 bd 9e 90 71 bd
       -0.011548117 -0.0059517585 -0.055837207 -0.05897581
000150 ba 76 16 bc bb 9a 15 3b 3e 9e 32 bb 60 23 94 bc
       -0.00918358 0.0022827822 -0.0027254964 -0.018083274
000160 45 a6 10 bd 42 10 37 3c ae f7 03 bc c8 cb 0e bd
       -0.035314817 0.01117331 -0.008054657 -0.03486231
000170 20 89 23 3d 20 95 a9 3c 6c 67 9b bc 0c a7 ea 3c
       0.039925694 0.020700991 -0.018970214 0.028644107
000180 33 63 d5 3c 5e 95 79 3c bf e2 5d 3d 7e e2 70 bd
       0.026048278 0.015233366 0.05417132 -0.05880975
000190 5a 77 04 3c 8f d3 00 3c a3 cc 4a bc 42 33 98 3d
       0.008085096 0.0078629395 -0.012377891 0.07431652
0001a0 a7 74 15 bd ef 90 18 bd 81 5b 72 3d 8e 46 02 bc
       -0.0364882 -0.037247594 0.059169296 -0.007951392
0001b0 64 76 bf 3c e9 61 70 bd 4d dd 55 3d 84 ea a8 bc
       0.023371883 -0.058687124 0.052213002 -0.020619638
0001c0 cf 9e 4b bd f6 45 cd 3c 45 a5 0a bd 3b 48 82 bd
       -0.049712 0.025057774 -0.03384902 -0.06361433
0001d0 d9 6f 86 3c 3f 83 e1 bc 1d c2 45 bd 00 dd ef 3b
       0.016410755 -0.027528403 -0.048280824 0.0073200464
0001e0 42 5e 4a 3c a7 9c d2 3c 61 ba fa bc fc 94 52 3d
       0.012351574 0.025709463 -0.03060645 0.051411614
0001f0 6e 01 f3 bb 23 64 8a 3c 49 38 4c 3d 4e 75 75 3c
       -0.007415942 0.016893452 0.049858365 0.014981581
000200 91 7e ee 3c 0e 2f 88 bd 21 96 58 bd 12 47 eb 3c
       0.029113086 -0.066496 -0.05287755 0.028720412
000210 ea 75 00 bd 4c 22 52 bc c9 41 9b bc 8d 71 30 39
       -0.03136245 -0.01282556 -0.018952267 0.00016826969
000220 c0 9d c2 3c 46 44 19 3d 15 13 b1 3b 71 c8 43 bd
       0.023756862 0.037418626 0.005403886 -0.047798578
000230 30 93 82 bb ce 28 1a bc ac 52 ec bc 95 c5 f1 3c
       -0.0039848313 -0.009409143 -0.028848015 0.02951316
000240 ed 88 59 3d cf 7b 1e bb ff 57 2c 3c 16 de 23 bd
       0.0531091 -0.0024182682 0.010519027 -0.04000672
000250 fb 62 7d bd 6f 6e 3e bd 6f 9e 1f bd d7 e4 f5 bc
       -0.061861973 -0.046492036 -0.038969453 -0.030016346
000260 66 e1 f9 3c 5f c0 68 3d ea fa 5d bc 40 cc 49 bd
       0.030502986 0.056824084 -0.013548592 -0.049267054
000270 28 49 53 bc 44 b9 95 3d a6 f2 a6 bb d7 ef 5b 3d
       -0.01289586 0.07310727 -0.005094844 0.053695526
000280 cb 9f 31 bd f3 93 86 bc 57 c7 05 3d 41 53 b3 bb
       -0.04336528 -0.01642797 0.03266081 -0.005472571
000290 ba 58 be 3c 97 49 a1 bc 62 f6 f1 3c 25 63 61 bc
       0.023235667 -0.01968841 0.02953643 -0.013756548
0002a0 d9 8a d0 bc 21 6c 7d 3d 69 7b 3c bc 42 d4 39 bc
       -0.025456833 0.061870698 -0.011504033 -0.01134211
0002b0 c9 65 20 bc 10 d8 62 3d 0a ec 86 bc 19 0b 0c 3d
       -0.0097898925 0.055381835 -0.016469974 0.03419027
0002c0 47 25 63 bc 13 ef 89 bc 13 3d 23 bd a4 e4 fb bc
       -0.013863868 -0.016837632 -0.039853167 -0.030748673
0002d0 ee f4 9a 3c 67 6d 0a 3d ed 13 01 bd 78 59 0a 3d
       0.01891562 0.03379574 -0.031513143 0.03377673
0002e0 03 59 fa 3c ba 60 89 bc ae 42 73 bc f0 25 30 bd
       0.030560022 -0.016769756 -0.014847441 -0.04300493
0002f0 0f cf 6f 3a f9 c6 27 3d d3 7d 23 bd b4 02 b7 bc
       0.00091479806 0.04096124 -0.039914917 -0.022340156
000300 2c 52 c6 3c 66 70 81 3b 30 1b fb 3c 1a 38 0e bd
       0.024209104 0.0039501665 0.030652612 -0.03472147
000310 44 fd 01 3d d4 1f 19 bd 9a 76 5b bc 51 1b f3 3c
       0.031735674 -0.03738387 -0.013394976 0.029676111
000320 08 34 b8 3b cc 2b 19 3c 56 07 25 3d fe 1b 19 bc
       0.005621437 0.009348821 0.0402902 -0.009345053
000330 a2 d2 f7 3c 5a 94 50 bd 8e 5a 35 bd d5 88 d8 bc
       0.030251805 -0.05092273 -0.044275813 -0.026432434
000340 e2 16 43 bd ba 25 8a 3d 41 4b 1b bd 7c a4 48 3b
       -0.047629245 0.06745477 -0.037913565 0.0030615618
000350 26 8e 2d bd 85 b4 89 3c c0 55 58 3d e4 e0 13 bd
       -0.04237189 0.016809711 0.052816153 -0.036103144
000360 0b 6d 84 3d ba a2 3a 3d 6d 57 21 3d 4b ed 82 3a
       0.06466111 0.045565344 0.039390016 0.0009988932
000370 5b 42 2b bd f6 d1 65 3c 1a f8 9e 3c 53 0f 6a 3c
       -0.04181133 0.014027109 0.019405413 0.01428588
000380 49 c2 9e bb 63 57 37 bd f0 f9 73 bd 0d 5f 5e 3d
       -0.004844938 -0.044761073 -0.05956453 0.054289866
000390 18 d8 72 3d ee 02 75 3d 9b 5a 05 bd 28 f0 32 3d
       0.059288114 0.059817247 -0.03255711 0.043686062
0003a0 bf 49 82 bc 91 b1 6e bb 09 c7 29 3d f3 6a c0 bc
       -0.015904306 -0.0036421756 0.04144958 -0.023488497
0003b0 1a fa 91 3d df a2 31 3d 2d 45 f9 bc 6b 97 f3 3c
       0.07127781 0.043368217 -0.030428493 0.029735288
0003c0 64 ab e9 bc b0 64 d7 3c 59 37 38 3d ff 9a f4 3c
       -0.028524108 0.026293129 0.04497466 0.029859064
0003d0 07 20 f9 3b 03 2c c1 3b 1d f4 77 bc 3d 51 12 3d
       0.007602695 0.005895139 -0.015133885 0.035722006
0003e0 fe 2a 3e bc 06 5a 7b bc 88 28 ff bc 9b f3 0c bd
       -0.01160693 -0.0153412875 -0.031147256 -0.034412008
0003f0 f2 cb 6b 3c 9f de 96 bb 43 93 85 bc ff 11 eb 3c
       0.014391886 -0.004604175 -0.016305571 0.028695105

qnet.fc2.bias f4 [256]
000000 67 14 9a 3c e9 0a a2 3c 5f aa 8a 3d 59 57 ae 3b
       0.018808557 0.019780593 0.06770777 0.0053204712
000010 e5 57 0f bd e5 05 1b 3d 09 57 5e 3d 5d bb 4a bd
       -0.034995932 0.03784742 0.054282222 -0.04949509
000020 02 b3 b5 bc 90 52 6d bc 7a b1 81 bc ec ed e3 3c
       -0.022180084 -0.014485016 -0.015831698 0.02782341
000030 46 13 5b 3d 9e 1d ab 3d 0c 0f 5a bd f7 8d 4d bd
       0.053485177 0.083552584 -0.053237006 -0.050184216
000040 4a ff 9e bd ca 45 05 3d 0d 32 1c bd 6d 46 33 bd
       -0.07763536 0.03253726 -0.03813367 -0.043768335
000050 46 42 65 3d 73 e9 0d bd 58 bf 05 3d a3 7f 59 bb
       0.055971406 -0.034646463 0.032653183 -0.003318765
000060 93 8e 56 bd 2b 91 81 3b b3 ee 52 bd 9d 0d bf 3c
       -0.052382063 0.003954073 -0.051497173 0.023321921
000070 ad 46 d8 3d 93 73 d3 3d 24 f5 4f bd 27 e9 6d bd
       0.10560355 0.103247784 -0.050770894 -0.05808368
000080 df 37 ba 3c e4 d5 ae bb 00 45 23 3d f4 4f 7f 3c
       0.02273172 -0.0053355563 0.039860725 0.015583027
000090 54 b2 b7 bc 3c 79 97 3b 2a ff 60 bb 1a 23 83 bc
       -0.0224239 0.0046226066 -0.0034331777 -0.016007949
0000a0 85 a6 e0 3b 68 16 7b bd 8a fb fe 3b cf 2f 20 bb
       0.006855788 -0.061300665 0.0077814506 -0.0024442559
0000b0 01 1a 9d bd 63 54 af 3c 72 9d 31 3c 0b 1e 02 bc
       -0.076709755 0.021402543 0.010840761 -0.007941733
0000c0 06 91 6d bc d6 19 2f 3d 38 5e 6c 3c d5 52 3e bd
       -0.014499908 0.04274925 0.01442676 -0.046465714
0000d0 c6 2a c7 bd 0f 61 28 3c c4 37 8e 3d fb 35 2c bd
       -0.09724955 0.010277047 0.0694423 -0.042043667
0000e0 6e d4 81 3d 57 62 a1 3d 73 45 6e 3d 97 20 76 3d
       0.06339346 0.07880085 0.0581717 0.060089674
0000f0 05 33 2c bc 88 e8 5c 3c 30 1e 6a bd 91 e1 a9 bb
       -0.010510211 0.013483174 -0.057157695 -0.0051843603
000100 e7 f1 28 bd ad c1 8b 3c f4 30 2c bd 4b 35 3f 3d
       -0.04124632 0.017060125 -0.042038873 0.046681684
000110 b4 53 a1 3c b0 92 81 bc 10 99 02 bd bb 96 50 bc
       0.019693233 -0.015817016 -0.031884253 -0.012731249
000120 18 85 62 39 a5 76 b7 3c 31 1f 28 3a fe 44 38 3d
       0.00021602621 0.022395441 0.0006413339 0.04498767
000130 16 04 85 3c 5d 3f 63 3c b2 cc 3f bd de 67 bf 3c
       0.0162373 0.013870087 -0.046826072 0.023364957
000140 7a 36 32 3d 80 8e c5 3b 53 29 09 3d 00 f0 44 3c
       0.043508984 0.00602895 0.033486675 0.012020111
000150 c4 7b b3 bd 9f b1 9f bc 36 5d 25 3c 4a 31 2b 3d
       -0.08763841 -0.019493876 0.010093024 0.041795053
000160 78 1b 8c bc d4 0d ad bd 83 c6 c9 3d 88 a9 74 bd
       -0.017102942 -0.08449903 0.09852316 -0.05973199
000170 1c 65 ed 3c fa e8 d9 3c 86 01 67 bc 74 bb 5f 3b
       0.028978877 0.02660035 -0.014099484 0.003413883
000180 b5 7a 52 bd d3 87 44 bd fe 3c 3b 3a 90 f9 4e bd
       -0.051386554 -0.047981095 0.00071425724 -0.05053097
000190 8a 92 30 bc 63 4f 4b 3b 34 8f 18 bd 9a e7 88 bc
       -0.010777125 0.003102266 -0.037245944 -0.016711999
0001a0 08 f9 36 bd 5d fe 81 bd fa 01 99 3d 17 6a 4c 3c
       -0.04467109 -0.06347344 0.0747108 0.012476466
0001b0 0f a1 7c bc 15 a3 81 3c 11 f2 0d bd 52 2a 13 3c
       -0.015419259 0.015824834 -0.03465468 0.008982258
0001c0 d7 c8 4e bd 70 30 00 3d 0f 6d be 3c b3 5c 71 bd
       -0.050484505 0.031296194 0.023245363 -0.058926295
0001d0 64 25 4a bd 4d 7a cd bd af 68 27 bd 13 00 10 3d
       -0.049352065 -0.10033093 -0.04087132 0.03515632
0001e0 e4 bc b4 bc 78 2e ab bc 29 4d 6c 3d ef e8 1c 3d
       -0.022062726 -0.020896181 0.057690773 0.03830808
0001f0 9a 88 d9 bc 6d f0 2b bd b8 0a cd bc 92 ad 6a bd
       -0.026554395 -0.041977335 -0.025029525 -0.057294436
000200 01 09 4a bd e3 b0 32 bd 9b 00 20 bd 08 8e fd 3a
       -0.049324993 -0.043625724 -0.039063077 0.0019344697
000210 3d e7 89 3d 46 3a 78 bc 5e f0 1e bc 0a 13 01 bd
       0.06733558 -0.015150612 -0.009700863 -0.031512298
000220 9d 42 bd 3c 07 6f d4 3c 1d c8 ce 3c 89 0a 64 bd
       0.023103053 0.025931848 0.025241906 -0.05567411
000230 16 2e 36 bd 30 4b 4d bd b1 59 ee bc 7b 56 c3 3c
       -0.044477545 -0.050120533 -0.029095503 0.023844948
000240 91 b2 ae 3d df 35 5e 3d 4e b8 4d bd 16 da 83 bd
       0.085301526 0.054250594 -0.050224595 -0.06438081
000250 e0 2b 50 3d 2d 40 4b 3d d5 c5 3d 3d fa 1d 9f 3d
       0.050823092 0.04962175 0.046331245 0.077693895
000260 d0 69 05 bc d5 d5 42 bd 22 bd e3 3c 76 d7 25 bd
       -0.008142903 -0.047567207 0.027800146 -0.040488683
000270 d0 63 69 3d 14 59 9e 3c 3f e0 51 3d 64 a4 18 38
       0.056979954 0.019329585 0.05123925 3.6392725e-05
000280 f1 4c af 3c 2e d0 6c bd 56 48 22 bd 7f bf 9c 3d
       0.021398993 -0.057815723 -0.039619766 0.076537125
000290 d8 44 94 3b d3 2a 36 3d 99 ab be 3c ee 86 6a bd
       0.0045248084 0.044474434 0.023275184 -0.057257585
0002a0 0b b3 d1 3c 0b fa 41 bd 78 ac 73 3d 7a 84 a2 bc
       0.02559807 -0.0473576 0.05949065 -0.01983856
0002b0 52 f0 0d bc 95 fb 29 bd 7f f3 8f bd 00 b7 6f bd
       -0.008663254 -0.041499693 -0.07028865 -0.05852413
0002c0 70 42 4e 3d b2 80 07 be e0 05 16 bc 0c e7 7e 3d
       0.05035633 -0.13232687 -0.009156674 0.062232062
0002d0 75 11 88 3b 3c d7 81 bd e3 6a f3 3b ef 0c c2 3a
       0.0041524717 -0.06339881 0.0074285134 0.001480488
0002e0 0c e7 59 3d 76 5b 40 bc 27 a2 0a 3d fc 7f 47 bd
       0.05319886 -0.011740556 0.033846047 -0.04870604
0002f0 f0 44 71 bd b5 2e 56 3d e5 9d 32 3d f3 60 ec bc
       -0.058903635 0.052290637 0.04360761 -0.028854823
000300 21 d0 2d bd 3d 79 9f 3b 23 3d 9a 3d 08 ed 3a bd
       -0.042434815 0.0048667477 0.07531192 -0.045636207
000310 17 7e 4a bc d9 c1 90 3d aa cd 33 3d d9 e6 3d 3d
       -0.012359164 0.070682235 0.04389731 0.04636273
000320 9b c4 a3 3d 8c 83 0e 3d ef 85 f6 bc 5a 01 55 3d
       0.07996484 0.03479342 -0.030093161 0.052003242
000330 af 17 27 3d 95 36 52 3d db 28 0e bb d0 d9 f9 bc
       0.04079407 0.051321585 -0.0021691832 -0.030499369
000340 4e 09 11 3d 9d 48 b5 bc 71 f6 e8 3b c0 30 db 3d
       0.035409264 -0.022129351 0.007109456 0.10702658
000350 af 90 63 3c 00 11 4c ba 1f 09 f6 3b 85 08 3b 3d
       0.013889476 -0.00077845156 0.0075084115 0.04566242
000360 b2 b6 30 bd 60 51 67 bd 84 52 d9 3c 64 30 11 bd
       -0.04314298 -0.05647409 0.026528604 -0.03544654
000370 0c 57 43 3d 28 f0 0b bc 83 d8 14 3d cd 44 e5 3d
       0.047690436 -0.008541144 0.036339294 0.11194763
000380 85 ba 5c bc 60 d7 92 3c 35 02 11 3b a2 e0 d7 bb
       -0.013472204 0.017924964 0.002212656 -0.0065880576
000390 76 9b cd bc e1 58 11 bd eb 13 57 bc 9f 0a 6a 3d
       -0.025098544 -0.035485152 -0.013127307 0.057139035
0003a0 65 38 e2 3b 74 7a 52 3d aa cb 83 bc 91 6e 03 3d
       0.0069036954 0.05138631 -0.016088326 0.032087866
0003b0 fb 3d c9 3c af c6 3d 3d f2 aa ea bb 8c 0c 18 bd
       0.024565687 0.046332058 -0.0071614916 -0.03712134
0003c0 ad c0 8b bd 8c b8 ac 3c 23 e5 14 3c 90 58 72 bd
       -0.06823859 0.021084093 0.009087834 -0.05916649
0003d0 98 95 f7 bc 56 9c 27 3d b2 97 22 bd 51 96 02 bc
       -0.030222699 0.040920578 -0.03969545 -0.007970409
0003e0 1a 66 23 bd 58 21 70 3d ce 1f 7a 3d fb ad 62 bd
       -0.039892294 0.05862555 0.061065488 -0.055341702
0003f0 ed 8e 37 3c 8e f3 73 bd e8 66 1f 3d 58 f4 e2 bc
       0.01120351 -0.059558444 0.0389165 -0.027704403

qnet.fc3.weight f4 [9, 256]
000000 fe d3 b0 3c 39 9e 89 bc 99 ee 4a bc 12 2f a8 3c
       0.02158546 -0.01679908 -0.012385988 0.020530257
000010 74 cd f8 3c 34 73 df bc a5 c3 a9 bc 46 5f dd bc
       0.030371405 -0.027276613 -0.020723173 -0.027022969
000020 49 6f 0c bd f2 9c 4c 3d 11 83 4e 3c 37 06 22 3d
       -0.034285817 0.049954362 0.012604491 0.03955671
000030 d9 83 03 bd df 8b e1 bb 9d 26 e1 bc 6d d7 63 3b
       -0.03210816 -0.006883129 -0.027484233 0.0034765855
000040 c9 5f 15 3d a1 50 ef 3b 8a eb 5d bc 01 d5 13 3d
       0.0364683 0.007303313 -0.013544926 0.03609181
000050 8b 1e cb bc 6e 8d 3e 3b af d9 d0 3c 99 3f 17 3d
       -0.024794837 0.0029075998 0.025494425 0.036925886
000060 7e 35 09 3d 7f 68 46 3b b6 ed 2b 3d b0 e8 43 bd
       0.03349828 0.0030274687 0.041974746 -0.04782933
000070 89 ef 9d bc 14 8b 4d bd 0d 6b 48 3d ad fa 85 3c
       -0.019279258 -0.050181463 0.048930217 0.016354883
000080 1c 65 d6 3c e0 a1 85 bc 6f 85 2e bc 62 7b c4 3a
       0.02617126 -0.01631254 -0.01065193 0.0014990384
000090 79 99 f0 3c ed 91 89 3c c5 94 a8 bc 51 66 a1 bc
       0.029370056 0.016793216 -0.020578751 -0.019702109
0000a0 a8 7e 4d bd 49 85 d0 bc 67 ed 65 bc 25 d8 e0 3c
       -0.050169617 -0.02545418 -0.014033652 0.027446816
0000b0 61 5a 2f 3c 91 87 e7 3c 76 51 c4 bc 1d 61 fd 3c
       0.0107027 0.028262885 -0.023964625 0.030930096
0000c0 0a f8 27 3c 87 ab d8 ba 48 15 a0 3c 5c 6c b3 3c
       0.010252008 -0.0016530611 0.019541398 0.021902256
0000d0 48 72 aa 3a ce ae b2 bc e3 e8 1d 3b be c0 25 3d
       0.0013004029 -0.021811869 0.002409511 0.040467016
0000e0 f5 d1 02 bc c3 47 b3 bc 7d 3f c2 ba be 23 6b bb
       -0.007984628 -0.021884805 -0.0014819946 -0.0035879458
0000f0 15 6b 96 bb 78 49 45 3d b5 08 b1 3c 3f 34 a4 bb
       -0.004590402 0.04816577 0.021610597 -0.005011111
000100 d9 1a 55 3d 29 7a 03 bd 08 47 c4 bc 0f 60 7d 3c
       0.052027557 -0.032098923 -0.023959652 0.015464797
000110 c8 72 30 3d aa 41 87 bc 5e 93 b3 3c 8d f3 f4 3c
       0.043078214 -0.016510803 0.021920856 0.02990129
000120 8f d6 42 3b 7d 86 d4 3a ee 1d 77 bc de b7 65 bc
       0.0029729938 0.0016214397 -0.015082819 -0.014020888
000130 94 dd bf bb fb ae 36 bd da cf a4 3a 58 f2 3f 3d
       -0.0058552716 -0.044600468 0.0012574152 0.046861976
000140 41 9b d6 3c 27 67 03 3d 42 97 9a 3c 00 ad 80 3a
       0.026197078 0.032080796 0.018870953 0.0009817183
000150 ac b3 6d bc 64 35 e6 3c 4e b0 bd 3b f2 39 37 bd
       -0.014508169 0.02810163 0.0057888394 -0.044732995
000160 ee 5a 08 3d 7a 14 1d 3d 7e 8c 26 bd 5a ad 68 bc
       0.033289842 0.038349606 -0.040661328 -0.0142014865
000170 26 5a 2b bd 76 2b 00 3d 29 59 4a bc 17 8c 3e bd
       -0.04183402 0.031291448 -0.012350359 -0.04652032
000180 1e 87 03 3d fa 2b 12 3d 47 8a 30 bc dc d6 d9 3c
       0.03211128 0.03568647 -0.010775155 0.02659171
000190 e3 58 71 ba 37 29 d9 3c b8 aa 21 3c a3 f9 53 bc
       -0.00092066656 0.02650891 0.009867363 -0.012937936
0001a0 86 70 6c bd 79 0f 12 3d 40 dd 0e bc 48 ad e7 3c
       -0.0577245 0.035659287 -0.008719742 0.02828087
0001b0 3a f2 cc bc f3 7d 65 bb 77 11 28 3c 05 a5 f0 3c
       -0.025017846 -0.0035017699 0.01025807 0.029375562
0001c0 10 5d 99 bb 90 ab c2 bc bf 3c 58 bc 0e 37 cd 39
       -0.0046802834 -0.023763448 -0.013198077 0.00039141666
0001d0 42 e5 40 bb 6b dc 49 3d 50 f9 ff bc e9 e2 01 3d
       -0.0029433523 0.049282473 -0.031246811 0.03171054
0001e0 df 9b 8b bc 0d 1b 1c bd b0 4a f8 bc e6 e7 18 bb
       -0.017042099 -0.038111735 -0.030309051 -0.0023331582
0001f0 20 0f 5c 3d 32 85 8b 3c 93 21 07 bb 3b 9a b0 bc
       0.05372536 0.017031286 -0.0020619377 -0.021557918
000200 41 9e a8 bb 18 50 d3 3b 83 70 3a 3d 7a c3 b9 bc
       -0.0051458185 0.006448757 0.045517456 -0.022676218
000210 ab 2a b6 bc c8 45 d6 bc eb c9 13 bb e7 ce 66 ba
       -0.022237143 -0.026156321 -0.0022550772 -0.00088046346
000220 ec da 5c 3d 23 4b 05 bc 59 e7 3e 3d c7 28 1f 3c
       0.053919718 -0.00813559 0.04660735 0.009714312
000230 67 9c 21 3c f2 84 11 3d a9 80 06 3d eb 88 74 bc
       0.009863949 0.035527177 0.032837544 -0.014925222
000240 df 01 13 3d 4a 92 c0 bc 39 34 3c bd c2 83 9d bc
       0.035890456 -0.023507256 -0.04594824 -0.019227866
000250 4d d8 3b 3b b1 b7 0d bd ff 05 f2 bb 14 33 e9 3c
       0.002866286 -0.03459901 -0.0073859687 0.028466739
000260 a0 b5 c9 3c cb 01 94 bc f3 da af 3b 78 2c 42 bc
       0.024622738 -0.018067261 0.005366677 -0.0118514225
000270 14 d8 81 bb 17 c6 e6 3c 6c 0a 43 3c be d4 2d bd
       -0.003962526 0.028170628 0.01190434 -0.042439215
000280 d2 66 3c 3d d3 f8 e1 3c 69 0c 28 bd 14 fa 07 bd
       0.045996495 0.027584469 -0.04102746 -0.033197477
000290 90 27 a2 3c b9 17 9a 3c a1 5a fb bb 13 98 de bb
       0.019794255 0.01881014 -0.007670716 -0.006793031
0002a0 45 99 03 3d 5f 04 3e 3c 34 c8 9e 3c 3d 63 bc 3c
       0.03212859 0.011597722 0.019382574 0.02299654
0002b0 25 f7 d8 3b 07 35 9b bc 30 eb d3 3c 8b 2f 32 bd
       0.006621259 -0.018946184 0.025868982 -0.04350237
0002c0 d8 c1 c9 bc d3 1f 42 3d dd 1b 9b 3c d6 35 2d bc
       -0.024628565 0.04739363 0.018934185 -0.0105719175
0002d0 1b b7 09 3d b5 44 ee bc d6 3b 28 3d 94 b3 2b 3d
       0.03362189 -0.029085496 0.04107269 0.041919306
0002e0 aa a4 85 3c b1 d8 c7 bc 03 0e 9c 3c 07 8a 8e bc
       0.01631387 -0.024395319 0.01904965 -0.017399801
0002f0 4e 1a f2 3b 4e c2 23 bc 25 38 15 bd 1d 30 51 bd
       0.0073883897 -0.009995056 -0.036430497 -0.051071275
000300 e2 a3 54 3a c2 41 99 3c 47 5e 6b 3b c5 09 c6 3b
       0.00081115786 0.018708114 0.0035914348 0.006043645
000310 2f 7f 00 bd 96 e0 b2 3c 97 8d 1e 3c 3e 44 ea bc
       -0.03137129 0.021835607 0.009677312 -0.028596994
000320 49 c3 20 bd 40 a1 30 bc 09 82 67 bc 4d 05 f6 bc
       -0.03924874 -0.0107806325 -0.014130124 -0.030031824
000330 4a 03 60 bc bc 7c 1b bd bc e6 d6 bc 58 e5 ba bb
       -0.013672659 -0.037960753 -0.02623307 -0.0057036094
000340 b2 4b fa 3c b4 07 6f 3d ab fd 0f 3d 2b 67 06 bd
       0.030553672 0.058356956 0.035154026 -0.032813232
000350 2d f7 25 3d 6f 15 e9 bc 6e 5e f6 bc 83 45 67 bd
       0.04051893 -0.028452603 -0.030074324 -0.056462776
000360 a6 29 f3 bc 49 3e b9 bc f2 c1 3a 3c ad 80 5f bd
       -0.029682945 -0.022612708 0.011398779 -0.054566074
000370 8d 92 02 bd 37 6e e0 bc 00 6a 06 3c b8 05 22 bd
       -0.031878043 -0.027396305 0.008203983 -0.039556235
000380 67 74 a5 bc 58 b8 41 3d cd 82 0e 3d fc 84 e2 bc
       -0.020197107 0.047294945 0.03479271 -0.027651303
000390 3a cf 78 3c 33 ff 8e 3c e6 72 b1 3c 0c 53 e4 3c
       0.015186125 0.017455673 0.021661233 0.027871631
0003a0 8a 4a aa bc 55 f8 06 bd 7a ae 9d bc 93 3d c8 3b
       -0.020787496 -0.03295167 -0.019248236 0.006110856
0003b0 0d cb 39 bd f6 61 ec 3c 70 cf 5b bd 34 5e 9c bb
       -0.04535966 0.028855305 -0.053664625 -0.004771972
0003c0 7f 36 08 bd f1 2a af 3c 23 83 b8 3b c4 18 42 bc
       -0.033255097 0.02138278 0.005630867 -0.011846725
0003d0 db 7b ed 39 7b 62 af 3c 2d 53 c1 bc d0 84 bc 3b
       0.00045296442 0.021409264 -0.023599232 0.005753137
0003e0 51 3d 14 3d 33 22 0d bd b6 17 02 bd 5d 5f 81 3c
       0.03619129 -0.034456443 -0.031760894 0.015792543
0003f0 1b 86 1d 3d b5 6d 25 3d ac 60 69 bc 86 2e b9 3c
       0.03845797 0.040387828 -0.01424424 0.022605192

qnet.fc3.bias f4 [9]
000000 f8 3b 02 bd cd 0c 91 bd f1 01 96 bd 16 60 8a bd
       -0.031795472 -0.0708252 -0.07324589 -0.06756608
000010 0d dc 1e bd 5f 5b 90 3c 47 c4 62 bc 24 62 20 bd
       -0.038784076 0.017621694 -0.0138407415 -0.039156094
000020 fe c1 b8 bd
       -0.09021376
