testmodels/q_eval_dqn.onnx (onnx, 79774 bytes, 6 tensors)

qnet.fc1.weight f4 [128, 14]
-0.19174853 -0.1783989 0.0028864262 -0.3202469 0.15596704 -0.11149206 -0.09517603 0.34661943
0.024063308 -0.039800864 -0.06434973 -0.030447805 -0.017917901 -0.022876345 -0.061387572 0.16615412
0.06256903 -0.076552965 0.14854288 -0.19436125 -0.24979402 -0.2479765 0.118719794 -0.09571323
-0.087999016 -0.032636955 -0.058733005 0.12642445 -0.04968721 0.013569616 -0.046822034 -0.08633896
0.3037639 0.030596642 0.34193033 0.12440629 0.05302108 -0.05319208 0.32288542 -0.029066788
-0.0024669091 -0.043157805 -0.057560656 -0.19967455 -0.11723312 0.040418293 -0.17843783 0.11088384
0.4538575 -0.28043753 -0.06405122 -0.11037612 0.22614413 0.026906611 0.07208675 -0.03042527
0.08486033 0.097078264 -0.06045665 0.26890227 -0.29840326 0.04083398 0.12517004 0.14269891
-0.013607885 0.042727306 -0.115010835 -0.011784953 -0.005316903 0.16967957 0.20952493 -0.19566813
0.39363438 0.016881011 0.17495124 -0.11414574 0.25243467 -0.1770101 -0.15412578 0.041643996
-0.043006584 -0.002553728 -0.051434886 0.24646904 -0.063143335 -0.27393007 0.27948728 -0.22227873
-0.18286759 -0.20739014 0.14132404 0.16727613 0.02502793 -0.509773 0.26865116 -0.10278741
0.11088212 0.077234976 -0.46414354 -0.2577416 -0.08157186 -0.20033868 -0.06794241 -0.010690681
-0.2838011 0.0789049 0.04734396 -0.20884058 0.1410957 -0.04005563 0.0795049 0.049554214
0.2893127 -0.038719803 -0.019504096 -0.13525361 -0.0051649334 0.028034776 0.11478101 -0.14160347
0.02261792 -0.2712182 -0.14430271 -0.06402078 0.053200755 -0.04009591 -0.16523685 0.049425505
-0.090494215 0.13589776 0.03178244 0.09055291 0.27349657 0.21177357 0.02216525 0.18662146
-0.049506024 0.031118281 0.0021184073 0.054279853 -0.07665837 -0.16061373 0.041142356 -0.30359232
-0.18440841 -0.020866621 -0.28889185 -0.13782355 -0.056132715 -0.10089274 0.27360386 -0.09876094
0.0870631 0.1141569 -0.46515125 0.041640177 0.03096722 -0.1150722 0.14711775 0.16965322
-0.184303 -0.10107676 -0.06629769 0.16002764 0.025611198 -0.02433047 0.013324006 0.1741577
0.36548278 0.26208925 0.2781453 0.0002336253 0.22313866 -0.2995009 -0.4256866 -0.27918002
0.11775239 -0.12754838 0.09506785 -0.029547015 0.08861738 -0.009070692 -0.093136325 0.12184639
-0.01944808 0.12357731 0.08466129 -0.16945574 -0.04708854 0.061048973 0.20254266 -0.26164663
-0.117138095 -0.06228013 -0.13505757 0.065546796 0.010919367 0.37851238 0.17255114 0.15130122
0.24344392 -0.0037963083 -0.14783584 0.14846075 -0.08138323 0.12130191 0.051709544 0.033120915
0.02060694 0.11466321 -0.20321561 0.092800304 -0.017224671 0.30893442 -0.22406518 0.110208735
0.4140976 -0.2373258 -0.0646901 0.01873244 -0.09306812 0.039473955 -0.0092771845 0.026553294
-0.03199482 0.2384173 0.014758815 -0.14980568 0.22306776 -0.24470708 0.22201191 -0.22847739
0.23791456 -0.22337937 -0.032308657 -0.07940532 -0.01989307 0.1593353 0.3545174 0.024265982
0.07730223 0.19123071 0.022527551 0.034607276 0.27962342 0.14468433 -0.08159472 -0.15564637
0.033273574 -0.05298453 0.012149659 0.08714056 0.11528464 -0.16173904 -0.08048037 -0.073345646
00000000: ba59 44be 34ae 36be 322a 3d3b 67f7 a3be
00000010: d3b5 1f3e f355 e4bd a7eb c2bd 1a78 b13e
00000020: 6a20 c53c 3b06 23bd cbc9 83bd ad6d f9bc
00000030: 90c8 92bc 2c67 bbbc 8971 7bbd 4e24 2a3e
00000040: 3124 803d cdc7 9cbd a01b 183e a306 47be
00000050: 01ca 7fbe 8ded 7dbe 5d23 f33d 4c05 c4bd
00000060: d438 b4bd 54ae 05bd 0592 70bd 6975 013e
00000070: d184 4bbd 1853 5e3c 76c8 3fbd 7bd2 b0bd
00000080: f186 9b3e cfa5 fa3c 7e11 af3e bac8 fe3d
00000090: a22c 593d f0df 59bd 3d51 a53e 791d eebc
000000a0: deab 21bb 3dc6 30bd b9c4 6bbd 7c77 4cbe
000000b0: eb17 f0bd a78d 253d 68b8 36be 1117 e33d
000000c0: 0360 e83e 8295 8fbe 492d 83bd e00c e2bd
000000d0: 5492 673e 416b dc3c 38a2 933d 6a3e f9bc
000000e0: 41cb ad3d f8d0 c63d 64a1 77bd 8fad 893e
000000f0: 50c8 98be 8841 273d 932c 003e aa1f 123e
00000100: 9bf3 5ebc d402 2f3d cd8a ebbd ad15 41bc
00000110: 6a39 aebb 7bc0 2d3e b48d 563e 3a5d 48be
00000120: 728a c93e 0c4a 8a3c 6b26 333e 3ec5 e9bd
00000130: 1e3f 813e 2342 35be 26d3 1dbe e592 2a3d
00000140: ac27 30bd 725c 27bb 63ad 52bd 6162 7c3e
00000150: 4b51 81bd 9040 8cbe f518 8f3e 099d 63be
00000160: a441 3bbe 155e 54be 40b7 103e 6f4a 2b3e
00000170: 6007 cd3c 7c80 02bf a58c 893e 3582 d2bd
00000180: 2a16 e33d 5f2d 9e3d 39a4 edbe b5f6 83be
00000190: 260f a7bd 9525 4dbe 6425 8bbd f727 2fbc
000001a0: 614e 91be e498 a13d bdeb 413d 4eda 55be
000001b0: 647b 103e 5f11 24bd 77d3 a23d 5cf9 4a3d
000001c0: cb20 943e a898 1ebd 0ec7 9fbc ec7f 0abe
000001d0: 9a3e a9bb 30a9 e53c 4e12 eb3d 8000 11be
000001e0: 3749 b93c 1ddd 8abe 17c4 13be 541d 83bd
000001f0: 09e9 593d 9c3b 24bd d933 29be 6672 4a3d
00000200: 0855 b9bd c828 0b3e 4e2e 023d ce73 b93d
00000210: be07 8c3e 2cdb 583e e693 b53c b219 3f3e
00000220: d4c6 4abd c4eb fe3c fad4 0a3b 8d54 5e3d
00000230: 10ff 9cbd ed77 24be e384 283d 7470 9bbe
00000240: 8fd5 3cbe 7af0 aabc a2e9 93be 9e21 0dbe
00000250: 6beb 65bd daa0 cebd ce15 8c3e 2d43 cabd
00000260: 234e b23d 18cb e93d 4e28 eebe e48e 2a3d
00000270: f8ae fd3c f9aa ebbd 09a6 163e 93b9 2d3e
00000280: edb9 3cbe 5501 cfbd 15c7 87bd 49de 233e
00000290: 93ce d13c b250 c7bc ef4c 5a3c 6556 323e
000002a0: 8f20 bb3e 9030 863e 1069 8e3e 50f9 7439
000002b0: 767e 643e 2f58 99be 98f3 d9be aff0 8ebe
000002c0: 2a28 f13d 0b9c 02be efb2 c23d 950c f2bc
000002d0: 077d b53d 3d9d 14bc 42be bebd 9a8a f93d
000002e0: 9451 9fbc 1a16 fd3d e662 ad3d ce85 2dbe
000002f0: eadf 40bd 7d0e 7a3d 5867 4f3e 8cf6 85be
00000300: 19e6 efbd 7319 7fbd 884c 0abe 663d 863d
00000310: 25e7 323c 60cc c13e 3fb1 303e b5ee 1a3e
00000320: 5d49 793e 7ccb 78bb 4762 17be 1806 183e
00000330: 40ac a6bd 236d f83d 63cd 533d cca9 073d
00000340: e3cf a83c 8cd4 ea3d c117 50be 160e be3d
00000350: c11a 8dbc a72c 9e3e 5871 65be 1eb5 e13d
00000360: 9a04 d43e 8905 73be 3e7c 84bd c674 993c
00000370: 809a bebd 71af 213d 55ff 17bc 4b86 d93c
00000380: 000d 03bd aa23 743e f5ce 713c a966 19be
00000390: e06b 643e 7e94 7abe 1757 633e faf5 69be
000003a0: e09f 733e 90bd 64be 1556 04bd 429f a2bd
000003b0: cbf6 a2bc cb28 233e 4e83 b53e 74c9 c63c
000003c0: a250 9e3d fcd1 433e b38b b83c 5cc0 0d3d
000003d0: cd2a 8f3e 2128 143e 221b a7bd c361 1fbe
000003e0: df49 083d 4e06 59bd 5d0f 473c c076 b23d
000003f0: 5a1a ec3d eb9e 25be e4d2 a4bd 3e36 96bd

qnet.fc1.bias f4 [128]
0.0081178425 0.15052174 0.33809397 0.27124557 -0.08279188 0.28328285 0.053377286 0.36845112
0.07032722 0.1091908 -0.009069093 0.026118115 -0.36286008 -0.10839287 0.24375665 -0.07296741
-0.17769712 0.14633387 -0.20993473 -0.13620399 -0.22121546 0.27535996 0.052471597 0.42689797
0.19442438 -0.30250016 0.04906769 -0.11238184 0.09442747 0.11553106 -0.10040919 -0.06296473
-0.062360216 0.10396105 -0.32009116 -0.13006006 0.005608254 0.10587865 0.27088195 -0.21755302
-0.05562886 -0.031783976 -0.0053732325 -0.1452229 -0.13075551 0.03740146 0.0013346568 0.003299817
-0.06699138 -0.04177199 0.33177757 -0.38261092 0.3481971 -0.27948993 0.23389852 -0.2685055
-0.12509568 -0.14774102 -0.2310827 -0.2509657 0.257342 -0.23523526 -0.0239153 0.25728324
0.113404244 -0.5484266 -0.27750465 -0.045259356 0.08517444 0.031729553 -0.107288264 0.11371589
-0.19545609 -0.13518627 0.012334352 -0.26084757 0.43560466 0.25474218 0.028532183 0.019461587
0.17327203 -0.44158065 0.18668887 0.11537152 0.17770678 0.28086913 0.34408832 -0.41541073
-0.0055762734 0.08766951 -0.005799162 -0.14765821 -0.23901612 0.25219548 0.009511936 -0.22438186
-0.4403832 -0.1227225 0.14248125 0.13681372 0.0018609152 0.09187787 -0.009201119 -0.09116375
0.2717282 -0.004370237 -0.12748091 0.1620643 -0.033385463 -0.38332674 0.025419578 -0.1719817
0.11323159 0.11341452 0.106169015 0.39472166 -0.09875214 0.20766719 0.10913232 0.1818473
-0.19082412 0.17018525 0.05758904 -0.48511147 -0.11618474 -0.14639798 0.11037856 0.10551425
00000000: b300 053c 5f22 1a3e a71a ad3e b3e0 8a3e
00000010: ca8e a9bd 730a 913e 24a2 5a3d a0a5 bc3e
00000020: b807 903d 6d9f df3d 8896 14bc a8f5 d53c
00000030: ccc8 b9be 15fd ddbd 589b 793e f06f 95bd
00000040: 3cf6 35be 8cd8 153e 21f9 56be 0f79 0bbe
00000050: 4e86 62be fbfb 8c3e 75ec 563d 5f92 da3e
00000060: 2f17 473e 4de1 9abe 34fb 483d 7328 e6bd
00000070: 3063 c13d 8c9b ec3d 55a3 cdbd a7f3 80bd
00000080: 6d6d 7fbd 88e9 d43d fde2 a3be 772e 05be
00000090: 72c5 b73b e8d6 d83d 0ab1 8a3e 38c6 5ebe
000000a0: 16db 63bd ea2f 02bd f111 b0bb 50b5 14be
000000b0: c6e4 05be 4632 193d a7ef ae3a be41 583b
000000c0: c732 89bd 1b19 2bbd c0de a93e 94e5 c3be
000000d0: e446 b23e 4e19 8fbe 1883 6f3e 8e79 89be
000000e0: 1519 00be 6c49 17be f1a0 6cbe 947e 80be
000000f0: 55c2 833e 83e1 70be 05ea c3bc a1ba 833e
00000100: 7c40 e83d b065 0cbf 1715 8ebe e061 39bd
00000110: f06f ae3d d9f6 013d f3b9 dbbd e0e3 e83d
00000120: a425 48be 456e 0abe 0616 4a3c d08d 85be
00000130: 9307 df3e 916d 823e 53bc e93c e86d 9f3c
00000140: 396e 313e dc16 e2be 5e2b 3f3e e747 ec3d
00000150: c4f8 353e 14ce 8f3e 582c b03e b7b0 d4be
00000160: 2cb9 b6bb 128c b33d e606 bebb b733 17be
00000170: a4c0 74be c41f 813e f4d7 1b3c 5cc4 65be
00000180: e879 e1be ef55 fbbd 9be6 113e e518 0c3e
00000190: f4e9 f33a 772a bc3d 4ac0 16bc 0fb4 babd
000001a0: f51f 8b3e 3434 8fbb 5b8a 02be 2ff4 253e
000001b0: 32bf 08bd 6743 c4be b83c d03c f91b 30be
000001c0: f7e5 e73d df45 e83d 246f d93d f518 ca3e
000001d0: 903e cabd b5a6 543e c480 df3d 2e36 3a3e
000001e0: 6667 43be 0b45 2e3e 7ce2 6b3d 8860 f8be
000001f0: 44f2 edbd 5ae9 15be 280e e23d db17 d83d

qnet.fc2.weight f4 [128, 128]
-0.0004984418 -0.013428561 0.017275581 -0.09492411 0.090309225 0.017899366 -0.04503384 -0.03074398
-0.072712556 -0.0045528947 -0.015915439 -0.06484092 0.020182827 0.012635257 -0.05975623 -0.0721595
-0.09721859 -0.003601064 -0.18303026 -0.06288191 -0.08635492 -0.16728786 -0.15431772 -0.19792035
0.043034956 -0.024298284 -0.10200851 0.06806587 -0.26381612 0.17446648 0.105770975 -0.088623114
-0.11534313 0.05539362 0.03332536 0.1340861 -0.06582799 -0.43994918 -0.06400336 0.011192356
-0.0017523675 -0.16056663 0.0076883244 0.07868394 0.08896068 -0.022359643 -0.11118493 0.043181773
-0.06901091 -0.053348903 0.09974931 0.072781205 -0.026218329 -0.053628385 0.011074796 -0.04312739
-0.05836911 -0.022559753 -0.06386062 -0.026281547 -0.06971529 -0.034766022 0.06547612 -0.06364468
0.03419493 0.0704833 0.054702207 -0.15419209 -0.062316276 -0.10828051 -0.10450264 0.037177257
0.17267354 0.035347335 0.054332465 0.008952447 0.058582406 -0.30116567 -0.092389114 -0.05383541
-0.09368637 0.033732384 -0.10694418 -0.047234036 -0.029183732 0.008217446 -0.060632147 -0.059036333
-0.059548695 -0.36899757 -0.15236937 -0.29901633 -0.0013496449 -0.15745206 -0.09212264 -0.024266662
0.04474577 0.009590166 0.019875435 0.041888867 -0.20808445 -0.17446443 -0.080764 -0.010205199
-0.035679802 -0.24509913 0.080433935 -0.044341777 -0.019145004 -0.10834343 -0.06745611 0.021247922
-0.007888853 -0.09830785 0.00030697402 -0.18346071 -0.019397017 -0.055932425 -0.092703454 -0.03636106
0.0007774529 0.03158109 -0.013051495 0.073183075 -0.0989944 0.08412379 -0.09383553 -0.60332227
-0.011481865 0.046884097 0.071445584 0.024053318 -0.017710028 -0.010651018 0.029954374 -0.045506366
-0.07805655 0.033170287 -0.02553249 -0.005365032 -0.059316732 -0.011041494 0.13525267 0.04658081
-0.10499785 0.07063617 -0.042487204 0.09499928 0.051377527 0.06579527 0.027595785 -0.023661606
0.06657202 -0.046834957 0.0073203435 0.051639743 0.10231102 -0.056104083 -0.020210356 0.05440325
0.061576948 -0.06539761 -0.011985435 0.052954737 0.037130672 0.0538908 0.11473604 0.059356704
-0.026690984 -0.013793374 0.043488946 -0.0759897 0.09514738 0.0275092 0.0013953289 -0.063256
0.062291518 -0.019590382 0.1264506 -0.032595873 -0.04659284 0.089709334 0.05094265 -0.046683587
0.10676897 0.064576596 -0.049574357 0.049973115 0.06630627 0.053667054 0.011154449 0.078814454
0.05462445 0.015025984 0.08364137 0.0015735814 -0.114492096 0.05033174 -0.0016680332 -0.020984005
-0.11609898 -0.02002055 -0.043763585 0.10302131 -0.0070928885 0.0875124 -0.09302549 -0.013083569
0.0022066752 -0.010562153 0.09268037 -0.04940318 -0.06484164 -0.02095826 -0.0048651015 0.18893275
0.072245896 0.08021077 0.029388892 0.057426848 0.007815546 0.07685009 0.12955555 0.05516516
-0.13806592 -0.07049464 -0.010697907 0.017958108 0.0046138815 -0.06757535 0.05589467 -0.047604542
0.0141247725 0.018667532 -0.09412506 -0.020026961 -0.12482168 0.090185285 0.06294993 -0.013451361
-0.2120618 -0.05140214 0.03595173 0.04906149 -0.053216077 0.0830356 0.044487342 -0.07307653
-0.03359475 0.07925394 -0.0011581415 0.04232171 0.038808625 -0.06644933 0.05797034 -0.0071245586
00000000: dda9 02ba 7803 5cbc 8585 8d3c 9267 c2bd
00000010: 0bf4 b83d b1a1 923c 6775 38bd cdda fbbc
00000020: 52ea 94bd 7330 95bb 1861 82bc 51cb 84bd
00000030: 7556 a53c 1c04 4f3c f3c2 74bd 5cc8 93bd
00000040: 8a1a c7bd d4ff 6bbb 496c 3bbe 3bc8 80bd
00000050: d9da b0bd 824d 2bbe 7705 1ebe a2ab 4abe
00000060: 6c45 303d 320d c7bc d6e9 d0bd 1e66 8b3d
00000070: e812 87be 57a7 323e 749e d83d 0980 b5bd
00000080: 0539 ecbd 6ce4 623d 2c80 083d de4d 093e
00000090: d3d0 86bd 0541 e1be 3214 83bd 2560 373c
000000a0: b2af e5ba 946b 24be 57ee fb3b 0c25 a13d
000000b0: 0431 b63d 922b b7bc edb4 e3bd 5fdf 303d
000000c0: 9855 8dbd 6184 5abd 5e49 cc3d 500e 953d
000000d0: d2c7 d6bc 70a9 5bbd 1073 353c 59a6 30bd
000000e0: 7314 6fbd 3bcf b8bc 5bc9 82bd 664c d7bc
000000f0: e4c6 8ebd d166 0ebd 5818 863d 2458 82bd
00000100: fc0f 0c3d 8c59 903d 6c0f 603d 88e4 1dbe
00000110: 5a3f 7fbd 2cc2 ddbd 7b05 d6bd 2e47 183d
00000120: 55d1 303e 5ec8 103d b88b 5e3d 49ad 123c
00000130: 1bf4 6f3d 6332 9abe 8136 bdbd 8582 5cbd
00000140: a4de bfbd f82a 0a3d 8d05 dbbd 7a78 41bd
00000150: b912 efbc 77a2 063c 6a59 78bd 15d0 71bd
00000160: 55e9 73bd 40ed bcbe b706 1cbe ab18 99be
00000170: 91e6 b0ba 1d3b 21be cbaa bcbd e1ca c6bc
00000180: 5747 373d 1220 1d3c cfd1 a23c a993 2b3d
00000190: 1714 55be cea6 32be 9967 a5bd b533 27bc
000001a0: fc24 12bd 44fb 7abe 8cba a43d b99f 35bd
000001b0: fcd5 9cbc 29e3 ddbd 6e26 8abd 1f10 ae3c
000001c0: 3f40 01bc a055 c9bd 5bf1 a039 20dd 3bbe
000001d0: 7ee6 9ebc 6619 65bd 4fdb bdbd 56ef 14bd
000001e0: fbcd 4b3a 2c5b 013d f0d5 55bc 02e1 953d
000001f0: 93bd cabd 1849 ac3d d82c c0bd 5473 1abf
00000200: 6f1e 3cbc 8a09 403d 1052 923d 770b c53c
00000210: 9f14 91bc 9b81 2ebc e062 f53c e264 3abd
00000220: 1ddc 9fbd 91dd 073d 8329 d1bc 26cd afbb
00000230: 1af6 72bd 62e7 34bc ad7f 0a3e 85cb 3e3d
00000240: 1d09 d7bd b2a9 903d 1007 2ebd fc8e c23d
00000250: 3e71 523d acbf 863d 8e10 e23c fcd5 c1bc
00000260: e956 883d 03d6 3fbd 7edf ef3b 3284 533d
00000270: 7188 d13d 65cd 65bd 3090 a5bc f1d5 5e3d
00000280: 1c38 7c3d 2fef 85bd 8f5e 44bc 11e7 583d
00000290: 5516 183d 99bc 5c3d bbfa ea3d 0420 733d
000002a0: 0da7 dabc 9bfd 61bc 7721 323d 7da0 9bbd
000002b0: a1dc c23d f95a e13c 78e3 b63a 5d8c 81bd
000002c0: 6425 7f3d 027c a0bc 447c 013e 4083 05bd
000002d0: 22d8 3ebd 87b9 b73d 3da9 503d 4a37 3fbd
000002e0: b1a9 da3d bc40 843d 7b0e 4bbd 9cb0 4c3d
000002f0: 95cb 873d fcd1 5b3d 26c1 363c 7969 a13d
00000300: e3bd 5f3d 8b2f 763c 2b4c ab3d a140 ce3a
00000310: d57a eabd a828 4e3d e8a1 daba a6e6 abbc
00000320: 4dc5 edbd 2302 a4bc 7241 33bd d6fc d23d
00000330: 766b e8bb b339 b33d 2684 bebd 775c 56bc
00000340: de9d 103b e10c 2dbc 35cf bd3d fd5a 4abd
00000350: b2cb 84bd a8b0 abbc 6e6b 9fbb 9677 413e
00000360: a8f5 933d 8b45 a43d f9c0 f03c 6a38 6b3d
00000370: c70c 003c 9463 9d3d 36aa 043e ddf4 613d
00000380: 2761 0dbe 7e5f 90bd 4646 2fbc e21c 933c
00000390: 0b30 973b f264 8abd cff1 643d fbfc 42bd
000003a0: 976b 673c a7ec 983c a4c4 c0bd 950f a4bc
000003b0: 82a2 ffbd 10b3 b83d e5eb 803d 1963 5cbc
000003c0: ba26 59be 0d8b 52bd 1f42 133d b3f4 483d
000003d0: 1af9 59bd 920e aa3d 5c38 363d 26a9 95bd
000003e0: a69a 09bd e44f a23d c8cc 97ba 8859 2d3d
000003f0: cbf5 1e3d 9616 88bd 4f72 6d3d 2175 e9bb

qnet.fc2.bias f4 [128]
0.017628698 0.03688275 0.10021873 0.06958252 -0.041163843 0.12109731 -0.10257147 -0.008552116
0.06654622 0.06097938 -0.099159636 0.14172329 0.072675906 0.11790593 0.06331478 0.020306576
-0.02000618 0.013978942 0.03609986 0.06858982 0.03375919 -0.008779816 0.0407984 0.0855469
0.08710632 0.029073898 0.06469195 -0.04121436 0.010017241 -0.05649677 0.024061328 0.057776466
0.020663185 0.050587945 0.08224468 0.011573377 0.02099243 0.053407032 0.018941695 -0.06175166
-0.061560992 0.005849781 -0.034434393 0.012250546 -0.051386762 -0.072533675 -0.07086853 -0.025845176
0.038633343 -0.0806206 0.05077632 0.044266086 -0.0069397707 0.07445154 -0.021265367 0.0497188
-0.07443571 0.06681129 -0.0010510681 0.043422088 0.070004284 0.0034761007 0.02651301 -0.021960875
0.0065648183 0.018982988 -0.099268794 0.071966074 0.09530103 0.059710693 -0.04293311 0.0611274
0.057598885 0.06072348 0.063269585 -0.03853365 0.11145174 0.019977108 -0.065347604 -0.045908198
-0.08715127 0.097455285 0.1820614 -0.02810354 -0.063411966 0.003155078 0.09535867 -0.00221339
0.088445276 0.06100163 -0.0053286324 -0.0476222 0.06662587 0.051746536 -0.008525323 -0.0059563736
-0.016634434 -0.022653176 0.019215094 -0.012102401 0.05115447 -0.08074897 -0.009071633 -0.037331693
0.03094494 0.06957304 0.06903989 0.033742055 -0.06623151 -0.051283997 0.13853008 -0.034989864
0.039560854 0.0300715 0.0032098815 -0.06870001 -0.033816487 -0.09498778 0.024021279 0.029096007
0.057382256 0.040883683 -0.0034998797 0.14899954 -0.048210178 -0.09816815 -0.038994532 -0.004323823
00000000: 0f6a 903c 5e12 173d 7a3f cd3d 4881 8e3d
00000010: 6b9b 28bd de01 f83d fe10 d2bd 2d1e 0cbc
00000020: 6249 883d 84c5 793d 3514 cbbd e91f 113e
00000030: 1bd7 943d aa78 f13d 2eab 813d fa59 a63c
00000040: 00e4 a3bc ef07 653c 72dd 133d d278 8c3d
00000050: 1447 0a3d 38d9 0fbc 391c 273d 3733 af3d
00000060: cc64 b23d 622c ee3c 377d 843d 64d0 28bd
00000070: 5b1f 243c 2869 67bd 431c c53c 04a7 6c3d
00000080: d745 a93c 4e35 4f3d e66f a83d 439e 3d3c
00000090: 51f8 ab3c 55c1 5a3d 9d2b 9b3c 4fef 7cbd
000000a0: 6127 7cbd 85af bf3b 140b 0dbd 84b6 483c
000000b0: ed7a 52bd 898c 94bd 8523 91bd 43b9 d3bc
000000c0: ff3d 1e3d 6a1c a5bd d5fa 4f3d 5b50 353d
000000d0: 0467 e3bb 0d7a 983d b534 aebc f1a5 4b3d
000000e0: c071 98bd 5cd4 883d fec3 89ba 5cdb 313d
000000f0: 685e 8f3d 4bcf 633b d031 d93c 4be7 b3bc
00000100: b01d d73b 3682 9b3c 704d cbbd f362 933d
00000110: 302d c33d 3393 743d a1da 2fbd b960 7a3d
00000120: cfec 6b3d 2fb9 783d 7c93 813d 76d5 1dbd
00000130: cf40 e43d 08a7 a33c f7d4 85bd 3c0a 3cbd
00000140: 5d7c b2bd a396 c73d 4e6e 3a3e 6539 e6bc
00000150: 22de 81bd 6dc5 4e3b 684b c33d 860e 11bb
00000160: cc22 b53d d8dc 793d cf9b aebb 7f0f 43bd
00000170: 2573 883d 2df4 533d ccad 0bbc af2d c3bb
00000180: f044 88bc 2793 b9bc f968 9d3c 2649 46bc
00000190: 5987 513d b75f a5bd 30a1 14bc 1ee9 18bd
000001a0: 3e80 fd3c 4f7c 8e3d c964 8d3d 1c35 0a3d
000001b0: 63a4 87bd 2b0f 52bd d4da 0d3e 8851 0fbd
000001c0: 900a 223d 8258 f63c e05c 523b 97b2 8cbd
000001d0: 2883 0abd f488 c2bd 46c8 c43c c05a ee3c
000001e0: a809 6b3d a675 273d 3d5e 65bb 5693 183e
000001f0: 0978 45bd 620c c9bd bbb8 1fbd dbae 8dbb

qnet.A.weight f4 [9, 128]
-0.033191685 0.033353075 0.012049431 0.096737 -0.06234654 0.07768995 0.2100867 -0.059065826
-0.13063174 0.018042006 0.072553895 0.09640734 0.021542422 0.015894046 0.07984266 0.1328073
0.01395929 0.1883081 0.0011887464 -0.00014392174 0.10534445 0.06437618 0.013875551 0.040787537
0.12911813 -0.03498542 0.058755778 0.06929787 0.060916625 0.019988678 -0.0013075258 0.04141887
0.070761986 0.005107427 0.020967025 0.038126886 0.030967128 0.13157064 -0.043303236 0.017960498
-0.035876777 -0.05740984 0.008837557 0.04239766 0.055587254 -0.0029715064 -0.08397809 0.12246437
0.1040821 -0.036259692 0.1329979 -0.040912982 -0.028334713 0.033477355 -0.1454804 0.048439402
0.029684793 -0.10095715 0.009587335 0.10576949 0.06890814 0.030086985 0.009311524 0.01813392
0.020475743 0.030340265 0.056363363 0.013105066 -0.02993525 0.0054142484 0.021095583 0.06593436
0.05497516 -0.044877063 0.02125923 0.009898133 0.01780604 -0.05963933 0.09764339 0.02220632
-0.039595425 0.015439263 0.055250034 0.0038577735 0.033431973 0.13874795 0.120302565 0.014847326
-0.002798084 0.050733052 0.04657354 0.039673995 0.051272534 0.07213108 0.0028485819 0.016494615
-0.0009368569 -0.010346254 0.05227982 0.008548004 0.017080097 0.042073343 -0.007722213 0.12875864
-0.022166321 0.060618903 0.15603152 0.025154212 0.11173413 0.017482964 0.0528289 0.112641566
0.054720953 -0.02870635 0.10902426 0.0077475086 0.01613582 0.009716977 0.055653937 0.01458944
-0.15417738 0.17477208 -0.019653847 0.035661954 0.0052073672 -0.01742127 0.04940929 0.05349784
0.07722643 0.042925324 0.003881476 0.08668806 -0.005059713 0.07566636 -0.006336 -0.13242415
-0.04731624 0.059210237 0.032215334 0.09657339 0.02173752 0.023611134 0.087818295 0.09782767
-0.034662254 0.18963198 0.013769653 -0.010455435 0.097656384 0.07131534 -0.08325346 0.0019064208
0.109385915 0.036825065 0.024412587 0.07060819 -0.07461006 0.046789024 -0.012857617 0.10910638
0.066919446 0.0066137286 0.01386482 0.031831287 0.028871603 -0.09595484 -0.027978305 0.019273253
0.023887705 -0.037433658 -0.092815146 0.042567402 0.071220115 0.012413265 -0.05835746 0.13275342
0.10449824 -0.023437148 0.12814637 -0.17630044 -0.04199532 0.095295526 -0.02470396 0.046075564
0.023872674 -0.063400276 0.01273474 0.08139995 0.05407244 0.027782245 0.012049758 0.020452198
0.013786614 0.022124993 0.070097424 -0.025724342 -0.054061413 0.011562608 0.01082381 0.09604376
0.028424397 -0.0033648582 -0.004648851 0.0074283197 0.009252648 -0.0096895695 0.10263122 -0.019807318
-0.072694786 0.02119555 0.07298807 0.01267376 0.009935227 0.16061388 -0.040979452 -0.019411722
-0.013095645 0.06133324 0.02651792 -0.0049036536 0.057331406 0.057518043 -0.00436704 -0.01641105
0.008559495 -0.014078131 0.053743493 0.00173784 -0.03774024 0.123702206 0.03744355 0.15298638
-0.0102622975 0.04117063 0.3018661 0.026338913 0.14954883 0.015444975 0.04803882 0.13173261
0.04494629 -0.06924209 0.105666414 0.011446218 -0.06524892 0.028098946 0.043569684 -0.018272666
-0.04489293 0.15820156 -0.026532957 0.029025279 0.12613939 0.05776266 0.053384382 0.055354573
00000000: 01f4 07bd 3c9d 083d fa6a 453c 0c1e c63d
00000010: 165f 7fbd e91b 9f3d f820 573e 02ef 71bd
00000020: 54c4 05be d4cc 933c 2397 943d 3671 c53d
00000030: bc79 b03c 3b34 823c 8c84 a33d a3fe 073e
00000040: 82b5 643c d7d3 403e b6cf 9b3a b3e9 16b9
00000050: d5be d73d a9d7 833d 4756 633c d510 273d
00000060: 8b37 043e df4c 0fbd e6a9 703d 0bec 8d3d
00000070: b683 793d 4cbf a33c 4961 abba d5a6 293d
00000080: a9eb 903d 345c a73b 0ac3 ab3c f02a 1c3d
00000090: c6ae fd3c 74ba 063e bc5e 31bd e521 933c
000000a0: 87f3 12bd 9526 6bbd 67cb 103c 2ba9 2d3d
000000b0: 76af 633d 9bbd 42bb b4fc abbd 9ace fa3d
000000c0: ff28 d53d 0b85 14bd 9a30 083e 5f94 27bd
000000d0: 331e e8bc 8d1f 093d d0f8 14be 6568 463d
000000e0: 862d f33c 9fc2 cebd 3314 1d3c ad9d d83d
000000f0: b61f 8d3d fb78 f63c 5d8f 183c 968d 943c
00000100: bfbc a73c 268c f83c 45dd 663d a1b6 563c
00000110: c53a f5bc 026a b13b a5d0 ac3c 9808 873d
00000120: a22d 613d 03d1 37bd d627 ae3c c72b 223c
00000130: f9dd 913c 5f48 74bd 42f9 c73d 07ea b53c
00000140: d02e 22bd f6f4 7c3c dc4d 623d b3d2 7c3b
00000150: f7ef 083d f113 0e3e 3161 f63d 3342 733c
00000160: 0f60 37bb 76cd 4f3d e5c3 3e3d 3381 223d
00000170: 2603 523d 76b9 933d 46af 3a3b b71f 873c
00000180: 6797 75ba 5683 29bc 5d23 563d ed0c 0c3c
00000190: 8feb 8b3c 1955 2c3d 9e0a fdbb 4ed9 033e
000001a0: 2596 b5bc 874b 783d bac6 1f3e 3510 ce3c
000001b0: ddd4 e43d 6f38 8f3c 1e63 583d 9fb0 e63d
000001c0: 1423 603d 9429 ebbc 1c48 df3d d0de fd3b
000001d0: 442f 843c f533 1f3c 62f5 633d 8c08 6f3c
000001e0: ade0 1dbe 74f7 323e 1b01 a1bc 4512 123d
000001f0: 90a2 aa3b 0db7 8ebc 6561 4a3d 8d20 5b3d
00000200: e428 9e3d 77d2 2f3d 5c60 7e3b 8289 b13d
00000210: f3cb a5bb f7f6 9a3d 389e cfbb 329a 07be
00000220: acce 41bd 6f86 723d 3af4 033d 45c8 c53d
00000230: e212 b23c 236c c13c 14da b33d e059 c83d
00000240: 02fa 0dbd e32e 423e 1c9a 613c 464d 2bbc
00000250: 1200 c83d c70d 923d ca80 aabd dee0 f93a
00000260: b905 e03d e1d5 163d e8fc c73c 079b 903d
00000270: 29cd 98bd d9a5 3f3d c1a8 52bc 2a73 df3d
00000280: 100d 893d fab7 d83b 4529 633c 8661 023d
00000290: 2484 ec3c f983 c4bd c232 e5bc f1e2 9d3c
000002a0: 26b0 c33c 0954 19bd de15 bebd 285b 2e3d
000002b0: dadb 913d 0261 4b3c 3b08 6fbd 83f0 073e
000002c0: 2c03 d63d 43ff bfbc cd38 033e 1a88 34be
000002d0: 4903 2cbd 4d2a c33d f65f cabc bbb9 3c3d
000002e0: a090 c33c 01d8 81bd 5fa5 503c 04b5 a63d
000002f0: 107b 5d3d 9797 e33c 596c 453c 5e8b a73c
00000300: 40e1 613c 793f b53c 3d8f 8f3d dbbb d2bc
00000310: 806f 5dbd 1871 3d3c 5956 313c 97b2 c43d
00000320: 48da e83c f484 5cbb 6455 98bb 4369 f33b
00000330: 6b98 173c 00c1 1ebc 5130 d23d f542 a2bc
00000340: 01e1 94bd 4aa2 ad3c c57a 953d 9aa5 4f3c
00000350: 5dc7 223c f777 243e 12da 27bd 5505 9fbc
00000360: 1e8f 56bc 9038 7b3d 1c3c d93c d4ae a0bb
00000370: 56d4 6a3d 0a98 6b3d 6319 8fbb 7770 86bc
00000380: 203d 0c3c f6a7 66bc 2322 5c3d 3cc8 e33a
00000390: 8395 1abd 9557 fd3d 685e 193d 76a8 1c3e
000003a0: 3223 28bc 89a2 283d 328e 9a3e b4c4 d73c
000003b0: 5423 193e ec0c 7d3c 5bc4 443d eae4 063e
000003c0: 9a19 383d ccce 8dbd a267 d83d eb88 3b3c
000003d0: 3aa1 85bd c32f e63c 2076 323d 8fb0 95bc
000003e0: a6e1 37bd 97ff 213e a55b d9bc 6cc6 ed3c
000003f0: af2a 013e 8a98 6c3d 95a9 5a3d 7abb 623d

qnet.A.bias f4 [9]
-0.034361552 0.003757474 0.08942842 -0.037446517 0.04798404 -0.096294396 0.1106332 -0.01025655
0.08078701
00000000: b3be 0cbd f43f 763b 3f26 b73d 8561 19bd
00000010: ea8a 443d ff35 c5bd a993 e23d 170b 28bc
00000020: a973 a53d
