testmodels/q_eval_dqn.onnx (onnx, 76702 bytes, 6 tensors)

qnet.fc1.weight f4 [128, 8]
0.11168056 0.08159301 -0.25060314 0.12992974 -0.33768693 -0.3041729 -0.22601077 0.103535414
0.15671639 0.126377 -0.2372457 0.24898219 -0.17573516 -0.15590712 0.28147453 0.13463856
-0.099584736 0.065591626 -0.3010555 -0.0465308 -0.1791944 -0.28403816 -0.01718429 -0.1190814
0.082007624 0.20907156 -0.16373807 0.31028208 0.26836467 0.025273792 -0.2809415 -0.15572518
-0.05365204 -0.3035605 0.18389326 -0.021232596 -0.33251125 -0.06557719 -0.12667769 -0.2256501
0.2960537 0.097484365 -0.034742337 -0.22784527 -0.31741914 0.12447709 -0.123955116 -0.03857861
-0.20643649 0.10895616 0.29181653 0.2703846 -0.3187906 0.25047132 -0.09082313 -0.14070892
-0.088433295 0.2892089 0.3195534 0.14728895 -0.2015712 0.118427284 0.09174779 0.19013263
-0.06239402 0.24271941 0.255223 0.1702501 0.035563655 -0.25506663 -0.2773484 -0.29105255
0.19081724 -0.2280939 0.053790934 -0.30330655 -0.31275323 0.28334147 -0.18241729 0.055759154
0.2413394 0.28622535 -0.29562104 -0.111911416 -0.07582935 -0.010604765 0.14784862 0.28620136
0.2809424 -0.2303428 0.31039348 -0.1925042 0.34668314 0.23217039 -0.20021844 -0.35134488
-0.24975985 0.16713478 0.3122503 0.32623982 0.26744184 0.1982275 0.18532424 0.29914477
-0.18227014 0.1329193 -0.08975842 0.12107044 0.10297645 0.24438451 0.0115099 0.2934691
0.35351682 0.27608448 0.2912716 0.050674055 -0.18498899 0.072772115 -0.119897716 -0.31913155
0.2890533 0.30086732 -0.030531865 0.062809184 0.06927503 -0.3457942 0.02922974 0.14093663
-0.20685972 0.21163417 -0.05058996 0.03250794 0.03346283 0.2556744 0.09142887 0.2139372
0.21670586 0.3203488 -0.14289075 0.062071055 0.24834512 0.028407818 -0.29233503 -0.3276992
-0.32327127 -0.12948188 -0.2637902 -0.041798573 -0.029612985 0.22644927 0.3059403 0.29763508
-0.15254354 0.17548998 0.09800759 -0.08715582 -0.016207417 0.31721625 -0.3094524 0.15737076
0.22074686 -0.26149535 -0.12065672 -0.043349266 0.037619695 -0.06745828 -0.098174244 0.22357647
-0.11221988 0.006532431 0.14698938 -0.11917349 -0.004394152 -0.23969553 -0.29549 0.066280834
0.15055802 -0.046695814 -0.20744526 0.350026 -0.15320365 -0.09949994 0.07318174 -0.22362295
-0.23030825 0.14845477 -0.2524383 0.19863647 -0.30195343 0.3114869 -0.11801939 -0.1466632
0.17953117 0.1548693 -0.31691146 0.03689064 0.23986572 -0.20709479 0.23472808 0.08802164
0.3378994 0.14868028 -0.0017018842 0.2921768 0.2050886 -0.3217401 0.3097136 0.33972353
0.2607989 0.20737074 0.16444582 0.27559412 -0.00025016148 0.28504688 0.002937736 -0.14914574
-0.113868475 0.15703873 -0.15896392 0.1264821 0.3318321 0.24598649 -0.13046587 -0.2547547
0.085844025 0.27538976 0.10854472 -0.21575908 -0.30896783 0.15915632 -0.31018785 -0.0856021
0.029629268 -0.0020742589 0.20894116 -0.20657182 0.16155301 0.18342927 -0.31744188 -0.2510643
0.35100454 -0.06390247 -0.31056595 0.09384257 -0.030659124 0.31285715 -0.13165481 -0.33796266
0.025149861 0.13805366 0.1823964 0.08828274 0.2010482 -0.19355555 0.34029248 -0.3464992
00000000: c7b8 e43d 3c1a a73d 0e4f 80be 4d0c 053e
00000010: 4de5 acbe 8dbc 9bbe 5e6f 67be 600a d43d
00000020: 437a 203e f968 013e 89f0 72be 30f5 7e3e
00000030: ebf3 33be 1ea6 1fbe 6e1d 903e b1de 093e
00000040: 15f3 cbbd e754 863d f223 9abe 1597 3ebd
00000050: bd7e 37be 736d 91be 11c6 8cbc f3e0 f3bd
00000060: 9df3 a73d db16 563e f4aa 27be 4bdd 9e3e
00000070: 1867 893e fc0a cf3c 90d7 8fbe 6c76 1fbe
00000080: 3ec2 5bbd 486c 9bbe 844e 3c3e fbef adbc
00000090: ea3e aabe 554d 86bd ccb7 01be d210 67be
000000a0: 5a94 973e e2a5 c73d fb4d 0ebd 4550 69be
000000b0: c384 a2be d8ed fe3d 2edc fdbd 9b04 1ebd
000000c0: 1664 53be 6824 df3d fa68 953e da6f 8a3e
000000d0: 8638 a3be c73d 803e 7a01 babd 0016 10be
000000e0: 841c b5bd 3013 943e 819c a33e ead2 163e
000000f0: ae68 4ebe 018a f23d 44e6 bb3d 21b2 423e
00000100: df90 7fbd 708b 783e 97ac 823e 0b56 2e3e
00000110: 32ab 113d 1898 82be 9c00 8ebe d704 95be
00000120: 9865 433e 7391 69be e253 5c3d ff4a 9bbe
00000130: 3121 a0be 2212 913e 99cb 3abe b663 643d
00000140: ad21 773e 218c 923e a45b 97be d031 e5bd
00000150: 6b4c 9bbd 9cbf 2dbc a165 173e fc88 923e
00000160: afd7 8f3e fcde 6bbe e5eb 9e3e d21f 45be
00000170: 7480 b13e 13be 6d3e 1006 4dbe 7ae3 b3be
00000180: 0cc1 7fbe 6125 2b3e 45df 9f3e e808 a73e
00000190: 23ee 883e 26fc 4a3e a3c5 3d3e 8129 993e
000001a0: 06a5 3abe ff1b 083e 43d3 b7bd c7f3 f73d
000001b0: 51e5 d23d ef3f 7a3e 0594 3c3c 9541 963e
000001c0: 2800 b53e f25a 8d3e 8d21 953e 998f 4f3d
000001d0: c16d 3dbe 8c09 953d ef8c f5bd 3665 a3be
000001e0: cbfe 933e 480b 9a3e f61d fabc 1aa2 803d
000001f0: 11e0 8d3d f00b b1be 3573 ef3c b151 103e
00000200: 09d3 53be a1b6 583e 6b37 4fbd 0c27 053d
00000210: 5210 093d c1e7 823e 0f3f bb3d 5a12 5b3e
00000220: 24e8 5d3e c204 a43e f451 12be 383e 7e3d
00000230: 2f4e 7e3e 83b7 e83c f0ac 95be 31c8 a7be
00000240: d083 a5be e696 04be 820f 87be fb34 2bbd
00000250: ee96 f2bc 51e2 673e 35a4 9c3e a063 983e
00000260: 6034 1cbe a5b3 333e 34b8 c83d c07e b2bd
00000270: 6bc5 84bc 2b6a a23e 8c70 9ebe cd25 213e
00000280: 770b 623e b8e2 85be df1a f7bd 008f 31bd
00000290: 1c17 1a3d 9127 8abd 940f c9bd 3bf1 643e
000002a0: 89d3 e5bd 010e d63b 6284 163e 3b11 f4bd
000002b0: d2fc 8fbb bf72 75be 774a 97be 3fbe 873d
000002c0: e22b 1a3e 1c44 3fbd 886c 54be 9c36 b33e
000002d0: 6be1 1cbe a0c6 cbbd 4fe0 953d 6afd 64be
000002e0: edd5 6bbe 8704 183e 983f 81be 5c67 4b3e
000002f0: a499 9abe 367b 9f3e 26b4 f1bd e12e 16be
00000300: 05d7 373e 0f96 1e3e 3842 a2be a41a 173d
00000310: 5c9f 753e a810 54be 8f5c 703e b144 b43d
00000320: 2601 ad3e a53f 183e c211 dfba 3398 953e
00000330: bf02 523e 1ebb a4be c892 9e3e 3ef0 ad3e
00000340: 6f87 853e ff58 543e 7c64 283e ac1a 8d3e
00000350: 1b28 83b9 aaf1 913e 0887 403b a9b9 18be
00000360: e033 e9bd c3ce 203e 70c7 22be 8684 013e
00000370: e6e5 a93e e2e3 7b3e d898 05be 356f 82be
00000380: fece af3d e3ff 8c3e b24c de3d f3ef 5cbe
00000390: 0831 9ebe e0f9 223e f1d0 9ebe 2750 afbd
000003a0: 14b9 f23c 4af0 07bb acf4 553e 9087 53be
000003b0: 276e 253e e2d4 3b3e be87 a2be 808b 80be
000003c0: deb6 b33e 4cdf 82bd 8002 9fbe 8930 c03d
000003d0: d828 fbbc d02e a03e 85d0 06be 7109 adbe
000003e0: 1507 ce3c f05d 0d3e 1fc6 3a3e 95cd b43d
000003f0: 94df 4d3e 6d33 46be d13a ae3e 5868 b1be

qnet.fc1.bias f4 [128]
-0.16566224 0.11731857 -0.3057522 -0.29172763 0.2864432 0.011696533 0.27550712 -0.17785919
-0.18126757 0.105672315 0.12771162 -0.061266333 -0.015946984 -0.022939676 -0.056649476 -0.012331158
-0.28909022 0.108188555 -0.33377385 0.093138374 -0.3152762 -0.04474613 0.092180364 0.34198636
-0.12295918 -0.18508211 -0.34272385 -0.12316957 -0.25143766 0.2052684 -0.22730905 -0.022280024
0.23333688 0.17520496 0.31293738 -0.108387664 0.31597573 0.026827175 0.3213087 -0.08924951
-0.026669389 -0.20958847 0.03163981 -0.08090244 -0.18218647 0.04359805 0.1141427 0.3008788
0.16311128 -0.026542943 -0.3186402 -0.30439246 -0.2471786 0.21008962 0.24060528 -0.22571693
-0.2711254 0.24915321 -0.14991981 0.20844533 0.1699047 0.07727725 0.084367216 0.09535616
-0.046177108 -0.10051499 -0.25299558 -0.069772236 -0.34922448 0.29386747 -0.28854868 -0.30555356
0.2037613 -0.006246339 -0.18203244 -0.2919761 -0.061176945 -0.005538457 -0.09011996 -0.13052759
0.17583579 0.2676301 -0.24125247 -0.00710582 -0.3212226 -0.086496115 -0.1995914 -0.18038781
-0.093873434 0.12135918 -0.24422696 0.064777315 0.13842185 -0.19433764 -0.26101708 0.20140506
0.16095847 -0.05715483 0.08551809 0.0024217663 -0.35133624 0.21925764 0.18959592 -0.16672851
0.2574302 0.13426888 -0.14653209 0.31077826 0.16641736 -0.32140946 -0.20765696 0.15690759
0.34623507 -0.27957308 0.028770057 -0.23462972 0.08324653 0.027590904 0.23837008 -0.3215872
-0.15506841 -0.037288807 0.24453345 -0.27766532 -0.110830665 -0.027570745 0.15080138 -0.22104444
00000000: 5da3 29be b844 f03d 8d8b 9cbe 535d 95be
00000010: afa8 923e d1a2 3f3c 450f 8d3e b820 36be
00000020: 359e 39be ba6a d83d d6c6 023e 68f2 7abd
00000030: 40a3 82bc fdeb bbbc 4809 68bd a008 4abc
00000040: a203 94be f691 dd3d 68e4 aabe 55bf be3d
00000050: e26b a1be b847 37bd 0fc9 bc3d d618 af3e
00000060: 06d2 fbbd 2a86 3dbe 8079 afbe 5440 fcbd
00000070: 70bc 80be e131 523e b4c3 68be 9984 b6bc
00000080: ddef 6e3e ee68 333e 5439 a03e 5afa ddbd
00000090: 92c7 a13e aac4 db3c 9382 a43e 72c8 b6bd
000000a0: c379 dabc 5c9e 56be bf98 013d 2eb0 a5bd
000000b0: 178f 3abe de93 323d a6c3 e93d c90c 9a3e
000000c0: a506 273e 9670 d9bc cf24 a3be 54d9 9bbe
000000d0: 631c 7dbe bc21 573e 3b61 763e 5722 67be
000000e0: f3d0 8abe 0522 7f3e 9484 19be b172 553e
000000f0: 7ffb 2d3e 8943 9e3d b8c8 ac3d 174a c33d
00000100: 3524 3dbd ceda cdbd a388 81be bfe4 8ebd
00000110: 8dcd b2be cc75 963e a7bc 93be 8471 9cbe
00000120: cda6 503e 17ae ccbb b666 3abe e47d 95be
00000130: ad94 7abd f27b b5bb d090 b8bd 06a9 05be
00000140: 4c0e 343e d006 893e e30a 77be f0d7 e8bb
00000150: 4a77 a4be e024 b1bd b061 4cbe 95b7 38be
00000160: b740 c0bd 298b f83d a216 7abe f8a9 843d
00000170: 75be 0d3e 7200 47be 08a4 85be 213d 4e3e
00000180: 4cd2 243e 2f1b 6abd 1c24 af3d 7fb6 1e3b
00000190: 58e2 b3be 1385 603e 6f25 423e e1ba 2abe
000001a0: e4cd 833e c87d 093e 820c 16be 541e 9f3e
000001b0: 5069 2a3e c88f a4be 07a4 54be 62ac 203e
000001c0: b945 b13e 3424 8fbe 2faf eb3c c642 70be
000001d0: 287d aa3d 5206 e23c 4917 743e 14a7 a4be
000001e0: 41ca 1ebe 26bc 18bd fa66 7a3e 262a 8ebe
000001f0: 30fb e2bd 0bdc e1bc ad6b 1a3e 7959 62be

qnet.fc2.weight f4 [128, 128]
0.054672725 -0.014721911 -0.08010498 -0.028617816 -0.08180578 0.0037232905 -0.036348965 0.016353223
0.07844917 0.07805549 0.06493385 -0.026954126 -0.022071654 -0.08827583 -0.061408993 -0.070258595
-0.015277271 -0.07146596 0.06994051 0.046333052 -0.045460396 -0.080976985 -0.035592034 0.033661027
0.06590898 -0.08393902 -0.047544304 -0.08059509 -0.05856933 0.013246256 -0.05737494 -0.05036565
-0.01902386 -0.020707246 -0.03366172 0.07714699 0.044431362 0.0869434 -0.04971449 -0.0807108
-0.08502351 -0.057676397 0.088147506 0.06525019 0.07050098 0.03584996 0.00029570222 0.0014641704
-0.027707495 0.07441039 -0.06880909 -0.05897155 -0.04668016 0.020979064 0.032326102 0.08326523
0.070025876 -0.024055196 -0.041340485 -0.038746633 0.018010654 -0.039023217 -0.027634062 0.046008803
0.04539756 0.016165838 0.08192617 0.054183766 0.070496954 -0.08120031 -0.070016064 -0.059576117
0.07223102 0.07275378 0.018118218 -0.028317437 0.079892136 0.061902363 -0.088179484 0.031535532
0.00924392 -0.073518634 -0.08740652 0.016985536 0.01112235 0.032211404 0.017627358 0.08600407
0.017284974 0.002162958 0.06965624 -0.012896137 -0.010843204 0.043571737 -0.07282351 0.048770603
0.047473587 -0.07336215 -0.07069771 -0.027335918 -0.04823117 -0.061914112 -0.07577313 0.02161243
-0.026287163 0.008273024 0.015131119 0.024274245 0.001241294 -0.05804913 -0.086431764 0.07980705
-0.056442395 -0.08516575 -0.041270413 0.066667646 -0.05239012 0.019803343 0.068036325 -0.07485658
-0.025191266 -0.051911708 0.050439928 0.060764108 0.059701577 0.001091279 0.023141082 -0.02768359
0.06738623 -0.019812133 0.03486326 0.025644949 -0.03244909 -0.02926814 0.042061854 0.06412608
-0.021774944 -0.061466247 0.035144474 0.03538793 0.031210547 0.06421002 -0.033295263 0.018611267
0.007227259 0.026325585 -0.0260645 0.0038298836 -0.05928666 0.002594426 0.05447291 0.053194694
0.012022373 0.051620852 0.063231 0.0069081 0.008783168 0.031237587 -0.0653965 -0.018820863
-0.0066459905 0.0497966 0.0040481975 0.018606326 0.010478614 -0.042354986 0.0051754136 0.06604996
-0.061829343 0.05481427 -0.03410114 -0.049059413 -0.032317962 0.06266701 0.02282734 0.03524822
0.082964815 0.043828703 0.015158233 0.018560993 0.037272464 -0.046572853 -0.07762614 -0.066922374
1.4353525e-05 -0.041067176 0.013131662 -0.051274184 0.03055633 -0.02117265 -0.013152468 0.037365384
0.03697635 -0.041453607 0.066515796 -0.07816533 0.08387952 -0.054020382 0.06924501 -0.047577575
-0.03231223 0.057715546 0.0019195349 -0.05215396 -0.0045856605 0.06105146 -0.03661028 0.06092503
-0.018642375 0.020713203 0.00030481585 -0.06320965 0.013393403 0.060779765 0.07058664 0.050405294
0.067950696 -0.04841304 -0.032007437 0.026088165 -0.05308576 -0.006652437 -0.00792011 0.04841606
0.047436234 0.043503415 -0.03629146 -0.025529843 0.05162593 0.011206109 -0.03614534 0.017403372
-0.043177664 -0.055814344 -0.025571624 -0.016358046 -0.04577362 0.051661085 0.02758331 0.0668456
0.050759718 -0.008873939 -0.077097565 -0.0598676 0.0006762857 0.069295734 -0.02441633 -0.025911283
-0.06444941 0.05580427 -0.009634994 -0.07387158 -0.012905168 0.06013937 -0.011714667 0.059732944
00000000: 82f0 5f3d 2c34 71bc 140e a4bd e96f eabc
00000010: ca89 a7bd 7302 743b a7e2 14bd 32f7 853c
00000020: f5a9 a03d 8fdb 9f3d 0afc 843d e6ce dcbc
00000030: 9dcf b4bc f5c9 b4bd ff87 7bbd bde3 8fbd
00000040: 854d 7abc bf5c 92bd f83c 8f3d bac7 3d3d
00000050: ae34 3abd 43d7 a5bd f4c8 11bd 25e0 093d
00000060: 4afb 863d 39e8 abbd d1bd 42bd 0a0f a5bd
00000070: 65e6 6fbd d306 593c fc01 6bbd 364c 4ebd
00000080: edd7 9bbc 3ea2 a9bc dfe0 09bd 3eff 9d3d
00000090: a9fd 353d 620f b23d 6ca1 4bbd b44b a5bd
000000a0: ce20 aebd 163e 6cbd ae86 b43d e4a1 853d
000000b0: d162 903d 68d7 123d 7b08 9b39 68e9 bf3a
000000c0: d4fa e2bc 7964 983d c8eb 8cbd 278c 71bd
000000d0: b233 3fbd 49dc ab3c 6068 043d f686 aa3d
000000e0: ba69 8f3d 670f c5bc a454 29bd cab4 1ebd
000000f0: 148b 933c cfd6 1fbd d460 e2bc ba73 3c3d
00000100: cbf2 393d 386e 843c e8c8 a73d ccef 5d3d
00000110: b560 903d 594c a6bd 9564 8fbd 1606 74bd
00000120: dbed 933d efff 943d a86c 943c f8f9 e7bc
00000130: 7d9e a33d 558d 7d3d 7297 b4bd 672b 013d
00000140: d073 173c f090 96bd 3102 b3bd 4025 8b3c
00000150: 843a 363c 1bf0 033d 4067 903c e722 b03d
00000160: 3899 8d3c 6ac0 0d3b eea7 8e3d 524a 53bc
00000170: b2a7 31bc 4778 323d 7e24 95bd afc3 473d
00000180: aa73 423d e53e 96bd f6c9 90bd 93ef dfbc
00000190: 0c8e 45bd a799 7dbd f12e 9bbd 8d0c b13c
000001a0: 2d58 d7bc 948b 073c 83e8 773c c8da c63c
000001b0: eab2 a23a edc4 6dbd 2303 b1bd e171 a33d
000001c0: 2430 67bd 616b aebd 2a0b 29bd 0c89 883d
000001d0: 0697 56bd 9f3a a23c a156 8b3d 684e 99bd
000001e0: ea5d cebc 5fa1 54bd 199a 4e3d c9e3 783d
000001f0: a489 743d 3f09 8f3a 5e92 bd3c b2c8 e2bc
00000200: cb01 8a3d 0e4d a2bc c7cc 0e3d 5b15 d23c
00000210: 56e9 04bd bdc3 efbc 0d49 2c3d 8954 833d
00000220: 5e61 b2bc 08c4 7bbd a7f3 0f3d eff2 103d
00000230: 43ad ff3c 8b80 833d 9d60 08bd a876 983c
00000240: a5d2 ec3b c1a8 d73c 3885 d5bc c9fe 7a3b
00000250: 92d6 72bd 3f07 2a3b fc1e 5f3d aee2 593d
00000260: 7df9 443c 6370 533d 417f 813d 585d e23b
00000270: 47e7 0f3c f8e5 ff3c 9aee 85bd 362e 9abc
00000280: 9cc6 d9bb 85f7 4b3d bea6 843b 4b6c 983c
00000290: 7eae 2b3c 6c7c 2dbd 8496 a93b 3445 873d
000002a0: c440 7dbd ee84 603d a3ad 0bbd 86f2 48bd
000002b0: d75f 04bd 9057 803d 6700 bb3c 7060 103d
000002c0: 75e9 a93d ba85 333d 3d5a 783c 390d 983c
000002d0: 03ab 183d 2dc3 3ebd 74fa 9ebd 990e 89bd
000002e0: eccf 7037 0e36 28bd 2f26 573c e104 52bd
000002f0: 4551 fa3c 4472 adbc 737d 57bc 720c 193d
00000300: 8374 173d 42cb 29bd 6f39 883d 2515 a0bd
00000310: 07c9 ab3d 7a44 5dbd 54d0 8d3d b4e0 42bd
00000320: d459 04bd 2367 6c3d e798 fb3a 649f 55bd
00000330: 4f43 96bb 1911 7a3d a9f4 15bd 868c 793d
00000340: e5b7 98bc bcae a93c b1cf 9f39 1074 81bd
00000350: 0170 5b3c 34f4 783d ba8f 903d c875 4e3d
00000360: bc29 8b3d c04c 46bd 3b1a 03bd d9b6 d53c
00000370: 7470 59bd b0fc d9bb 59c3 01bc eb4f 463d
00000380: 7f4c 423d a330 323d 5ba6 14bd f623 d1bc
00000390: b675 533d d499 373c 230d 14bd 8491 8e3c
000003a0: 10db 30bd 959d 64bd 957b d1bc 4f01 86bc
000003b0: 1f7d 3bbd 939a 533d 65f6 e13c 59e6 883d
000003c0: 6ce9 4f3d ff63 11bc 54e5 9dbd bb37 75bd
000003d0: c448 313a ecea 8d3d c104 c8bc e643 d4bc
000003e0: 0dfe 83bd 0593 643d 18dc 1dbc fc49 97bd
000003f0: 3370 53bc b354 763d e0ee 3fbc 88aa 743d

qnet.fc2.bias f4 [128]
0.03382406 0.06282939 0.08731413 -0.077225156 -0.02611367 -0.025872665 -0.052951336 -0.07621267
0.03671335 -0.079815745 -0.0011610512 -0.06834301 0.008698517 0.06556002 -0.013929718 0.034334604
-0.027725926 0.0038195904 0.043268166 -0.088066004 -0.08692112 0.05740613 -0.051969215 0.011597492
0.027806118 0.074785165 -0.044303287 -0.056394644 0.031941783 0.034059945 -0.024867693 0.040545024
0.058068234 -0.058439292 -0.008399486 0.044183016 -0.014502232 -0.04362078 -0.002444845 -0.020894809
0.036573026 0.052338745 -0.009112409 0.019877981 -0.04377315 -0.059866853 0.028492048 0.0170568
0.08541553 -0.05073321 0.057524137 -0.08051867 -0.033332802 -0.06524275 -0.029780377 0.07543285
-0.05066174 -0.08068556 -0.016542638 0.027609754 0.019395879 0.07682722 -0.004963706 0.08701703
0.019263018 -0.023787428 0.039598998 0.06691211 0.04417431 0.0046975967 0.027978433 -0.074301735
-0.019955972 0.025544299 0.055867475 0.0089629665 -0.03875904 0.00039865286 0.023203813 -0.04116689
-0.0409942 0.07739129 0.057119925 0.040193472 -0.040382937 0.011385721 0.07401148 -0.069343165
0.07031082 -0.08358348 0.0583535 -0.028287811 -0.037554692 0.050118502 -0.04826164 -0.044822123
0.08857375 0.016691284 0.074037455 -0.0737001 0.037040096 0.06744435 0.012150854 0.021564003
0.05077306 0.021123247 -0.041013315 0.073143564 -0.0036074882 -0.044369537 0.0764832 -0.083056115
-0.0626113 0.04549868 -0.0683365 -0.03247439 0.014778223 0.044369344 -0.060752258 0.07230506
-0.05830046 -0.04692764 -0.039582048 0.08184588 0.04016069 -0.08520404 0.0111599965 -0.058955107
00000000: 198b 0a3d b2ac 803d c0d1 b23d 3928 9ebd
00000010: 56ec d5bc e9f2 d3bc 80e3 58bd 6315 9cbd
00000020: bd60 163d 7076 a3bd 6a2e 98ba 6cf7 8bbd
00000030: 3a84 0e3c 5544 863d 7939 64bc 71a2 0c3d
00000040: 7b21 e3bc 1852 7a3b f639 313d f35b b4bd
00000050: b303 b2bd b122 6b3d acdd 54bd 6803 3e3c
00000060: a8c9 e33c f728 993d 5d77 35bd 12fe 66bd
00000070: 63d5 023d 7182 0b3d 55b7 cbbc 8a12 263d
00000080: f5d8 6d3d 0a5e 6fbd ff9d 09bc 40f9 343d
00000090: c59a 6dbc b4ab 32bd b139 20bb 972b abbc
000000a0: 99cd 153d 2761 563d 374c 15bc 26d7 a23c
000000b0: 794b 33bd f236 75bd 2868 e93c b4ba 8b3c
000000c0: 56ee ae3d a0cd 4fbd 6e9e 6b3d f9e6 a4bd
000000d0: fa87 08bd fe9d 85bd faf5 f3bc 8a7c 9a3d
000000e0: af82 4fbd 793e a5bd 6d84 87bc da2d e23c
000000f0: 1be4 9e3c 9757 9d3d 95a6 a2bb fc35 b23d
00000100: 7acd 9d3c dadd c2bc 8f32 223d 3709 893d
00000110: 1ff0 343d 4cee 993b 0733 e53c 822b 98bd
00000120: b57a a3bc 4742 d13c 4bd5 643d 68d9 123c
00000130: cdc1 1ebd 4802 d139 ec15 be3c 9d9e 28bd
00000140: 89e9 27bd 537f 9e3d 95f6 693d e9a1 243d
00000150: 9468 25bd 2d8b 3a3c 5593 973d ca03 8ebd
00000160: 1fff 8f3d d12d abbd 1404 6f3d d7bb e7bc
00000170: f3d2 19bd 0f49 4d3d ffad 45bd 6797 37bd
00000180: 2766 b53d 29bc 883c f3a0 973d 14f0 96bd
00000190: 5bb7 173d 4320 8a3d 6014 473c fea6 b03c
000001a0: 6af7 4f3d a90a ad3c 94fd 27bd 4bcc 953d
000001b0: 9c6b 6cbb d5bc 35bd 39a3 9c3d 5319 aabd
000001c0: 5a3a 80bd d35c 3a3d 02f4 8bbd de03 05bd
000001d0: 5c20 723c a1bc 353d 5cd7 78bd ad14 943d
000001e0: 77cc 6ebd 3237 40bd c920 22bd d09e a73d
000001f0: 897f 243d 757f aebd 6bd8 363c e97a 71bd

qnet.A.weight f4 [9, 128]
0.07885024 0.08312618 0.08321178 0.05464262 0.0164138 0.060648806 -0.053529818 0.0074019446
0.031566482 0.08194248 0.0062742773 -0.08023073 -0.07275353 -0.058806907 -0.036731288 0.035710588
0.005137437 -0.03259799 0.04594122 -0.022042952 -0.06969839 -0.027960716 -0.08302201 -0.004327453
0.04868855 0.006149522 -0.014261136 -0.033319537 0.020825325 -0.004350254 -0.078883395 0.043229707
-0.057046354 0.002044535 -0.07574164 0.07413973 0.011495761 0.06013764 -0.04746497 0.064758725
-0.03005523 0.056314245 0.037815217 -0.08047647 -0.030490717 -0.04706826 0.08733005 -0.069439024
0.009736576 0.019286135 -0.08712674 -0.054539226 -0.020838657 0.07464362 -0.006888945 0.042408813
-0.020644007 -0.020530649 0.05177953 0.065191574 -0.043104604 0.02101495 -0.026563827 0.047964554
0.06077411 0.027559992 -0.06746129 0.027080182 0.08294283 0.0417657 0.081340015 -0.07819306
-0.07915273 0.05340657 0.022562299 0.042951718 0.0029919732 -0.023784513 -0.027575936 -0.07443727
-0.024040403 -0.056534544 -0.07457465 -0.032172874 -0.02213621 -0.00011711396 0.068491206 0.021887587
-0.0020000315 0.04067754 0.06796775 0.03743193 0.0161503 -0.081552505 0.0042673787 -0.06669434
0.061202083 -0.047441557 -0.017170807 -0.06543352 0.048555214 0.017337866 0.053900998 -0.085936844
-0.019074889 0.07143961 0.03777124 0.026356714 -0.05058109 -0.008139716 0.045149665 0.05983842
0.056618687 0.038179535 0.076763324 -0.022841843 0.025093807 -0.0046869298 0.042382296 0.07042075
-0.026819691 0.0857665 -0.020890044 0.009725016 0.027844451 -0.050983522 -0.03313278 -0.087246925
-0.04568072 0.08814894 0.0346486 -0.07596783 -0.007978991 0.08369966 -0.0519505 -0.02540358
0.06671141 -0.07936072 0.07356108 -0.07382339 -0.055803493 -0.019343337 -0.040644646 0.055772338
0.08738087 0.08811415 -0.022109766 -0.07190752 -0.019131683 0.05592089 -0.013713627 -0.005693403
0.042241458 0.05486061 -0.08209374 -0.06256523 -0.055259906 -0.021576704 -0.07447558 -0.033801395
0.0031450088 -0.07272719 0.09047754 -0.0010377448 0.081305824 -0.019870948 -0.008613909 0.0034228365
-0.07613627 0.027830793 0.021253016 0.052277923 -0.029189058 -0.043944772 0.055057608 -0.010010871
0.078667715 -0.012194768 0.063915044 0.0861191 -0.04711159 -0.07651219 -0.03919064 0.035148956
-0.059139956 0.043610897 -0.079320714 -0.01338839 -0.057885434 -0.03251141 -0.07709858 0.027027182
-0.0037565883 0.06916716 0.050394338 -0.033846773 0.071028896 0.0561166 -0.027289765 -0.0004616806
0.02679851 0.050361224 -0.06154043 0.0058974777 -0.04517904 -0.009070691 -0.08051796 0.04582969
-0.07381156 0.03358987 -0.06946386 0.008063795 -0.0070394706 0.062035963 -0.01839285 0.06243238
-0.055388495 -0.05658301 -0.03343503 -0.0130821625 -0.058650177 -0.0443496 -0.04059611 -0.053622607
0.07884159 -0.07670478 -0.014046162 -0.06624326 -0.03432867 -0.029336195 -0.010386759 0.0025120259
-0.053909615 -0.024951173 0.028134225 -0.035718847 -0.059887916 0.030894082 0.017941132 -0.036331672
-0.0012930937 -0.040805757 0.08944083 0.08600995 -0.05143951 -0.0230879 0.0020516354 -0.07823814
0.07569388 -0.06608888 0.07661933 -0.07034256 -0.04086827 -0.02112574 -0.08557113 0.038551904
00000000: 3c7c a13d 0f3e aa3d f06a aa3d f1d0 5f3d
00000010: 3c76 863c e26a 783d 1542 5bbd 038c f23b
00000020: db4b 013d 75d1 a73d 7498 cd3b 0250 a4bd
00000030: ceff 94bd 83df 70bd 8c73 16bd 4445 123d
00000040: f257 a83b 7885 05bd dc2c 3c3d 6c93 b4bc
00000050: 08be 8ebd df0d e5bc 7207 aabd 4fcd 8dbb
00000060: a56d 473d ee81 c93b 8aa7 69bc 117a 08bd
00000070: df99 aa3c 938c 8ebb 9e8d a1bd a211 313d
00000080: 70a9 69bd 9bfd 053b 6f1e 9bbd 92d6 973d
00000090: b758 3c3c e352 763d a16a 42bd 39a0 843d
000000a0: 6336 f6bc c4a9 663d 21e4 1a3d d9d0 a4bd
000000b0: abc7 f9bc a6ca 40bd 19da b23d 0c36 8ebd
000000c0: 2986 1f3c f5fd 9d3c 816f b2bd 8664 5fbd
000000d0: d5b5 aabc c1de 983d a9bc e1bb ddb4 2d3d
000000e0: 9f1d a9bc e42f a8bc c616 543d 2983 853d
000000f0: 748e 30bd 8b27 ac3c 629c d9bc 7b76 443d
00000100: 46ee 783d 7ec5 e13c 2529 8abd 42d7 dd3c
00000110: eedd a93d 8312 2b3d 9895 a63d af23 a0bd
00000120: d41a a2bd d9c0 5a3d 92d4 b83c 24ee 2f3d
00000130: fb14 443b bdd7 c2bc eee6 e1bc 9172 98bd
00000140: 61f0 c4bc c490 67bd 98ba 98bd b4c7 03bd
00000150: ff56 b5bc 149b f5b8 1e45 8c3d 994d b33c
00000160: f612 03bb 7e9d 263d ad32 8b3d 3952 193d
00000170: a24d 843c 0005 a7bd 5ed5 8b3b 0b97 88bd
00000180: 09af 7a3d 1452 42bd cba9 8cbc 0202 86bd
00000190: d5e1 463d 2408 8e3c 4bc7 5c3d a8ff afbd
000001a0: f142 9cbc ee4e 923d 04b6 1a3d 09ea d73c
000001b0: 1e2e 4fbd 725c 05bc dbee 383d 2219 753d
000001c0: ffe8 673d 2562 1c3d 1736 9d3d d11e bbbc
000001d0: 8791 cd3c d194 99bb 0f99 2d3d c138 903d
000001e0: f8b4 dbbc 59a6 af3d 9921 abbc ac55 1f3c
000001f0: 0c1a e43c 19d4 50bd 3db6 07bd 84ae b2bd
00000200: b51b 3bbd 6e87 b43d b1eb 0d3d 0695 9bbd
00000210: 50ba 02bc ba6a ab3d 0cca 54bd 2b1b d0bc
00000220: fe9f 883d e087 a2bd 31a7 963d b830 97bd
00000230: 3492 64bd eb75 9ebc 007b 26bd 8971 643d
00000240: bef4 b23d 3175 b43d 8a1f b5bc 4044 93bd
00000250: 0cba 9cbc 4e0d 653d 1faf 60bc ba8f babb
00000260: 6105 2d3d 85b5 603d c320 a8bd 3322 80bd
00000270: 3658 62bd a1c1 b0bc a786 98bd 5573 0abd
00000280: 7e1c 4e3b fef1 94bd 4a4c b93d f004 88ba
00000290: ab83 a63d 66c8 a2bc 5a21 0dbc ab51 603b
000002a0: 55ed 9bbd 67fd e33c ce1a ae3c 6021 563d
000002b0: e41d efbc 6fff 33bd 1684 613d a304 24bc
000002c0: 8a1c a13d 90cc 47bc e4e5 823d 365f b03d
000002d0: 15f8 40bd 6cb2 9cbd 5d86 20bd 5af8 0f3d
000002e0: bd3c 72bd 57a1 323d e672 a2bd fa5a 5bbc
000002f0: 4719 6dbd af2a 05bd dce5 9dbd 1c68 dd3c
00000300: 1831 76bb 83a7 8d3d 4b6a 4e3d eaa2 0abd
00000310: 9977 913d 85da 653d c98e dfbc b90d f2b9
00000320: 8d88 db3c 9247 4e3d d111 7cbd a13f c13b
00000330: a80d 39bd 3c9d 14bc 9ae6 a4bd eab7 3b3d
00000340: 842a 97bd 8895 093d 1143 8ebd 021e 043c
00000350: 5cab e6bb 6c19 7e3d 9aac 96bc 18b9 7f3d
00000360: 0cdf 62bd 96c3 67bd 2cf3 08bd 9156 56bc
00000370: 2b3b 70bd eda7 35bd 1b48 26bd 61a3 5bbd
00000380: b377 a13d 6517 9dbd e021 66bc 8caa 87bd
00000390: 389c 0cbd 7652 f0bc 3a2d 2abc cda0 243b
000003a0: 54d0 5cbd 6766 ccbc bf79 e63c ed4d 12bd
000003b0: 084d 75bd 9615 fd3c 48f9 923c 85d0 14bd
000003c0: 067d a9ba f023 27bd c12c b73d fc25 b03d
000003d0: 3cb2 52bd d622 bdbc bb74 063b 513b a0bd
000003e0: 6505 9b3d 9b59 87bd 98ea 9c3d c30f 90bd
000003f0: 7d65 27bd e30f adbc eb3f afbd 9ae8 1d3d

qnet.A.bias f4 [9]
-0.011167294 0.057595596 -0.035601612 -0.026387272 -0.0076983115 -0.024494912 0.010222548 0.07767178
-0.039151598
00000000: 07f7 36bc 5ce9 6b3d ffd2 11bd 1f2a d8bc
00000010: 1e42 fcbb 8ea9 c8bc 797c 273c 6212 9f3d
00000020: 6d5d 20bd
