models2/backup/q_eval_dqn.onnx (onnx, 149918 bytes, 6 tensors)

qnet.fc1.weight f4 [256, 11]
00000000: 0c92 4abe 03cc 7cbd bfd4 1cbe 7a6b 36be
00000010: a3fa 9b3e e541 aabe 4e29 2e3e af84 efbd
00000020: 8468 653d c52d 40be c4a5 d0bd bba5 753e
00000030: 74d7 0a3d bf8a 803d b2d9 853e 861c 043e
00000040: ef87 1a3e c266 623e 1b8a 70bd b64f 8bbe
00000050: 1bd1 ae3d 2ce4 c1bc 07df 9d3e 122a a63e
00000060: 1093 413d f082 2b3e db7f 5c3e 909e 97bd
00000070: f734 53be 0ace 163c cb94 283c ce29 a63d
00000080: 1c64 13be 0969 c4bd 384a 493e f800 3d3e
00000090: 375c c73c 6c4d 29be 2c96 203e 610f c23c
000000a0: 6715 063d 4fb0 40bb a604 d4bd ad59 ddbe
000000b0: 487a 67be 97b3 a73d 4316 94be b4cd 83bd
000000c0: 264d 5b3e a823 7a3e 2907 843d 29c9 583e
000000d0: 41dc 3d3e ec35 133e 6d3b 203e ae3e b1be
000000e0: 0f49 c33e a77e b1bd 5cb3 1ebd 0d5c ba3d
000000f0: 9bc6 663d 5e74 19be 2429 5a3e 5742 0f3e
00000100: d17c 553d ed0b 9dbc 1132 b23e 58a7 343e
00000110: a922 083e d985 123e 4bbe 96bd 05cb 00be
00000120: dcf0 6ebd 08d8 72bd 6313 c63d df69 52bd
00000130: 8a67 873d a17e 17be 4864 5e3e db6f 8dbd
00000140: f97d d03d 4181 01be eb5f 82bd 94e9 103e
00000150: 2c6e 5e3e b92c dbbc 5f6e c73c ecb8 bdbd
00000160: 8a4f 5abe b3f7 54bd 623e 9e3e 7838 173e
00000170: db6c 943d ee6a 513e 3dde b33e 093f ee3d
00000180: cfb0 53be 71a0 6fbc caf3 d13d dbe8 3dbe
00000190: 4d10 3a3e 9ffb 99be db12 9d3e 4962 183a
000001a0: 9e05 4dbe 1c6c 33be ce7b 83be 7615 983e
000001b0: 9b7d 88be 8376 85be 8ee3 763e 493a 86be
000001c0: 7190 70be ad0b bcbc 4a72 2d3e b4c5 abbd
000001d0: 7b23 3ebe a1f2 913e 42a7 623e bde9 0e3e
000001e0: 6a70 43be e899 0b3e c314 2fbe 679c 45be
000001f0: 604e bd3d 6c5f dc3d e1fd 8bbe dfc9 56bc
00000200: b962 23be b474 f6bd 77b1 80be 0fd5 233e
00000210: a582 22bd ecf9 a6bd 8675 c5ba bed4 423e
00000220: 06d1 83be c524 923e a818 9b3d 0cc1 c8bc
00000230: b97b 5a3e 7e2b 8abe a000 48bc 2e01 36be
00000240: d251 903d 517f 8abd ec58 b23c b485 6e3e
00000250: 8e20 32be b419 143e 01d5 4d3e a735 823e
00000260: c99d efba da00 e43d db9d 89bb 70bf 9e3e
00000270: 4183 ed3d 177c 5f3c 081b ab3e d2c0 90bd
00000280: 2231 cdbd 3bd5 8c3e 83c7 33be 84cd e6bd
00000290: af17 7a3d 5cb1 34bc 9702 793d 31da a23d
000002a0: 5bb1 3cbe ccb9 af3e ea83 3fbe 5819 75be
000002b0: 917f 053e 0d75 d23d d696 79bd 5f1c 893e
000002c0: 1780 313d f60d 313e 2fbf f8bd a081 12be
000002d0: 0d0b 9bbd 7ca7 edbd 9a91 753e 7679 8bbe
000002e0: 4db0 a8be 8991 a5bd 6c2b b0be d3e0 6a3e
000002f0: 36cc 5bbe a2ae a0b9 8f3e 83be 7df2 42be
00000300: cf74 2bbe ef53 ebbb d1ab e23d 1724 67be
00000310: 5435 8e3e 71ea 7a3e 4f68 683e e1e6 f73d
00000320: 228d 063d 4a2b 1f3d 889b 5e3e e387 7e3e
00000330: d984 60be d9ff 363d 2531 ccbd 5bf1 86be
00000340: aa15 89bc 846c b1be a66a 95be de8f f6bd
00000350: 6b09 06be df54 82be 6048 653d a2b1 853e
00000360: e682 7bbd d623 05be 9c4f 733d d84c 693c
00000370: 8b72 43be b4e5 e6bd a770 153e 5f61 bebe
00000380: ae90 b33e 1e8b 853d ed96 48bd 7cc9 d73c
00000390: f8d7 6b3e d6ad 8abd 3d0a 30be 66ff 9b3e
000003a0: 1798 3dbe a063 6fbe 1944 973d 1b2a b63d
000003b0: 192b a1bd 7f7a 5b3d 1f1e 00be 0ae8 9e3d
000003c0: e357 163e 76fd b03e b6ff 53be 2168 93bd
000003d0: 0418 b73d 1676 a93d d329 82be 5039 4f3e
000003e0: b3b6 773d ec8c 9cbe 374a 59bc eb45 ed3b
000003f0: 848b 5e3e 0419 713e 06fe edbd 513f 4abd
-0.19782275 -0.061718 -0.15315531 -0.17814437 0.30464658 -0.332534 0.17007944 -0.11695229
0.056007877 -0.1876746 -0.10187867 0.23989002 0.03389688 0.06276464 0.2614265 0.12901506
0.15090917 0.22109511 -0.058725458 -0.27209252 0.085359775 -0.023668371 0.3083422 0.32453972
0.04725939 0.16749167 0.21533148 -0.0740329 -0.20625673 0.009204397 0.010289381 0.08113442
-0.14393657 -0.09590346 0.19657218 0.18457401 0.024335964 -0.1653344 0.15682286 0.023688974
0.032735255 -0.0029401963 -0.10352449 -0.4323248 -0.2260524 0.08188551 -0.28923234 -0.06435719
0.21416149 0.24427664 0.06446678 0.21170487 0.18541051 0.14376038 0.15647669 -0.34618133
0.38141677 -0.08666735 -0.03874527 0.090995885 0.05634175 -0.14985797 0.21304756 0.1399015
0.052120987 -0.019170726 0.34803823 0.17641962 0.13294472 0.14308871 -0.07360514 -0.12577446
-0.05833517 -0.059288055 0.096716665 -0.051370498 0.066115454 -0.14794399 0.21717942 -0.069061
0.101802774 -0.12646963 -0.06365951 0.14151603 0.21721715 -0.026754724 0.024344621 -0.09263787
-0.21319404 -0.051994037 0.3090697 0.14767635 0.07247325 0.20450947 0.35130492 0.11633117
-0.20672916 -0.014625655 0.10251577 -0.18545859 0.18170281 -0.30074784 0.30678448 0.00058129855
-0.20021674 -0.17521709 -0.25680393 0.29703873 -0.2665833 -0.2606698 0.24110243 -0.26216343
-0.234926 -0.022954786 0.16938129 -0.08387318 -0.18568222 0.28505424 0.22134116 0.13956352
-0.19085851 0.1363293 -0.17097764 -0.19297944 0.092434645 0.10760388 -0.27342132 -0.013109653
-0.15955628 -0.12033978 -0.25135395 0.15999244 -0.039675374 -0.081531376 -0.0015064932 0.19026467
-0.2574541 0.28543678 0.07573062 -0.024506114 0.21336259 -0.26986307 -0.01220718 -0.17773888
0.07046856 -0.06762565 0.021770917 0.23293191 -0.17395231 0.1446293 0.20100786 0.25431558
-0.0018281277 0.11132975 -0.004199726 0.3100543 0.115973 0.013640425 0.3341906 -0.070680276
-0.10019137 0.27506432 -0.17556576 -0.11269668 0.061057743 -0.011028614 0.060793485 0.07951773
-0.1842703 0.3432144 -0.18702665 -0.23935449 0.13036944 0.10276232 -0.060934864 0.26779458
0.043335047 0.17290482 -0.121458404 -0.1430726 -0.07570467 -0.11604211 0.23981324 -0.27241105
-0.32947007 -0.08084399 -0.34408128 0.22937326 -0.21464619 -0.0003064769 -0.25633666 -0.19037814
-0.16743778 -0.0071816365 0.11067928 -0.22572361 0.2777506 0.24503495 0.2269604 0.121045835
0.03284944 0.038859643 0.21739018 0.24856524 -0.21925677 0.04467759 -0.09970311 -0.26356015
-0.016733963 -0.34653103 -0.2918293 -0.12039159 -0.1308953 -0.25455377 0.055977225 0.26112086
-0.06140413 -0.13001952 0.059402093 0.014239512 -0.19086663 -0.11274281 0.14593755 -0.37183663
0.3507132 0.06520675 -0.04897206 0.026341192 0.23031604 -0.06771438 -0.17191406 0.3046829
-0.18515049 -0.23377848 0.073860355 0.0889475 -0.07869548 0.05358362 -0.1251149 0.07759102
0.14681964 0.34568375 -0.20703015 -0.071975954 0.089401275 0.08274476 -0.25422534 0.20236707
0.06047697 -0.30576265 -0.013262323 0.007241001 0.21732908 0.23544699 -0.11620717 -0.04937679

qnet.fc1.bias f4 [256]
00000000: 875d 853d 821e 483e 11c7 5cbd 9ee0 9d3d
00000010: 15cb 1abe 1736 963e 0691 913e 57e9 443d
00000020: e38b 633e f77f fdbb e991 683e abb6 6abe
00000030: d054 873e 31dd cebd 4587 a43e 321c 493e
00000040: 8778 eb3d 09a7 a93e 17b7 e33d 4bd6 533e
00000050: 4d55 923e e4df 5f3d 7bfc 1dbe 3857 9dbd
00000060: e2fa 313e 2cf6 8e3e 72da 2ebe 607a 3a3e
00000070: 19d0 57be 2b11 a5bc 1f6a 6dbe 9e58 953e
00000080: e230 663b 531c 433d 96ca e6bc 0db7 18be
00000090: 26f8 023e 7d0e 1bbe cf90 873e e7bd 123d
000000a0: 2217 d3ba 3190 25be 5f1e 17bd 5468 8d3e
000000b0: 6803 4f3e d4c4 26be 55c4 0dbd 5694 9a3d
000000c0: acf5 8abe 5c17 a33d 4b31 293e 0e41 f13c
000000d0: 8a0d 943e 77f6 ffbd a3ae 6bbe 1bd2 8e3e
000000e0: 5c2c fe3d 7b72 103e 0a71 2f3d fe5b 543e
000000f0: 0a7b 903e 6df4 19be 2238 59bd 6f1c c73e
00000100: edcc 39bd 3811 973e b9ff 5dbe 9e88 7bbe
00000110: a028 a93e f482 aebd a117 bc3d d3bb 7cbd
00000120: 5303 8fbe 4a24 cd3c 94ce 873c 9eab 433c
00000130: 1263 00bd 159c 5eb9 358e 9ebe c201 6c3c
00000140: 3d8d 1bbe 8594 2dbe f374 13be 58ff e3bd
00000150: 4a2f ffbd c502 3d3e 4634 993d 6f80 793e
00000160: b560 263d 9749 6dbe 1908 f03d d510 5f3d
00000170: 3a0a 28be df7c 1dbe 3c71 0dbe f06f 46be
00000180: f0b8 4bbc b09b 44bd af13 7d3e 0a2c 833e
00000190: 93de 64be d198 773e 0bd3 513e 39d3 9fbe
000001a0: 9640 ad3e da88 60be d1f0 37be 3b43 e03d
000001b0: 0e25 2abb 5134 b53e c8f0 03be eb51 65be
000001c0: 5f18 31be 7e51 dfbd af57 1c3d 486e 283e
000001d0: c751 473e a662 283e 4178 72bd 8d42 7cbe
000001e0: 13ce 8fbe c6fb 803e 0ccd 30be dbba eebd
000001f0: 0bb3 a83e 8518 4dbd 4c1d 29be aa75 49be
00000200: 6076 003e 73d6 76be bb5c 003b 7d35 46be
00000210: a8b2 42be d476 af3d af79 21be c1d6 853e
00000220: f564 1bbe 8448 853e 26b1 b63c 750f 813a
00000230: 1570 b93e ccfe e1bd 3d30 713e 1d3d 103e
00000240: 4633 a03d 2167 21be 0978 7d3e 1683 c4bd
00000250: bc71 ba3e e8de e43d b51f aabd 1b03 8c3e
00000260: f04e 26be 8a69 1fbd 599d 71bd b815 81be
00000270: b14e c6bd 7d93 923d 61b5 5d3e e381 23bd
00000280: 7648 813d caed dbbd 7d76 003e a490 943e
00000290: 6a4e 5c3d 29c2 283e cd33 ff3c e399 7cbe
000002a0: 7d81 bd3c 2ba0 013e 690a 993e 8c7a 24bd
000002b0: 786e 8e3c 8cf5 fbbd 7584 ba3e a6c7 95be
000002c0: 8bd9 4e3e 5c79 1e3d 95a8 613e e18a 923e
000002d0: d586 73bd 2e3d 9c3e 6df4 463e 6b37 4e3e
000002e0: c98d a03e e09f 993e 1b9a 9e3c 5aca 983d
000002f0: 2253 663e 4b50 76be ed00 31be 6f4e 91bd
00000300: 1210 583e 5603 c23c 1ed5 13be 1080 22be
00000310: 7299 4dbe c9ac 643e 554d 903e 0e1d 893e
00000320: 719e c03d 54e5 833e f708 89bd eec8 8e3c
00000330: 6c44 1b3e 717d 843e 7245 debd 1eb1 d4bd
00000340: 410b 0bbe a178 8c3d febe 463e fecf 06be
00000350: 8a33 a33d 0413 643e 9de8 8e3e c280 1fbd
00000360: 52b1 b83d 907d 333d b566 a23e f2ba ba3d
00000370: 89aa 633e a363 643e 8679 e3bd 5464 263e
00000380: 80e9 9b3e cf72 5bbe 943a 0fbe 3c29 663d
00000390: 81b6 60bd db2c 3dbe d125 efbd 9388 063e
000003a0: 8e6a 513e a250 6c3d 4296 353e 1b00 ab3e
000003b0: c773 f2bd a2f2 633e 5070 9e3e 78f9 5ebc
000003c0: 329c 59be 0ec0 813e 92d2 823e e82b 5d3e
000003d0: 60c6 673e 8bde 67bc 76c4 643e ef26 05be
000003e0: 7669 643e 571a 88be f0b7 96bb 50b7 55bc
000003f0: 677b 62be b374 223d 2b6c 8dbc b935 b23d
0.065119796 0.19542888 -0.053900782 0.07708858 -0.15116532 0.29338142 0.28430957 0.048074093
0.22221331 -0.007736202 0.2271191 -0.22921245 0.26431894 -0.10100783 0.32134452 0.19639662
0.11497598 0.3313525 0.11118906 0.20687215 0.28580704 0.054656878 -0.15428345 -0.07682651
0.1738086 0.2792219 -0.17075518 0.18210745 -0.21075477 -0.020149788 -0.23185013 0.29169172
0.0035124351 0.047634434 -0.028172772 -0.14913578 0.12789974 -0.15142246 0.26477668 0.035825636
-0.0016104917 -0.16168286 -0.0368942 0.2761866 0.20216143 -0.16286021 -0.034611065 0.07547824
-0.27140558 0.0796344 0.1652271 0.029449966 0.2891658 -0.12498181 -0.23015837 0.27894673
0.12410805 0.14106171 0.04283241 0.20738217 0.2821887 -0.15034647 -0.053032048 0.3888888
-0.045361448 0.29505324 -0.21679582 -0.24563834 0.33038807 -0.08521071 0.09184194 -0.06170256
-0.27932224 0.025041718 0.016577996 0.011942772 -0.03134448 -0.00021229715 -0.3096787 0.014404716
-0.15190597 -0.16951187 -0.14400081 -0.11132687 -0.124601915 0.18458088 0.074806735 0.243654
0.04061957 -0.23172604 0.117202945 0.05445941 -0.16410151 -0.15379666 -0.13812727 -0.19378638
-0.012434229 -0.048000038 0.2471454 0.25619537 -0.2235053 0.24179389 0.20490663 -0.31215838
0.33838338 -0.21927205 -0.17962958 0.10950323 -0.0025962028 0.35391477 -0.1288482 -0.2239453
-0.17294453 -0.10904215 0.03816956 0.16448319 0.1946479 0.16443881 -0.059196714 -0.24634762
-0.2808691 0.25192088 -0.17265719 -0.116567336 0.329491 -0.05007221 -0.16515082 -0.19673792
0.12545156 -0.24105243 0.0019586522 -0.19356342 -0.19013464 0.085675865 -0.15769075 0.26140407
-0.15175231 0.26031888 0.022301268 0.0009846525 0.36218324 -0.11034927 0.23553558 0.14085813
0.0782228 -0.15761997 0.24752821 -0.09595315 0.36414897 0.111753285 -0.08306829 0.2734612
-0.1624105 -0.03891901 -0.05898795 -0.25211883 -0.09682978 0.071570374 0.21651222 -0.03991879
0.06312649 -0.10738714 0.125452 0.29016602 0.05378572 0.16480316 0.03115263 -0.24668078
0.023133034 0.12658755 0.29890755 -0.040155932 0.01738666 -0.12302694 0.36429182 -0.29253882
0.20200174 0.038689956 0.22036965 0.2862158 -0.059454758 0.30515426 0.19429179 0.20138328
0.31358173 0.30004787 0.019360593 0.074604705 0.2249265 -0.24054067 -0.1728551 -0.07095038
0.2109988 0.023683231 -0.14436767 -0.15869164 -0.20078066 0.22331537 0.28184 0.2677998
0.0940522 0.257609 -0.06691163 0.017429795 0.1516282 0.25876954 -0.108530894 -0.10385345
-0.13578512 0.06858946 0.19408795 -0.1316528 0.07968815 0.22272879 0.27911845 -0.038941152
0.09018196 0.043820918 0.31718984 0.09117688 0.22233023 0.22303633 -0.11107163 0.1624921
0.30451584 -0.21430515 -0.1398719 0.056191668 -0.05486155 -0.18474142 -0.11677135 0.13138036
0.20450804 0.057694085 0.177331 0.33398518 -0.11838489 0.22260526 0.30945063 -0.013609283
-0.2125099 0.2534184 0.25551277 0.2159878 0.22634268 -0.0141521795 0.22340569 -0.13003133
0.22305855 -0.26582596 -0.004599564 -0.013044193 -0.22117387 0.039662074 -0.017263493 0.08701653

qnet.fc2.weight f4 [128, 256]
00000000: fdae ffba a7df 0cbc dbce 03bc 0d32 c6bc
00000010: 0dbc 803d b189 07bd bb78 0dbc 68f2 53bc
00000020: 80ca ecbc 7761 8a3d 2d1e 933c b518 793d
00000030: b8c7 4e3d 6fe2 b13d ee41 c8bc 7fd0 913d
00000040: 726b 9e3c 43e3 2c3c 09ef a5bc d374 21bd
00000050: 94d9 f93c 8445 c03b c27a 0ebd 476b 053d
00000060: 65c8 3b3c c877 bd3c 99e9 413d d2a1 3b3c
00000070: 6d09 f0ba 2a3b 39bd 3a24 403d 53a6 87bc
00000080: 58b1 e1bc 4818 403d 893e 883d aaca 6c3c
00000090: ddce 533c 7d19 4e3d 8251 2f3c 9288 fdbc
000000a0: 76db a3bb 305f 033c 7263 9b3c 36cf a33d
000000b0: 40b1 05bc 44f3 493d f6fd 413d 25f8 46bc
000000c0: 1908 4bbc dfea 753d 7d4a 5dbd 7214 f6bc
000000d0: 1c43 3b3d e3f7 a73c de75 a23d a44b a03d
000000e0: 322c 2d3d c2b8 903d 2b42 02bc 4058 3ebd
000000f0: fac9 5e3d 2cc8 dc3b 6c90 3b3d 5542 dcbc
00000100: 6c1d e43c 6628 00bd 7a40 1d3b 3cbf abbc
00000110: 1a6b 753c 47a8 233d d066 cf3d ebdb 783d
00000120: b75a b5bd 1c52 083d 586e 993d 28f8 873d
00000130: df2b c23c 5efd 24bd 6697 4f3d 0091 cf3c
00000140: fd02 133d 46fc 4b3d b951 e33d e300 83bb
00000150: bb16 b9bd 6c45 47bc e247 b13c 4c05 673d
00000160: 5792 d73c e594 ddbc e403 0b3c 1c4d 263d
00000170: 8eb1 0dbd 7ee7 8f3d 455e ab3c 1ee1 b73b
00000180: 30ec dcbc 0ba6 ac3d 8041 82bc f7dc b4bc
00000190: 8f93 8e3d a2c5 e3bb 1c31 80bd 4a67 b8bc
000001a0: daf8 d3bc 8422 1d3d 65f6 493d ac87 5e3d
000001b0: 4880 cdbc edf1 023d a936 f93c 97a1 be3c
000001c0: 082a 283d 5888 b03c a5f4 babb 4b8e 343d
000001d0: fb64 63bc 6af7 3d3b 85e3 df3c 7532 113d
000001e0: 614a 443c 94ea a83d 41e0 663d 2197 12ba
000001f0: fd3a 663d 071e 4dbd 4f54 cdbb a885 b73c
00000200: 7259 023d bedb babc 9429 f9bc be20 383c
00000210: 21d3 9a3d 5d22 c5bc 7155 493c 810d 4dbc
00000220: c40b e1bc e3b5 fa3c e22a b3bc f625 c13d
00000230: d29f c7ba be19 9c3c 4726 33bc e3e3 543d
00000240: 8b06 c93d 409f 263e d654 033d 45b1 db3d
00000250: 444c 2f3d 8de8 1c3d 4eea 99bb 7875 62bc
00000260: 8eb5 8f3d 8dd3 ed3d 9e50 903d 1770 2b3d
00000270: ada5 6abc e058 3ebc 5d9a a33d 4fb6 433d
00000280: a7c4 83bd 11c6 953c cc73 293d 3078 4e3b
00000290: e2e9 ebbc 977c fd3c 344b a6bc 0995 2fbd
000002a0: 687f 17bd 65a7 cdbc 468f 273d ca13 743d
000002b0: 7317 7abd c11e 3fbd a738 d03c a00f 14bd
000002c0: 9e5c 093d 6742 b33d 5c8b 95ba 5602 e13d
000002d0: dbad 86bd 6431 a1bc 53e7 81bd 8238 cfbb
000002e0: b901 acbd dfca 533d 3e14 e93c d1ec a53c
000002f0: 49da 8a3c 68f2 ce3a ebaa e83c 7ecd 313d
00000300: ddfd 8b3d 7526 14bb bd3c 893c 1e46 483c
00000310: 8753 e5bc 2058 1f3d cce9 9d3c fd32 093d
00000320: 1280 963d 266f 8ebc 9e75 123d 18f7 663c
00000330: 9e0f f739 b2b6 d93b 1c1c bd3c ac4a 453d
00000340: 2793 28bd ffae 27bd 71ad 1a3d a71c 82bc
00000350: d605 a23c 9150 cebc 4717 bb3d a0be 88bd
00000360: 1f37 1a3d 82d7 d33d 4acc a3bc 6df5 b43d
00000370: b1af f4bc 51e3 ee3c e56f a33d 8d93 293b
00000380: 5a30 8c3c 8c65 1cbc 19cb 233c 9d0b c43d
00000390: f70a cdbc e809 243d 3679 f7bc a433 103c
000003a0: 8808 64bc bb98 063b cfbe 8b3d 4bc3 fa3c
000003b0: 7098 7a3d a91d 36bc daf4 d23b 33fa 7d3c
000003c0: 683d dc3c 3364 8b3d dbb9 20bd 2df3 76bd
000003d0: 8a63 1f3d 794c 42bd 4b9a 593d 3787 9c3d
000003e0: 7d35 883d 93ca 39bd 525e 45bc f8c0 0c3d
000003f0: 9dad 943b 5f95 6d3c 6f1e 09bb b6c9 fe3c
-0.0019507107 -0.008598245 -0.008044924 -0.024193788 0.06285868 -0.033090297 -0.008634741 -0.012936212
-0.028905153 0.06756871 0.017958725 0.060814578 0.050483435 0.08685767 -0.0244455 0.071198456
0.019338343 0.01055223 -0.020255582 -0.039418053 0.030499257 0.005867662 -0.03478504 0.03257301
0.011461352 0.023128405 0.047341917 0.011452155 -0.0018313356 -0.04522244 0.04690955 -0.016558802
-0.027550384 0.046898156 0.06652553 0.014452616 0.012927738 0.050317276 0.010700585 -0.03094891
-0.005000527 0.0080183 0.018968318 0.07998507 -0.0081599355 0.04930426 0.047361337 -0.012144123
-0.012392067 0.060038444 -0.054026116 -0.030039046 0.045718297 0.020503944 0.07932638 0.07826927
0.042278476 0.0706649 -0.007950346 -0.04647088 0.05439184 0.0067377295 0.04579203 -0.026887098
0.02784606 -0.031288527 0.002399473 -0.020965211 0.014979148 0.039955404 0.10127032 0.060756605
-0.08855193 0.03328143 0.074917495 0.06639129 0.02370256 -0.040280692 0.050681494 0.025337696
0.03589152 0.049801134 0.11099572 -0.0039979084 -0.090375386 -0.012162548 0.021640722 0.056401536
0.026314897 -0.027048538 0.008484814 0.04060088 -0.034593157 0.070265755 0.020918975 0.005611553
-0.026968092 0.08430108 -0.015900373 -0.02207802 0.06961738 -0.00695105 -0.06259367 -0.02251019
-0.025875498 0.038362995 0.049307246 0.054328606 -0.025085583 0.031969 0.030421572 0.023270411
0.04105571 0.021549389 -0.0057054334 0.044081014 -0.013879056 0.0028986582 0.02733017 0.03544851
0.011980624 0.08247867 0.05636621 -0.0005591978 0.0562086 -0.050077464 -0.006266154 0.0224026
0.031823583 -0.02280986 -0.030415334 0.011238275 0.07559801 -0.024064237 0.012288437 -0.012515427
-0.02747143 0.030604308 -0.021871034 0.094310686 -0.0015230125 0.019055244 -0.010934419 0.051975142
0.09815701 0.16271687 0.032063328 0.10727171 0.042797342 0.038307715 -0.0046971207 -0.013821952
0.07017051 0.11612616 0.070466265 0.041854944 -0.014321727 -0.011617869 0.07988427 0.047781285
-0.06433993 0.018282922 0.041370198 0.0031504743 -0.028798047 0.030943198 -0.020299532 -0.04286674
-0.03698674 -0.025104234 0.04090812 0.059589185 -0.06105752 -0.04666019 0.025417639 -0.036147714
0.033535592 0.087528996 -0.001140933 0.10986774 -0.06576129 -0.019676872 -0.0634295 -0.006323875
-0.08398766 0.051707145 0.028452035 0.020254524 0.01694979 0.0015788795 0.028401813 0.043408863
0.0683553 -0.002260593 0.016752595 0.0122237485 -0.02799393 0.038902402 0.019276522 0.03349589
0.07348646 -0.017386984 0.0357567 0.014096998 0.00047123147 0.0066440934 0.023084693 0.048166916
-0.04115596 -0.040938374 0.037763063 -0.015882803 0.019778173 -0.025184901 0.09135299 -0.06676984
0.037650224 0.10343839 -0.019994874 0.08835874 -0.029868932 0.029161127 0.079803266 0.00258753
0.0171129 -0.009545695 0.009997153 0.095725276 -0.025029643 0.04004851 -0.030209165 0.008801375
-0.01391805 0.0020537812 0.06823503 0.030610701 0.061180532 -0.01111547 0.00643788 0.015501547
0.02688475 0.06806221 -0.039239746 -0.060290504 0.038913287 -0.04743621 0.05312566 0.07642978
0.06650827 -0.045359205 -0.0120464135 0.034363717 0.004537298 0.014500945 -0.002092268 0.031102043

qnet.fc2.bias f4 [128]
00000000: 93c2 293c 2cbb 6b3d e754 823d e779 edbc
00000010: c95b a73c bf04 9f3d 0c86 943d 0df3 823d
00000020: 97db db3a 777a aebc d456 543d 8ed0 d83c
00000030: 2658 a1bc bf6f c33d 31c5 8bbc 7278 6e3d
00000040: 4f1b 36bc d9d0 0ebb bfa7 90bc 6547 073c
00000050: c5d8 cb3c 321f e7ba 9bc4 eb3c 1edc 303d
00000060: 57a7 4dbd 2122 f03c 4575 173b da8f 223d
00000070: 511b 343c 2ae1 5e3d d70f 64bc d668 203d
00000080: d286 663b beeb ef3c 8f54 00bd ce9e 803c
00000090: 3952 5a3d c906 ab3c 2511 c63d a0c8 303d
000000a0: 62e6 9e3c 8532 47bd 1d9f 35bd ad30 203d
000000b0: 5d85 443d 2762 2b3d 355c 37bd 6fac 19bd
000000c0: 70bc e1bc dd8f 9c3d fb98 4abc 1059 373b
000000d0: 74e2 5d3c 40af a33d c97d 6d3d 0e92 24bd
000000e0: 7099 753d a141 1abd 6e22 543d 4ace 5e3d
000000f0: c01c 5ebc c3d3 3a3d e721 cc3b 7768 0d3d
00000100: 08b7 073c f4eb c0bb e0fb a83d cba0 443d
00000110: 4dc4 1a3d b708 c23c fea9 9a3c e655 973d
00000120: f6c8 703d 6e92 013d 3169 753d b6ae c7b9
00000130: 346e 0a3d f8d5 6c3b 95ce bdbc f6f4 67bc
00000140: 11ba b13d a204 c83b fe38 533d 9e19 543d
00000150: a7a5 d7bc c07f 723d e629 463c ba05 a93c
00000160: df4e 38bd 2b4b 2e3c 4a48 423c 2de0 c93c
00000170: a49f 19bd 7aa6 803c 7056 c3bc f3f2 813d
00000180: cbeb 723c 4a9a 56bc 2711 923d be18 9a3d
00000190: 4b83 a93c 6b2b d23c c927 523d 57b3 86bc
000001a0: 0e39 a0bb 4e87 2abc a5ea c8bb 0c2c 91bc
000001b0: e954 473d 3ca8 c93c 36a2 b6bc d99b ec3c
000001c0: 0386 37bb f8da 893d 6d46 de3c a874 283d
000001d0: 7d35 693d dcc7 f3bc 6a44 6e3d 58de 933d
000001e0: 2b1a a5bc 754a a3bb bb2e 4dbd 4378 1dbd
000001f0: 4129 50bd 3a02 983d 4128 ae3d 58a7 80bc
0.0103613315 0.057551548 0.0636385 -0.028988792 0.020429509 0.07764577 0.0725213 0.063940145
0.0016773817 -0.02129863 0.05184062 0.026466634 -0.019695353 0.09542798 -0.017061802 0.058220334
-0.011114909 -0.0021791963 -0.017658113 0.008256768 0.024883637 -0.0017633198 0.028780272 0.04317867
-0.050208416 0.029313149 0.002311067 0.03968797 0.010992841 0.054413952 -0.013919792 0.03916248
0.0035175574 0.029287215 -0.03133064 0.015700724 0.05330107 0.020877259 0.09671239 0.04316008
0.019396964 -0.048632164 -0.044341195 0.03910892 0.047978748 0.041841652 -0.04476567 -0.03751796
-0.027555674 0.07644627 -0.012365575 0.002797667 0.01354276 0.07992411 0.057981286 -0.04017835
0.059960783 -0.037660245 0.051790647 0.05439595 -0.013556659 0.045612108 0.0062296274 0.034523454
0.008283384 -0.005887503 0.08251166 0.048004907 0.037784863 0.023685796 0.018879887 0.07389431
0.0587854 0.031633787 0.05991477 -0.00038086408 0.033796504 0.0036138278 -0.023169795 -0.014157524
0.086780675 0.006104068 0.051568024 0.051782243 -0.026324106 0.059203863 0.01209495 0.020632613
-0.044997092 0.010638039 0.011858055 0.024643028 -0.03750576 0.015704382 -0.023844928 0.06345167
0.014826725 -0.013098309 0.07132178 0.075242504 0.020692488 0.025655469 0.051307473 -0.016442938
-0.004889614 -0.010408236 -0.0061314874 -0.017721198 0.04866496 0.024616353 -0.022294145 0.028882908
-0.0028003461 0.06731218 0.027133191 0.041126877 0.056935776 -0.029758386 0.058170713 0.07220143
-0.02015408 -0.004983241 -0.050093394 -0.03844477 -0.050820593 0.074223 0.085037716 -0.015704796

qnet.A.weight f4 [9, 128]
00000000: 65dd ad3c a69d 513b 7924 ac3d ca9d 79bc
00000010: b015 3c3d 2ba3 603b 7767 e2bc 1959 1dbd
00000020: 0e6b 12bd 7cad 733c b2d0 a4bc 558b ec3d
00000030: 0856 27bd ac99 81bd e1d9 03bd 801d d63c
00000040: 2758 d63b 9362 ddbc 983b b73d 27c2 2ebc
00000050: 8b4c e5bc f9eb 8d3c 3c47 8c3b e42f 5c3d
00000060: 20fd 0c3d d53c 733c 37de 8ebb 5298 8fbc
00000070: b5f7 00bb 869d 8dbd 0695 efbc bbb4 78bc
00000080: cc31 b03d 96c9 6dba b9fc a33d 9061 0b3d
00000090: 5ab0 8e3d 75f9 613d 97cb 5ebd 91de 72bc
000000a0: 742d 19bd cbd0 463d 253d 223d 25c9 abbc
000000b0: dfe4 543c 9b6f d13c bb22 403d e0f1 753c
000000c0: 337d 96bd 2a2b 5dbc a80d 3f3d dff2 61bd
000000d0: 33c5 003e eed8 02bd 976d 7d3d a29b 2d3d
000000e0: c38a 053e 1775 733d a1aa 203d 4e00 9c3d
000000f0: e7c7 f53c d7d3 64bd 85cd 3d3d 565b 6c3d
00000100: 94b0 c0bb de95 22bd 76e3 d0bd 9aae 083d
00000110: edad 183d 505c 43ba 3a6f 4fbd 862e 1bbb
00000120: 9e74 85bd d657 0a3e a4f2 8fbd 5d34 613d
00000130: b1fe 24bd 3499 743c a03c 2e3d 9ba6 83bd
00000140: f793 913c 7f87 3b3d 2a68 d7bc 42cd 57bc
00000150: 0afb 4cbd 6537 16bd d054 84bd b6a1 59bc
00000160: c145 2bbd 5b84 313d 728d 513d 0b9a c43d
00000170: 994c 123c ffe3 503b c218 c63d d6dd 843d
00000180: e45b d4bc 007a 4e3d fc86 9c3d feb0 b33c
00000190: d133 933d 0248 34bb 977d 52bc a6bf 983d
000001a0: c89c 4dbd da65 d23d e80b e13d 12f2 a53a
000001b0: 33cc 82ba 1339 633c b085 7339 2e6c 6d3d
000001c0: e71a a13d 578d 743c e027 da3b 7d44 6fbb
000001d0: f282 263d 1054 8f3c e3ba a63d 9921 633d
000001e0: 2957 203c 1480 223d cdc8 1e3d b1d1 373d
000001f0: 1f68 0ebd 1571 9cbc a19a 91bd dabd 193d
00000200: ecef b43d 62a4 d6bc c0b3 44bd 3856 37bd
00000210: 1a3b 0fbd 2a7e 50bd a0a9 8c3d 8324 49bd
00000220: e4f0 2abd 02ad 18bd 76c8 cebb 5f26 2f3d
00000230: a5f7 e33c 28fb a1bc 9f76 92bd 1438 1b3d
00000240: 9de2 94bd 6652 be3d 6f3c 8e3d b180 6f3d
00000250: 1d3a eabb f53b 523d 2263 7c3d dd57 e4bc
00000260: d072 4a3b ecba 8cbc ea93 843d c7b6 583c
00000270: 8587 0abd ea54 4bbc 30d7 20bd cfff 67bd
00000280: dfd3 4dbd aeb4 64bd f786 47bc 3b6f 51bd
00000290: 9950 793d 53bf 1a3d 136e bb3c 5fb5 0b3d
000002a0: 4948 733d 576f 03bd 451a 72bd 73ec d2bc
000002b0: 0666 a6ba badf 943d 4714 76bd e039 9c3d
000002c0: 3656 123d cd84 313d 0620 8b3c 5c20 153d
000002d0: 2bf5 24bd c4bf 9ebc bd19 bf3d e542 253d
000002e0: 6eea 993d 8354 49ba ffda b93c 8a64 2e3d
000002f0: 74ac 33bd e436 aa3d ad1b 36bd 8be7 7abd
00000300: 9955 9e3d 1e92 ccbc 6522 66bb f31e cf3b
00000310: feb3 1c3d 3d69 b0bc d66b f23c b83e c0bc
00000320: cc02 f93c b1b8 833d cca5 0e3c 0daf 783d
00000330: dd0d 1abc b5ef 233d f296 263e f8a0 41bd
00000340: 0740 4dbc d08a 8d3d 64c9 92bb e5a6 55bc
00000350: 48da a4bc 6ca5 503d 13a3 5ebd f575 c43c
00000360: 12ec 9e3d 698d 9abc 6c74 06bd 9c3f e9bc
00000370: f40a 50bd ab5c a83d dfbb f8bc f0fd e03c
00000380: 5a78 b5bc 5e82 343d fe7f 7d3d 9a52 003d
00000390: 961b 303d 6956 063d d31a 753d 9258 463d
000003a0: 01ca 2a3c 6222 b4bd 9526 2abd 8939 933d
000003b0: 30b1 0e3d 6a9f 573d 5a7c a73d 2bbe 5f3b
000003c0: e8ce 9b3d c0f1 8a3c 8dfd 00bd 3c0b 01bd
000003d0: 6e73 183d 271d 85bd c676 e03c 23b1 44bc
000003e0: bcc7 88bd 5144 a03d aa85 a8bb d884 e4bc
000003f0: 39c8 80bd dcd8 00bd 782a 803d 1872 d9bc
0.021223733 0.0031984835 0.08405394 -0.015235374 0.04591912 0.0034276943 -0.027637227 -0.03841505
-0.035746627 0.014872905 -0.020119045 0.11550013 -0.04085353 -0.06328139 -0.032190207 0.026137114
0.0065412703 -0.027024543 0.089469135 -0.010666407 -0.0279906 0.017324435 0.0042809527 0.05375661
0.034421086 0.014846046 -0.004359986 -0.017528687 -0.0019678895 -0.06914811 -0.029245865 -0.015179808
0.08603248 -0.0009070871 0.080071874 0.03402859 0.0696723 0.05516954 -0.054393377 -0.014823572
-0.037396863 0.048538964 0.039609093 -0.020969937 0.01299402 0.025565913 0.04690812 0.015011281
-0.073480986 -0.013499061 0.046643883 -0.05516326 0.12575226 -0.03194516 0.06187209 0.04238475
0.13041215 0.059437837 0.039225224 0.076172456 0.030002547 -0.05586609 0.046338577 0.057704292
-0.0058804248 -0.039693706 -0.10199635 0.033369638 0.037275244 -0.00074524153 -0.050643183 -0.0023678853
-0.065163836 0.13510069 -0.07028702 0.05498158 -0.040281955 0.014929105 0.042538285 -0.06428262
0.01777075 0.045783516 -0.026294786 -0.013171496 -0.050044097 -0.036673922 -0.06461489 -0.013283184
-0.04181457 0.043339115 0.051160283 0.09599694 0.008929395 0.0031874178 0.09672691 0.06487624
-0.025922723 0.050409317 0.07642934 0.021934982 0.071876176 -0.002750874 -0.012847326 0.07458429
-0.050198346 0.10273333 0.10988599 0.0012660644 -0.0009979069 0.013868588 0.00023224088 0.057964496
0.07866459 0.014926276 0.0066575855 -0.0036509328 0.040652223 0.017496139 0.081411146 0.055451963
0.009786406 0.039672926 0.038765717 0.04487771 -0.034767266 -0.01909689 -0.07109571 0.037534572
0.08834824 -0.02620143 -0.048022985 -0.04475996 -0.034968473 -0.05090157 0.06868291 -0.049107086
-0.041733637 -0.037274368 -0.006310518 0.042761203 0.027828047 -0.019773081 -0.071515314 0.037895277
-0.072697856 0.0929306 0.069451205 0.05847234 -0.007148041 0.05132671 0.061617978 -0.027873928
0.0030891187 -0.017178975 0.06473525 0.013227171 -0.033820648 -0.012410382 -0.03926772 -0.056640442
-0.050250884 -0.055836372 -0.012178174 -0.05113147 0.06086788 0.037780117 0.022879636 0.034108516
0.05939511 -0.032088604 -0.059107084 -0.025747513 -0.00126952 0.07269235 -0.06007793 0.07628226
0.03572675 0.04333954 0.016983043 0.036407813 -0.040272873 -0.01937855 0.09331081 0.040347
0.07515417 -0.0007680135 0.022687433 0.04257635 -0.043865636 0.08311251 -0.044459987 -0.061255973
0.0773117 -0.024972018 -0.0035115716 0.006320828 0.03825759 -0.021534557 0.029592436 -0.023467407
0.030396841 0.064317115 0.008706521 0.060713816 -0.009402719 0.040023524 0.16268519 -0.047272652
-0.012527472 0.06911242 -0.004479574 -0.013040279 -0.020123616 0.05093901 -0.05435474 0.023982028
0.077598706 -0.018866258 -0.032825872 -0.028472714 -0.050791696 0.082208 -0.030363021 0.027464837
-0.022152115 0.04406964 0.06188964 0.031328775 0.042995058 0.03279725 0.059840035 0.04842431
0.010424138 -0.087956205 -0.0415407 0.07188708 0.034836948 0.052642263 0.08178015 0.0034140449
0.076078236 0.016960979 -0.031491805 -0.031504855 0.037219457 -0.06499701 0.027400386 -0.012005123
-0.06678721 0.0782553 -0.005142887 -0.027895376 -0.062881894 -0.031456813 0.062581 -0.026543662

qnet.A.bias f4 [9]
00000000: d42b 183c 9678 313d 08ab ac3a 9ab0 2f3d
00000010: 9d3d 6d3d b8d2 8bbd 5033 bf3c c463 95bd
00000020: 7198 8e3d
0.009287793 0.04332789 0.001317353 0.04289303 0.057920087 -0.06827301 0.023339897 -0.072944194
0.0696267
