models2/backup/training_1/q_eval_dqn.onnx (onnx, 286110 bytes, 6 tensors)

qnet.fc1.weight f4 [256, 11]
-0.266203 -0.05355291 -0.27419412 0.21860448 0.12713695 -0.126043 0.26404494 0.17850876
-0.16872646 0.27209246 -0.10974233 -0.06328963 -0.21422167 -0.012248302 0.278675 -0.16197087
-0.22595909 -0.090301394 0.2374689 0.20271929 -0.007959666 0.14131337 -0.21653199 0.12206763
-0.24161553 -0.24617143 0.026658315 -0.111959435 -0.19162141 0.06830092 0.20956184 -0.007016482
-0.2779401 -0.30661324 -0.09197986 0.0021421183 -0.13908455 0.12177856 -0.11185283 -0.011894342
0.19642515 -0.14339049 -0.27545178 -0.25047946 0.01296505 0.032737207 0.16932309 0.22696769
-0.21742634 0.07099714 -0.032426845 0.12391882 -0.16121477 -0.26029524 -0.13339877 0.09174267
0.1364003 0.09473172 -0.22802164 0.058460526 -0.019260587 0.20733263 0.02549084 -0.20887083
-0.17742345 -0.34504884 0.009272618 0.29704988 -0.17343107 0.16640204 0.25347152 0.059563994
-0.08314877 -0.044213094 -0.021924736 0.11927885 -0.27781478 0.18743493 -0.3057302 0.16307494
-0.016326284 0.15698773 0.06902156 -0.12142639 -0.070438944 0.14534377 -0.20450662 0.21702997
-0.006732393 0.26058632 -0.040926456 -0.30060977 -0.1649856 -0.03171615 0.11416173 0.30089346
-0.036023453 -0.07803203 -0.02692156 -0.13304786 0.21510471 0.054593023 -0.29068732 0.2663857
0.0291938 0.21513149 -0.28298974 -0.26790133 0.21062256 0.10886095 -0.17596982 -0.097116865
-0.30228552 0.1674986 -0.08739271 0.092147365 -0.31042632 0.064885 0.12048253 0.05335707
-0.25872543 -0.121681295 0.059132177 0.02197973 -0.012012938 -0.21654947 0.035449058 0.18218711
-0.22899383 0.15848382 -0.23023975 0.028667424 -0.22417304 0.0367254 -0.31434616 0.15254828
0.10469913 0.19560331 -0.13045485 0.19298126 -0.027236314 -0.24369402 -0.123031944 0.11421413
-0.03412902 -0.20470075 0.0015138208 -0.037942167 -0.26956367 -0.22973241 -0.06154274 0.069787584
0.10382757 -0.19638477 0.08408218 -0.097679645 0.2861097 -0.079314165 0.15055932 0.0876631
-0.13219702 -0.18061975 0.11061472 0.11510394 0.13671324 -0.03241534 0.22503199 0.19289342
0.004223248 0.23375867 0.15837634 0.18513249 0.2032904 -0.24459742 0.26412404 0.15604754
0.2586292 0.13035014 -0.14263524 -0.2514394 -0.029843701 -0.13803445 -0.061724387 -0.16345423
-0.26590177 -0.13875842 0.038500138 0.1442927 -0.24338958 0.17929974 0.25602648 -0.031220369
-0.025618196 -0.06368035 0.10724357 0.009051785 -0.014780312 -0.10795361 -0.113655135 0.1290375
0.113689646 -0.30884093 0.26515687 -0.20017548 -0.11282776 -0.034125935 -0.2256824 0.13401432
0.11846984 0.264004 0.18902473 -0.13388683 -0.221478 -0.22519052 -0.20635596 0.17856754
-0.16239356 -0.044451848 0.30337924 0.092288636 -0.026577467 0.20611691 0.18876284 0.26018614
0.02516025 0.071329005 0.15921496 -0.1351662 0.1734079 -0.14394444 -0.07973843 0.2101262
-0.21225452 0.25314105 0.16479516 -0.26436043 0.14268291 -0.25308317 0.08886336 -0.10739188
0.32723218 0.07389369 -0.052215688 -0.020079363 -0.1236126 -0.22349465 0.24824066 0.048427425
0.19684671 -0.2614872 0.27235836 0.036386233 0.11192195 0.26187846 0.15295453 0.06701998
00000000: c24b 88be 4c5a 5bbd 2c63 8cbe dad9 5f3e
00000010: 3030 023e 6b11 01be e630 873e 00cb 363e
00000020: a1c6 2cbe b44f 8b3e 96c0 e0bd fe9d 81bd
00000030: ed5c 5bbe 1aad 48bc 7dae 8e3e b1db 25be
00000040: d261 67be f0ef b8bd 0c2b 733e a595 4f3e
00000050: 4269 02bc 74b4 103e 90ba 5dbe 98fe f93d
00000060: 106a 77be 5d14 7cbe 8a62 da3c fd4a e5bd
00000070: 6738 44be 5ae1 8b3d 6197 563e 84ea e5bb
00000080: 2a4e 8ebe 69fc 9cbe f05f bcbd c862 0c3b
00000090: 2e6c 0ebe 0a67 f93d 1913 e5bd 7ce0 42bc
000000a0: ad23 493e f5d4 12be 0408 8dbe d83e 80be
000000b0: 5c6b 543c 7317 063d 0863 2d3e 386a 683e
000000c0: 03a5 5ebe f366 913d 03d2 04bd 26c9 fd3d
000000d0: 7c15 25be 6b45 85be b099 08be 95e3 bb3d
000000e0: 85ac 0b3e b402 c23d 817e 69be 4e74 6f3d
000000f0: 61c8 9dbc 014f 543e 2bd2 d03c 3ce2 55be
00000100: 7eae 35be 3eaa b0be 2eec 173c ec16 983e
00000110: ea97 31be 4c65 2a3e 05c7 813e 60f9 733d
00000120: e749 aabd ca18 35bd 819b b3bc 7848 f43d
00000130: bd3d 8ebe f1ee 3f3e ab88 9cbe 1efd 263e
00000140: b3be 85bc 64c1 203e 2d5b 8d3d 66ae f8bd
00000150: 4b42 90bd ffd4 143e 2f6a 51be 1b3d 5e3e
00000160: 689b dcbb 926b 853e 80a2 27bd 86e9 99be
00000170: fcf1 28be cbe8 01bd a0cd e93d b50e 9a3e
00000180: 548d 13bd 42cf 9fbd 9a8a dcbc b33d 08be
00000190: 6944 5c3e ef9c 5f3d f8d4 94be b563 883e
000001a0: d627 ef3c 6e4b 5c3e 08e4 90be 5d2a 89be
000001b0: 71ad 573e 7df2 de3d 6f31 34be 35e5 c6bd
000001c0: 2bc5 9abe c184 2b3e f3fa b2bd c2b7 bc3d
000001d0: 33f0 9ebe 6de2 843d 8bbf f63d f18c 5a3d
000001e0: a977 84be 0b34 f9bd 9534 723d d60e b43c
000001f0: ead1 44bc 25bf 5dbe 0833 113d 428f 3a3e
00000200: 5c7d 6abe 9549 223e f8c3 6bbe f2d7 ea3c
00000210: 9e8d 65be 5f6d 163d fbf1 a0be 9e35 1c3e
00000220: 7f6c d63d 3c4c 483e f595 05be e19c 453e
00000230: b11e dfbc ed8a 79be 2cf8 fbbd 19e9 e93d
00000240: dfca 0bbd 139d 51be 666b c63a 3f69 1bbd
00000250: 4004 8abe f93e 6bbe 3d14 7cbd cbec 8e3d
00000260: 8da3 d43d 1719 49be 4733 ac3d 440c c8bd
00000270: f87c 923e 776f a2bd 392c 1a3e b688 b33d
00000280: a85e 07be 62f4 38be f889 e23d 9dbb eb3d
00000290: 8efe 0b3e f3c5 04bd c96e 663e da85 453e
000002a0: 2c63 8a3b 6f5e 6f3e 682d 223e 5f93 3d3e
000002b0: 5c2b 503e bf77 7abe 443b 873e edca 1f3e
000002c0: 0c6b 843e 827a 053e f90e 12be aabc 80be
000002d0: c77a f4bc e758 0dbe b6d2 7cbd 8c60 27be
000002e0: 4724 88be b016 0ebe 52b2 1d3d 77c1 133e
000002f0: 1e3b 79be 5a9a 373e e715 833e dcc1 ffbc
00000300: 40dd d1bc d86a 82bd 84a2 db3d f04d 143c
00000310: 1f29 72bc c816 ddbd 06c4 e8bd 6822 043e
00000320: 1ed6 e83d 6620 9ebe a4c2 873e cdfa 4cbe
00000330: 3e12 e7bd a3c7 0bbd 4919 67be 0d3b 093e
00000340: 51a0 f23d 882b 873e b38f 413e a119 09be
00000350: 21cb 62be 5898 66be fa4e 53be 69da 363e
00000360: 7f4a 26be 2413 36bd 8654 9b3e d301 bd3d
00000370: fdb8 d9bc 5010 533e 0c4b 413e 1e37 853e
00000380: de1c ce3c f114 923d 3f09 233e 0269 0abe
00000390: d791 313e 2c66 13be e74d a3bd 532b 573e
000003a0: 4059 59be b49b 813e 10c0 283e 405a 87be
000003b0: 781b 123e 1e94 81be fefd b53d 46f0 dbbd
000003c0: fa8a a73e 9355 973d 1ee0 55bd 7a7d a4bc
000003d0: 9a28 fdbd c8db 64be cd32 7e3e d65b 463d
000003e0: 2f92 493e a6e1 85be 8e72 8b3e bb09 153d
000003f0: 5637 e53d ef14 863e 1da0 1c3e c541 893d

qnet.fc1.bias f4 [256]
0.16316286 0.24297726 -0.05767512 -0.13104461 0.19458045 -0.21885535 -0.23545985 -0.25254604
-0.13293928 0.2728128 -0.03650482 0.11035663 0.16840717 -0.21388853 0.2617053 0.11565688
-0.25079736 -0.29082662 0.22826645 -0.1725086 -0.072097026 0.12930317 0.12837738 0.20791438
-0.15423764 -0.21913177 0.18085708 -0.060720157 -0.19361116 0.09242449 0.26312548 -0.025071425
0.2952319 -0.020942662 0.13152847 -0.057134315 -0.2823931 -0.23253681 -0.15797156 -0.030806469
-0.27921194 -0.22743642 -0.16773844 -0.27885252 0.25612074 -0.005617629 -0.17038636 0.26267043
0.24738398 0.17430362 -0.18091944 -0.10125693 0.16444746 -0.041372374 0.057153206 -0.12533809
-0.28641894 -0.025060415 -0.2265362 0.054347724 0.12535784 -0.19894895 -0.02024154 0.15607546
0.042603146 0.021456588 0.26970255 0.080884635 0.27954796 -0.29284737 0.06656886 0.08903462
-0.09818487 0.2868949 0.095955215 0.31272545 -0.22542168 -0.13624753 0.28684443 -0.2869841
0.12829006 -0.058019504 0.062241495 -0.21405591 -0.20635493 -0.2881146 0.13657267 0.016697185
-0.067314684 -0.076893315 -0.039926715 -0.00025234098 -0.049567014 -0.100409426 -0.23382246 0.14126666
-0.2778619 -0.043758154 -0.07580092 -0.22060767 0.18677376 0.14922357 0.16166173 -0.0904533
0.0766163 0.13333434 -0.20929497 -0.051360298 -0.10635298 0.23310699 -0.049533732 -0.16161954
0.2651081 -0.20675464 -0.08998039 -0.015244627 0.18022677 -0.12832317 -0.1260196 0.09963075
-0.15325743 0.024936894 -0.24055964 -0.032577906 0.23709676 0.2631066 -0.18028656 0.2347838
-0.023026094 -0.19387624 -0.13131441 -0.15759186 -0.278369 0.0008481499 0.10543293 -0.24564523
-0.19886102 0.30394927 0.20695545 0.04427197 -0.088501856 -0.024162784 -0.13263087 0.11249181
-0.26058617 0.09390749 -0.022263562 -0.15871154 0.24084115 -0.27623647 0.2308289 -0.23472211
0.28826088 -0.27224565 -0.0892133 -0.07863266 -0.13017148 0.12476639 -0.01620558 -0.25699893
-0.27539116 0.103617944 0.022128785 -0.024576517 0.19164242 0.29661852 -0.10464221 0.016662793
-0.27728543 -0.17903158 0.034696415 -0.23174125 -0.18239525 -0.26226395 0.15659024 0.01750171
-0.11629872 -0.2077744 0.25774074 -0.12280213 0.12862784 0.032782026 0.26596266 -0.14259095
0.04257209 -0.08097701 0.2103671 -0.12859337 -0.30747688 -0.120486975 0.18596017 -0.031815317
0.2634907 -0.26869416 -0.1339021 -0.26054263 -0.13153268 -0.21791954 0.15086271 0.21831958
-0.22191826 0.07292775 -0.0892375 0.14909804 -0.02736574 -0.25805944 0.16924861 -0.28461432
-0.23415285 -0.18597019 -0.1191262 -0.0068526426 0.15854323 -0.2542958 -0.17669366 0.18894883
-0.29544204 0.04730517 0.13321382 0.26022258 -0.19899847 -0.28457835 0.22468603 0.03690838
-0.24655291 0.20398185 0.28311792 0.04512789 -0.29197982 0.17016366 -0.03552428 -0.1580978
0.14883825 0.026499202 0.14446084 -0.1588806 0.05655446 0.09368244 -0.09995757 0.21124889
0.030560926 -0.04385918 0.11857857 0.27801642 0.2744322 0.03016519 0.08889776 -0.13096729
-0.05112739 -0.07781635 -0.26579142 -0.20704328 -0.1404974 0.30131692 -0.0800553 0.13608143
00000000: 2a14 273e 08cf 783e bf3c 6cbd 8f30 06be
00000010: 1940 473e 9e1b 60be 631c 71be b74d 81be
00000020: 3c21 08be 1fae 8b3e 1486 15bd a802 e23d
00000030: ee72 2c3e 9805 5bbe 3dfe 853e 84dd ec3d
00000040: 8368 80be 3ae7 94be aebe 693e 18a6 30be
00000050: 9ba7 93bd 0d68 043e 5c75 033e 82e7 543e
00000060: 79f0 1dbe 1464 60be 9932 393e b3b5 78bd
00000070: 0142 46be 0d49 bd3d 62b8 863e 9762 cdbc
00000080: a328 973e f28f abbc 66af 063e ac05 6abd
00000090: d495 90be 211e 6ebe 4cc3 21be d95d fcbc
000000a0: def4 8ebe 18e5 68be a0c3 2bbe c2c5 8ebe
000000b0: 4222 833e 1614 b8bb c379 2ebe bd7c 863e
000000c0: 3a52 7d3e a67c 323e f242 39be cb5f cfbd
000000d0: ea64 283e 1476 29bd 7b19 6a3d a158 00be
000000e0: 81a5 92be 804b cdbc 1bf9 67be b89b 5e3d
000000f0: ce5d 003e 46b9 4bbe 96d1 a5bc 3fd2 1f3e
00000100: a380 2e3d bac5 af3c 7416 8a3e d8a6 a53d
00000110: e920 8f3e 17f0 95be 4155 883d c857 b63d
00000120: 2615 c9bd e3e3 923e 2b84 c43d 8d1d a03e
00000130: f1d4 66be 7984 0bbe 46dd 923e 94ef 92be
00000140: 785e 033e dca5 6dbd f0f0 7e3d 7931 5bbe
00000150: b54e 53be c283 93be b5d9 0b3e 89c8 883c
00000160: 48dc 89bd 3e7a 9dbd 328a 23bd a24c 84b9
00000170: c806 4bbd 75a3 cdbd 286f 6fbe 35a8 103e
00000180: ea43 8ebe c03b 33bd 833d 9bbd fae6 61be
00000190: 9f41 3f3e 10ce 183e a78a 253e 943f b9bd
000001a0: 02e9 9c3d cc88 083e 6c51 56be 2d5f 52bd
000001b0: 97cf d9bd 99b3 6e3e e2e3 4abd 987f 25be
000001c0: 40bc 873e 7db7 53be a447 b8bd 9ac4 79bc
000001d0: 5e8d 383e 2667 03be 480b 01be 350b cc3d
000001e0: 84ef 1cbe 7548 cc3c 4455 76be 6970 05bd
000001f0: 7ec9 723e e9b5 863e 0a9d 38be 2a6b 703e
00000200: 38a1 bcbc 7e87 46be 4977 06be c35f 21be
00000210: 6286 8ebe 6056 5e3a 38ed d73d 6c8a 7bbe
00000220: 39a2 4bbe 3d9f 9b3e 21ec 533e 8656 353d
00000230: 7640 b5bd 08f1 c5bc 63d0 07be 1b62 e63d
00000240: 8d6b 85be 9252 c03d 1362 b6bc 4785 22be
00000250: 109f 763e de6e 8dbe 695e 6c3e fe5a 70be
00000260: ee96 933e c863 8bbe 76b5 b6bd 290a a1bd
00000270: ac4b 05be 8585 ff3d 91c1 84bc 5d95 83be
00000280: 1200 8dbe a535 d43d 6d47 b53c b154 c9bc
00000290: e93d 443e 62de 973e a84e d6bd 6980 883c
000002a0: 5bf8 8dbe 0e54 37be d41d 0e3d 944d 6dbe
000002b0: d2c5 3abe 7647 86be 3159 203e bf5f 8f3c
000002c0: 062e eebd d0c2 54be 98f6 833e af7f fbbd
000002d0: 04b7 033e 7246 063d 422c 883e 5d03 12be
000002e0: 1260 2e3d 46d7 a5bd 796a 573e fbad 03be
000002f0: 9c6d 9dbe e0c1 f6bd 586c 3e3e c750 02bd
00000300: 41e8 863e 4892 89be a21d 09be d865 85be
00000310: 81b0 06be 4d26 5fbe c17b 1a3e 2b8f 5f3e
00000320: 8a3e 63be 255b 953d 27c2 b6bd 28ad 183e
00000330: 1e2e e0bc 5e20 84be 824f 2d3e f8b8 91be
00000340: c4c5 6fbe f86e 3ebe 70f8 f3bd 228c e0bb
00000350: 2859 223e 0f33 82be 2fef 34be cd7b 413e
00000360: 2e44 97be 11c3 413d 3469 083e e53b 853e
00000370: 41c6 4bbe 41b4 91be 1814 663e 3e2d 173d
00000380: 5e78 7cbe 9ee0 503e d5f4 903e 06d8 383d
00000390: 617e 95be 623f 2e3e e881 11bd 64e4 21be
000003a0: 0e69 183e db14 d93c 8bed 133e 99b1 22be
000003b0: a6a5 673d 94dc bf3d 8eb6 ccbd a151 583e
000003c0: e85a fa3c afa5 33bd 52d9 f23d 2b58 8e3e
000003d0: 6182 8c3e fd1c f73c 0710 b63d 4a1c 06be
000003e0: f46a 51bd 2e5e 9fbd d015 88be 2703 54be
000003f0: 8dde 0fbe 3646 9a3e 08f4 a3bd ee58 0b3e

qnet.fc2.weight f4 [256, 256]
-0.015172876 0.0512287 -0.04316086 -0.002387519 -0.0042054243 -9.6236545e-05 -0.01603337 0.04050598
-0.021653628 -0.04705097 0.012294172 -0.0035317703 0.0059631187 0.008212593 0.04582412 0.017911963
0.061198715 -0.044813532 0.024721978 0.041975316 0.01814529 -0.0022417554 0.05337389 -0.05578396
0.038964853 0.036801472 -0.06266407 0.024831483 -0.025570162 -0.05831939 -0.0032290742 -0.036220644
-0.0080494005 0.0034351528 -0.0187203 -0.038657658 -0.054597884 0.016763447 0.043058485 0.037734717
-0.051466953 0.047430966 -0.03612375 -0.037849516 0.063621275 -0.009903887 -0.047760736 -0.023798645
-0.050930597 -0.05353411 -0.03672637 -0.0065083 -0.025721425 -0.038438488 -0.038997892 0.043392852
0.028188994 0.0015670595 -0.046831846 -0.041356806 0.026941484 -0.030953705 -0.026624596 -0.055604994
-0.008518919 0.03496134 -0.016694883 -0.0379778 -0.008747454 0.032284144 0.020077681 -0.035530347
-0.047229737 -0.029970106 0.033763487 0.008786224 0.0010192554 0.03748953 -0.024843749 -0.016230796
-0.03954236 0.009788291 -0.053911936 -0.014044084 -0.03244106 0.037222587 -0.018482145 0.06533306
0.0028451954 0.047528613 0.034081906 0.052421357 0.053443305 -0.006926386 -0.043698806 -0.027146038
-0.0114456145 0.015921088 0.04155245 -0.052239403 0.052128203 0.051183026 0.022239566 0.028611086
-0.016438685 -0.05328572 -0.03302235 -0.027509633 -0.024424475 -0.032164313 0.029021379 0.012049297
0.05448181 0.025710084 -0.010928922 0.039431117 -0.05298162 -0.040752333 -0.0106807435 0.061628934
0.0027272478 -0.03995238 -0.011546416 -0.015028356 0.03616455 0.0035099578 -0.045112863 -0.0044328035
-0.029220216 0.02894087 -0.02238249 -0.04460806 -0.04340552 0.028519377 -0.041416217 -0.045862947
0.040207922 -0.009136469 -0.028643636 0.029941503 -0.006957096 0.046843737 0.00882928 -0.018730514
-0.035073105 0.025308736 0.020205557 0.111119084 0.031565685 0.026733048 -0.05084919 -0.036187574
-0.033230133 -0.0041381475 -0.02149901 -0.012592078 0.010073277 -0.020338725 -0.00884752 -0.015687065
-0.043577213 0.0067193485 -0.005329934 -0.030965628 0.03853213 0.031629246 -0.05834864 0.005065337
0.038614023 -0.024885884 -0.053119484 0.0031319447 -0.0070805005 -0.026891617 -0.05054267 0.011050348
-0.052754715 0.0019370237 0.018078245 -0.019907976 0.05490222 -0.024786798 0.011779405 -0.025010869
-0.013259133 -0.06036052 -0.013064584 -0.057157863 -0.052507527 0.045646664 0.022862814 0.021535018
-0.016483964 -0.025798447 -0.010278147 0.040566027 -0.016426565 0.051481497 -0.0762139 0.037553802
0.049187265 -0.054940283 0.015229543 -0.020429045 -0.033551678 0.036483712 0.037976474 -0.03421638
-0.019963201 -0.00022684775 -0.026168061 -0.046179328 -0.02609038 -0.034778867 0.026259635 0.05889627
-0.03580816 -0.022826409 0.02943351 0.059888054 0.0075778044 0.028753174 0.053145543 -0.008526617
0.03280027 0.004381736 0.015927896 -0.028103428 -0.041199565 0.039142966 -0.010840553 0.040853683
0.053754948 -0.046592023 -0.007939517 -0.029759917 -0.033756334 -0.026242962 0.007052051 0.04401059
-0.00926729 0.04987034 0.006927008 -0.031754013 -0.042161893 0.034166645 0.01635806 -0.051467493
-0.017369507 0.024635483 -0.040344533 0.04978068 0.009336674 0.015754294 -0.028497815 0.02771963
00000000: a897 78bc 2fd5 513d 71c9 30bd ec77 1cbb
00000010: a8cd 89bb 9ad2 c9b8 6a58 83bc 99e9 253d
00000020: f362 b1bc 85b8 40bd 7f6d 493c 4675 67bb
00000030: 4466 c33b 1d8e 063c 13b2 3b3d 1cbc 923c
00000040: 81ab 7a3d 658e 37bd bf85 ca3c 4fee 2b3d
00000050: 6ea5 943c 6aea 12bb 959e 5a3d b97d 64bd
00000060: 9c99 1f3d 24bd 163d 0556 80bd 656b cb3c
00000070: 8478 d1bc 50e0 6ebd e09e 53bb 195c 14bd
00000080: a2e1 03bc 4d20 613b 515b 99bc 7e57 1ebd
00000090: 08a2 5fbd 7f53 893c 185e 303d b88f 1a3d
000000a0: 03cf 52bd f946 423d 7ff6 13bd 1808 1bbd
000000b0: df4b 823d ea43 22bc c3a0 43bd 60f5 c2bc
000000c0: 9a9c 50bd 9546 5bbd 646e 16bd 9443 d5bb
000000d0: bdb5 d2bc ad71 1dbd 41bc 1fbd b4bc 313d
000000e0: 9bec e63c cb65 cd3a c0d2 3fbd c165 29bd
000000f0: 63b4 dc3c a092 fdbc d31b dabc 10c2 63bd
00000100: f092 0bbc 9f33 0f3d b5c3 88bc 9c8e 1bbd
00000110: 7b51 0fbc 613c 043d f379 a43c 4588 11bd
00000120: f873 41bd de83 f5bc 954b 0a3d 18f4 0f3c
00000130: 8998 853a 9f8e 193d 1e85 cbbc 72f6 84bc
00000140: 2bf7 21bd 115f 203c c3d2 5cbd 2819 66bc
00000150: ebe0 04bd b676 183d de67 97bc 57cd 853d
00000160: 7576 3a3b 5dad 423d 7899 0b3d c7b7 563d
00000170: 5ee7 5a3d bdf6 e2bb 85fd 32bd 5e61 debc
00000180: 6386 3bbc f16c 823c e732 2a3d fcf8 55bd
00000190: 6284 553d 4ba5 513d c02f b63c cc61 ea3c
000001a0: 6caa 86bc 2142 5abd 7242 07bd e25b e1bc
000001b0: d615 c8bc babe 03bd 3ebe ed3c 6a6a 453c
000001c0: 5228 5f3d f49d d23c 390f 33bc 8682 213d
000001d0: 4103 59bd ebeb 26bd 49fe 2ebc 9f6e 7c3d
000001e0: a0bb 323b 1ba5 23bd 2e2d 3dbc 7e39 76bc
000001f0: 4721 143d 5207 663b 44c8 38bd 0d41 91bb
00000200: 3c5f efbc 6715 ed3c 7c5b b7bc f1b6 36bd
00000210: fdc9 31bd 78a1 e93c 0da4 29bd c9da 3bbd
00000220: 10b1 243d 21b1 15bc 0fa6 eabc e247 f53c
00000230: 5af8 e3bb 38df 3f3d afa8 103c bc70 99bc
00000240: d1a8 0fbd 4454 cf3c 2086 a53c 6792 e33d
00000250: 054b 013d 44ff da3c 3e47 50bd 6c39 14bd
00000260: 521c 08bd 4c99 87bb b11e b0bc 014f 4ebc
00000270: 630a 253c 669d a6bc 30f5 10bc 2982 80bc
00000280: 057e 32bd fb2d dc3b baa6 aebb a1ab fdbc
00000290: ded3 1d3d ab8d 013d fcfe 6ebd 20fb a53b
000002a0: bd29 1e3d 7bdd cbbc d193 59bd 5041 4d3b
000002b0: 8b03 e8bb cf4b dcbc d505 4fbd 850c 353c
000002c0: 5415 58bd bbe3 fd3a d418 943c 0d16 a3bc
000002d0: 26e1 603d af0d cbbc 68fe 403c 98e3 ccbc
000002e0: d63c 59bc 983c 77bd d60c 56bc 5d1e 6abd
000002f0: 2212 57bd fff7 3a3d cc4a bb3c 356a b03c
00000300: 6109 87bc 4457 d3bc ac65 28bc 9028 263d
00000310: 0191 86bc 43de 523d 0916 9cbd 04d2 193d
00000320: 9678 493d 1009 61bd 5585 793c d05a a7bc
00000330: 7c6d 09bd f26f 153d 388d 1b3d 7a26 0cbd
00000340: de89 a3bc fbdd 6db9 675e d6bc 8926 3dbd
00000350: 7ebb d5bc 4974 0ebd 721e d73c 373d 713d
00000360: 94ab 12bd 73fe babc 8b1e f13c 2d4d 753d
00000370: 3b4f f83b c78b eb3c 24af 593d 39b3 0bbc
00000380: 9359 063d aa94 8f3b 387b 823c 2939 e6bc
00000390: e0c0 28bd 6054 203d 939c 31bc 3156 273d
000003a0: 262e 5c3d 47d7 3ebd bf14 02bc 12cb f3bc
000003b0: 1544 0abd 7bfb d6bc e414 e73b 7344 343d
000003c0: d5d5 17bc d744 4c3d f4fb e23b 7f10 02bd
000003d0: f3b1 2cbd 53f2 0b3d 5701 863c 94cf 52bd
000003e0: 7f4a 8ebc 5ad0 c93c 4f40 25bd d4e6 4b3d
000003f0: d9f8 183c 260f 813c 4074 e9bc 4714 e33c

qnet.fc2.bias f4 [256]
0.06017667 0.04715657 -0.045678392 -0.008386373 0.019310111 0.028507398 0.06437541 -0.050509304
-0.022048283 -0.045423497 -0.053134806 0.028787542 0.07156478 0.03270737 0.031893067 -0.0048298105
-0.032991543 -0.05717047 -0.018614292 -0.027086822 0.0052843755 -0.04435694 0.028055763 -0.031918976
-0.0076110214 0.04178512 0.06051976 -0.025533138 -0.063633636 0.030820163 -0.002397708 0.02018164
-0.05836555 -0.0060206666 0.023973636 0.055734504 -0.027243584 -0.012779855 0.030798689 0.016976273
0.020979147 0.04477293 -0.018293262 0.059417214 0.029500142 0.024384538 -0.0040770113 0.0020225495
-0.05462589 0.056077182 0.05324182 -0.028551288 -0.0036526727 -0.047067154 0.006274117 -0.030999886
-0.05317303 -0.030775875 0.0057889987 0.048425492 0.054522123 -0.027458433 -0.012079029 0.050125435
0.02183745 -0.030703647 -0.050884932 -0.0054372177 0.034726612 -0.06284249 -0.0017311797 -0.035084274
-0.03249973 0.040504 0.017596412 -0.018440748 -0.034109123 0.02590036 -0.057761554 -0.011900068
-0.02604507 -0.0075759604 -0.015790448 0.014265101 0.01787009 0.042527627 0.010325413 0.0017663367
0.040333305 -0.008338144 0.02391168 -0.047897607 -0.05214106 -0.006812851 -0.02202239 -0.024675142
-0.037685618 -0.0040960526 -0.02651877 -0.026315873 0.05837011 -0.04097396 0.052085344 -0.016354743
-0.04359847 -0.017506244 0.01242652 0.05215828 -0.058110524 -0.006869465 0.0060832403 -0.021753967
-0.045083612 0.0489014 0.060249794 -0.039976154 0.03369857 0.03217818 0.051072095 -0.044419073
-0.05850003 -0.011700256 0.005171395 -0.044783674 -0.04073024 0.045909025 -0.037645165 -0.0035972395
-0.0460102 -0.031477343 0.013957137 0.010936737 0.00039933642 0.04946119 -0.015468714 0.048582375
-0.07164107 0.0627742 0.041281354 -0.040373806 -0.0035282532 -0.006614543 -0.01039839 0.0031783625
0.036494445 -0.04532521 0.06230051 -0.0377197 0.06132715 -0.00944847 -0.04239656 -0.014202431
-0.010326273 0.036373734 -0.054667633 0.030963978 0.014396907 0.027016431 0.027882645 0.039513465
0.046242002 -0.0054966705 -0.054351613 -0.024852632 -0.054457523 0.015648337 0.011288605 -0.006494348
-0.02523487 -0.0033844488 0.035979163 0.01693016 0.058425605 0.026118211 0.05046692 0.011997758
0.008307799 0.05556572 -0.008569906 -0.04515793 0.045721292 -0.0488293 0.036605906 -0.04523762
-0.021677744 -0.018331977 0.013051419 0.037637465 0.010500255 -0.051019832 0.034295082 -0.0448907
-0.005378796 -0.027590021 0.054007035 0.046412196 -0.031420905 -0.051109347 -0.023571294 -0.00385767
0.004494007 -0.015236396 0.0065304856 -0.017436547 0.0151376305 0.011051445 -0.007822684 -0.04840554
0.01933642 -0.020967066 0.03994007 0.0031166028 -0.04482015 -0.017989125 -0.027798072 0.042750303
0.06293814 0.004284105 -0.0524874 0.019604405 0.040440332 -0.011738963 -0.031986672 -0.05742625
-0.05049516 -0.05927534 -0.025693234 -0.054220144 -0.0537701 -0.009750996 0.0040915026 -0.008198505
-0.038278874 0.013364564 -0.06802865 0.05545273 -0.056602046 -0.022501402 -0.022983905 -0.062000282
0.05311799 -0.002408473 0.051827073 0.016830178 -0.034379166 -0.018064192 -0.015772415 -0.054226924
0.0011239076 -0.052350055 -0.04486947 0.03262484 0.024361758 0.029236302 -0.045291577 -0.059336253
00000000: d07b 763d 3f27 413d 4419 3bbd ff66 09bc
00000010: 3d30 9e3c 5988 e93c 41d7 833d d8e2 4ebd
00000020: 9a9e b4bc fd0d 3abd e2a3 59bd dad3 eb3c
00000030: 8e90 923d 2af8 053d 4ea2 023d 6343 9ebb
00000040: 2422 07bd 952b 6abd 007d 98bc 2fe5 ddbc
00000050: 8e28 ad3b 9faf 35bd 33d5 e53c 79bd 02bd
00000060: e065 f9bb e026 2b3d 91e3 773d df2a d1bc
00000070: 5a52 82bd 917a fc3c dd22 1dbb f753 a53c
00000080: b710 6fbd 0349 c5bb 5c64 c43c dd49 643d
00000090: f02d dfbc 9962 51bc 884d fc3c d311 8b3c
000000a0: 76dc ab3c d263 373d c0db 95bc 775f 733d
000000b0: 48aa f13c 15c2 c73c 7398 85bb c08c 043b
000000c0: 66bf 5fbd 30b1 653d 1814 5a3d 64e4 e9bc
000000d0: ae61 6fbb 7dc9 40bd 1c97 cd3b 79f3 fdbc
000000e0: f7cb 59bd b01d fcbc a4b1 bd3b cf59 463d
000000f0: 9752 5f3d 82f0 e0bc 1fe7 45bc 5450 4d3d
00000100: 74e4 b23c 3786 fbbc b86c 50bd b02a b2bb
00000110: 7e3d 0e3d 90b3 80bd c0e8 e2ba 87b4 0fbd
00000120: 701e 05bd 86e7 253d 5a26 903c 0d11 97bc
00000130: 02b6 0bbd fe2c d43c 6197 6cbd 81f8 42bc
00000140: 785c d5bc c33f f8bb f85a 81bc 2cb8 693c
00000150: 4c64 923c 7331 2e3d ec2b 293c 6d84 e73a
00000160: 8934 253d b69c 08bc 6de2 c33c 4830 44bd
00000170: dd91 55bd 563e dfbb 4d68 b4bc 8623 cabc
00000180: 3c5c 1abd 2e38 86bb e43d d9bc 6394 d7bc
00000190: 7f15 6f3d 50d4 27bd 7157 553d 62fa 85bc
000001a0: 4f94 32bd 4169 8fbc 9a98 4b3c eca3 553d
000001b0: 4d05 6ebd 4019 e1bb eb55 c73b 6035 b2bc
000001c0: 98a9 38bd d64c 483d 7dc8 763d 09be 23bd
000001d0: 8307 0a3d 44cd 033d f930 513d c6f0 35bd
000001e0: ba9d 6fbd 6eb2 3fbc ce74 a93b 166f 37bd
000001f0: c1d4 26bd 1a0b 3c3d d131 1abd aabf 6bbb
00000200: 3175 3cbd 63ee 00bd 7aac 643c 0030 333c
00000210: 075e d139 d197 4a3d 7d70 7dbc 50fe 463d
00000220: 8eb8 92bd c38f 803d a316 293d 015f 25bd
00000230: 443a 67bb cfbe d8bb 025e 2abc 134c 503b
00000240: 337b 153d eda6 39bd d22e 7f3d f97f 1abd
00000250: 2d32 7b3d c1cd 1abc 04a8 2dbd 50b1 68bc
00000260: 872f 29bc a0fc 143d 2beb 5fbd 2ba8 fd3c
00000270: 01e1 6b3c 9051 dd3c 256a e43c dfd8 213d
00000280: 4168 3d3d 6a1d b4bb cc9f 5ebd bf97 cbbc
00000290: da0e 5fbd f130 803c d7f3 383c 8ace d4bb
000002a0: 5cb9 cebc a1cd 5dbb e35e 133d 1eb1 8a3c
000002b0: b04f 6f3d dcf5 d53c 67b6 4e3d 3f92 443c
000002c0: 6f1d 083c e198 633d ca68 0cbc 86f7 38bd
000002d0: 4046 3b3d 3b01 48bd 13f0 153d 154b 39bd
000002e0: 8695 b1bc f12c 96bc 9ed5 553c be29 1a3d
000002f0: 4309 2c3c 2cfa 50bd 0079 0c3d 50df 37bd
00000300: 9c40 b0bb 7804 e2bc 7b36 5d3d b71a 3e3d
00000310: 35b3 00bd 0958 51bd 9618 c1bc f6d0 7cbb
00000320: 7742 933b 14a2 79bc affd d53b 17d7 8ebc
00000330: d303 783c 1f11 353c b72a 00bc e344 46bd
00000340: 6967 9e3c 20c3 abbc 3398 233d eb3f 4c3b
00000350: 5595 37bd ee5d 93bc c8b8 e3bc f11a 2f3d
00000360: b6e5 803d ad61 8c3b 07fd 56bd 6b99 a03c
00000370: c3a4 253d c854 40bc 7504 03bd ca37 6bbd
00000380: 03d4 4ebd b3ca 72bd 9e7a d2bc f115 5ebd
00000390: 093e 5cbd a4c2 1fbc 0312 863b 0653 06bc
000003a0: 4fca 1cbd 0bf7 5a3c 9b52 8bbd 6722 633d
000003b0: 8cd7 67bd dc54 b8bc be48 bcbc 02f4 7dbd
000003c0: 4092 593d 79d7 1dbb a048 543d 71df 893c
000003d0: 2bd1 0cbd 5bfb 93bc 2735 81bc 0d1d 5ebd
000003e0: 1550 933a 036d 56bd 0dc9 37bd a0a1 053d
000003f0: 4f92 c73c f880 ef3c a983 39bd 920a 73bd

qnet.A.weight f4 [9, 256]
-0.062706105 0.00043417455 0.050118145 0.041306283 0.06410461 0.010272328 -0.01566341 0.015571399
-0.027210684 -0.023975607 -0.0047725933 0.04222519 -0.032967642 0.054194257 -0.024290303 -0.043793444
0.011768168 0.021286389 0.04647367 0.05567544 0.017735098 0.0065496652 0.05669838 0.03743233
0.008874342 -0.0055174255 0.053817913 -0.020850869 -0.045270436 -0.05370614 0.0671428 0.05969761
0.01500726 0.06488762 0.01464902 0.02569389 0.046501957 -0.047625016 -0.02655109 -0.04081397
0.024231454 -0.026741521 -0.024355352 -0.037258603 -0.045643955 0.030200867 0.039048847 0.04329343
-0.04386332 0.051168807 0.00868831 -0.036745954 0.07219163 -0.029074682 -0.014297883 -0.02924627
-0.028037474 0.029010525 -0.003007308 0.036866248 -0.0472685 -0.007621002 -0.060917 0.014247874
-0.033604547 0.018306058 0.006877649 0.03385909 -0.043669444 0.011294282 0.018260606 0.028111082
-0.05275782 -0.024410658 -0.009336882 0.047936935 -0.05221733 -0.0332988 0.040975187 -0.033103682
0.048572592 0.0032640365 0.022081975 0.014340896 -0.038778156 0.008275709 0.049633935 0.05061077
-0.033624835 -0.06013912 -0.02552721 0.03433683 -0.017212857 0.028837424 -0.0062247124 0.037883457
0.016519202 -0.000570706 0.007977001 0.001470851 0.05415042 0.057583336 -0.025492938 0.058615882
0.0003906527 -0.039670683 -0.039663214 0.04318123 0.048247233 -0.017980665 -0.015897451 -0.029223014
0.033404063 -0.03466049 -0.046756357 -0.02553605 0.039355993 -0.004915245 0.027909242 0.06011269
0.00087315467 -0.028010024 0.03054335 -0.06679072 -0.04290688 0.028294291 -0.0091314465 -0.042980567
-0.03882075 0.002034392 -0.0058074263 -0.02220013 -0.04185977 0.044182897 0.029287832 0.028165951
0.031152153 -0.028886495 0.051101897 0.04116176 0.039747432 -0.0006353659 -0.042412028 -0.0011133918
-0.011292605 -0.039802168 -0.027290914 -0.035137963 -0.011801864 -0.045060545 0.0042388723 -0.013206404
0.03444686 -0.034365516 -0.035484582 0.042751055 -0.016544241 0.038459796 -0.035024483 0.0044641783
-0.0072378055 -0.02914589 0.008684541 0.04578338 -0.022015424 -0.0073083993 0.05624786 0.030502684
-0.019907482 0.013706108 0.025772901 0.0082651805 0.030384485 -0.04576245 0.013812701 0.024597006
-0.00500148 -0.026262682 0.0461855 0.038350027 -0.0074870754 -0.037126567 -0.0355683 -0.03188145
0.037986595 -0.033541832 0.05378668 0.025246317 0.045472488 0.051000748 -0.038552392 -0.031123659
0.0039212354 -0.020725658 -0.026287252 -0.05736973 0.023076585 0.030775316 -0.01424979 -0.041722007
0.0036897892 -0.04919903 -0.053725302 -0.025699925 -0.035747815 0.039275184 0.02819424 -0.04511713
-0.033744276 -0.046611477 0.06253253 0.023493927 0.041963432 0.029516198 0.00040032994 0.00078738545
-0.043880314 0.026351018 0.035814792 0.0011071325 -0.028366072 0.045233272 0.015639363 0.001073242
-0.011780796 -0.013586372 -0.03489478 -0.029987762 0.015183229 0.0025386857 0.035284504 -0.014614438
-0.010923189 -0.0042835674 0.049441904 -0.0037116334 0.0012285727 0.008679384 -0.03643411 0.023895627
-0.023295656 -0.034623098 -0.012683091 0.057297297 0.045420803 0.008091036 -0.0450643 0.00071459654
-0.0070211613 -0.04252867 -0.0069675352 0.017574022 0.0662674 -0.0041607595 0.00058021845 -0.013345638
00000000: 0f6c 80bd eca1 e339 af48 4d3d c730 293d
00000010: 4749 833d 444d 283c 8d50 80bc 2e1f 7f3c
00000020: f1e8 debc 7e68 c4bc 6a63 9cbb 52f4 2c3d
00000030: 1409 07bd ccfa 5d3d 75fc c6bc c160 33bd
00000040: 46cf 403c cb60 ae3c 2d5b 3e3d ee0b 643d
00000050: 3249 913c 939e d63b 8f3c 683d a552 193d
00000060: b065 113c 85cb b4bb 2c70 5c3d 71cf aabc
00000070: 7e6d 39bd f8fa 5bbd 2a82 893d 7b85 743d
00000080: 03e1 753c cde3 843d 7102 703c fe7b d23c
00000090: d678 3e3d 7312 43bd ac81 d9bc 8d2c 27bd
000000a0: 0b81 c63c 0911 dbbc e084 c7bc 7a9c 18bd
000000b0: 28f5 3abd cf67 f73c aff1 1f3d 7454 313d
000000c0: 06aa 33bd 6296 513d 6a59 0e3c ed82 16bd
000000d0: 35d9 933d 072e eebc ab41 6abc e095 efbc
000000e0: d8ae e5bc 7ba7 ed3c 4216 45bb 1001 173d
000000f0: 9d9c 41bd 99b9 f9bb 1b84 79bd ea6f 693c
00000100: eca4 09bd 96f6 953c e75d e13b d4af 0a3d
00000110: bbde 32bd a70b 393c 4497 953c 3649 e63c
00000120: 9518 58bd dcf8 c7bc b9f9 18bc 8559 443d
00000130: d7e1 55bd 5364 08bd 99d5 273d ba97 07bd
00000140: 0ef4 463d 72e9 553b 42e5 b43c 14f6 6a3c
00000150: d8d5 1ebd d796 073c f44c 4b3d 3d4d 4f3d
00000160: 32ba 09bd 7054 76bd 711e d1bc c7a4 0c3d
00000170: fa01 8dbc 763c ec3c acf8 cbbb af2b 1b3d
00000180: 4753 873c 6e9b 15ba f8b1 023c 92c9 c03a
00000190: d5cc 5d3d 81dc 6b3d 91d6 d0bc 3517 703d
000001a0: 85d0 cc39 ba7d 22bd e575 22bd cdde 303d
000001b0: e49e 453d 304c 93bc 5f3b 82bc 1a65 efbc
000001c0: b3d2 083d 28f8 0dbd 9883 3fbd fa30 d1bc
000001d0: c033 213d 1010 a1bb eca1 e43c b938 763d
000001e0: 6be4 643a 4775 e5bc 0c36 fa3c 93c9 88bd
000001f0: 20bf 2fbd 6ec9 e73c 109c 15bc 640c 30bd
00000200: 8202 1fbd 6f53 053b 394c bebb 0cdd b5bc
00000210: 2675 2bbd 20f9 343d 09ed ef3c 48bc e63c
00000220: cd32 ff3c 5fa3 ecbc 3950 513d 3c99 283d
00000230: 34ce 223d af8e 26ba 3cb8 2dbd 3bef 91ba
00000240: 9e04 39bc 9907 23bd 3291 dfbc d3ec 0fbd
00000250: 9b5c 41bc 6891 38bd 3de6 8a3b ac5f 58bc
00000260: 2718 0d3d dbc2 0cbd 4858 11bd bb1b 2f3d
00000270: ca87 87bc 0588 1d3d d575 0fbd 3e48 923b
00000280: 1d2b edbb 5dc3 eebc 9b49 0e3c 5a87 3b3d
00000290: b159 b4bc 4c7b efbb 2864 663d c4e0 f93c
000002a0: 0415 a3bc 958f 603c b121 d33c ae6a 073c
000002b0: e2e8 f83c 6871 3bbd ab4e 623c a97f c93c
000002c0: 75e3 a3bb d624 d7bc 022d 3d3d eb14 1d3d
000002d0: 2456 f5bb 0712 18bd 11b0 11bd 2096 02bd
000002e0: d597 1b3d 2963 09bd 6c4f 5c3d 5dd1 ce3c
000002f0: 5c41 3a3d 29e6 503d 1de9 1dbd 0bf7 febc
00000300: b57d 803b dbc8 a9bc 5d58 d7bc 86fc 6abd
00000310: 1b0b bd3c 841c fc3c f477 69bc b2e4 2abd
00000320: 64d0 713b ec84 49bd 100f 5cbd a688 d2bc
00000330: 4d6c 12bd 04df 203d 9bf7 e63c bdcc 38bd
00000340: 7037 0abd adeb 3ebd 0e11 803d 5676 c03c
00000350: d9e1 2b3d f4cb f13c 60e3 d139 8b68 4e3a
00000360: d8bb 33bd 17de d73c 88b2 123d 341d 913a
00000370: f75f e8bc 8646 393d 1f1e 803c 07ac 8c3a
00000380: 3d04 41bc 6099 5ebc d4ed 0ebd e5a8 f5bc
00000390: 14c3 783c 1460 263b 7c86 103d 6571 6fbc
000003a0: 2df7 32bc 2b5d 8cbb 9883 4a3d e03e 73bb
000003b0: 0f08 a13a fa33 0e3c ef3b 15bd c3c0 c33c
000003c0: 88d6 bebc f3d0 0dbd bdcc 4fbc 92b0 6a3d
000003d0: 2a0b 3a3d 4490 043c 5895 38bd c353 3b3a
000003e0: c511 e6bb 8b32 2ebd ec4f e4bb 65f7 8f3c
000003f0: 34b7 873d fb56 88bb cd19 183a aaa7 5abc

qnet.A.bias f4 [9]
-0.060704466 0.061842583 0.03845418 -0.005315713 0.017035801 -0.06585014 -0.05044683 0.052472774
-0.018626297
00000000: 3fa5 78bd a64e 7d3d 2182 1d3d 6f2f aebb
00000010: aa8e 8b3c 70dc 86bd 56a1 4ebd b1ed 563d
00000020: 2d96 98bc
