models2/backup/training_2/q_eval_dqn.onnx (onnx, 286110 bytes, 6 tensors)

qnet.fc1.weight f4 [256, 11]
-0.29835072 -0.027465498 -0.25884762 0.19431925 0.15247436 -0.10104981 0.23622388 0.20677389
-0.15683544 0.25973138 -0.08885867 -0.071173646 -0.22003794 0.022978047 0.2707545 -0.16918918
-0.22559506 -0.101329066 0.23895048 0.18644348 -0.012825266 0.1322154 -0.22863919 0.13307016
-0.22588944 -0.2590798 0.036555998 -0.09132428 -0.20161243 0.07367486 0.17772286 -0.0020504235
-0.25461462 -0.3060728 -0.09608573 -0.018566843 -0.1414601 0.11896581 -0.115758255 -0.014338042
0.19829012 -0.12611504 -0.24447568 -0.24516813 0.014386879 0.027015734 0.1686389 0.22743599
-0.22317047 0.07101477 -0.033686817 0.111354 -0.1525554 -0.22707152 -0.13526636 0.09389625
0.13547418 0.08913979 -0.22768438 0.054884166 -0.023213087 0.21306437 0.028213233 -0.17872418
-0.17556912 -0.34685653 0.0027324778 0.30330017 -0.18059409 0.15978266 0.26233685 0.06581865
-0.087349996 -0.044912905 -0.012843235 0.10380562 -0.2629609 0.19600374 -0.31497645 0.1790085
-0.014473691 0.15016927 0.07036512 -0.108264446 -0.07277153 0.14430523 -0.19627972 0.20568742
0.00081363256 0.2826556 -0.032847784 -0.28408295 -0.13860503 -0.014090658 0.12756823 0.3205847
-0.0029808718 -0.04352603 -0.0044080974 -0.12474684 0.225282 0.050561026 -0.28136358 0.27576056
0.025954258 0.22050773 -0.2805267 -0.24769852 0.19740406 0.10668185 -0.19336528 -0.08993153
-0.27907002 0.14812991 -0.08262941 0.11544494 -0.32756877 0.07439637 0.09266793 0.061186075
-0.23638123 -0.11549875 0.06212725 0.015913434 -0.0037462397 -0.21460178 0.036189787 0.18458666
-0.23765005 0.15235122 -0.2259769 0.03453907 -0.22763017 0.028142719 -0.3140006 0.14426684
0.09732433 0.20176479 -0.13096024 0.18377666 -0.038239434 -0.22410172 -0.11687537 0.09967756
-0.046271585 -0.20445886 -0.013403101 -0.04969361 -0.26111218 -0.2434728 -0.064550005 0.04424096
0.1220761 -0.19723839 0.08142982 -0.10017781 0.28763252 -0.08518011 0.14877225 0.0850015
-0.12985381 -0.18056647 0.09876944 0.12247081 0.13043009 -0.031666577 0.22699627 0.18318313
0.0046582944 0.24276608 0.15351236 0.17922217 0.19558251 -0.22529012 0.25831115 0.15085354
0.27152982 0.12428129 -0.13071543 -0.23567268 -0.034091625 -0.11142364 -0.07028419 -0.1701878
-0.25071898 -0.13946734 0.06606014 0.15943393 -0.236546 0.16464041 0.26754245 -0.024184523
-0.030674126 -0.051575333 0.11422596 0.010992131 -0.006950844 -0.10103361 -0.11435084 0.124517
0.12608325 -0.3100353 0.25598872 -0.1868032 -0.10876619 -0.030824425 -0.19718423 0.12961927
0.13004963 0.28424427 0.19642511 -0.13334312 -0.20296636 -0.22111978 -0.1991825 0.1972814
-0.1689245 -0.06435634 0.3009978 0.091498055 -0.016457824 0.20189254 0.19469342 0.2649139
0.01881633 0.07676521 0.14842114 -0.15124935 0.16436933 -0.1343374 -0.081050806 0.22607712
-0.21783218 0.23012055 0.17524634 -0.2752833 0.13115534 -0.22872782 0.07338598 -0.103719816
0.3126621 0.07778053 -0.04810286 -0.027727414 -0.11901579 -0.22483262 0.242075 0.049003094
0.19456543 -0.27237087 0.26182222 0.01555532 0.11190062 0.2624412 0.1569962 0.051327616
00000000: 6dc1 98be 53ff e0bc ad87 84be a0fb 463e
00000010: 3d22 1c3e 34f3 cebd ace4 713e 89bc 533e
00000020: 7899 20be 83fb 843e 89fb b5bd 7dc3 91bd
00000030: a051 61be 753c bc3c 55a0 8a3e ee3f 2dbe
00000040: 6402 67be 9d85 cfbd 6faf 743e 0aeb 3e3e
00000050: 1121 52bc 7963 073e 6420 6abe 8b43 083e
00000060: 904f 67be 1ca6 84be bebb 153d 3908 bbbd
00000070: 7d73 4ebe d8e2 963d fbfc 353e 6660 06bb
00000080: d95c 82be 93b5 9cbe 98c8 c4bd 7e19 98bc
00000090: ebda 10be 59a4 f33d aa12 edbd 1bea 6abc
000000a0: 910c 4b3e 4d24 01be d557 7abe 5b0d 7bbe
000000b0: f2b6 6b3c 1a50 dd3c adaf 2c3e fbe4 683e
000000c0: cd86 64be 3170 913d 30fb 09bd 910d e43d
000000d0: 7c37 1cbe 7085 68be 4483 0abe ad4c c03d
000000e0: beb9 0a3e ec8e b63d 1826 69be 38ce 603d
000000f0: 5f29 bebc 8c2d 5a3e 701f e73c 7903 37be
00000100: 64c8 33be 2e97 b1be 5f13 333b 294a 9b3e
00000110: a8ed 38be 119e 233e 0451 863e eecb 863d
00000120: 8ee4 b2bd 98f6 37bd 6f6c 52bc 0a98 d43d
00000130: d0a2 86be 34b5 483e 9844 a1be 014e 373e
00000140: 0f23 6dbc f9c5 193e 971b 903d c0b9 ddbd
00000150: 3d09 95bd c0c4 133e 8dfd 48be b99f 523e
00000160: f549 553a 3cb8 903e 668b 06bd 5273 91be
00000170: 7aee 0dbe 81dc 66bc 3fa1 023e ae23 a43e
00000180: bb5a 43bb 5a48 32bd cd71 90bb 457b ffbd
00000190: 53b0 663e 1419 4f3d e30e 90be 7d30 8d3e
000001a0: 069e d43c c7cc 613e 32a1 8fbe aea4 7dbe
000001b0: 4a24 4a3e 047c da3d 8c01 46be 062e b8bd
000001c0: 44e2 8ebe 5eaf 173e 9c39 a9bd 666e ec3d
000001d0: 18b7 a7be 205d 983d afc8 bd3d 409e 7a3d
000001e0: ec0d 72be 9c8a ecbd 2579 7e3d e45c 823c
000001f0: 7983 75bb 92c0 5bbe be3b 143d 4904 3d3e
00000200: 895a 73be f501 1c3e 7d66 67be d778 0d3d
00000210: e217 69be 8f8b e63c b0c4 a0be b0ba 133e
00000220: fa51 c73d 6e9b 4e3e 711a 06be f32f 3c3e
00000230: f4a0 1cbd ec7a 65be 5b5c efbd c023 cc3d
00000240: 4687 3dbd aa5d 51be ae98 5bbc 878b 4bbd
00000250: 7fb0 85be ef50 79be cb32 84bd 0236 353d
00000260: 0903 fa3d dcf8 49be adc4 a63d 062a cdbd
00000270: 9244 933e e972 aebd c157 183e 4415 ae3d
00000280: 66f8 04be 6be6 38be a247 ca3d fad1 fa3d
00000290: 778f 053e d0b4 01bd b671 683e 5c94 3b3e
000002a0: 9ba4 983b ac97 783e 5832 1d3e 0486 373e
000002b0: c846 483e 74b2 66be 5c41 843e 5a79 1a3e
000002c0: f505 8b3e 3087 fe3d 44da 05be 2e54 71be
000002d0: a9a3 0bbd 1432 e4bd 28f1 8fbd b645 2ebe
000002e0: 3d5e 80be 87d0 0ebe 8a4a 873d a642 233e
000002f0: 1d39 72be 7f97 283e 53fb 883e 9f1e c6bc
00000300: 4e48 fbbc a840 53bd 4def e93d 5718 343c
00000310: e8c3 e3bb b6ea cebd c630 eabd c502 ff3d
00000320: f81b 013e f2bc 9ebe f410 833e 5749 3fbe
00000330: cfc0 debd 8183 fcbc aaea 49be eaba 043e
00000340: bb2b 053e 7788 913e aa23 493e 198b 08be
00000350: 6ad6 4fbe 396d 62be 7ff6 4bbe 2304 4a3e
00000360: 8bfa 2cbe 42cd 83bd 621c 9a3e 5563 bb3d
00000370: 8fd2 86bc ebbc 4e3e b65d 473e cba2 873e
00000380: b424 9a3c 1437 9d3d b6fb 173e 1ce1 1abe
00000390: 6f50 283e be8f 09be f7fd a5bd c380 673e
000003a0: 660f 5fbe b9a4 6b3e c773 333e eff1 8cbe
000003b0: 964d 063e a037 6abe 644b 963d 0e6b d4bd
000003c0: 3f15 a03e 664b 9f3d 8107 45bd 9a24 e3bc
000003d0: 8dbe f3bd 863a 66be 82e2 773e 78b7 483d
000003e0: 293c 473e 3274 8bbe 900d 863e bedb 7e3c
000003f0: 272c e53d b15e 863e 9dc3 203e e83c 523d

qnet.fc1.bias f4 [256]
0.1820943 0.2342284 -0.03548446 -0.12494514 0.19455016 -0.22073661 -0.22169466 -0.26521352
-0.11165972 0.2717284 -0.012898848 0.114860006 0.17536578 -0.21468364 0.25610235 0.11463788
-0.22270031 -0.2887183 0.23722182 -0.17226692 -0.07246236 0.12986766 0.12688136 0.21020791
-0.1633929 -0.18973123 0.19318075 -0.084747545 -0.1987841 0.088204674 0.2714262 -0.0009749998
0.29838178 -0.019864062 0.12936945 -0.052373704 -0.28354388 -0.21909477 -0.15870458 -0.027233321
-0.28142807 -0.22451578 -0.16521046 -0.27752766 0.2476918 -0.012707985 -0.17235532 0.256155
0.2357897 0.16001399 -0.18262617 -0.09529745 0.16735935 -0.022810925 0.0500393 -0.13489164
-0.28860924 -0.030208018 -0.19625138 0.04813207 0.14886189 -0.19423626 -0.042585645 0.1782301
0.031457234 0.016601557 0.28457865 0.077877514 0.28089416 -0.29865497 0.063214555 0.09152114
-0.104410075 0.3136046 0.10389575 0.3312213 -0.22403935 -0.14165157 0.2932116 -0.28213868
0.11732261 -0.071869835 0.07271275 -0.22632319 -0.18961257 -0.27385345 0.14786944 0.019342512
-0.051747974 -0.07806065 -0.051577937 0.00016691591 -0.044754013 -0.09689558 -0.22067077 0.13597563
-0.28355503 -0.026238555 -0.071296245 -0.22014083 0.19339399 0.15702829 0.17848472 -0.08642251
0.06967865 0.13705163 -0.20828089 -0.033935707 -0.106276095 0.22611508 -0.048985448 -0.1578494
0.26988202 -0.20497736 -0.083657786 0.00072472554 0.20888194 -0.12880161 -0.136254 0.097580604
-0.1429113 0.023089364 -0.21788986 -0.026916688 0.24241355 0.25706607 -0.17697522 0.24378529
-0.023398887 -0.19666721 -0.11913116 -0.17683008 -0.2494627 0.016102457 0.117691256 -0.23522751
-0.18841396 0.33767954 0.2027541 0.046266668 -0.08458966 -0.015269478 -0.12514915 0.12906086
-0.26567274 0.08763714 -0.018569637 -0.16825931 0.26609495 -0.263046 0.22522959 -0.2289054
0.30837473 -0.27658916 -0.077725805 -0.08286278 -0.13372348 0.10862218 0.0030315856 -0.25298545
-0.27689403 0.104613535 0.038781278 -0.026085213 0.17983834 0.31368628 -0.09479078 0.010184485
-0.25644514 -0.17742775 0.058139905 -0.23383875 -0.1729147 -0.26234606 0.16267103 0.018242208
-0.119038686 -0.21634719 0.25222376 -0.111616686 0.122645095 0.039653044 0.26010275 -0.13680457
0.045743477 -0.075859465 0.21930201 -0.13105261 -0.32213017 -0.1207166 0.19287813 -0.026705753
0.268781 -0.26924542 -0.13162582 -0.25702542 -0.124930464 -0.22262678 0.15282148 0.22015265
-0.2191805 0.08479802 -0.078719705 0.13647787 -0.025454534 -0.23467967 0.17951627 -0.28356636
-0.23698509 -0.19034624 -0.11698758 -0.024078306 0.1526239 -0.2502967 -0.16963339 0.21543309
-0.28565738 0.05119564 0.13947374 0.24738106 -0.20268713 -0.27814355 0.2193443 0.024178822
-0.24713388 0.22453064 0.28314573 0.039320175 -0.27602077 0.17011823 -0.041995257 -0.16103047
0.15582906 0.036402132 0.13220744 -0.16562003 0.04456045 0.116515204 -0.09722151 0.20728976
0.051300507 -0.03677339 0.11042508 0.2770141 0.26494777 0.039506298 0.096157454 -0.11670314
-0.056086954 -0.07104751 -0.25678018 -0.20597845 -0.13331433 0.32304144 -0.08175314 0.15951975
00000000: ee76 3a3e 92d9 6f3e 2758 11bd 3de3 ffbd
00000010: 2838 473e c708 62be ed03 63be 11ca 87be
00000020: daad e4bd fc1f 8b3e b155 53bc b93b eb3d
00000030: 1693 333e 07d6 5bbe d91f 833e 44c7 ea3d
00000040: 8d0b 64be e3d2 93be 47ea 723e bd66 30be
00000050: 2567 94bd 07fc 043e 30ed 013e be40 573e
00000060: 7850 27be e748 42be 2dd1 453e 1f90 adbd
00000070: 0f8e 4bbe a7a4 b43d 60f8 8a3e 2197 7fba
00000080: 7fc5 983e f5b9 a2bc 6d79 043e cf85 56bd
00000090: aa2c 91be 615a 60be 7483 22be 6a18 dfbc
000000a0: 5717 90be 77e7 65be ee2c 29be 1b18 8ebe
000000b0: eba2 7d3e 2735 50bc ea7d 30be c026 833e
000000c0: db72 713e b5da 233e 5b02 3bbe 4f2b c3bd
000000d0: 4060 2b3e fadd babc 02f6 4c3d 0921 0abe
000000e0: 97c4 93be ce76 f7bc 1ff6 48be 2226 453d
000000f0: 406f 183e dfe5 46be 496e 2ebd f481 363e
00000100: 4dd9 003d fdff 873c 4bb4 913e 3f7e 9f3d
00000110: 5cd1 8f3e 4ee9 98be a276 813d 6f6f bb3d
00000120: f3d4 d5bd c890 a03e 4cc7 d43d d795 a93e
00000130: 926a 65be 1c0d 11be d51f 963e 7b74 90be
00000140: d646 f03d 7e30 93bd 6cea 943d 44c1 67be
00000150: cc29 42be 8536 8cbe 166b 173e 3074 9e3c
00000160: aff5 53bd 43de 9fbd 6343 53bd 2606 2f39
00000170: fc4f 37bd 3171 c6bd 85f7 61be 323d 0b3e
00000180: 202e 91be 3df2 d6bc c403 92bd 996c 61be
00000190: 1309 463e 06cc 203e b3c4 363e 49fe b0bd
000001a0: aeb3 8e3d 4357 0c3e 9647 55be 2b00 0bbd
000001b0: 48a7 d9bd b68a 673e f7a4 48bd 46a3 21be
000001c0: fa2d 8a3e 96e5 51be c654 abbd 82fb 3d3a
000001d0: 26e5 553e 92e4 03be 2b86 0bbe 57d8 c73d
000001e0: 5757 12be e825 bd3c 851e 5fbe 6380 dcbc
000001f0: 423b 783e 2a9e 833e fe38 35be daa2 793e
00000200: 06af bfbc 2163 49be 0afb f3bd f212 35be
00000210: 2673 7fbe 4de9 833c 1d08 f13d 7bdf 70be
00000220: 97ef 40be 55e4 ac3e c59e 4f3e 1e82 3d3d
00000230: 583d adbd d52c 7abc 1927 00be 8828 043e
00000240: 4206 88be 1a7b b33d 5a1f 98bc 2b4c 2cbe
00000250: 993d 883e f7ad 86be 96a2 663e 2d66 6abe
00000260: 4be3 9d3e 189d 8dbe b52e 9fbd f6b3 a9bd
00000270: cfee 08be 4e75 de3d 91ad 463b 4f87 81be
00000280: 0ec5 8dbe 9f3f d63d 1ed9 1e3d a8b0 d5bc
00000290: 8b27 383e 7d9b a03e ab21 c2bd d4dc 263c
000002a0: c74c 83be 9faf 35be 1c24 6e3d 6d73 6fbe
000002b0: 8d10 31be 3952 86be 3c93 263e af70 953c
000002c0: 8eca f3bd 1e8a 5dbe 7923 813e 4a97 e4bd
000002d0: 5a2d fb3d 3b6b 223d 302c 853e 7f16 0cbe
000002e0: 835d 3b3d 355c 9bbd b590 603e a832 06be
000002f0: 3fee a4be 443a f7bd d881 453e 06c6 dabc
00000300: aa9d 893e 89da 89be ebc8 06be d698 83be
00000310: 8bdb ffbd 46f8 63be 3c7d 1c3e b26f 613e
00000320: da70 60be 96aa ad3d cc37 a1bd dbc0 0b3e
00000330: 0786 d0bc de4f 70be 1dd3 373e 9c2f 91be
00000340: 38ac 72be 20ea 42be 2f97 efbd de3f c5bc
00000350: 7149 1c3e e426 80be 60b4 2dbe 7e9a 5c3e
00000360: af41 92be 85b2 513d 34d2 0e3e 7651 7d3e
00000370: 378d 4fbe d568 8ebe cb9b 603e aa12 c63c
00000380: aa10 7dbe 5ceb 653e 7af8 903e 310e 213d
00000390: 9852 8dbe 7933 2e3e 3803 2cbd 2ce5 24be
000003a0: a791 1f3e 671a 153d 6361 073e 4c98 29be
000003b0: 0585 363d 869f ee3d 121c c7bd c443 543e
000003c0: 7b20 523d b29f 16bd 8b26 e23d cbd4 8d3e
000003d0: 3ca7 873e 5bd1 213d 33ee c43d 0e02 efbd
000003e0: 6fbb 65bd 5b81 91bd b178 83be 04ec 52be
000003f0: 8d83 08be b065 a53e 316e a7bd 2559 233e

qnet.fc2.weight f4 [256, 256]
-0.008355331 0.05213544 -0.043969598 -0.003446013 -0.0065557556 9.6394135e-05 -0.021994341 0.03974281
-0.023618134 -0.04995653 0.00814032 -0.0030855765 0.0076741786 0.017648244 0.044866543 0.017121144
0.045837525 -0.046696384 0.024312563 0.03513785 0.013599429 -0.0033122501 0.05473949 -0.06230408
0.042334087 0.041074347 -0.06515935 0.025369795 -0.023466337 -0.05909757 -0.0033060294 -0.030862592
-0.010519499 0.0055062477 0.0035347072 -0.04447875 -0.060538888 0.012963972 0.045351256 0.049856037
-0.0493685 0.048084244 -0.040484868 -0.03725915 0.06477212 -0.010060371 -0.049728896 -0.02271617
-0.05021495 -0.052448366 -0.026696803 -0.009475943 -0.016212996 -0.037110895 -0.03636793 0.03968121
0.02858096 -0.00074874813 -0.041051786 -0.0410662 0.024025919 -0.029653996 -0.027547361 -0.056424286
-0.009878055 0.032833807 -0.01700917 -0.039677195 -0.023533022 0.034627482 0.017783357 -0.03477919
-0.044859808 -0.027193239 0.0063100625 0.027514137 0.00044286813 0.03596613 -0.02307975 -0.023172012
-0.038892973 0.0072336416 -0.027749099 -0.01375354 -0.018415254 0.035577353 -0.019856568 0.075731926
-0.018321082 0.04680687 0.032097466 0.051376704 0.052739326 -0.006717138 -0.032697383 -0.027611386
-0.012196948 0.013816314 0.04198086 -0.05090033 0.0540109 0.053664833 -0.0033858449 0.028362602
0.0013494203 -0.053532828 -0.03135919 -0.021865077 -0.020981332 -0.032914106 0.028024957 0.012964643
0.05459115 0.023455286 0.0043118526 0.039069638 -0.051374625 -0.04390701 -0.010808097 0.06193282
-0.00483793 -0.037451856 -0.007385417 -0.013362956 0.035889212 0.013560023 -0.044128623 -0.003024429
0.009480456 0.030969728 -0.024677152 -0.04535016 -0.04494796 0.019998105 -0.04477199 -0.045151804
0.03977109 -0.007457045 -0.025039049 0.030141566 -0.013826337 0.04007879 0.012438249 -0.022852954
-0.03522255 0.024399884 0.020620888 0.1242623 0.041519832 0.03772749 -0.06333549 -0.03059047
-0.027091242 -0.005225726 -0.0229751 -0.012660053 0.012735755 -0.020726403 -0.0015048108 -0.016986981
-0.044267427 0.009588145 -0.0025754445 -0.03133141 0.036914937 0.030060653 -0.05326848 0.00414577
0.036079857 -0.02148714 -0.046264224 0.0034700274 0.015899613 -0.02368365 -0.052553862 0.012972765
-0.05153022 -4.4403343e-05 0.01926818 -0.020114904 0.053079564 -0.030336838 0.009282397 -0.02501633
-0.016354745 -0.062964655 -0.029149808 -0.056946244 -0.0460563 0.045062117 0.024219701 0.027084766
-0.016420085 -0.026391132 -0.011920644 0.041354276 -0.01628379 0.051126633 -0.07277739 0.037651286
0.049421944 -0.051751815 0.021739984 -0.02025529 -0.031660326 0.026042571 0.02859861 -0.04284784
-0.019813472 -0.0029721083 -0.026305584 -0.04588304 -0.026168754 -0.02101845 0.028760847 0.065054305
-0.03358596 -0.017615493 0.027316362 0.10168772 0.008297865 0.034107786 0.05267512 -0.005488906
0.032703556 0.0007862141 0.014776202 -0.026613295 -0.03860175 0.041007735 -0.0067785624 0.038856305
0.05987335 -0.05212778 -0.0051892195 -0.029336475 -0.032244105 -0.026891056 0.0060374774 0.04466014
-0.009729301 0.050598226 0.007446164 -0.032523047 -0.041493397 0.03352378 0.012256476 -0.051629387
-0.017355781 0.024068203 -0.021205135 0.048568312 0.0064909044 0.012142934 -0.027194569 0.0239634
00000000: cce4 08bc f98b 553d 7719 34bd 81d6 61bb
00000010: aad1 d6bb 3527 ca38 7a2d b4bc 5bc9 223d
00000020: d17a c1bc 389f 4cbd fa5e 053c 6237 4abb
00000030: ad77 fb3b 0d93 903c fbc5 373d a441 8c3c
00000040: 21c0 3b3d b544 3fbd 242b c73c b5ec 0f3d
00000050: 24d0 5e3c 5612 59bb 8436 603d 9032 7fbd
00000060: 8266 2d3d 933d 283d 4472 85bd 51d4 cf3c
00000070: 7a3c c0bc 4b10 72bd f8a9 58bb 8cd3 fcbc
00000080: fa59 2cbc c16d b43b 8ca6 673b 5a2f 36bd
00000090: a0f7 77bd d766 543c 3dc2 393d d835 4c3d
000000a0: a036 4abd fcf3 443d 76d3 25bd 0d9d 18bd
000000b0: 3fa7 843d 41d4 24bc 87b0 4bbd 4317 babc
000000c0: 31ae 4dbd 19d4 56bd 41b3 dabc fc40 1bbc
000000d0: 1ed1 84bc 9801 18bd 8af6 14bd c488 223d
000000e0: 9e22 ea3c a347 44ba eb25 28bd 0835 28bd
000000f0: 01d2 c43c f0ec f2bc 01ab e1bc 271d 67bd
00000100: 91d7 21bc be7c 063d d156 8bbc 8e84 22bd
00000110: 53c8 c0bc 8cd5 0d3d 67ae 913c a074 0ebd
00000120: ebbe 37bd 5bc4 debc a4c4 ce3b 5465 e13c
00000130: c130 e839 3951 133d be11 bdbc 3bd3 bdbc
00000140: 3d4e 1fbd 2f08 ed3b 1452 e3bc 8756 61bc
00000150: 96db 96bc 8fb9 113d 3eaa a2bc 5719 9b3d
00000160: 1816 96bc 8fb8 3f3d a278 033d 6170 523d
00000170: 3105 583d 701b dcbb b1ed 05bd 4631 e2bc
00000180: b5d5 47bc d25d 623c 1ff4 2b3d dd7c 50bd
00000190: 893a 5d3d a8cf 5b3d 0de5 5dbb b058 e83c
000001a0: 08df b03a 3d45 5bbd 7e72 00bd 641e b3bc
000001b0: 0be1 abbc f1d0 06bd 9894 e53c a769 543c
000001c0: f89a 5f3d 4d25 c03c 714a 8d3b 7c07 203d
000001d0: 336e 52bd d6d7 33bd 7214 31bc 45ad 7d3d
000001e0: 8087 9ebb 1e67 19bd 5e01 f2bb 4df0 5abc
000001f0: 9100 133d dc2a 5e3c 37c0 34bd 8035 46bb
00000200: ea53 1b3c 3ab4 fd3c bd27 cabc 17c1 39bd
00000210: 5a1b 38bd 11d3 a33c d662 37bd 19f1 38bd
00000220: 03e7 223d 3a5a f4bb b11e cdbc 72eb f63c
00000230: dc87 62bc a829 243d ccc9 4b3c 1e36 bbbc
00000240: 8545 10bd 44e2 c73c 23ed a83c 3c7d fe3d
00000250: b310 2a3d 2488 1a3d 0ab6 81bd de98 fabc
00000260: 74ee ddbc 913c abbb 4736 bcbc 1c6c 4fbc
00000270: a1a9 503c 6bca a9bc 123d c5ba 4828 8bbc
00000280: c351 35bd 9817 1d3c cac8 28bb 5d55 00bd
00000290: 1e34 173d c241 f63c 0d30 5abd 3dd9 873b
000002a0: 79c8 133d cc05 b0bc 8e7f 3dbd 6669 633b
000002b0: e83f 823c 3704 c2bc b842 57bd b88b 543c
000002c0: 5a11 53bd ba3d 3ab8 4dd8 9d3c 03c8 a4bc
000002d0: f569 593d f684 f8bc 3215 183c 0cef ccbc
000002e0: 63fa 85bc 9df3 80bd 94cb eebc 7740 69bd
000002f0: 88a5 3cbd 0e93 383d 6568 c63c dfe0 dd3c
00000300: 6a83 86bc 3732 d8bc ce4e 43bc 1a63 293d
00000310: 9565 85bc 296a 513d 500c 95bd 3c38 1a3d
00000320: aa6e 4a3d b6f9 53bd 0d18 b23c 6cee a5bc
00000330: 42ae 01bd 3b57 d53c a247 ea3c 3781 2fbd
00000340: dd4f a2bc b4c7 42bb cf7e d7bc dbef 3bbd
00000350: db5f d6bc e22e acbc de9b eb3c 313b 853d
00000360: 6e91 09bd 5e4e 90bc 90c6 df3c a741 d03d
00000370: c5f3 073c 9bb4 0b3d dec1 573d 48dc b3bb
00000380: 2af4 053d ef19 4e3a e217 723c 2004 dabc
00000390: de1c 1ebd baf7 273d b41e debb ca27 1f3d
000003a0: c23d 753d f083 55bd 540a aabb 0c53 f0bc
000003b0: 6512 04bd a24a dcbc 08d6 c53b 8ded 363d
000003c0: a567 1fbc 1640 4f3d f3fe f33b e336 05bd
000003d0: fbf4 29bd 3b50 093d 63cf 483c 5679 53bd
000003e0: b62d 8ebc ae2a c53c 64b6 adbc 91ef 463d
000003f0: a7b1 d43b 28f3 463c 25c7 debc e44e c43c

qnet.fc2.bias f4 [256]
0.061170474 0.056822192 -0.04712752 -0.0070356727 0.01719613 0.023883268 0.06125075 -0.052128755
-0.019298006 -0.04203448 -0.05593187 0.032140393 0.07213919 0.029183075 0.030605113 -0.0030601202
-0.030182015 -0.055769466 -0.020599892 -0.029763496 0.0021222802 -0.044830266 0.028384311 -0.038879495
-0.0073292246 0.041143067 0.056756042 -0.024499424 -0.06319825 0.028703643 -0.004808976 0.01837082
-0.05764142 -0.0055863764 0.022863338 0.057087302 -0.027243584 -0.013707968 0.029770471 0.016400106
0.021143008 0.04446027 -0.02413346 0.053340092 0.031171229 0.024610234 -0.003375953 0.0020225495
-0.058627203 0.0568776 0.050710905 -0.025998076 -0.0014021884 -0.045766532 0.0033777498 -0.032056082
-0.051648214 -0.03254277 0.005062428 0.049802963 0.05396543 -0.027581763 -0.010571632 0.04885717
0.02183745 -0.037879333 -0.0494195 -0.0048450097 0.03223972 -0.053909056 -0.0017311797 -0.038780198
-0.030708538 0.04203054 0.018733533 -0.021796491 -0.034264 0.023358695 -0.055631246 -0.0147699
-0.02604507 -0.004052851 -0.009757066 0.015259454 0.017074237 0.04000355 0.010124036 0.0032117534
0.04151685 -0.007853093 0.03375644 -0.046945147 -0.05069781 -0.010582906 -0.026831951 -0.026959814
-0.03516661 -0.0076417616 -0.022754911 -0.024167715 0.058427006 -0.044553954 0.05319002 -0.015453657
-0.044181027 -0.015978426 0.013850539 0.05435586 -0.058716822 -0.006623671 0.005873382 -0.02192812
-0.043552894 0.04837715 0.06122852 -0.0405157 0.029634265 0.033512466 0.05239129 -0.045044225
-0.055365402 -0.0068291887 0.0006817503 -0.03858773 -0.042929545 0.043629255 -0.03676239 -0.003077808
-0.043089587 -0.031135311 0.016409617 0.010936737 -0.003767085 0.048836842 -0.014859088 0.05104615
-0.07162299 0.06297341 0.042299256 -0.040430862 -0.0018780472 -0.005346089 -0.0122600915 0.0043850937
0.037779152 -0.043620903 0.06404449 -0.036801707 0.058308464 -0.011947242 -0.04175154 -0.014127771
-0.011778077 0.04434752 -0.05570034 0.033705685 0.017313268 0.03235043 0.027882645 0.039513465
0.04429945 -0.011431862 -0.0551335 -0.028448666 -0.052311968 0.017135603 0.0052684397 -0.008016264
-0.018274322 -0.0015968707 0.029262315 0.019509044 0.059555084 0.02600018 0.050592232 0.009481308
0.010436276 0.05901766 -0.00982508 -0.04180412 0.0462051 -0.04896977 0.033848148 -0.046675272
-0.02400812 -0.017533695 0.0072788526 0.03375278 0.012779047 -0.05276395 0.030168286 -0.042320315
-0.0045667114 -0.031433117 0.053609885 0.043951355 -0.032948017 -0.05343311 -0.025063949 -0.0037970792
0.007689107 -0.014121718 0.006799254 -0.01927753 0.013941116 0.012068404 -0.008404868 -0.04843157
0.014018299 -0.021214074 0.035448514 -0.00061136903 -0.043401625 -0.017179582 -0.026742045 0.044905785
0.06261791 0.0035956672 -0.051360264 0.024473792 0.043149445 -0.011738963 -0.031094559 -0.054313857
-0.045776702 -0.058660593 -0.016367309 -0.05502291 -0.052799862 -0.007480052 0.0038880971 -0.0051459833
-0.0358677 0.009119647 -0.06802865 0.055531695 -0.060045447 -0.025653072 -0.021061415 -0.062313188
0.05311799 -0.0075430637 0.053199634 0.021000093 -0.032125484 -0.018752817 -0.013316537 -0.048733674
0.0014322065 -0.05291033 -0.04754313 0.03565002 0.027294047 0.027641324 -0.045305744 -0.059468634
00000000: e48d 7a3d 63be 683d c908 41bd 808b e6bb
00000010: e6de 8c3c d8a6 c33c 11e2 7a3d f684 55bd
00000020: da16 9ebc 592c 2cbd d118 65bd a5a5 033d
00000030: b6bd 933d 5811 ef3c 93b7 fa3c 4c8c 48bb
00000040: 4640 f7bc 866e 64bd 1bc1 a8bc 93d2 f3bc
00000050: f415 0b3b f19f 37bd 3786 e83c 1b40 1fbd
00000060: fe29 f0bb a285 283d 0679 683d 04b3 c8bc
00000070: 166e 81bd e723 eb3c 9d94 9dbb 677e 963c
00000080: 6919 6cbd ec0d b7bb e54b bb3c 60d4 693d
00000090: f02d dfbc 6397 60bc 34e1 f33c 8459 863c
000000a0: 1a34 ad3c f91b 363d 89b3 c5bc 247b 5a3d
000000b0: ce5a ff3c 679b c93c 183f 5dbb c08c 043b
000000c0: 1423 70bd 7cf8 683d 3db6 4f3d ebf9 d4bc
000000d0: a3c9 b7ba b075 3bbd 3d5d 5d3b 3d4d 03bd
000000e0: 148d 53bd 914b 05bd b9e2 a53b 31fe 4b3d
000000f0: db0a 5d3d 26f3 e1bc a334 2dbc 751e 483d
00000100: 74e4 b23c 5c27 1bbd 1a6c 4abd e3c2 9ebb
00000110: cc0d 043d becf 5cbd c0e8 e2ba fcd7 1ebd
00000120: 7990 fbbc 3728 2c3d 1177 993c 8e8e b2bc
00000130: 6858 0cbd bc5a bf3c 97dd 63bd 73fd 71bc
00000140: 785c d5bc c7cd 84bb 1adc 1fbc ca02 7a3c
00000150: 45df 8b3c c3da 233d 49df 253c 487c 523b
00000160: 930d 2a3d 42aa 00bc 3144 0a3d 8e49 40bd
00000170: 82a8 4fbd ed63 2dbc aece dbbc d4da dcbc
00000180: dd0a 10bd be67 fabb 8268 babc 5ffb c5bc
00000190: 2851 6f3d 357e 36bd c7dd 593d 5631 7dbc
000001a0: 2af7 34bd 30e5 82bc 5fed 623c 40a4 5e3d
000001b0: 0d81 70bd 610b d9bb 8075 c03b 9aa2 b3bc
000001c0: 8564 32bd 1e27 463d c2ca 7a3d caf3 25bd
000001d0: 8fc3 f23c 5e44 093d 4098 563d 4b80 38bd
000001e0: d5c6 62bd 63c7 dfbb 7db7 323a 2b0e 1ebd
000001f0: e4d6 2fbd 97b4 323d 2994 16bd 0db5 49bb
00000200: b57e 30bd 7b0f ffbc 766d 863c 0030 333c
00000210: 33e1 76bb 2409 483d 8873 73bc c515 513d
00000220: 13af 92bd 34f8 803d fc41 2d3d d59a 25bd
00000230: cf28 f6ba 3f2e afbb 8dde 48bc d5b0 8f3b
00000240: 50be 1a3d d5ab 32bd c229 833d 63bd 16bd
00000250: dbd4 6e3d 5dbe 43bc aa03 2bbd 2b78 67bc
00000260: d6f8 40bc bfa5 353d 0a26 64bd f90e 0a3d
00000270: 8ed4 8d3c e281 043d 256a e43c dfd8 213d
00000280: 5773 353d b44c 3bbc aad3 61bd 2d0d e9bc
00000290: 1345 56bd f75f 8c3c e0a2 ac3b a656 03bc
000002a0: 08b4 95bc 174e d1ba 86b7 ef3c 6ed1 9f3c
000002b0: 08f0 733d 54fe d43c cd39 4f3d 7d57 1b3c
000002c0: eafc 2a3c 80bc 713d 5ff9 20bc cc3a 2bbd
000002d0: 8f41 3d3d 8794 48bd 5ba4 0a3d 922e 3fbd
000002e0: adac c4bc d3a2 8fbc 7183 ee3b 5b40 0a3d
000002f0: 355f 513c 031f 58bd 7b23 f73c 1158 2dbd
00000300: 5aa4 95bb 03c0 00bd 0a96 5b3d 5606 343d
00000310: 80f4 06bd addc 5abd e952 cdbc 6bd8 78bb
00000320: e8f4 fb3b c75e 67bc 47cc de3b e9eb 9dbc
00000330: 4769 643c 8eba 453c 92b4 09bc 2f60 46bd
00000340: 02ad 653c 23c9 adbc 7632 113d 4844 20ba
00000350: e7c5 31bd 32bc 8cbc 2212 dbbc 21ef 373d
00000360: d23d 803d 49a5 6b3b 245f 52bd 437d c83c
00000370: 79bd 303d c854 40bc 04ba febc 3578 5ebd
00000380: 5a80 3bbd 1746 70bd bc14 86bc b45f 61bd
00000390: ab44 58bd 391b f5bb 72cf 7e3b a39f a8bb
000003a0: 02ea 12bd 926a 153c 9b52 8bbd 3475 633d
000003b0: 37f2 75bd 6426 d2bc fd88 acbc 1d3c 7fbd
000003c0: 4092 593d ce2b f7bb dce7 593d 6308 ac3c
000003d0: 0396 03bd 829f 99bc 9b2d 5abc f69c 47bd
000003e0: e0b8 bb3a 81b8 58bd 96bc 42bd c105 123d
000003f0: c497 df3c 0f70 e23c 8492 39bd 6295 73bd

qnet.A.weight f4 [9, 256]
-0.058989704 -0.0013333651 0.049453035 0.04099067 0.0649465 0.012483436 -0.010131836 0.0151535
-0.030191299 -0.019752871 0.014882385 0.04367441 -0.035700545 0.04906214 -0.02871333 -0.045089073
0.015397854 0.019192947 0.05036676 0.05048111 0.017378515 0.007936518 0.05573672 0.04364381
0.008713558 -0.0067071947 0.044175807 -0.022733074 -0.04592181 -0.051580667 0.057054568 0.060841784
0.015192451 0.061016534 0.011186321 0.025617959 0.046501957 -0.044900287 -0.023986151 -0.040024295
0.02420754 -0.038995937 -0.022202963 -0.038570277 -0.04382649 0.028010624 0.03661057 0.04329343
-0.03169373 0.05125064 -0.000216375 -0.031165736 0.07442803 -0.031703837 -0.0075753033 -0.032385487
-0.028357416 0.027042583 -0.0035160491 0.03062319 -0.04570474 -0.008357947 -0.04468952 0.0127610825
-0.033604547 0.0049976944 0.009872759 0.035648685 -0.033850174 0.015015264 0.018260606 0.029937113
-0.05147717 -0.023563752 -0.008313701 0.04813415 -0.051771916 -0.033966396 0.037396643 -0.032913283
0.048572592 3.5697078e-05 0.039146863 0.013824184 -0.04148105 0.009663098 0.04760173 0.053053565
-0.029887388 -0.059501294 -0.003293799 0.035020914 0.0022705165 0.026240759 -0.0076633757 0.038345184
0.018409677 -0.0026157706 -0.0016550034 0.0009008808 0.053369712 0.05471343 -0.024681643 0.057033
-0.0075352336 -0.03865781 -0.035118002 0.049229596 0.055522107 -0.020245446 -0.012977889 -0.02423077
0.032805324 -0.03405456 -0.026125584 -0.040011045 0.041732747 -0.0056102267 0.02757992 0.060932733
-0.0040215007 -0.027349615 0.030731224 -0.06066201 -0.04145315 0.03108438 -0.008701713 -0.041763652
-0.037080485 0.001241499 -0.006815356 -0.02220013 -0.029531611 0.043349206 0.027564675 0.025662359
0.02280803 -0.02756283 0.05021154 0.04472419 0.036185354 -0.0035428896 -0.038181387 0.0012260381
-0.015852926 -0.039587557 -0.025751045 -0.033543143 -0.014211522 -0.04415866 0.004514296 -0.010611785
0.044211295 -0.037849784 -0.028386416 0.044641607 -0.017485473 0.045054667 -0.035024483 0.0044641783
-0.00517107 -0.031014914 -0.0401583 0.04490285 -0.028751647 -0.005434417 0.048569452 0.028189234
-0.017104646 0.016910011 0.019922486 0.010312526 0.022392297 -0.04495857 0.015855243 0.022552427
-0.0060535716 -0.028281288 0.045058932 0.029259047 -0.009839306 -0.033719767 -0.031307686 -0.030184489
0.04070282 -0.031494472 0.05654141 0.022968229 0.04322893 0.04822592 -0.033717826 -0.024172625
0.012603565 -0.009985984 -0.031121483 -0.048946794 0.022671368 0.05016102 0.010404109 -0.040817965
0.009988632 -0.04140166 -0.05267916 -0.023860352 -0.033874456 0.038700733 0.028822564 -0.045898274
-0.03483654 -0.046038587 0.062274516 0.020544522 0.037017506 0.025291853 0.0018731974 0.003986222
-0.044344213 0.026756339 0.03465661 -0.004242845 -0.027074913 0.045233272 0.017472029 0.0049853064
-0.009282206 -0.01864736 -0.03549895 -0.028196955 0.016386986 -0.0002702453 0.034814227 -0.016607568
-0.012404117 -0.0009216712 0.049441904 -0.0035293228 -0.00021313658 0.0020141692 -0.035698853 0.025150886
-0.023295656 -0.032386914 -0.013270802 0.059504647 0.045030978 0.009994223 -0.040737595 0.00027789947
-0.0076777404 -0.04256503 -0.021003854 0.02748531 0.06280433 -0.0027909179 0.0017645834 -0.015068872
00000000: 309f 71bd 4fc4 aeba 448f 4a3d d5e5 273d
00000010: ac02 853d 5387 4c3c 0000 26bc 6346 783c
00000020: be53 f7bc c6d0 a1bc 3fd5 733c f0e3 323d
00000030: bc3a 12bd 62f5 483d 3838 ebbc 52af 38bd
00000040: 4847 7c3c 873a 9d3c 604d 4e3d 48c5 4e3d
00000050: 635d 8e3c 2b08 023c 304c 643d dac3 323d
00000060: 50c3 0e3c 07c8 dbbb b1f1 343d b63a babc
00000070: 8218 3cbd 4046 53bd 0db2 693d 3c35 793d
00000080: c2e9 783c 79ec 793d d546 373c c1dc d13c
00000090: d678 3e3d 5de9 37bd 9b7e c4bc 84f0 23bd
000000a0: e44e c63c 34ba 1fbd fde2 b5bc defb 1dbd
000000b0: 6883 33bd 8976 e53c f7f4 153d 7454 313d
000000c0: 49d1 01bd 31ec 513d b9e2 62b9 494f ffbc
000000d0: b96d 983d e2db 01bd 403a f8bb a5a6 04bd
000000e0: d04d e8bc 6888 dd3c 846d 66bb 7cdd fa3c
000000f0: e534 3bbd c5ef 08bc 5c0c 37bd dc13 513c
00000100: eca4 09bd b3c3 a33b 5ac1 213c 5b04 123d
00000110: 7ba6 0abd 9502 763c 4497 953c ad3e f53c
00000120: bad9 52bd c508 c1bc 3036 08bc 5128 453d
00000130: ca0e 54bd 5920 0bbd 392d 193d 14d0 06bd
00000140: 0ef4 463d 72b9 1538 7658 203d d57e 623c
00000150: 09e8 29bd f851 1e3c 08fa 423d b24e 593d
00000160: 65d6 f4bc a1b7 73bd c7dc 57bb 1772 0f3d
00000170: f2cc 143b dcf6 d63c 0e1d fbbb d70f 1d3d
00000180: e4cf 963c 596d 2bbb b3ec d8ba 1629 6c3a
00000190: 339a 5a3d 311b 603d 2831 cabc 6f9b 693d
000001a0: 1fea f6bb a757 1ebd e5d7 0fbd f9a4 493d
000001b0: 266b 633d c7d9 a5bc 36a1 54bc 9c7f c6bc
000001c0: e05e 063d cb7c 0bbd 5205 d6bc 9fe2 23bd
000001d0: f5ef 2a3d fed5 b7bb 49ef e13c 9a94 793d
000001e0: cbc6 83bb 4d0c e0bc 0cc0 fb3c ba78 78bd
000001f0: c7ca 29bd aba4 fe3c a191 0ebc 5d10 2bbd
00000200: b5e1 17bd cbb9 a23a 5a53 dfbb 0cdd b5bc
00000210: 47ec f1bc f08e 313d 50cf e13c de39 d23c
00000220: e8d7 ba3c 72cb e1bc 9eaa 4d3d b630 373d
00000230: 1837 143d d32f 68bb 1664 1cbd 03b3 a03a
00000240: ffdd 81bc 9026 22bd dbf3 d2bc 8964 09bd
00000250: 72d7 68bc b6df 34bd a9ec 933b 0ddd 2dbc
00000260: e716 353d 6008 1bbd a18a e8bc 1eda 363d
00000270: b23d 8fbc 3e8b 383d d575 0fbd 3e48 923b
00000280: 1472 a9bb fd12 febc 087d 24bd 0dec 373d
00000290: 9388 ebbc 3213 b2bb c3f0 463d 1ced e63c
000002a0: 0b1f 8cbc dd86 8a3c 7b34 a33c def5 283c
000002b0: 0d70 b73c 7a26 38bd dbe2 813c debf b83c
000002c0: 0a5d c6bb 29ae e7bc b78f 383d abb0 ef3c
000002d0: 0a35 21bc bd1d 0abd 7d3c 00bd 7645 f7bc
000002e0: 00b8 263d 5900 01bd f797 673d de27 bc3c
000002f0: d210 313d 8b88 453d b41b 0abd ab05 c6bc
00000300: 2f7f 4e3c 419c 23bc 7bf2 febc 6f7c 48bd
00000310: 4eb9 b93c a475 4d3d ff75 2a3c bd30 27bd
00000320: 5ca7 233c c994 29bd 1ac6 57bd c976 c3bc
00000330: f1bf 0abd a984 1e3d 4c1d ec3c d4ff 3bbd
00000340: c3b0 0ebd f592 3cbd 9013 7f3d fc4c a83c
00000350: ab9f 173d dc30 cf3c 1386 f53a db9e 823b
00000360: 47a2 35bd 1c30 db3c 17f4 0d3d 9007 8bbb
00000370: 35cc ddbc 8646 393d 8021 8f3c c85b a33b
00000380: 6514 18bc 59c2 98bc 5967 11bd 4dfd e6bc
00000390: 003e 863c b6af 8db9 5d99 0e3d 980c 88bc
000003a0: a33a 4bbc 4f9c 71ba 9883 4a3d 364c 67bb
000003b0: 6a7d 5fb9 2700 043b f638 12bd 3b09 ce3c
000003c0: 88d6 bebc 24a8 04bd c76d 59bc 25bb 733d
000003d0: 6772 383d cfbe 233c 77dc 26bd 09b3 9139
000003e0: 8e95 fbbb ab58 2ebd 4610 acbc df28 e13c
000003f0: 8e9f 803d d5e7 36bb 9849 e73a 6ee3 76bc

qnet.A.bias f4 [9]
-0.063000955 0.063874334 0.03922293 -0.0069777723 0.016654862 -0.06567178 -0.04854371 0.052583292
-0.017900025
00000000: a506 81bd 8cd0 823d 39a8 203d cca5 e4bb
00000010: c76f 883c ed7e 86bd c5d5 46bd 9461 573d
00000020: 13a3 92bc
