models/backup/less_gamma_03/q_eval_dqn.onnx (onnx, 286110 bytes, 6 tensors)

qnet.fc1.weight f4 [256, 11]
0	0xbe1f799c	-0.15573734
1	0x3e94ea6c	0.290851
2	0xbb126203	-0.0022336252
3	0x3e2e83da	0.17042485
4	0xbdeb228f	-0.11481201
5	0x3d969030	0.0735172
6	0xbaebb8dd	-0.0017984171
7	0xbe35d36f	-0.17756437
8	0x3dc17994	0.09447017
9	0x3e16ed9e	0.14739081
10	0x3dc1ec3f	0.094688885
11	0xbe23e73f	-0.16006182
12	0xbd82e380	-0.063910484
13	0x3e3a6fc9	0.18206705
14	0xbd3582d8	-0.044314235
15	0xbe1d7806	-0.15377817
16	0xbca40469	-0.020021634
17	0x3e56ccac	0.20976514
18	0x3e63a3fd	0.22230525
19	0x3e932321	0.2873774
20	0x3e434c9c	0.19072193
21	0xbe832f3c	-0.25621974
22	0x3d89196e	0.066943035
23	0x3d3c9ad0	0.04604608
24	0x3d4c8314	0.049929693
25	0xbd1d9a38	-0.038477153
26	0xbd5c2f83	-0.05375625
27	0xbc801797	-0.015636249
28	0xbd893d72	-0.06701173
29	0xba8c7a56	-0.0010717611
30	0xbc2d6391	-0.0105828205
31	0xbcb6396b	-0.022244176
32	0xbc8d6125	-0.017258236
33	0xbda43494	-0.08017841
34	0x3ceeec2f	0.029165355
35	0x3dc1202d	0.09429965
36	0xbcd18d69	-0.025580125
37	0x3e06e621	0.13173725
38	0xbd0908e7	-0.033455756
39	0x3dab67da	0.083694175
40	0xbe1c82aa	-0.1528422
41	0x3e501d13	0.20323591
42	0xbd18c37d	-0.037295807
43	0xbdf24396	-0.11829297
44	0xbe1271b1	-0.14301182
45	0x3dfb060e	0.12257014
46	0xbd80b698	-0.06284827
47	0x3e184833	0.14871292
48	0xbdcafbaa	-0.09911282
49	0xbd32f068	-0.0436863
50	0xbc0d9215	-0.008640786
51	0xbcb2777e	-0.021785494
52	0x3bebba33	0.0071938275
53	0xbd2cc556	-0.04218038
54	0x3e1e992e	0.15488121
55	0x3e93ffaa	0.28905994
56	0xbd37dd7e	-0.044888966
57	0x3dd962c2	0.1061454
58	0xbdd9de8e	-0.10638152
59	0x3c6a6c2a	0.014308015
60	0x3dadd7e4	0.084884435
61	0xbe39d3d5	-0.18147214
62	0x3b926d6a	0.0044686096
63	0xbdf4b407	-0.119484
64	0x3dbb2e75	0.0913972
65	0xbdef5bbf	-0.11687421
66	0x3e569d49	0.20958437
67	0x3dedda13	0.1161386
68	0x3dc2bc08	0.0950852
69	0xbdf44fc3	-0.11929276
70	0x3da794ea	0.081827
71	0xbdf4be2b	-0.11950334
72	0xbdb41bbf	-0.08794355
73	0xbe3f0689	-0.18654837
74	0x3d4c0b71	0.0498156
75	0xbd7f51fb	-0.062334042
76	0x3dc3a837	0.09553569
77	0xbe4c3d3f	-0.19945239
78	0x3c529a06	0.012854105
79	0x3cdbf2e5	0.02684922
80	0x3d982cd5	0.07430426
81	0xbe1c1926	-0.15243968
82	0x3b473196	0.0030394546
83	0x3e088654	0.13332492
84	0x3e10e65b	0.14150374
85	0xbda39bef	-0.07988726
86	0xbcf607b2	-0.030032966
87	0xbd601197	-0.054704275
88	0xbd38a61c	-0.04508029
89	0x3dcf1cc3	0.10112908
90	0xbd9aefd5	-0.075652756
91	0x3e037fc7	0.12841712
92	0x3ce931fe	0.028466221
93	0xbe49d61b	-0.19710581
94	0xbd83caca	-0.06435163
95	0xbe434deb	-0.19072692
96	0xbd0e2b80	-0.034709454
97	0x3c8ab5f8	0.016932473
98	0x3d8cbbd3	0.06871762
99	0xbe24ceeb	-0.16094558
100	0x3d726f4f	0.059188183
101	0x3e67a8f8	0.2262305
102	0x3d2d850d	0.042363215
103	0xbbda22f3	-0.0066569983
104	0xbdcb3005	-0.099212684
105	0x3dd3fc64	0.10350874
106	0xbcd7b2fc	-0.026330464
107	0x3c266544	0.01015598
108	0xbc17114f	-0.009220435
109	0x3d99a954	0.07503
110	0x3d98aabc	0.0745444
111	0xbce255e9	-0.027628856
112	0xbc7214c5	-0.01477546
113	0xbe09e585	-0.13466461
114	0xbd040939	-0.032235358
115	0x3cc81c11	0.024427446
116	0x3cdf4478	0.027254328
117	0x3da2500d	0.07925425
118	0x3e788e75	0.24273093
119	0xbd5c39db	-0.053766113
120	0xbe852ea5	-0.2601215
121	0x3d9aa442	0.07550861
122	0x3e1b7d08	0.15184414
123	0x3e6e9091	0.23297335
124	0xbdbe68f9	-0.09297366
125	0xbe52b999	-0.20578612
126	0xbe8dc813	-0.27691707
127	0x3cb39f17	0.021926446
128	0x3d6041ab	0.054750126
129	0x3ca71d57	0.020399733
130	0x3d399cd5	0.045315582
131	0x3ea712e9	0.32631615
132	0xbe7f1fbc	-0.2491445
133	0x3e58b7ac	0.21163815
134	0x3e838e65	0.25694576
135	0x3e446fa7	0.19183217
136	0xbe4b8794	-0.19875938
137	0x3e26410d	0.16235752
138	0x3d73859f	0.059453603
139	0xbc3abc1b	-0.011397387
140	0xbc5df96f	-0.013548239
141	0xbc6b915d	-0.014377919
142	0xbdc75b0a	-0.09734161
143	0x3e1ae7af	0.15127443
144	0x3d4c70ab	0.049912136
145	0x3dbd6789	0.092482634
146	0xbce45a6d	-0.02787515
147	0xbe3d13e7	-0.18464623
148	0xbdb86e57	-0.09005421
149	0xbdf7ba41	-0.12096072
150	0x3e0c66ce	0.13711092
151	0xbc946282	-0.018113378
152	0xbcd42b75	-0.025899628
153	0x3dc73803	0.0972748
154	0x3e95db15	0.2926871
155	0xbdd32c4d	-0.10311184
156	0xbe1403be	-0.14454553
157	0xbdbb80da	-0.09155436
158	0x3d67c37a	0.056582905
159	0xbe14e41b	-0.1454014
160	0xbe4eb777	-0.20187174
161	0x3d3517ae	0.044212036
162	0x3c854bfe	0.016271587
163	0x3c18449b	0.009293701
164	0x3eb95c5c	0.36203277
165	0x3d1f4a9c	0.038889512
166	0xbd0b28f9	-0.03397462
167	0x3dce5c3c	0.10076186
168	0xbc21fe9e	-0.009887366
169	0xbe233ede	-0.1594195
170	0xbda8bc50	-0.08239043
171	0xbcdd2c55	-0.026998678
172	0x3e48ab08	0.19596493
173	0xbcdd078a	-0.026981134
174	0x3efb1c55	0.49045053
175	0x3d22f5cb	0.039785188
176	0xbdff2c2d	-0.12459598
177	0x3e86a500	0.2629776
178	0xbe7ddea8	-0.24791968
179	0x3e5a937c	0.21345323
180	0xbe25df31	-0.16198422
181	0x3df4a29f	0.1194508
182	0xbdcdd7e8	-0.100509465
183	0xbdeaeeb0	-0.11471307
184	0xba5eb70e	-0.0008495905
185	0x3dddee6b	0.1083649
186	0x3e5146fe	0.20437238
187	0xbe2b5a90	-0.16733766
188	0x3dd69aec	0.10478768
189	0xbc1cd9e3	-0.009573433
190	0x3a753cfd	0.0009355096
191	0xbe591596	-0.2119964
192	0x3ce065fc	0.02739238
193	0x3e2e9fe1	0.17053176
194	0x3ddbff4e	0.10742055
195	0x3d972dd9	0.073817916
196	0xbd117de0	-0.035520434
197	0xbc7b9bba	-0.015356952
198	0x3e36ab8b	0.17838876
199	0xbd727457	-0.05919298
200	0x3e1568f0	0.14590812
201	0xbd576e73	-0.052595567
202	0xbcd0adfa	-0.025473583
203	0xbe0828db	-0.13296835
204	0xbe013918	-0.12619436
205	0x3dae18d8	0.08500832
206	0x3e6c58f4	0.23080808
207	0xbd3624d2	-0.04446871
208	0x3ddbb825	0.10728482
209	0x3d733e3c	0.059385523
210	0x3d9e8797	0.077407055
211	0xbd88bd28	-0.06676704
212	0xbdca34c0	-0.098733425
213	0xbe1337de	-0.1437678
214	0xbe627cce	-0.22117922
215	0xbd9f075d	-0.07765076
216	0xbba097df	-0.004900917
217	0x3dbd040f	0.0922929
218	0xbdb8778e	-0.09007178
219	0xbe04d1b5	-0.12970622
220	0x3e323970	0.17404723
221	0xbd740838	-0.05957815
222	0x3bafbd40	0.0053631365
223	0xbda5967b	-0.080853425
224	0x3d6d7240	0.057970285
225	0xbce348a4	-0.027744599
226	0xbdb15c54	-0.08660188
227	0x3ba75e80	0.005107701
228	0x3d0978b9	0.033562396
229	0xbdf700ae	-0.120606765
230	0x3d5b5a65	0.053553004
231	0xbd74d0c8	-0.05976942
232	0x3d24be26	0.040220402
233	0x3e2f87a9	0.17141594
234	0x3ea40b90	0.3204007
235	0xbb4fd29f	-0.0031711233
236	0xbe2c80ba	-0.1684598
237	0xbe873216	-0.264054
238	0xbd0cdd00	-0.03439045
239	0xbf03431c	-0.51274276
240	0xbe0f97da	-0.1402277
241	0x3db5af47	0.08871322
242	0x3e5ee2d0	0.2176621
243	0xbe261433	-0.16218643
244	0x3ca72ce4	0.020407148
245	0xbe910c44	-0.2832967
246	0x3dcb87e6	0.0993803
247	0xbb8f2795	-0.004368732
248	0x3d8a9abc	0.067677945
249	0x3d761e42	0.06008745
250	0x3e754a4f	0.23954128
251	0x3a9c396d	0.001191897
252	0xbd2cff4a	-0.04223565
253	0x3e7951df	0.24347638
254	0xbe0caa54	-0.1373685
255	0xbdf7ff2c	-0.12109217

qnet.fc1.bias f4 [256]
0	0xbc5f2d5b	-0.013621653
1	0xbec0fef9	-0.3769453
2	0xbe66f061	-0.22552635
3	0x3e03f3cb	0.12885968
4	0xbebbf5e7	-0.36711046
5	0xbdea1c63	-0.114311956
6	0xbe621dc0	-0.22081661
7	0x3c2a3ffa	0.01039123
8	0x3dbdf10c	0.09274492
9	0xbe95fac3	-0.29292879
10	0x3da8b911	0.082384236
11	0xbe8952a4	-0.26820862
12	0xbe1579d4	-0.14597255
13	0x3e075504	0.13216025
14	0xbdaf0053	-0.08544984
15	0xbe927560	-0.28605175
16	0xbd169cc4	-0.036770597
17	0xbd4c2fdb	-0.049850326
18	0xbe0103ea	-0.1259915
19	0x3e83ab6b	0.2571672
20	0xbd3dde64	-0.046354666
21	0xbd1e267e	-0.038610928
22	0xbe3b0af4	-0.18265897
23	0x3df7fae4	0.121084005
24	0x3decb911	0.11558736
25	0xbdcecb3c	-0.10097358
26	0x3e3671ed	0.17816897
27	0xbe4c53ae	-0.19953796
28	0x3c94a085	0.018142948
29	0xbe3e3f05	-0.18578728
30	0x3deb30d8	0.114839256
31	0xbe62bdeb	-0.2214276
32	0xbc01b605	-0.007916932
33	0xbcc0936a	-0.023507793
34	0xbe4a0150	-0.19727063
35	0x3dca0f63	0.09866216
36	0xbeb92cca	-0.36166984
37	0xbdf68d30	-0.12038648
38	0x3b1444d8	0.0022624042
39	0xbaa588d2	-0.0012629277
40	0xbe526384	-0.20545775
41	0xbe9afaf5	-0.3026959
42	0xbe095f1b	-0.13415186
43	0x3e278a9b	0.16361468
44	0x3d6437d0	0.05571729
45	0xbe86446d	-0.2622408
46	0xbeb76783	-0.3582116
47	0x3e05463e	0.13015077
48	0xbd89c91c	-0.06727812
49	0xbe953b4f	-0.2914681
50	0x3ec0a61c	0.3762673
51	0x3d83b502	0.06431009
52	0xbe28959f	-0.16463326
53	0xbd813d93	-0.063105725
54	0x3da479d3	0.080310486
55	0xbd579213	-0.05262954
56	0xbe1fa86d	-0.15591593
57	0x3dff8d46	0.12478118
58	0x3e0ed19a	0.13947144
59	0x3e39b5d3	0.18135767
60	0xbe0a7425	-0.13520868
61	0xbd16b93a	-0.03679774
62	0xbe79b987	-0.2438718
63	0xbda8d31e	-0.082433924
64	0x3e5c6124	0.21521431
65	0x3e43843b	0.1909341
66	0xbe577302	-0.21039966
67	0x3df5475d	0.11976502
68	0x3e15d7f1	0.14633156
69	0x3d81823a	0.06323667
70	0x3d46e5f6	0.04855915
71	0x3e0ed87f	0.13949774
72	0x3d5ba004	0.0536194
73	0xbe9db7b8	-0.3080423
74	0xbe7ac0ec	-0.24487656
75	0xbe51819a	-0.20459595
76	0xbda6e7bd	-0.08149669
77	0x3e80e766	0.25176543
78	0x3e405f95	0.18786462
79	0x3e4d33cf	0.20039295
80	0x3e1a9712	0.15096691
81	0x3c9ab27c	0.018883936
82	0x3e5a2121	0.213017
83	0x3e947d06	0.29001635
84	0x3d30fd4a	0.043210305
85	0x3d9e2ceb	0.07723411
86	0x3e25b3ce	0.16181871
87	0xbe5687a5	-0.20950182
88	0xbe6cd447	-0.23127852
89	0xbeb008c1	-0.3438168
90	0xbdcba2bd	-0.09943149
91	0x3cab9d90	0.020949155
92	0xbe217b89	-0.15769781
93	0xbed63f76	-0.41845292
94	0xbc8a9878	-0.016918406
95	0xbb2d2c72	-0.0026424197
96	0xbde01677	-0.10941785
97	0x3e04713c	0.1293382
98	0xbd9a7446	-0.07541709
99	0x3e9b1cda	0.3029545
100	0x3e18409a	0.14868394
101	0xbde50d05	-0.11184124
102	0x3e76fa26	0.24118862
103	0xbda4df9a	-0.08050461
104	0xbd8a9d68	-0.06768304
105	0x3eb909b2	0.3614021
106	0x3de95705	0.11393551
107	0xbe2d4638	-0.16921318
108	0xbe2a2ce9	-0.16618694
109	0xbe5d37a2	-0.21603253
110	0xbe0e96d5	-0.13924725
111	0x3d1fd5bd	0.039022196
112	0x3eaab9a5	0.3334476
113	0xbe227721	-0.15865757
114	0xbe85ec10	-0.26156664
115	0xbe241a39	-0.16025628
116	0xbe4cab2a	-0.19987169
117	0x3df5d6ac	0.12003836
118	0xbe115d1b	-0.14195673
119	0xbd3bb307	-0.04582503
120	0x3e986b24	0.29769242
121	0xbe538b1f	-0.20658539
122	0xbea3d8ee	-0.32001442
123	0x3e03dd06	0.12877283
124	0xbd0d7f97	-0.034545507
125	0xbe21b863	-0.15792994
126	0x3debeac8	0.1151939
127	0xbe67b42e	-0.22627327
128	0xbe2bb940	-0.16769886
129	0x3d453f31	0.048155967
130	0x3e1dd779	0.15414228
131	0xbe833934	-0.2562958
132	0xbd3e45f3	-0.046453428
133	0x3c9547c5	0.018222699
134	0x3e304722	0.17214635
135	0xbe8bee5e	-0.27330297
136	0xbe85b0ee	-0.2611155
137	0xbdf3d078	-0.11904997
138	0xbec0f965	-0.37690273
139	0x3ccb4630	0.024813741
140	0x3d9d245b	0.0767295
141	0x3e509f5d	0.20373292
142	0xbd638199	-0.055543516
143	0xba9ca16a	-0.0011949961
144	0xbe9f9c02	-0.31173712
145	0xbd386312	-0.045016356
146	0xbda348ad	-0.07972846
147	0x3d6886db	0.056769233
148	0x3d51b134	0.051194385
149	0xbdab0d08	-0.08352095
150	0xbe050696	-0.12990794
151	0x3d62e1c3	0.055391084
152	0xbec2be42	-0.3803578
153	0x3d2f01e7	0.042726424
154	0x3cedfd54	0.02905146
155	0x3eaf5dd6	0.3425128
156	0xbdc77aad	-0.097401954
157	0x3e1c9b77	0.1529368
158	0xbde44a0a	-0.11146934
159	0x3e6c46b0	0.2307384
160	0xbebdf72b	-0.37102637
161	0xbe844664	-0.25834954
162	0x3ddf5c55	0.10906283
163	0x3d1ad0c0	0.037796736
164	0x3e404bbb	0.18778889
165	0xbe5320df	-0.20618008
166	0x3be48d47	0.0069748494
167	0x3bad221c	0.005283607
168	0xbe3facba	-0.18718234
169	0x3e7ef583	0.24898343
170	0xbebddcee	-0.37082618
171	0x3e957b32	0.29195553
172	0x3d88eac8	0.06685406
173	0xbd8de9e4	-0.06929377
174	0xbe9127f5	-0.28350797
175	0x3db8bb96	0.09020154
176	0xbebcd83e	-0.3688373
177	0xbeaf8252	-0.34279114
178	0x3cb96b0b	0.02263405
179	0x3eb81ded	0.35960332
180	0x3ebe82ba	0.3720911
181	0xbe37de06	-0.17955789
182	0xbeb76a5d	-0.35823336
183	0xbe76c485	-0.24098404
184	0xbe3d888e	-0.18509123
185	0xbeb615e9	-0.3556359
186	0xbe251696	-0.16121897
187	0xbd9bf948	-0.07615906
188	0xbe6cc1e5	-0.2312084
189	0x3e18bed7	0.1491655
190	0xbe58bcc5	-0.2116576
191	0x3e85e6b2	0.2615257
192	0xbea94901	-0.3306351
193	0xbe425782	-0.18978694
194	0xbed25165	-0.41077724
195	0xbce7479d	-0.02823239
196	0xbb8011bd	-0.0039083646
197	0x3e5921f8	0.21204364
198	0x3eab3782	0.33440787
199	0x3db95576	0.090495035
200	0x3dd44e49	0.10366494
201	0xbe5ff1a2	-0.2186952
202	0x3ea427c8	0.320616
203	0xbe3fed73	-0.18742923
204	0xbe04125a	-0.12897626
205	0x3da4f12c	0.080538124
206	0x3ddaee3d	0.106899716
207	0xbe24df8b	-0.161009
208	0x3da11416	0.07865159
209	0xbe9be268	-0.30446172
210	0x3e33738a	0.17524543
211	0x3e53006e	0.20605633
212	0xbdc33d9b	-0.09533235
213	0x3e4c83b0	0.1997211
214	0xbbdd6f65	-0.006757664
215	0xbe29a6cb	-0.16567533
216	0xbe8abdae	-0.2709784
217	0x3e4b3e26	0.19847926
218	0x3dbc8753	0.092054985
219	0xbc4daf05	-0.012553935
220	0xbe11dadf	-0.14243649
221	0x3e24c099	0.16089095
222	0xbe509169	-0.2036797
223	0xbd52af41	-0.051436666
224	0xbd1fc82d	-0.039009262
225	0x3e205327	0.1565672
226	0x3b7f72fd	0.003897845
227	0xbda60454	-0.08106294
228	0xbe2549aa	-0.16141382
229	0x3e08f367	0.133741
230	0xbd5ebf9b	-0.054381948
231	0x3e868912	0.2627645
232	0x3ee14c6f	0.44003627
233	0x3e6791f9	0.22614278
234	0x3e9a690c	0.3015827
235	0x3e7607d6	0.24026427
236	0xbec6a088	-0.3879435
237	0x3e7ec6cb	0.24880521
238	0x3e0e67de	0.1390681
239	0xbe926fb2	-0.28600842
240	0x3db3fd60	0.08788562
241	0x3e6dd20e	0.23224661
242	0x3e081f93	0.13293295
243	0xbddbe205	-0.10736469
244	0x3dbb6526	0.09150152
245	0xbe2de03c	-0.1698007
246	0xbbba1bd4	-0.005679587
247	0x3e26fbbd	0.16306968
248	0xbe2d5f08	-0.16930783
249	0xbedf7502	-0.43643957
250	0x3d7079c5	0.05870988
251	0x3e3db32b	0.18525378
252	0xbeac26ce	-0.33623356
253	0x3c213b61	0.009840817
254	0xbe42cc31	-0.19023205
255	0xbe37447e	-0.17897221

qnet.fc2.weight f4 [256, 256]
0	0x3caa897e	0.020817515
1	0x3cc97905	0.02459384
2	0xbddecd4e	-0.108790025
3	0xbca71a36	-0.02039824
4	0xbcdf7013	-0.02727512
5	0x3b87434c	0.0041278955
6	0x3c0cb240	0.00858742
7	0x3a9f3926	0.0012147769
8	0x3c4750c9	0.012165257
9	0xbd2d4136	-0.042298518
10	0xbe3b335c	-0.18281311
11	0xbe002f28	-0.12517989
12	0xbd246fc1	-0.04014564
13	0xba2a35ca	-0.00064930005
14	0x3d09714f	0.033555325
15	0xbd38592e	-0.045006923
16	0x3d6e60de	0.05819785
17	0x3cd4f966	0.025997829
18	0xbd20e478	-0.039280385
19	0x3c304f5c	0.010761108
20	0xbe0709ca	-0.13187328
21	0xbb1b54f3	-0.0023701757
22	0xbe14071f	-0.14455841
23	0xbe9505c3	-0.29105958
24	0x3d8f132a	0.06986077
25	0x3d5fe712	0.054663725
26	0x3c8b93e3	0.017038291
27	0xbe0415cb	-0.12898938
28	0xbd86f0d0	-0.065889
29	0x3d8c1a02	0.06840898
30	0x3ddd4556	0.108042404
31	0xbdaf20c4	-0.085511714
32	0xbc8fc2f8	-0.017549023
33	0xbb1fdebc	-0.0024394235
34	0x3e04491d	0.12918516
35	0x3db1da44	0.08684209
36	0x3d74474d	0.05963831
37	0xbce4fbfd	-0.027952189
38	0xbdb5082f	-0.088394515
39	0x3cdaae57	0.02669446
40	0x3d08bfa9	0.033385906
41	0xbd4cd844	-0.050010934
42	0x3caadc95	0.020857135
43	0x3c34dfaf	0.011039658
44	0xbd13fc70	-0.036129415
45	0x3d739932	0.05947227
46	0x3e06bf95	0.1315902
47	0x3d7a851e	0.061162107
48	0xbcae9018	-0.021308944
49	0x3d7fc316	0.062441908
50	0xbbbda2d1	-0.0057872315
51	0x3c856c9f	0.016287146
52	0x3a8d9d60	0.0010804348
53	0x3d16f735	0.03685685
54	0xbe8ede31	-0.27903894
55	0x3d15feb0	0.036619842
56	0x3d9a4381	0.075324066
57	0xbdae955e	-0.08524583
58	0xbda02739	-0.07819981
59	0xbec623ef	-0.3869929
60	0x3d92b9a7	0.071643166
61	0xbdedb0db	-0.11605998
62	0x3cf1ffb0	0.029540867
63	0xbec30b75	-0.3809468
64	0x3cac2986	0.021015894
65	0x3d94221f	0.072330706
66	0x3d3db57e	0.046315663
67	0xbce1bf61	-0.027557077
68	0xbcb7b6e9	-0.022426086
69	0x3a9acdb6	0.0011810574
70	0xbbacd13d	-0.0052739666
71	0xbd041371	-0.032245103
72	0x3c1c7d77	0.0095513975
73	0xbd24b922	-0.04021562
74	0xbd0c29d1	-0.034219567
75	0xbc9e42c6	-0.01931895
76	0x3d6f8f38	0.058486193
77	0x3dfa60dd	0.122255065
78	0xbc09a69e	-0.008401541
79	0x3ce36d21	0.027761998
80	0xbd419474	-0.047260717
81	0x3d4b8af6	0.04969307
82	0xbbbae789	-0.0057038707
83	0xba5844b7	-0.00082499854
84	0x3d160942	0.036629923
85	0x3c1da4b5	0.009621789
86	0xbcc12522	-0.023577277
87	0x3df4b354	0.119482666
88	0x3cccbdb3	0.0249928
89	0x3d2e9c1e	0.042629354
90	0xbc4ca662	-0.012490841
91	0xbde0ae11	-0.109707005
92	0xbde52eee	-0.11190592
93	0xbc99aefc	-0.018760197
94	0xbd31886e	-0.043343
95	0xbe6e4dd9	-0.23271884
96	0x3e002831	0.12515332
97	0xbca0269d	-0.019549662
98	0x3d557284	0.052111164
99	0x3d367c57	0.044552173
100	0xbd5d2aa2	-0.053995736
101	0x3d031e21	0.032011155
102	0xbce1ae87	-0.027549041
103	0xbed1f096	-0.41003865
104	0x3d1cddbb	0.038297396
105	0xbd0a1be8	-0.03371802
106	0x3cb1f615	0.021723786
107	0xbd876e42	-0.06612827
108	0x3c0611a4	0.008182917
109	0x3de546bf	0.11195134
110	0x3d9c9e85	0.07647423
111	0x3c300c0c	0.01074506
112	0xbddd38f9	-0.10801882
113	0x3d74da57	0.059778538
114	0x3ca5c59b	0.020235827
115	0xbc7e4ce6	-0.015521264
116	0xbd3923e2	-0.045200236
117	0xbdd4ba5c	-0.10387108
118	0xbd48f3cf	-0.04906064
119	0x3c828232	0.015931223
120	0xbd9068cb	-0.07051238
121	0xbd894b9d	-0.06703875
122	0xbda6d86a	-0.081467465
123	0xbe995402	-0.29946905
124	0x3d1d21f5	0.038362462
125	0xbcccd62d	-0.02500447
126	0x3d1828e0	0.037148356
127	0xbab1ede3	-0.0013574924
128	0x3c36e0bb	0.011161978
129	0x3d0d39ee	0.034479074
130	0x3d81eb0b	0.06343659
131	0xbd36bdc0	-0.044614553
132	0xbde5c51d	-0.11219237
133	0x3c9f6ab0	0.019460052
134	0x3d44e6cc	0.048071668
135	0x3bd0918e	0.0063650077
136	0xbe7bba6f	-0.24582838
137	0x3b9cc7e1	0.0047845696
138	0xbc1cfbcd	-0.009581518
139	0x3c57247f	0.01313126
140	0xbabd270f	-0.0014431196
141	0x3ccb6734	0.024829485
142	0xbd763452	-0.06010849
143	0xbce2347c	-0.027612917
144	0xbd90c1ba	-0.070682004
145	0xbd21a38a	-0.039462604
146	0xbd8962fc	-0.06708333
147	0x3d69feb6	0.057127677
148	0x3e1dc22e	0.15406105
149	0xbd24bafd	-0.04021739
150	0x3d8c3287	0.06845575
151	0xbcf44659	-0.0298187
152	0x3dc502ca	0.096196726
153	0x3d74fa21	0.059808854
154	0x3d773e56	0.060362183
155	0x3e236463	0.15956263
156	0x3c8e8795	0.017398635
157	0x3e2dbf4d	0.16967507
158	0x3e04bcc3	0.12962632
159	0x3c3564ec	0.011071425
160	0xbbb1ad30	-0.005422257
161	0x3cbe36ab	0.023219427
162	0x3b502eed	0.0031766251
163	0x3ca3c7ba	0.019992698
164	0xbb76ddaa	-0.0037668743
165	0xbdceba5a	-0.100941375
166	0xbc9e121b	-0.019295743
167	0xbd1dfb9f	-0.038570043
168	0x3e2ffd33	0.17186432
169	0xbc2f1d39	-0.01068812
170	0xbcc4aadb	-0.024007251
171	0x3c2ac7be	0.010423599
172	0xbddcaccd	-0.10775147
173	0xbc5f3faf	-0.013626023
174	0xbdff8055	-0.12475649
175	0xbd6ccf47	-0.057814863
176	0xbcc823c8	-0.024431124
177	0x3d4ea939	0.050454352
178	0xbd0d50b0	-0.034500778
179	0xbd888e72	-0.06667794
180	0xbc177085	-0.009243135
181	0x3d94a8ac	0.07258734
182	0x3d1f58b7	0.038902964
183	0xbb565bec	-0.0032708598
184	0xbd301979	-0.042993043
185	0x3d2f4f02	0.042799957
186	0xbd0fe05e	-0.035126083
187	0x3cdb81ce	0.026795294
188	0x3ea71638	0.3263414
189	0xbe74fb1b	-0.23923914
190	0x3bf0fef1	0.00735461
191	0x3b7c3b16	0.0038487366
192	0x3d0fab03	0.0350752
193	0x3d120386	0.03564789
194	0xbddc013a	-0.107424214
195	0x3db89da7	0.09014445
196	0xbc942060	-0.018081844
197	0xbe30e96f	-0.17276548
198	0xbda7eace	-0.08199082
199	0xbcba4980	-0.022740126
200	0x3daa7a06	0.083240554
201	0xbebe45b7	-0.37162563
202	0xbd88e7c5	-0.066848315
203	0x3cacc691	0.021090778
204	0x3d493238	0.049120158
205	0x3bce3f1e	0.0062941452
206	0x3c63eeda	0.013911927
207	0xbc9e1107	-0.019295229
208	0x3dbf316a	0.09335597
209	0xbca83b61	-0.020536127
210	0xbd62c4e6	-0.05536356
211	0xbd34c9de	-0.044137828
212	0x3c86733b	0.016412368
213	0x3de6ea06	0.11275105
214	0x3d801b94	0.0625526
215	0xbde9c277	-0.11414044
216	0x3d0f57af	0.03499573
217	0xbdd85506	-0.10563092
218	0xbcc2adee	-0.023764577
219	0xbe12d3f2	-0.14338663
220	0x3cd09c3a	0.02546512
221	0x3d8b51f5	0.068027414
222	0xbad557a4	-0.0016276729
223	0x3cff5fd3	0.031173622
224	0x3da92cca	0.08260496
225	0xbd94b4de	-0.0726106
226	0x3c563fae	0.013076706
227	0xbd37970a	-0.044821776
228	0xbd792358	-0.060824722
229	0xbd051332	-0.03248901
230	0xbe78ba55	-0.2428983
231	0x3d397471	0.045277063
232	0xbda50ae7	-0.0805872
233	0xbd44370c	-0.04790406
234	0xbca2382b	-0.019802174
235	0xbe03865d	-0.12844224
236	0xbd1101ce	-0.03540211
237	0xbd3cd046	-0.046097063
238	0xbab4c8c2	-0.0013792741
239	0xbc87c671	-0.016574116
240	0x3d828aa4	0.063741
241	0xbd04f227	-0.032457497
242	0x3b8ffa9c	0.0043938886
243	0x3d62c12b	0.05536
244	0x3cdc5dca	0.02690019
245	0xbc637fec	-0.013885479
246	0xbd59c9af	-0.053170856
247	0xbbdc1d89	-0.006717388
248	0x3d9252e7	0.071447186
249	0xbcb2496e	-0.02176353
250	0xbd9317ac	-0.071822494
251	0xbd01801e	-0.031616323
252	0xbd108de2	-0.03529156
253	0x3ceb0b3a	0.028691877
254	0xbe0fd920	-0.1404767
255	0xbbbc2642	-0.0057418654

qnet.fc2.bias f4 [256]
0	0xbd4fa425	-0.05069365
1	0xbca5fbd3	-0.02026168
2	0xbd4f3f37	-0.050597396
3	0xbcbb01b8	-0.022827968
4	0x3c2c911c	0.010532644
5	0x3ad69541	0.0016371385
6	0xbd22fb52	-0.03979046
7	0x3cc3938f	0.023874072
8	0xbcf29d36	-0.02961598
9	0x3dadd9ee	0.084888324
10	0x3d531f79	0.051543687
11	0x3d0719c6	0.032983564
12	0x3d7a3fd9	0.061096046
13	0x3c6d3d89	0.014480003
14	0xbcd3c4e3	-0.025850719
15	0xbd311245	-0.043230314
16	0xbd46e5cd	-0.048559
17	0x3aac4658	0.0013143523
18	0x3cd6a067	0.026199533
19	0x3b2e0be6	0.0026557385
20	0x3b912de6	0.0044305203
21	0xbd8728b0	-0.065995574
22	0x3cfc7b08	0.030820385
23	0x3c052e77	0.008128754
24	0xbcb76f53	-0.02239195
25	0xbc9a2061	-0.018814268
26	0xbcda51db	-0.02665036
27	0x3cc67a9d	0.024228388
28	0xbc5f7006	-0.013637548
29	0x3ca10043	0.019653445
30	0x3d894f2a	0.067045525
31	0x3ccf6b50	0.025319725
32	0xbd129bc3	-0.035793077
33	0x3d03052e	0.03198736
34	0xbd9825a9	-0.07429058
35	0x3b8b0281	0.004242242
36	0xbd83d313	-0.064367436
37	0xbc665513	-0.014058369
38	0xbc23fdc1	-0.01000923
39	0x3be92112	0.007114538
40	0xbccb94a0	-0.024851143
41	0xbd39ed22	-0.045392163
42	0xbb8bb463	-0.004263447
43	0xbd4aa545	-0.04947402
44	0xbcf95c78	-0.0304396
45	0xbd6b7fe1	-0.057495
46	0xbcb3cb7f	-0.02194762
47	0xbd6ab278	-0.057299107
48	0xbda816be	-0.08207463
49	0x3c9fbf87	0.019500507
50	0x3d2a31fe	0.041551583
51	0xbd734683	-0.059393417
52	0xbcca33e6	-0.02468295
53	0xbd631a30	-0.055444896
54	0xbb1549e7	-0.0022779645
55	0xbcf2ef84	-0.029655226
56	0xbd1fc637	-0.03900739
57	0xbdb1d25a	-0.086826995
58	0xbd71d34c	-0.0590394
59	0xbd9cf4da	-0.07663889
60	0x3cb5b9d7	0.022183342
61	0x3b9e2f79	0.0048274365
62	0x3c6a2f90	0.014293566
63	0x3da63abd	0.08116672
64	0x3acab6e6	0.0015465885
65	0x3c116409	0.008873948
66	0x3d012536	0.031529628
67	0x3c8e75ae	0.017390098
68	0x399240c5	0.00027895547
69	0xbda7713c	-0.081758946
70	0xbd7c4cb4	-0.061596587
71	0xbd5f4edd	-0.05451857
72	0xb972a0c5	-0.0002313881
73	0xbce2b1cf	-0.027672676
74	0xbd736a15	-0.05942734
75	0xbdd776ff	-0.105207436
76	0xbd883e76	-0.066525385
77	0x3cfea413	0.031084096
78	0x3d3a31eb	0.04545776
79	0xbbe6f827	-0.007048625
80	0xbbf864d7	-0.0075803804
81	0x3d331949	0.043725286
82	0x3d8152c8	0.063146174
83	0xbd89c77e	-0.06727503
84	0xbdbefcca	-0.093255594
85	0xbd48f583	-0.049062263
86	0x3d005b97	0.031337347
87	0x3d477ede	0.048704974
88	0xbd2d62ca	-0.04233054
89	0xbd8957d8	-0.06706208
90	0xbd8aa2e9	-0.06769354
91	0x3d007d71	0.03136963
92	0x3ca19d5d	0.019728357
93	0x3c04c9e0	0.008104771
94	0xbce65758	-0.02811782
95	0xbd657719	-0.056021784
96	0xbcadfea1	-0.02123958
97	0xbcc4a864	-0.024006076
98	0xbc5fb99c	-0.013655093
99	0xbd4bdadb	-0.049769264
100	0xbda54948	-0.08070618
101	0x3ca4cdeb	0.02011772
102	0x3cf5ef3f	0.030021308
103	0xbd57b19d	-0.05265962
104	0xbc0ffece	-0.0087887775
105	0xbc2e63a5	-0.010643874
106	0xbd03c1e0	-0.032167315
107	0xbd6b41f5	-0.05743595
108	0x3ca4cb01	0.020116331
109	0x3d30b56b	0.043141764
110	0xbd295d14	-0.04134853
111	0x3cdd6126	0.027023863
112	0xbd594cc1	-0.053051714
113	0xbc2b442c	-0.010453265
114	0xbd4ac210	-0.04950148
115	0x3d3d1065	0.046158213
116	0xbabd9851	-0.001446495
117	0xbda9f044	-0.0829778
118	0xbcbc2feb	-0.022972068
119	0xbd2f4af9	-0.04279611
120	0xbd4b77ee	-0.04967492
121	0xbc1cd244	-0.009571616
122	0x3b04090f	0.0020147
123	0xbd3329c4	-0.043741003
124	0xbc8a9c43	-0.016920215
125	0xbcd17be2	-0.025571767
126	0xbdd63b1e	-0.104604945
127	0xbb52ed1d	-0.0032184788
128	0xbd5429e8	-0.051797777
129	0x3cb2d6ad	0.021830881
130	0x3c74ca81	0.014940859
131	0xbd6cff12	-0.05786044
132	0x3a2c036d	0.000656179
133	0xbd2fa6ba	-0.042883612
134	0xbc6cded6	-0.014457425
135	0x3c17a249	0.009255
136	0xbbc7318f	-0.006078906
137	0x3d42efaa	0.047591843
138	0x3d005fdb	0.031341415
139	0xbd52fc0a	-0.051509894
140	0xbd805fb4	-0.06268254
141	0x3d5537f3	0.05205531
142	0xbb0f99a4	-0.0021911645
143	0xbd07c526	-0.033147
144	0xbcdf8a89	-0.027287738
145	0x3cb05b70	0.021527976
146	0x3b1c9a73	0.002389577
147	0xbc8739a3	-0.016506976
148	0x3c752e8f	0.014964714
149	0xbd17f540	-0.037099123
150	0x3d8a44cc	0.06751403
151	0x3b08e024	0.0020885551
152	0x3d14cc7b	0.03632782
153	0x3a7fe105	0.00097610086
154	0x3d70687a	0.058693387
155	0x3d306ece	0.04307442
156	0xbd4bf0ea	-0.0497903
157	0xbd849cdd	-0.06475232
158	0xbc8e23f8	-0.017351136
159	0x3b401dc6	0.0029314621
160	0xbd37c2d5	-0.04486354
161	0xbc4747b5	-0.012163092
162	0xbd59be6d	-0.05316012
163	0xbd8f9c0e	-0.07012187
164	0x3d0be1cb	0.03415088
165	0xbd1a50f0	-0.037674844
166	0xbd31beb4	-0.04339476
167	0x3cf4c405	0.029878626
168	0x3ce2a514	0.027666606
169	0xbcac3455	-0.021021048
170	0x3d32f25d	0.043688167
171	0xbdb09fb1	-0.08624209
172	0x3d1c8f83	0.0382228
173	0xbc1d89e0	-0.0096153915
174	0x3c81b7d8	0.015834734
175	0x3cedcfc7	0.02902974
176	0xbc975327	-0.018472267
177	0x3c8cfb94	0.017209806
178	0x3da9638c	0.0827094
179	0x3c1a1fbc	0.00940698
180	0xbd0a504f	-0.033767994
181	0xbc8dfb35	-0.017331699
182	0x3a3647cc	0.00069534476
183	0xbc68487d	-0.014177439
184	0x3d06a9c9	0.032876763
185	0x3c9c7211	0.01909736
186	0xbd49dc4f	-0.04928237
187	0xbcb5f734	-0.022212602
188	0xbda3f002	-0.08004762
189	0x3cc1eba2	0.023671929
190	0x3c2961c3	0.01033825
191	0xbd1a1f1e	-0.037627332
192	0xbbeeec24	-0.0072913337
193	0xbcb62f26	-0.022239279
194	0x3ca5341b	0.020166447
195	0xbcba574f	-0.02274671
196	0x3d07506e	0.033035688
197	0x3c7d782f	0.0154705485
198	0x3c13ffe1	0.009033174
199	0xbcb1239b	-0.021623423
200	0xbbe249a7	-0.0069057527
201	0xbcfa3289	-0.030541675
202	0x3d456e6e	0.048201017
203	0x3d8756d0	0.06608355
204	0xbd8f97ea	-0.07011397
205	0x3be4c623	0.0069816275
206	0x3d168678	0.036749333
207	0xbc7247fd	-0.014787671
208	0x3d3cbd12	0.04607875
209	0xbc8f6a49	-0.017506735
210	0x3d00ab1d	0.031413186
211	0xbcbddc0d	-0.023176217
212	0xbce0598f	-0.027386455
213	0xbcf18a31	-0.02948484
214	0x3d2b682a	0.041847385
215	0xbb870219	-0.004120123
216	0xbda80d87	-0.08205705
217	0x3cd6b73b	0.026210418
218	0xbd4ac89f	-0.049507733
219	0xbb2e174a	-0.0026564174
220	0xbd261c93	-0.040554594
221	0x3d37a2d4	0.04483302
222	0xbc893ae7	-0.01675172
223	0x3cc772be	0.024346706
224	0xba82a9c8	-0.0009968812
225	0xbdb47f15	-0.088133015
226	0x3d3b954c	0.045796677
227	0xbd8000a1	-0.0625012
228	0xbd2d8c80	-0.04237032
229	0xbc99fedf	-0.01879829
230	0xbc0616e6	-0.00818417
231	0xbd7c22c2	-0.061556585
232	0xbd1c9bf8	-0.03823468
233	0xbd496244	-0.04916598
234	0xbd4aa668	-0.049475104
235	0x3d0c4f55	0.034255344
236	0x3c86f7e2	0.016475622
237	0x3c0eac85	0.008708124
238	0x3b758620	0.0037463978
239	0x3d41b876	0.047295056
240	0x3d0ed566	0.03487148
241	0x3b86fb3b	0.0041193045
242	0xbd104d31	-0.035229865
243	0xbc9bac61	-0.019003095
244	0x3c75487b	0.014970894
245	0xbdc298cb	-0.09501799
246	0xbcd2fbdd	-0.025754863
247	0xbc80d845	-0.015728125
248	0xbcbe9254	-0.023263134
249	0xbd1265e3	-0.035741698
250	0x3d726768	0.059180647
251	0x39b9e857	0.00035459056
252	0xbd804fe2	-0.062652364
253	0x3c6622ab	0.014046351
254	0xbd64ce82	-0.055861004
255	0xbc09e401	-0.008416177

qnet.A.weight f4 [9, 256]
0	0x3affd2d4	0.0019517788
1	0xbd497444	-0.049183145
2	0x3dc661c8	0.09686619
3	0x3d6b0d78	0.05738589
4	0x3c9a3ab1	0.018826814
5	0xbc029658	-0.007970415
6	0x3d220b19	0.039561365
7	0x3d0a07cd	0.033698846
8	0xbb5626a3	-0.0032676838
9	0xbac23286	-0.0014816083
10	0x3b013733	0.001971674
11	0x3d3f1182	0.046647556
12	0x3c9e5c06	0.01933099
13	0xbd32010f	-0.04345804
14	0xbc2e8227	-0.010651148
15	0x3d86594c	0.06560001
16	0x3d053771	0.032523576
17	0xba417197	-0.0007379292
18	0x3dd93991	0.10606683
19	0x3cba486b	0.02273961
20	0x3cb2d0a5	0.021828005
21	0x3dabbcbf	0.0838561
22	0xbc191c24	-0.009345088
23	0x3ccbd5ff	0.024882315
24	0xbd05145b	-0.032490116
25	0x3bab01d1	0.0052187224
26	0x3c83789d	0.016048724
27	0x3d18b82c	0.037285015
28	0xbd0b404b	-0.03399686
29	0x3cdc20a4	0.026871033
30	0x3c0e8e00	0.008700848
31	0x3d922ab3	0.071370505
32	0xbc8435a2	-0.016138855
33	0x3d1d2fa6	0.03837552
34	0x3d3ec030	0.046570003
35	0xbc49ccc5	-0.012316887
36	0x3d0156e0	0.03157699
37	0x3c8f79d3	0.017514145
38	0xbd4e6629	-0.050390396
39	0x3c338925	0.010957991
40	0xbc827cf1	-0.015928717
41	0x3a542a03	0.00080934184
42	0x3dbd9019	0.09256
43	0x3d9f6648	0.077831805
44	0x3dc9d89e	0.098557696
45	0x3d471e10	0.048612654
46	0x3d6bd380	0.05757475
47	0x3962609f	0.00021589034
48	0x3df5a266	0.11993866
49	0x3d5d6310	0.05404955
50	0x3d41d439	0.047321532
51	0x3dad26b2	0.08454646
52	0x3d3ab0bf	0.045578714
53	0xbbc13a44	-0.0058968384
54	0x3d8abf38	0.06774753
55	0x3d75d51b	0.060017686
56	0x3b133c30	0.0022466294
57	0xbb011355	-0.001969536
58	0xbcb5d18b	-0.022194644
59	0x3c9b5f3f	0.018966315
60	0xbccc4157	-0.0249335
61	0x3dc50ee0	0.09621978
62	0x3d011f6c	0.031524107
63	0x3c06a9f2	0.008219229
64	0x3db30649	0.08741433
65	0xbc0f54ea	-0.008748272
66	0x3cf91f7e	0.030410524
67	0xbcd01822	-0.025402132
68	0xbc0bea09	-0.008539685
69	0xbcec602f	-0.028854458
70	0x3d4f8ca9	0.050671253
71	0xbc78537a	-0.015156621
72	0x3cdb3827	0.026760174
73	0xbce37306	-0.027764808
74	0x3da1ec76	0.079064295
75	0x3bd56e9b	0.0065134293
76	0x3d3c4bd8	0.045970768
77	0x3d840a1f	0.06447243
78	0xbd526dc7	-0.051374223
79	0xbb33f623	-0.0027459941
80	0xbceb873f	-0.028751014
81	0xbe0c9ac1	-0.13730909
82	0xbc238825	-0.00998119
83	0x3d024136	0.03180047
84	0x3bb5a25b	0.005543036
85	0xbcdcd41c	-0.02695661
86	0xbd115321	-0.03547967
87	0xbdd0df58	-0.101988494
88	0x3cb5fd4d	0.02221551
89	0xbae71ec7	-0.0017633074
90	0x3d15adb5	0.036542613
91	0xbdcb2eae	-0.09921013
92	0xbd39b11d	-0.045334924
93	0xbd0986d0	-0.033575833
94	0xbcc055cf	-0.023478417
95	0x3d9782ee	0.0739802
96	0xbd3497f0	-0.04409021
97	0x3d574025	0.052551407
98	0x3d7953f2	0.060871072
99	0x3cf2ca69	0.029637532
100	0x3e303393	0.17207174
101	0x3c139b27	0.009009159
102	0x3d74a783	0.059730064
103	0xbd0221a3	-0.03177036
104	0xbc40a6bb	-0.011758502
105	0x3d7122e3	0.05887116
106	0x3d61f9dd	0.05516993
107	0xbd8ae83c	-0.067825764
108	0x3c74c694	0.014939923
109	0x3daa1eb9	0.08306641
110	0x3c370a15	0.011171837
111	0x3c201c37	0.009772352
112	0xbac8b6c5	-0.0015313259
113	0x3d080d46	0.033215784
114	0xbdb64c4f	-0.089012735
115	0x3d0ac015	0.03387459
116	0x3df040cb	0.11731108
117	0x3d988d78	0.07448858
118	0xbc46f308	-0.012142904
119	0xbcc2fcf4	-0.023802258
120	0x3dcc3289	0.09970576
121	0xbd18aaaf	-0.03727215
122	0x3c8e739f	0.017389117
123	0xbc70045c	-0.014649477
124	0xbbe44d69	-0.006967236
125	0x3ab1a49a	0.0013553083
126	0xbd140912	-0.036141463
127	0x3d8774d8	0.06614083
128	0xbd850e8a	-0.06496914
129	0x3c863344	0.016381867
130	0xbba20ffa	-0.004945752
131	0xbc27acdb	-0.010234083
132	0x3dd4e7a3	0.10395744
133	0xbd29479b	-0.041328054
134	0xbba15bb9	-0.0049242643
135	0xbd2e509e	-0.04255735
136	0x3d126c22	0.035747655
137	0xbce3aa49	-0.02779116
138	0x3e5e61ce	0.21716997
139	0xbc9cc726	-0.01913793
140	0xbbb9f2da	-0.005674702
141	0x3c3a722b	0.011379759
142	0x3d303525	0.043019433
143	0xbd893297	-0.06699102
144	0xbd8f96f4	-0.07011214
145	0x3ad519b9	0.0016258276
146	0x3d3536dc	0.04424177
147	0x3dd20794	0.10255352
148	0xbd1205f2	-0.0356502
149	0xbbc24501	-0.005928636
150	0x3b3d7ace	0.0028912309
151	0x3c9b642c	0.018968664
152	0x3bf899d2	0.007586696
153	0x3d2af58f	0.04173809
154	0x3d10ab1f	0.035319444
155	0x3cb8c1fe	0.02255344
156	0xbcddeab2	-0.02708945
157	0x3d5ece90	0.054396212
158	0x3dd2d4e3	0.10294511
159	0x3dcd1a99	0.10014839
160	0x3d3e5c08	0.046474487
161	0x3d0ede02	0.034879692
162	0x3d7bff5f	0.061522838
163	0x3d340f10	0.043959677
164	0x3d23cff9	0.03999326
165	0xbd53667b	-0.051611405
166	0xbd038441	-0.03210855
167	0xbe06995a	-0.13144436
168	0xbbf325b9	-0.0074202684
169	0x3d2cef52	0.04222042
170	0xbd124ab8	-0.03571579
171	0xbdd7f2b7	-0.10544341
172	0xbc4ed1b7	-0.012623242
173	0x3d0397c1	0.032127146
174	0x3d0a3224	0.033739224
175	0x3c8dddff	0.01731777
176	0xbdd61bb5	-0.104545034
177	0x3bf7973e	0.0075558713
178	0x3c3faad8	0.011698447
179	0xba98f1c1	-0.0011668728
180	0x3cfcec88	0.030874506
181	0x3c84b884	0.016201265
182	0xbca2cdbe	-0.019873496
183	0x3d715c4b	0.058925908
184	0xbcfa47ca	-0.03055181
185	0xbe060dd0	-0.13091207
186	0x3d08d9af	0.033410724
187	0x3dadc41c	0.084846705
188	0x3db8eea5	0.09029893
189	0x3d07e8b4	0.033180907
190	0xbcbe18fa	-0.02320527
191	0xbcb9a8c4	-0.022663482
192	0x3d5f4b0a	0.054514922
193	0xbd7f86e1	-0.06238449
194	0x3cabe7cf	0.020984558
195	0xbbf8ccda	-0.0075927796
196	0x3da64f58	0.08120602
197	0x3d24e862	0.04026068
198	0x3ce41ce9	0.027845817
199	0x3d29c71d	0.041449655
200	0x3d0cbbb1	0.034358684
201	0x3d046d3e	0.032330744
202	0xbc8eeda0	-0.017447293
203	0xbd569090	-0.05238396
204	0x3d1b3183	0.037889015
205	0x3c85e974	0.01634667
206	0x3d57df06	0.052702926
207	0x3cd7ed4e	0.026358273
208	0x3bfbab56	0.007680337
209	0x3d293166	0.041306876
210	0x3d1434e6	0.03618326
211	0xbd2027bc	-0.039100394
212	0xbb8e5117	-0.0043431628
213	0x3df77524	0.1208289
214	0x3d69e67b	0.05710457
215	0x3d5d60d1	0.05404741
216	0x3de86abc	0.11348483
217	0xbe0dbfd1	-0.13842703
218	0xbcb3bccb	-0.02194061
219	0x3d9a812b	0.07544168
220	0x3dc032ab	0.09384664
221	0x3d7159a0	0.058923364
222	0xbdc253cb	-0.094886385
223	0x3bb43144	0.005499037
224	0xbd59a13c	-0.05313228
225	0x3dc9f0c5	0.09860376
226	0xbd1d8a73	-0.038462114
227	0xbd39fd41	-0.045407537
228	0x3ccb041e	0.024782237
229	0xbbe77b2b	-0.0070642433
230	0xbd1c0040	-0.038086176
231	0xbbedb4e5	-0.0072542303
232	0xbcc338e0	-0.023830831
233	0x3cd1568c	0.025553964
234	0x3db7bee4	0.08971956
235	0x3e083b15	0.13303788
236	0x3d6b8eed	0.05750935
237	0xbdc38698	-0.09547156
238	0xbb66ac1a	-0.0035197795
239	0xbd304d6f	-0.043042596
240	0xbd93694e	-0.0719782
241	0x3cb00f4e	0.021491673
242	0x3c52d861	0.012868972
243	0x3b4c2a66	0.00311532
244	0x3d5d5641	0.054037336
245	0xbd678ace	-0.05652886
246	0xbd7b9d47	-0.06142929
247	0xbcde3d65	-0.027128885
248	0xbc234d84	-0.009967212
249	0x3c8e63c1	0.01738155
250	0x3cc625ff	0.02418804
251	0xbbb77a79	-0.0055993167
252	0xbccd4ebf	-0.025061963
253	0x3d20b415	0.03923424
254	0xbdcb3c27	-0.099235825
255	0x3d114171	0.0354628

qnet.A.bias f4 [9]
0	0x3cb4e0be	0.022079822
1	0x3c429d63	0.011878344
2	0x3c1fbce5	0.009749626
3	0x38fd7815	0.00012086347
4	0x3c81d7c5	0.015849957
5	0xbcc7ae61	-0.024375143
6	0xbca93d90	-0.020659238
7	0xbcd2753c	-0.025690667
8	0xbd4f362d	-0.050588775
