best performing models/before 6th.onnx (onnx, 76702 bytes, 6 tensors)

qnet.fc1.weight f4 [128, 8]
000000 df f6 77 3c 2c 8a 2c be de 66 d4 3e f2 94 ac 3b
       0.015134542 -0.16849583 0.4148473 0.005266779
000010 53 ea 2a 3e 4a 89 16 be 4d 4d b8 bc e6 ca f8 3d
       0.1669095 -0.14700809 -0.022497797 0.12148075
000020 9d 28 11 3f c7 34 44 bd a7 bb 04 3d 65 a3 ca 3e
       0.56702596 -0.047901895 0.03240552 0.39577785
000030 e8 75 54 3e 12 31 e3 3d 1d e3 0e bd 77 9d 2c 3c
       0.20748103 0.11093344 -0.03488456 0.010535589
000040 b6 7a cf be 13 a4 a5 3e fd 17 8f bc 1a d8 ec 3e
       -0.4052331 0.3235174 -0.017467493 0.46258622
000050 cb 40 ab 3e c3 b3 38 3d e3 a6 fa 3c d3 5a 86 3d
       0.3344787 0.04509331 0.030597156 0.06560292
000060 c6 5f a5 3d 63 04 ca bd ff d6 e2 3e 43 f0 b8 bd
       0.08074908 -0.09864118 0.44304654 -0.09030201
000070 1b 51 07 3e 84 48 3f 3b 63 34 aa 3d b0 a5 a6 be
       0.13214533 0.002918751 0.08310773 -0.32548285
000080 cf 1b 5b 3e d4 fb 25 be 1c ad d6 bc b5 61 7e be
       0.21397327 -0.16209346 -0.026205592 -0.2484196
000090 ff 2c 4e be 48 0a 28 3c ec a4 c8 bd 4a b7 95 3e
       -0.20134352 0.0102563575 -0.09797081 0.292414
0000a0 5a f4 5d 3e 20 d5 3b 3e 9c cb b1 bd 84 b9 2d bd
       0.21675244 0.1834302 -0.086814135 -0.04241325
0000b0 9b 7d 92 be 0e 8e b7 3d c5 7c 4e 3d fd d4 21 bb
       -0.28611454 0.08962642 0.05041196 -0.0024693601
0000c0 05 c8 8c bd 1b 7e 1b bd 41 06 d5 3c 6f 5d 80 3e
       -0.06874088 -0.03796206 0.026003959 0.25071284
0000d0 f5 f5 4a 3e a6 58 1c 3e c1 70 c1 3d 80 8e b8 bd
       0.19820388 0.15268192 0.09445334 -0.09011555
0000e0 d4 3e 9d be 1e 38 59 be 5f db 66 bd 7b 68 03 be
       -0.30711997 -0.21212813 -0.056361552 -0.12832825
0000f0 d4 8c 88 be 8b cc 68 3d d9 95 d3 bd b9 e9 2e 3d
       -0.26669943 0.056835692 -0.103313155 0.042703364
000100 f3 9c 93 3e 53 c1 ab 3d 0e 41 49 3e ed 1e bd 3d
       0.2883068 0.08386483 0.19653723 0.09234414
000110 ea 8d 9b 3d f9 0a 4e 3e 20 5d a5 3d 00 19 77 3e
       0.07595427 0.20121373 0.08074403 0.2413063
000120 e4 c6 88 3e 2a 89 9d be b4 6f 6c 3d 03 28 17 3d
       0.26714242 -0.3076871 0.057723716 0.036903393
000130 a5 35 e2 3e f8 d0 d0 bd 85 8e 0d 3e dc 09 b4 3d
       0.44181553 -0.101961076 0.13823898 0.08790943
000140 9f 9b 60 be 69 8c f8 3e 42 18 a1 3c 4f 58 8f bd
       -0.21934365 0.48544624 0.019664887 -0.069992654
000150 71 d5 2a be d7 62 fd bd 9c 76 a4 3d d5 9e 1e 3e
       -0.16682984 -0.12372368 0.080304354 0.15490277
000160 10 a7 af 3d 54 0b 68 3d 5c 05 82 be 66 d9 16 be
       0.085767865 0.05665143 -0.25394714 -0.14731368
000170 72 14 86 bd 95 d4 06 be a0 74 99 3e 1f 11 6e 3e
       -0.065468684 -0.13167031 0.2997179 0.23248719
000180 e7 ea e4 3b 57 1a 08 3d 14 3a ed 3d 74 d0 0c be
       0.0069860104 0.033228245 0.11583343 -0.13751394
000190 a8 7f 7f 3e 70 c4 83 bd c4 ad 3e be 87 7e 22 bc
       0.2495104 -0.06433952 -0.18620974 -0.009917862
0001a0 7e dd 09 bd 2a 5e 09 bf 7e a3 46 3e 2f a9 aa bd
       -0.033658497 -0.5365931 0.19398305 -0.083330505
0001b0 51 90 66 be fb 52 b6 bd 63 88 b6 bd 60 fd 4a 3e
       -0.2251599 -0.08902546 -0.089127325 0.19823217
0001c0 4b 85 ef be 24 bd 2e 3d 75 ac a2 3b 33 c2 ec 3e
       -0.46781382 0.042660847 0.004964406 0.46241912
0001d0 28 eb a4 bd 55 bc 32 3e 09 f8 01 3d 06 b9 97 3d
       -0.08052665 0.17454655 0.031730685 0.07408337
0001e0 47 ae 54 bd 33 ea 9b 3e e2 36 6a 3e c1 00 cc 3e
       -0.051924016 0.30452117 0.22872499 0.39844325
0001f0 46 7a 13 be 9c 61 f7 3d 05 dc bd bc 54 50 cd bd
       -0.14402112 0.120791644 -0.023176203 -0.10025087
000200 3d c9 97 be 4f cb 99 bd 6e 08 ce bc 11 8d b3 be
       -0.2964572 -0.07509481 -0.025150504 -0.35068563
000210 14 7b 2d 3d cd 9b d3 bd e4 bb 93 bc e9 b5 df 3d
       0.042353705 -0.10332451 -0.01803393 0.109233685
000220 d2 7f 42 3d 05 26 22 be 6b ac 6f bd d8 36 8b 3e
       0.04748518 -0.15834816 -0.05851404 0.2719028
000230 ea c5 64 bd 67 37 0a 3e 9e 0d b0 bd e4 94 e0 3e
       -0.055852808 0.13497697 -0.08596347 0.43863595
000240 b4 79 cc bd 3f 11 01 3f 55 5a c9 3b 13 28 9b 3e
       -0.099841505 0.5041694 0.0061448016 0.30304012
000250 72 85 6f 3e 91 9d a7 3d c6 f5 9c 3c a0 ae 2f 3e
       0.23390749 0.0818435 0.019160163 0.17156458
000260 9a 23 f3 3e 18 c8 a2 3e 63 2f 2c 3c 83 d5 b3 3d
       0.474881 0.31793284 0.010509345 0.087809585
000270 b6 43 a9 bc 03 b3 f8 3d 20 91 4a bd d3 56 62 3e
       -0.02066217 0.12143519 -0.04945481 0.22103433
000280 04 70 29 be f2 49 d8 3d 08 0c e8 3d be fe bb 3e
       -0.16546637 0.10560979 0.1133042 0.3671779
000290 d0 c0 7c 3e f3 40 92 3d 31 63 08 3d b2 89 43 bd
       0.24682927 0.07141294 0.03329772 -0.04773874
0002a0 40 b5 09 3c ee fc 2a be 14 90 ea bc 48 dc bd be
       0.00840503 -0.16698048 -0.028633155 -0.37082124
0002b0 8e 1d 9b be da 23 12 be ba 2d aa bd b3 8c 9b 3d
       -0.30295986 -0.14271489 -0.08309503 0.075951956
0002c0 43 f7 84 3e 06 de 75 be 0f a9 fd bd fd 32 13 3e
       0.25969896 -0.24010476 -0.12385761 0.14374919
0002d0 df bc bf bd 9f 11 c4 3e b4 a8 18 be 17 17 2d 3d
       -0.09362196 0.38294694 -0.14908105 0.04225835
0002e0 4d f0 9e 3b d0 d0 91 3e e6 ff 4d bc 93 83 c6 3e
       0.0048504234 0.28479624 -0.012573218 0.38772258
0002f0 f0 a1 80 bd 4f c2 03 3e f6 71 a5 bd 97 31 16 3c
       -0.06280887 0.12867092 -0.08078377 0.009167097
000300 b4 55 5a 3d ec 17 6e be 13 16 02 be 31 74 db 3d
       0.05330439 -0.23251313 -0.12703733 0.10715521
000310 63 87 55 3e df e0 93 bd de d0 c7 3c 0b 3b ce 3e
       0.20852427 -0.07220625 0.024391588 0.4027942
000320 92 3d 9d 3e bf 3f 44 3e be b4 c4 3c e1 14 bf be
       0.30711037 0.19164942 0.024011966 -0.37320617
000330 ba 34 5d be 0c 1c d3 bd 75 86 a2 bd b2 ba 62 bb
       -0.21602145 -0.10308084 -0.07935802 -0.0034596142
000340 6e ea 3d bb 63 d9 9e be f2 8f df 3b 71 d9 82 3d
       -0.0028978842 -0.31025228 0.0068225795 0.0638913
000350 d0 26 46 be 83 fa 26 3d f4 29 78 bd ad cf 27 3d
       -0.19350743 0.04076625 -0.060586885 0.04096954
000360 dd 49 fe be 74 ec 81 3e f6 74 22 3d fb a0 74 3d
       -0.49665728 0.25375712 0.039662324 0.059723835
000370 00 cf 29 bd fa 56 19 3d 7d d2 58 bd 0b 15 a8 3d
       -0.041457176 0.037436463 -0.052935112 0.08207139
000380 f4 d7 05 3e be 8c 8c be f8 c4 46 bd b1 b0 39 be
       0.13070661 -0.27451128 -0.048527688 -0.18133809
000390 6e 9e 8e 3e 78 2f 31 3c 30 f4 43 3e 42 33 67 3e
       0.27855247 0.01081454 0.19136119 0.22578147
0003a0 f4 85 30 3e be fb dc 3e fe 75 63 bc 86 f1 d4 be
       0.17238599 0.43160814 -0.013883112 -0.41590518
0003b0 e2 20 6a 3e 0c 43 f5 bd 02 18 c5 3c 0b 55 b7 3d
       0.22864106 -0.11975679 0.0240593 0.089517675
0003c0 15 61 8b 3e 64 98 43 3d 49 43 8f bd a6 96 69 be
       0.27222505 0.047752753 -0.069952555 -0.22811374
0003d0 d4 f2 ee be f1 5e 5a bd cc 76 44 3c 30 fd 03 3d
       -0.46669638 -0.0533132 0.011991214 0.03222388
0003e0 28 df 14 be 7a 59 0b 3e 6d 03 7b bc 88 37 7b 3e
       -0.14538252 0.13608351 -0.015320641 0.24532902
0003f0 bc eb a6 be 56 f9 fc 3d 66 d6 96 bd 28 98 ed bb
       -0.32601726 0.123522446 -0.07365112 -0.0072508045

qnet.fc1.bias f4 [128]
000000 a0 33 af be 44 d2 93 3e f2 ec ac 3e ce 94 c9 3d
       -0.34219074 0.28871357 0.33774525 0.09842835
000010 b6 be d1 be 69 af 7a 3d d2 07 ed bd 4f 05 d5 bd
       -0.40965813 0.06120244 -0.11573757 -0.10401403
000020 03 15 c1 be a0 61 09 3e d8 c6 6a 3e 46 12 35 bd
       -0.37711343 0.13416147 0.22927415 -0.04420688
000030 d6 74 17 3e e9 a6 28 3e f3 e8 d7 3e 94 1d 77 be
       0.14790663 0.16469921 0.42169914 -0.24132377
000040 83 b7 87 3d b4 22 d5 3e 6b 07 82 3d da 1a 1e 3f
       0.06626799 0.4162804 0.06349071 0.6175972
000050 7a fb 4a 3c d7 89 1c be 13 6f db 3d 26 97 08 bd
       0.012389058 -0.15286957 0.10714545 -0.03334727
000060 a1 8b 16 3e be f3 b6 3e eb 1a 7c be 89 c5 2c bd
       0.14701702 0.35732836 -0.24619643 -0.04218057
000070 6f 95 20 bf e3 b8 e1 be 64 23 6d 3e 9a 81 af 3e
       -0.6272802 -0.4408637 0.23158032 0.34278566
000080 2c 9a a0 bc ab 22 8f be 05 f3 d3 3c 03 7d 52 be
       -0.019604765 -0.27956137 0.025872717 -0.205555
000090 e7 a6 31 3d e4 c4 7c 3e 0c b3 32 bd be 8f 46 3d
       0.04337206 0.24684483 -0.043627784 0.048476927
0000a0 06 d4 f3 3e 66 42 97 be 3d 2e bd 3e fc 59 8d be
       0.476227 -0.29542845 0.3694934 -0.27607715
0000b0 ea e7 90 be 94 00 20 be 9b 5d dc bd ab e9 fc 3d
       -0.28301936 -0.1562522 -0.10760041 0.12349256
0000c0 21 29 09 3e 21 da 00 be be b4 4c 3e 71 5a 5c 3f
       0.13394596 -0.1258321 0.19990823 0.860755
0000d0 75 88 0a bf 6a 92 cb 3e 8a 05 73 bd f9 9f 84 3d
       -0.54114467 0.39760143 -0.059331454 0.06475825
0000e0 8a fa 6c 3e f7 cf d4 be cf 69 4e 3e 6c 97 a2 3d
       0.23142448 -0.41564915 0.2015755 0.07939038
0000f0 b8 eb 15 bd 43 77 f4 3d 3b 9c 8c be 5f e8 dd be
       -0.036601752 0.1193681 -0.27462944 -0.43341348
000100 ba 74 1c 3e 4b ab 84 be 16 58 91 3d e6 0a 92 3e
       0.15278903 -0.25911936 0.07096879 0.2852394
000110 ff d6 f2 3e e5 30 c7 be ed 31 57 bd 34 a3 d0 3e
       0.47429654 -0.3890449 -0.052537847 0.40749514
000120 36 ab b1 3e c5 1e 56 3e 41 57 bd 3d 3e f5 3a 3d
       0.34700936 0.20910175 0.09245158 0.045644037
000130 6b af 2b be 94 4e 49 3e 34 1a ca 3e 5f 50 28 bf
       -0.16766135 0.19658881 0.39473116 -0.65747637
000140 b7 94 95 be 69 cc 2e be 83 01 36 3e 33 dc ba bd
       -0.29215023 -0.17070164 0.17774014 -0.09124031
000150 9f c1 8d 3e 68 b2 53 bd 74 3d 8c bd f5 78 00 bf
       0.27686784 -0.051683813 -0.06847659 -0.50184566
000160 ac 5e ae 3e 58 d8 d6 be e8 f3 c1 bd 8e 41 c0 3e
       0.34056604 -0.41961932 -0.094703496 0.37550014
000170 d9 72 25 3e 1d 61 c9 3e d7 35 94 3e 54 4d 8b 3d
       0.16157092 0.39331904 0.28947327 0.068018585
000180 cb 96 55 3d 80 1c ef 3e 5f 8e db 3e a0 0a f5 3d
       0.05214576 0.4670143 0.42882058 0.11964917
000190 a2 7c 52 bd 37 59 cc bd 70 77 19 bf 2a 05 c7 3d
       -0.05138839 -0.09977954 -0.5994787 0.09717782
0001a0 42 8d 26 bf 76 6b c9 be 4e 54 d4 be 50 67 94 3e
       -0.6505929 -0.393398 -0.4147057 0.2898507
0001b0 3c fa 42 be 3f 66 d0 3e 56 89 c7 3e f2 10 fc bd
       -0.1904077 0.40703008 0.38971967 -0.123079196
0001c0 18 f5 2a 3d 56 d4 c7 be 13 35 36 be 86 68 13 3f
       0.041737646 -0.39029187 -0.17793684 0.57581365
0001d0 9a 1e c6 be 6d 61 0a bf d0 83 9e bd 89 f5 e9 3d
       -0.38695222 -0.5405491 -0.07739985 0.11423785
0001e0 dc 13 8d be 9a 99 59 be 7f 42 e5 be 49 63 81 3e
       -0.27554214 -0.2125 -0.44777295 0.2527106
0001f0 0b 70 d5 3d 7c af f7 3d fa f9 3e 3f ef d5 de be
       0.10421761 0.12094018 0.74600184 -0.43522593

qnet.fc2.weight f4 [128, 128]
000000 dd 42 25 bb a9 99 80 bd a3 dd 25 bd 53 4c c9 3c
       -0.0025216856 -0.06279308 -0.040494572 0.024572527
000010 dd 32 03 3e f6 e3 63 bb c6 92 a0 bd c0 79 d3 be
       0.12812372 -0.0034773326 -0.07840495 -0.41303825
000020 0e a1 c8 3d e7 cf ad 3c c1 7b 99 bd 32 20 24 3d
       0.09796344 0.0212173 -0.07494307 0.040069766
000030 db 50 8e 3d 70 76 1b bd 5d 25 9e 3d b2 15 00 3d
       0.06949016 -0.037954748 0.0772197 0.03127069
000040 eb fa 74 be 52 41 87 bd fa 5a 16 bd 0f 55 ef 3d
       -0.23923843 -0.06604256 -0.036707856 0.116861455
000050 bb ec f3 3c 95 16 9c 3d a5 ef ab 3c 61 fa 45 3d
       0.029775968 0.07621495 0.020988295 0.048334483
000060 b9 94 6a 3d d6 38 85 bd b5 c7 7e 3d a9 b8 02 bd
       0.05727074 -0.06504981 0.062202174 -0.031914387
000070 20 26 9d 3c 42 91 17 3d b0 3d ca 3c 13 6c 4e 3d
       0.019183218 0.037003763 0.024687618 0.050396036
000080 5e c8 a2 bc ad c6 c8 bc 84 49 06 be b1 ed 5e bd
       -0.019870933 -0.024508798 -0.13113981 -0.0544259
000090 75 4d ea 3d c2 43 f3 3d 98 22 c1 3d f4 d4 8c bd
       0.11440555 0.11878158 0.09430426 -0.06876555
0000a0 97 fa 65 bd c9 11 1d bd f2 00 34 bd 8f 96 71 3d
       -0.056147184 -0.03834704 -0.043946214 0.058981474
0000b0 a5 b0 78 bd 53 84 34 3d eb 15 b0 bd 49 74 86 bd
       -0.060715336 0.044071507 -0.085979305 -0.065651484
0000c0 1c 61 bd 3d 13 ce 46 bd 14 56 1d bd 27 48 00 3e
       0.09247038 -0.04853637 -0.03841217 0.12527524
0000d0 ba 61 80 bc 84 38 dc be eb 2e 24 bd bd bf 25 be
       -0.0156716 -0.43011868 -0.040083807 -0.16186424
0000e0 7e ed 3c be ef 18 ac bb 7f db e7 3d 62 98 79 3c
       -0.18449971 -0.0052519958 0.113211624 0.015234085
0000f0 78 cc a4 be 4e 38 8e bc 01 0b 81 3d 5f 2f 08 bd
       -0.32187247 -0.017360833 0.06300927 -0.0332483
000100 a5 7a 5b bb c6 14 b0 3d f5 79 46 bd c8 ac 1e 3d
       -0.003348985 0.08597712 -0.04845615 0.038738996
000110 e7 2d d6 bd 3a 76 4f bd da 45 a4 bd 0a c6 cc bd
       -0.10457974 -0.05064986 -0.08021136 -0.099987105
000120 f6 c0 81 3d e6 47 bd 3c 6b 8c d4 3d ae b6 0c be
       0.063356325 0.023105573 0.10378345 -0.13741562
000130 54 f9 98 bd 6d 69 66 bd 7e 74 2d 3d f2 18 12 3c
       -0.074694306 -0.056252886 0.042347424 0.00891708
000140 07 0b 98 be 26 18 c6 bc 26 0b a8 bd 05 78 de 3c
       -0.29695913 -0.024181437 -0.082052514 0.02715684
000150 7e ba 25 3d 70 2d 28 be 9e 05 86 bd fb 56 07 bd
       0.040461056 -0.16423583 -0.0654404 -0.033041935
000160 31 3c 98 3c 62 4e 5d 3c cb 20 bf 3d c8 d6 b3 be
       0.018583389 0.013507457 0.09332427 -0.35124803
000170 ae 01 73 3c 72 58 cc bc 48 13 b4 3c a5 fa c6 3d
       0.014831943 -0.024944518 0.02198185 0.097157754
000180 a7 e9 24 3d 9c 65 e8 be b3 53 3e bd b9 4f 36 3d
       0.04026189 -0.45390022 -0.04646654 0.044509623
000190 e9 54 9f bd 58 a8 03 3d 79 db 87 3b 61 3b 36 3b
       -0.07779867 0.032142967 0.004146036 0.0027806389
0001a0 fc 6c de 3b 74 18 f3 3d b2 d6 82 bc 8c f3 55 be
       0.0067878943 0.118698984 -0.015971515 -0.20893687
0001b0 aa a9 71 bd b2 fc ac bb 08 6d ab 3d 68 96 dc bd
       -0.058999695 -0.005279147 0.083704054 -0.10770875
0001c0 9f b1 80 bc 92 2b 18 be fa 84 3e bd 67 a5 99 3c
       -0.015709696 -0.14860371 -0.046513535 0.018755628
0001d0 1a 60 54 be 48 6c 95 bd a5 0c f8 3d 3e ea 94 bd
       -0.20739785 -0.07296044 0.12111787 -0.07271241
0001e0 63 9e 2c 3d 4c 29 3a bd 87 19 0d bd 42 1a b1 bd
       0.042143237 -0.04544954 -0.034448173 -0.086475864
0001f0 99 6e 23 bd 75 cb 5f 3d 58 c2 e0 bd 86 39 0f be
       -0.039900396 0.05463739 -0.10974568 -0.13986787
000200 a0 41 9c 3b 98 6d af 3d 87 2d 84 3c 8e ba 94 3d
       0.0047685653 0.08565825 0.01613499 0.07262145
000210 d3 15 ee 3d 38 f2 26 bd 38 78 08 3d c5 46 02 bd
       0.116252564 -0.04075834 0.033317775 -0.031805772
000220 52 97 ca bb 6a 54 1f 3e c3 52 b9 be b7 d8 17 3d
       -0.0061825896 0.15559545 -0.36195955 0.03707191
000230 5b 1b c9 bc 0a e4 88 3d 4d 41 14 be 19 14 57 bd
       -0.024549177 0.0668412 -0.14478035 -0.0525094
000240 8c c4 6a bd c3 06 f5 3d e9 3c d0 bd 54 c9 d0 3c
       -0.057316348 0.1196418 -0.10167868 0.025486626
000250 6f 34 9b 3d 93 ec 20 3d 52 29 84 bd 5c 64 b7 3d
       0.0757836 0.039288115 -0.06453194 0.08954689
000260 9d 9d 55 3d 2b 4f c8 3c c6 52 df 3d 28 9d 09 bf
       0.052152265 0.024451813 0.1090446 -0.53755426
000270 e2 f7 94 3d 63 f1 44 be f5 63 c4 3d 7e 08 f8 bc
       0.072738424 -0.19232707 0.09589378 -0.030277487
000280 9a 3e a8 3c d6 86 5d bd 79 c6 04 bd e5 c4 03 3e
       0.020537663 -0.054083668 -0.03241584 0.12868078
000290 8d 70 82 bc fb 00 cd bd 9e 5d 8a 3d 7b a7 35 bd
       -0.015922809 -0.10009953 0.06756137 -0.044349175
0002a0 52 ce ca bc 0c cd c5 3d ce 04 60 bd a1 9d 07 bc
       -0.024756584 0.0965825 -0.054692082 -0.008277328
0002b0 01 00 d6 bd 25 ba 20 bd ec c5 25 be ec 57 cf 3d
       -0.104492195 -0.03924002 -0.16188782 0.10124192
0002c0 80 c7 c6 3c bd aa a4 3d 1f 87 d5 3d 4d c3 1c 3d
       0.02426505 0.08040378 0.10426163 0.03827219
0002d0 9d 5c d8 bd fd 5e ed bd 42 46 31 be 37 08 2e be
       -0.105645396 -0.11590383 -0.17311957 -0.16995321
0002e0 8c 07 e5 3c a7 3e c9 3d b3 80 17 3d 05 fa c3 bd
       0.0279577 0.09826403 0.03698797 -0.09569172
0002f0 a3 25 71 bd 5b fd 67 be e7 18 a6 bd fe e1 b0 3b
       -0.058873784 -0.22655241 -0.081102185 0.005398034
000300 ae 66 6c bc c0 d0 6f 3d b1 34 19 3c f1 30 fb bd
       -0.014428778 0.05854869 0.0093509415 -0.12265194
000310 37 cf fb 3d e2 c0 74 bd 55 e9 a9 3d 2d 59 44 be
       0.122953825 -0.05975426 0.08296458 -0.19174643
000320 2b 13 c9 3d ca 22 b1 ba 4b 0b 80 3d dd d6 53 bd
       0.09818109 -0.0013514396 0.06252154 -0.05171858
000330 6e 28 76 bd 5c df 1a 3d bf 82 89 bd b8 b0 0b bd
       -0.06009715 0.03781067 -0.06714391 -0.03410408
000340 ce b9 1e bc 86 33 37 bc 0d 74 ba bc 81 3b 50 bd
       -0.009687854 -0.011181718 -0.022760415 -0.050837997
000350 a5 0a 81 3e 1e 31 9d be c0 3e f7 bd 98 2a 4d be
       0.25203434 -0.30701536 -0.120725155 -0.2003578
000360 81 4d 87 bd 11 d9 28 bc 0a a1 56 be 25 c3 99 3d
       -0.066065796 -0.010305659 -0.20959869 0.07507924
000370 0b 9a 45 be cf 92 ed be 79 b2 2a 3d d9 da 2a bb
       -0.19297044 -0.4640107 0.04167411 -0.0026070385
000380 41 6e e4 3c 24 ea 5a 3d ae 9f a6 3d 42 40 fa 3c
       0.027884604 0.05344595 0.08135925 0.030548219
000390 e1 cc 30 3d b7 99 2c bb bb 85 6d bd de 7c fb bc
       0.043164138 -0.0026336738 -0.057988863 -0.03069919
0003a0 3e 8e fe 3c 47 90 1b 3d dc 0b 98 3d cd 26 86 be
       0.031073686 0.03797939 0.07424137 -0.26201478
0003b0 2b c6 82 bd bb cc c5 3b f2 89 79 3d ae 04 ff 3c
       -0.06385454 0.0060363687 0.06092257 0.031130161
0003c0 7b 63 96 bc 62 13 de 3c f6 92 1b be b9 89 3e 3d
       -0.018357983 0.027108852 -0.1519278 0.04651806
0003d0 06 44 d0 3c a2 9d 06 3d 5b 22 8e 3c 44 13 f0 bd
       0.025423061 0.032865174 0.017350366 -0.117224246
0003e0 a7 65 38 3c 0d cd fe bc b6 9a 51 3d 2f 35 58 bc
       0.011254705 -0.031103635 0.051172934 -0.013196274
0003f0 b1 27 b3 3d 6c 7f 72 3c 72 f5 b4 3d 3e 95 79 3d
       0.08747805 0.014800888 0.088358775 0.060933344

qnet.fc2.bias f4 [128]
000000 2e b9 a3 3e 3a 80 da 3e c8 3b ad 3e 2d bf f1 be
       0.31977218 0.42675954 0.33834672 -0.47216168
000010 21 dd 87 3e c5 28 fc 3e bc bb 85 be 3c b3 c3 3e
       0.26535895 0.49249855 -0.26119792 0.38222682
000020 48 34 bc be ed 49 e5 be 34 cb 5b be ef 00 d2 3e
       -0.36758637 -0.44782963 -0.21464235 0.41016337
000030 fc 66 26 3e 69 db eb be 27 1a 75 3e 72 6f c1 3e
       0.16250223 -0.46065834 0.23935758 0.3778034
000040 60 c5 57 3e 53 bd d3 3e e9 6a 97 be 1e 7e 1c 3e
       0.21071386 0.4135538 -0.29573753 0.15282485
000050 84 97 a3 3e 12 98 a3 be ad 06 b0 3e 99 e0 fd be
       0.31951535 -0.31951958 0.34380093 -0.49585417
000060 8a 9d f0 3e a4 21 f0 be 31 d8 34 3e 23 3e 85 bd
       0.46995193 -0.46900666 0.17660595 -0.06505992
000070 af 43 d3 be c6 1c 9e be 4c 4c 3c be 14 ba 44 3e
       -0.41262576 -0.30881327 -0.1838848 0.19211608
000080 a8 fb a2 3e 07 6d ab 3e 36 02 ca be 82 c9 1e 3e
       0.31832623 0.3348162 -0.39454812 0.15506557
000090 04 3f c5 bd c9 7c c7 3e 9e c2 63 bd 5e 0d 18 3e
       -0.0963116 0.3896239 -0.055605523 0.14848849
0000a0 c4 de 91 3d 47 a4 da be 59 ac 99 3e 20 69 c8 be
       0.07122567 -0.4270346 0.30014303 -0.39142704
0000b0 2f 9a 87 3e 29 a6 e7 3e 4d 81 b9 3e f4 53 d0 be
       0.2648482 0.45243958 0.3623146 -0.4068905
0000c0 51 9e 87 be 74 9a 90 b7 dd 74 c0 3e 84 4d 9c 3e
       -0.26487973 -1.723806e-05 0.3758916 0.3052789
0000d0 76 d3 9c 3e d4 c2 be 3e 2b 5a f0 be d6 6b bc 3e
       0.30630082 0.37258017 -0.46943793 0.36801022
0000e0 3f 3c c0 be 20 25 ae be ce 31 9b be d8 52 b3 bd
       -0.37545964 -0.340127 -0.30311435 -0.087560356
0000f0 a6 6e 9b be 8f 59 06 3f d2 e1 0e 3e 95 f1 b6 be
       -0.30357856 0.52480406 0.13953331 -0.35731187
000100 14 0e f1 3e f9 1f df be 36 f7 02 bf 8e be 7f be
       0.47081053 -0.4357908 -0.51158464 -0.24975035
000110 3c d6 07 bf a3 7a f8 be 0a 57 9d 3d ea 19 e6 be
       -0.5306127 -0.48531064 0.07682617 -0.44941646
000120 91 b2 cd 3e 21 f7 94 3b 45 eb 91 3e 77 a2 94 3e
       0.40175298 0.0045460616 0.2849981 0.290302
000130 0f 64 fb 3e 62 2b fa 3e 5c 61 82 be 17 bf ea 3e
       0.49099776 0.48861223 -0.25464904 0.45848915
000140 53 a8 c6 be 3e 23 d2 3e a2 b8 97 bd c6 94 11 bc
       -0.38800296 0.41042513 -0.07408263 -0.008885568
000150 c4 87 df 3e 3d 9c eb 3e b2 df e1 bd c7 9b 87 3d
       0.43658268 0.46017638 -0.110289946 0.06621509
000160 5e b9 4a be 14 4c 07 3f d7 09 d5 bc 05 96 74 3e
       -0.19797274 0.5285046 -0.026005669 0.23885353
000170 b7 b4 c2 3e 68 30 af be c3 49 07 3e d1 d7 d8 be
       0.380285 -0.3421662 0.13211732 -0.42352155
000180 de 28 db 3d 6d b0 ee 3e 66 01 a9 be 51 65 fb be
       0.10701154 0.46618977 -0.3300888 -0.49100736
000190 43 57 c6 3e c7 1b 9f 3e f9 b0 d1 be dd 83 d9 3e
       0.3873845 0.3107588 -0.40955332 0.42483416
0001a0 35 79 9e 3e 6f 41 aa be 79 a2 a0 be c5 bb 5c 3e
       0.3095185 -0.33253047 -0.31373957 0.21556003
0001b0 d6 de 11 bf 19 7f c6 3c 26 e5 b2 3e 8a 1b cf 3e
       -0.56980646 0.024230527 0.3494045 0.40450698
0001c0 2b 65 cc 3e 5f 75 bd 3e b6 38 88 3e 42 30 c2 3e
       0.39920935 0.3700361 0.26605767 0.37927443
0001d0 a1 fb 4a be f2 4f 11 3f d1 33 07 bf db 5e 33 be
       -0.19822551 0.5676261 -0.5281344 -0.17516653
0001e0 3d ee 26 be 30 8f 97 3e 7e 05 01 3f be 10 ad 3e
       -0.16301818 0.2960143 0.50399005 0.33801836
0001f0 3f 26 6f bd e0 38 8e be 09 d0 76 be 7b ad e0 be
       -0.058386084 -0.27777767 -0.24102797 -0.43882355

qnet.A.weight f4 [9, 128]
000000 86 b9 a9 bc b4 f9 16 bc 7e 19 e5 3c ac 6b 01 bc
       -0.020718347 -0.009214807 0.027966257 -0.007899206
000010 0e 1d 8a 3b 23 0d 4e bc 3b 4c 79 3d f2 51 82 3c
       0.0042148894 -0.012576374 0.060863715 0.015908215
000020 ef 80 13 bd a1 12 d8 3c 12 50 79 3d 9f 6b c9 3c
       -0.036011633 0.02637607 0.060867377 0.02458745
000030 66 2d 5b 3d a6 8a 18 3c 5d c4 44 3d 4b b8 3a 3d
       0.053510092 0.0093104 0.04803883 0.04558591
000040 88 97 6b 3d 32 84 c4 bb d3 0c c7 3b 50 97 2b 3e
       0.05751756 -0.005997204 0.006074527 0.1675694
000050 ec 5f 90 bb c1 d0 ef 3c fd 1a d6 bb 8e ef b2 bc
       -0.004405966 0.029274346 -0.006533979 -0.021842744
000060 2d 41 48 3d b1 9e 5c 3c ee e8 0f 3e 7a 78 b4 3c
       0.04889028 0.013465569 0.140537 0.022030104
000070 3e 8e 7c 3c 5f a6 35 3d 16 f1 f6 3d c5 fb 6f 3e
       0.015414773 0.044348117 0.12057702 0.23435886
000080 a4 73 39 3c c2 2a a1 3c c7 94 bd 3c 1b 0a 8e 3d
       0.011319075 0.019673709 0.023142232 0.06935521
000090 f6 8c 48 bd 3d 4d a0 3c 56 d2 b8 3d 0c 10 77 3d
       -0.048962556 0.01956808 0.090244934 0.060318038
0000a0 71 11 e1 3d b9 ec cd bc c7 49 1a 3b 09 cf 27 3c
       0.10989655 -0.025137292 0.002354251 0.010242232
0000b0 7a 73 7c 3d 79 d3 71 3d 7f 00 18 3e 23 3f 39 3b
       0.061633565 0.059039567 0.14843939 0.0028266392
0000c0 51 f2 c1 3c bb d9 62 bd b8 24 84 3d f0 6b 5d 3d
       0.023675116 -0.055383425 0.06452316 0.054058015
0000d0 29 dd 9a 3d 75 bb 02 3d 28 c0 55 ba 39 db de 3c
       0.07561714 0.031917054 -0.00081539387 0.027204143
0000e0 c9 71 84 3b e8 11 a1 3d f6 7a d4 3d e8 93 f3 3c
       0.0040418846 0.078647435 0.103750154 0.029733613
0000f0 ab 34 0e bc d6 d3 8c 3d 7a b1 ab 3d f0 27 3b 3d
       -0.008679549 0.06876342 0.0838346 0.045692384
000100 3b 50 5e bd 35 1f 8b bc dc a7 fc 3c f8 3b d9 3c
       -0.054275732 -0.016982654 0.03084176 0.026517853
000110 ca cf 1d 3d 7d 04 b0 3b 65 33 2d 3d 83 fa 46 3b
       0.03852824 0.005371629 0.04228534 0.003036172
000120 c6 26 1e 3d 35 05 e0 bb 4d 0c f3 bb 0d 9a 0c bc
       0.038611196 -0.006836558 -0.007417238 -0.00858165
000130 f4 76 81 ba 30 74 b4 3c 4c e9 3f 3d 8d 77 d1 3a
       -0.000987737 0.022028059 0.04685335 0.0015981063
000140 20 d8 1a bb 35 f7 15 3d 01 4e 91 3d 16 1f 3f bb
       -0.0023627356 0.036612708 0.07094956 -0.0029162816
000150 f1 e1 af 3c 7f 63 bb 3c 41 95 87 3d a9 ad 1a 3d
       0.021470042 0.022874592 0.06620265 0.03776327
000160 ef ef 97 3c f6 29 1b 3d d0 5e a4 3d c8 41 e4 3b
       0.018547026 0.037881814 0.080258965 0.0069658495
000170 b5 fe 7e 3d 51 34 3d 3d 92 e9 16 bd 63 93 25 3c
       0.062254626 0.04619247 -0.036843844 0.0101059405
000180 4d 30 54 3d 14 14 bd 3c d0 d1 14 bd 9c c8 8d 3d
       0.051803876 0.023080863 -0.036332905 0.06923029
000190 b1 db b1 bb 86 05 3f 3d 2e 99 01 bd fa 0e 07 3c
       -0.0054278006 0.046636127 -0.031640224 0.008243317
0001a0 d6 6c f8 3b 08 6b 04 3d 98 91 82 bb 96 35 06 3e
       0.0075813336 0.032328635 -0.0039846413 0.13106379
0001b0 87 fd 4f 3c 6e f9 33 3d 2e 7a 56 bb d6 87 17 3d
       0.012694723 0.043939047 -0.0032726633 0.036994778
0001c0 38 86 cb 3a 50 3b 25 bc 40 cb 80 bc 84 a1 af bd
       0.0015527671 -0.010084942 -0.015721917 -0.085757285
0001d0 24 f3 03 3d bc e3 03 3d be 79 11 bb 6e 24 3f 3c
       0.0322143 0.032199606 -0.0022197808 0.0116664
0001e0 14 18 ab 3d 92 9e 90 bb 9e c4 66 3c 14 cb 97 3c
       0.08354202 -0.0044134343 0.014084963 0.018529452
0001f0 79 0a 20 3e 19 90 b3 bd 5a f2 0d 3d 28 ae e2 bc
       0.15628995 -0.08767719 0.034654953 -0.027670935
000200 62 ee 99 ba 70 fb 66 bc 62 32 97 3d 28 c3 70 3b
       -0.0011744017 -0.014098033 0.07382657 0.0036737416
000210 e1 f9 e4 3c c2 b5 16 3d 61 c2 65 3d dd 77 1f 3d
       0.027951183 0.03679443 0.056093577 0.03893267
000220 01 42 bd 3b e3 c9 6d bc f7 9d fc 3c 1e 48 7e 3c
       0.0057756905 -0.014513466 0.030837042 0.015520124
000230 44 1b 82 3d 9e ef 66 3c 1a 42 2f 3d c4 92 4e 3d
       0.06352857 0.014095215 0.04278765 0.050432935
000240 dd 86 2a 3d 41 f2 8b 3d c3 60 a8 3c 60 b7 38 3e
       0.041632522 0.06833316 0.020553952 0.18038702
000250 5e 04 0e 3d 1c bb 32 bb c2 4d e2 3c b8 cf 52 3d
       0.034672134 -0.002727217 0.027624968 0.051467627
000260 88 6e 33 bc 31 da 01 bd e3 ea 67 3d e7 3e fd bc
       -0.010951646 -0.031702224 0.05662049 -0.030913783
000270 c4 f8 6b 3d 56 21 47 3c ff 4d df bc 29 5c c0 bd
       0.05761029 0.012153944 -0.027258871 -0.09392578
000280 ce b0 22 3d 0f 80 98 3c 7d eb 0c bc 19 31 95 3b
       0.039719395 0.01861575 -0.008601067 0.004552972
000290 6d 1e 43 bd a5 7f e2 3c 07 8a ff 3c d8 54 78 3d
       -0.04763644 0.027648756 0.031193746 0.06062779
0002a0 44 e6 9e 3d ee d7 0b 3d f5 bc 80 bc af 3c ae bc
       0.077587634 0.034141473 -0.015715102 -0.02126917
0002b0 c8 40 37 3d 28 74 46 3d d7 0c b6 3c d0 a1 50 3c
       0.044739515 0.04845062 0.02222292 0.012733892
0002c0 65 75 34 3c 59 db 8e 3d 1c 10 8b 3d 68 ba b1 3b
       0.011014317 0.06975431 0.06790182 0.0054238327
0002d0 45 0b 5e 3d cb bf 83 bd 0c 20 8c 39 fb 58 c6 3b
       0.054209966 -0.06433066 0.00026726758 0.006053088
0002e0 10 f4 e2 bc 60 84 7f 3d bc 74 85 3d 6b 5c b4 3c
       -0.027704269 0.062382102 0.06516406 0.022016725
0002f0 3c 8e 7b bd a7 60 67 3c 4b bb 62 3d 40 6d c3 3c
       -0.061414942 0.014122165 0.055354398 0.023855805
000300 43 ea b2 3b f7 d7 d4 bc d5 ba 3d 3c 7a d7 fd 3b
       0.005460055 -0.025981886 0.011580189 0.007746634
000310 95 cc 6d 3c 40 33 0f bc 31 ef 1d 3e 1b 94 62 bc
       0.014514108 -0.008740246 0.15423276 -0.013829256
000320 e4 34 5b 3d 8d 9f db 3c f5 31 41 3c c5 ea 2d 3d
       0.053517237 0.026809478 0.011791696 0.04246022
000330 f4 e3 f4 3b 61 fe 62 bc 73 90 4b 3d de 33 99 3d
       0.007473463 -0.013854594 0.049698304 0.07480596
000340 45 7d 53 bb 28 51 ea 3d 3f 4b 70 bd 0d a7 3a bd
       -0.0032270711 0.114412606 -0.05866551 -0.04556947
000350 67 c0 4b 3d 8e b5 f1 3c cf 05 56 3d 95 da d4 3c
       0.049744036 0.029505517 0.052251633 0.025983134
000360 35 1d fc 3a 9a 4a 35 3d 9f 12 93 bd cc dd f9 bb
       0.0019234779 0.0442606 -0.07181286 -0.007625317
000370 30 4e 44 bc 68 f8 2d 3d 43 97 3c 3d 3d c3 7f bc
       -0.011981532 0.042473227 0.046042692 -0.015610513
000380 e6 ec 24 3d fd f6 de bb 94 c4 c1 bc 9b 78 50 3c
       0.040264986 -0.0068043456 -0.023653306 0.012724067
000390 12 c2 2a 3d 92 2a 8e 3d 69 72 bc 3c 04 eb 85 3d
       0.041688986 0.069417134 0.023003774 0.06538966
0003a0 bc 06 8d 3c d8 81 36 3d f5 89 e1 bc e2 5c 87 3d
       0.017215125 0.044557422 -0.027531603 0.06609513
0003b0 5f d5 94 3c e1 27 c1 3b c4 52 89 3c bb bb c7 3c
       0.01816815 0.0058946465 0.016763099 0.024381509
0003c0 72 6b f8 bb f1 5f 2d 3c 7d 7c 30 3d ba d9 03 bd
       -0.007581168 0.010581956 0.04308747 -0.032190062
0003d0 24 e4 e0 bc 05 0f 78 3d ee ae fa 3c 15 91 e2 3c
       -0.027452536 0.0605612 0.030600991 0.027657071
0003e0 72 96 b1 3c 0d 53 12 bd eb b9 ac 3c a7 74 f2 3c
       0.021678183 -0.035723735 0.021084746 0.02959664
0003f0 e9 c1 3b 3d 76 61 28 bd b8 5f 1e bd c6 94 25 3d
       0.045839224 -0.04110857 -0.038665503 0.040425085

qnet.A.bias f4 [9]
000000 86 5b ef 3d 73 98 03 bc d6 44 33 3d c1 e7 1a bd
       0.116873786 -0.008031952 0.04376682 -0.037818674
000010 d4 6b 92 3d 4d fe a9 3d ef fd e3 3c ed 9c 2b bd
       0.07149473 0.08300457 0.027831046 -0.041897703
000020 8e 35 53 3d
       0.051564746
