best performing models/q_eval_dqn.onnx (onnx, 76702 bytes, 6 tensors)

qnet.fc1.weight f4 [128, 8]
00000000: fb82 473c 3c36 2ebe ec85 d13e 80dc d43b
00000010: 7fb4 263e 34ec 1bbe c13d c4bc 896d e73d
00000020: 5c2c 0b3f 1c20 97bc 139e 983c da65 d43e
00000030: 24c0 7c3e ed57 063d 20ad cabd 8d5f d8bc
00000040: 5014 d3be e775 9d3e c592 293c e927 dd3e
00000050: 543a b43e 03d7 943d 8ad7 c33d 4dec 553d
00000060: 0882 e53d a659 c5bd 5645 d23e da67 a3bd
00000070: 6e9d 0e3e b1db 1cbc 5d0c 6b3c ec8e a4be
00000080: 2356 633e 6d0b 1dbe a16c c3bc ae8d 70be
00000090: 2ff0 54be 9d0d ce3c 6069 1abe 477d 9f3e
000000a0: 1fc4 6a3e b8ea 573e a81d c6bd c235 c5bc
000000b0: 9e8b 78be 39e8 a63d 2b8c eb3d 1d79 ef3c
000000c0: 0e73 95bd ee92 23bd f1fe 5a3d 536a 813e
000000d0: 0e59 4c3e 80e0 0e3e 53e0 df3d fa7e 91bd
000000e0: 2a2c 96be 2e3e 5fbe f48e 60bd 04af 02be
000000f0: e0f6 8ebe 7a43 ad3d cc43 fbbd 55ed 283d
00000100: 148b 9d3e cacc 7c3d 9074 4c3e fcbf cf3d
00000110: 9e5a 4a3d 4a92 883e d6aa b63d 0993 8b3e
00000120: bed7 613e f773 bfbe 64de 973d cc9e 483c
00000130: 7084 c63e 4068 06be 0529 a13b 63a4 ec3d
00000140: 614e 56be 63d4 fb3e a5be 873c e840 91bd
00000150: a052 1abe e641 15be 839d e93d 5600 1b3e
00000160: 0e95 8c3d c03f 523d 38b2 63be 5635 36be
00000170: 4c0f 54bd 26f2 4bbe 7e81 863e 817e 443e
00000180: da85 ca3c a2e4 dc3c 606d 043e b2bd 01be
00000190: 7cd0 7a3e 9cb8 b6bc 7878 41be 9bf2 993b
000001a0: 8cbd 72bd f760 09bf 060a 483e 700d dcbd
000001b0: 5691 7abe ee33 29be ab27 c8bd 7646 4a3e
000001c0: ecc4 f6be a1ed 463d d7f7 c1bb c716 db3e
000001d0: 7447 88bd 3cdc 453e 9d78 8f3d acde c43d
000001e0: a607 52bd ea37 a23e 2727 5f3e 1ad3 c53e
000001f0: c4d4 e4bd 3cf3 843d b292 dbbc 8f45 b3bd
00000200: ee6f 95be c228 aabd 0e9a 0cbd 19c0 babe
00000210: 7258 003d 254a 26bd cf9f 12bd f561 083e
00000220: 0451 283c 3da9 12be 21ef debd 7816 763e
00000230: c7f7 36bd 1dae d93d e380 3abd fa75 de3e
00000240: 0997 dabd 542e 003f a103 bd38 b674 953e
00000250: 8832 743e 13e9 823c 4ddc 9c3c aa6f 5a3e
00000260: 8401 e33e 4292 a53e b591 153d 3b5e 803d
00000270: b27e 6dbc 8f18 0b3e ba15 34bd a558 733e
00000280: 5d3b 2cbe a0ae b13d 4d21 f43d 5696 b63e
00000290: b978 673e 323a 643d b5d2 34bd 8cd3 4fbd
000002a0: a978 4e3c 29ea 24be 3b51 5dbd 5b5b c0be
000002b0: 2f8a 9abe 0a0c 05be cf54 83bd d35c c03d
000002c0: 95c2 8f3e 37b4 46be 3acf 1ebe e2ca 4c3e
000002d0: b229 6fbd 2d30 ac3e cb4d d3bd c2f7 dd3c
000002e0: 94e8 01b8 f610 8c3e a44c 7d3c 93fb b83e
000002f0: f8c1 86bd 2927 473d 3b02 acbd e63d 29bc
00000300: 96a4 323d fcad 7ebe 9987 1abe 6432 cf3d
00000310: a5f0 4b3e 5aad cdbd 20fe 9e3b 286c cb3e
00000320: 1803 a33e d1b6 413e 8830 4a3c 62bc bbbe
00000330: 42f2 60be e514 aabd 3a4c 28bd d8f6 803b
00000340: 1d4d 8dbc 3f8f a3be 89b4 39bc ef8e 5d3d
00000350: 4a33 57be 4d43 4c3c 0011 87bd 3476 323d
00000360: 8aaf f1be 2cb2 843e 80f4 253c 8b3c 563d
00000370: d220 11bd 7444 193d 9405 c3bd 42f8 ae3c
00000380: 18ee e73d dcbc 90be d149 4fbd 0a69 46be
00000390: b654 8b3e ae08 bdbb dbf6 3a3e 51d8 5f3e
000003a0: 8928 493e bf98 e73e e0d3 29bb 484e c4be
000003b0: d1f1 803e a335 c3bd 91d3 0b3d ccee 0a3e
000003c0: 1ab8 843e fd40 5b3d d072 f0bc 800c 7cbe
000003d0: da74 ebbe 7890 f5bb a528 ce3c e93f 7d3d
000003e0: 3208 32be 6424 0b3e 2d7d 89bb d660 673e
000003f0: 6774 a7be 84c9 a53d 298f 91bd 7c4d ebbc
0.012177224 -0.17012876 0.40922487 0.006496012 0.16279791 -0.15226823 -0.023955228 0.11300189
0.5436456 -0.018447928 0.018630063 0.41483957 0.24682671 0.032798696 -0.09896302 -0.02641275
-0.41226435 0.30754015 0.010349934 0.43194512 0.3520075 0.07267573 0.09562595 0.052227307
0.11206442 -0.0963624 0.41068524 -0.079787925 0.13927242 -0.009573863 0.014346209 -0.3214029
0.22200827 -0.1533639 -0.02385551 -0.23491547 -0.20794748 0.025152976 -0.1507926 0.31150267
0.22926377 0.21085632 -0.09673625 -0.024073485 -0.2427201 0.08149762 0.11501344 0.029232556
-0.072973356 -0.039935045 0.053465787 0.2527643 0.19955847 0.13952827 0.10931458 -0.07104297
-0.2933057 -0.21801063 -0.05482383 -0.12762076 -0.27922726 0.08460136 -0.122687906 0.041241962
0.3077017 0.06171874 0.1996634 0.1014404 0.049402826 0.2667411 0.08919303 0.27260616
0.22054955 -0.37393162 0.074154645 0.012244891 0.38772917 -0.13125706 0.00491822 0.11554792
-0.20928337 0.49185476 0.016570399 -0.07092458 -0.15070581 -0.1457592 0.11406996 0.15136847
0.068643674 0.051330328 -0.22235954 -0.17793784 -0.0517724 -0.19916591 0.2627067 0.19188882
0.024722029 0.02696449 0.12932348 -0.1267002 0.24493593 -0.022304825 -0.18893611 0.0046981103
-0.059262797 -0.5366358 0.19535074 -0.107447505 -0.24469504 -0.16523716 -0.09773191 0.19753441
-0.48197114 0.048566464 -0.0059194374 0.42790815 -0.066542536 0.19322294 0.07005427 0.09612784
-0.051276825 0.31683284 0.21792279 0.3863762 -0.11173394 0.06491706 -0.026803348 -0.087535016
-0.29186958 -0.08308555 -0.034326605 -0.36474684 0.031334348 -0.040598053 -0.035796937 0.13318618
0.010273222 -0.14322372 -0.10885454 0.24032009 -0.044669893 0.106289126 -0.045533072 0.43449384
-0.10673339 0.5007069 9.012898e-05 0.29190606 0.23847401 0.01598028 0.019148016 0.21331659
0.44337094 0.32338148 0.03651591 0.06267973 -0.014495539 0.13583587 -0.043966033 0.23764284
-0.1681952 0.08675885 0.11920414 0.35661572 0.22604646 0.055719562 -0.04414626 -0.050738856
0.01260201 -0.1610495 -0.054032546 -0.375697 -0.3018355 -0.12992874 -0.0641266 0.09392705
0.28078142 -0.19404684 -0.15508738 0.19999269 -0.058389373 0.33630505 -0.10317572 0.02709568
-3.0972602e-05 0.2735669 0.015460167 0.36129436 -0.06579965 0.04862133 -0.08398863 -0.010329699
0.043613993 -0.24871057 -0.15090789 0.10117033 0.19916017 -0.1004283 0.0048520714 0.39730954
0.31838298 0.18917395 0.012340672 -0.36667162 -0.21967414 -0.083047666 -0.04108832 0.003935676
-0.017248685 -0.31945226 -0.011334547 0.05409139 -0.21015659 0.012467218 -0.06595039 0.04356976
-0.47204238 0.25917184 0.010129094 0.052303832 -0.03543169 0.037418798 -0.09522548 0.021358613
0.1132471 -0.28269088 -0.050607506 -0.19376007 0.27213067 -0.005768857 0.1825823 0.21859862
0.19644369 0.45233724 -0.002591364 -0.38340974 0.2518449 -0.09531715 0.034137312 0.13567656
0.25921708 0.053528775 -0.029351622 -0.24614143 -0.45987588 -0.0074940287 0.025165865 0.061828528
-0.17385939 0.135881 -0.0041958303 0.22595534 -0.32705995 0.08095077 -0.07107384 -0.02872347

qnet.fc1.bias f4 [128]
00000000: a368 8dbe ded6 883e 39c8 903e 255e da3d
00000010: 123c c7be a2e1 5f3d 1359 46bd 5614 1ebe
00000020: 9993 aabe 9e4f 063e 8bd0 273e 02b3 04be
00000030: 1f38 c83d bcb7 063e a770 b73e 53ac 5abe
00000040: 8eb4 923c 8c6f de3e 98aa 113d 4b83 133f
00000050: 15ad 0cbd bd5a 9dbd a540 ba3d f9ed 44bd
00000060: 6071 483e b283 993e 68bf 4dbe c5c5 14be
00000070: ae44 0fbf 55b6 b3be 201d 5d3e b28f 873e
00000080: 3d58 a83a 2f92 6cbe f89b c23d 99bd 4cbe
00000090: 0f98 cc3c 73d8 403e 8606 91bd ed1f 003d
000000a0: 75bf eb3e 38b7 78be 2a97 a93e dc59 a2be
000000b0: 96df 7ebe 1046 87bd 7a9d a6bd 2f20 133e
000000c0: 018f 103e 8019 55bd 839a 4b3e f456 4b3f
000000d0: f178 f8be 7e98 a63e 7224 ecbc 318b d03d
000000e0: 7e06 963e 9bc1 c1be 7845 793e faf2 6d3d
000000f0: c8b7 aebd 42ed ef3d df27 84be a2ff ecbe
00000100: 2b6b 9f3d 00d9 92be 6553 a63d abc5 b03e
00000110: dc5e df3e b192 a2be f3dd a7bc bb14 bd3e
00000120: bf7b b33e bc41 9a3e d387 1e3e 9ae3 0a3c
00000130: 9847 b1bd 9d21 823e f741 de3e 2fb4 15bf
00000140: f348 a0be 2b96 25be c0c7 c73d 8e62 00bd
00000150: 1e3c 653e 37c5 f7bd a6d9 20bc 7d35 d1be
00000160: efe1 9e3e d0d4 bcbe aaca 53bd 2cc9 993e
00000170: 8a1f e23d 6bb1 a53e 6278 763e b7b2 b33d
00000180: 57df 0c3e 9d39 c23e c01f c03e 12b0 823d
00000190: 1f18 69bd 4383 adbd 2e47 0abf a1ab 0e3e
000001a0: c5f3 15bf 98da a5be 13ff cabe b56a 4b3e
000001b0: 5924 6ebe 9930 d13e c1f2 d63e 5738 95bd
000001c0: 5a02 303d ab87 b3be eeaa 19be 6eea 033f
000001d0: f44f a1be 0cc6 f9be 1612 c5bd ef37 3d3e
000001e0: 90c1 8fbe 467f 46be 495a bcbe 402c 283e
000001f0: 6627 233e 0322 443e 8be6 333f f1e2 cebe
-0.27618894 0.2672643 0.28277758 0.10662488 -0.38913018 0.05465854 -0.04842479 -0.15437445
-0.33315733 0.13116309 0.16388147 -0.12958911 0.09776329 0.13156027 0.35828134 -0.21354799
0.01790836 0.4344448 0.03556308 0.5762221 -0.03434475 -0.076833226 0.09094361 -0.04807851
0.19574499 0.29983288 -0.20092547 -0.14528568 -0.5596417 -0.35100046 0.21593142 0.26476818
0.001284368 -0.2310264 0.09502405 -0.19994201 0.024974851 0.18832569 -0.07081322 0.031280447
0.46044508 -0.24288642 0.33123142 -0.31709182 -0.24889979 -0.0660516 -0.08135505 0.14367746
0.14117052 -0.05202627 0.1988316 0.79429555 -0.4852977 0.32538217 -0.028825972 0.10182799
0.29301828 -0.37843022 0.24342906 0.05809305 -0.08531147 0.11715175 -0.2581167 -0.46288782
0.077841125 -0.28681183 0.08121375 0.3452581 0.4362706 -0.31752542 -0.020491576 0.3692988
0.35055348 0.30128276 0.154815 0.008477116 -0.086562335 0.2541627 0.43409702 -0.58478063
-0.31305656 -0.16170566 0.09754896 -0.03134399 0.22386214 -0.120981626 -0.009817516 -0.4086112
0.3103175 -0.36881113 -0.051706947 0.30036294 0.11041172 0.32361922 0.2406936 0.087743215
0.13757072 0.3793458 0.37524223 0.06381239 -0.05690777 -0.08472302 -0.5401486 0.13932659
-0.5857509 -0.32393336 -0.3964773 0.19864924 -0.23256053 0.4085739 0.41982082 -0.072861366
0.042970993 -0.35064444 -0.15006611 0.51529586 -0.31506312 -0.4878391 -0.0962259 0.18478368
-0.28077364 -0.19384488 -0.36787632 0.1642313 0.15932998 0.191536 0.70273656 -0.40407518

qnet.fc2.weight f4 [128, 128]
00000000: efb6 35bb 8cfd 6cbd acf4 29bd 8ad5 b33c
00000010: 2253 073e 081e 1dbc fdd2 b7bd 5003 64be
00000020: e24a cd3d d5e6 ec3c b459 95bd 6b83 803d
00000030: 9aaf 9b3d 9999 04bb 9c15 e73b 2de0 f43c
00000040: 429c 9cbe 3700 84bd 12ab 1bbd 1ce4 f43d
00000050: 2c4e de3c 0bc7 81bd 5aae 0e3d 0a6e 473d
00000060: 6019 7d3d 66da 59bc 344e a43d 416e d4bc
00000070: 9c49 d13c 2976 243d 9874 513d bad4 1f3d
00000080: 43e1 973d f3a7 b23c 14bb 04be 6a12 5dbd
00000090: d3b7 0d3e b676 b33d aa07 c93d f4d4 8cbd
000000a0: d48e a7bc 7767 cebc 82ed 36bd cfb6 703d
000000b0: 17ed 7fbc d741 533d 9215 a7bd 3d92 35bd
000000c0: 4edc bc3d 7d63 46bd 489c c9bc 457d 073e
000000d0: 8a8d a23b 61df b4be 7b35 18bd 61d7 eabd
000000e0: 7ca6 48be d04c aaba e193 023e 68a1 433c
000000f0: a424 87be fd1b 6bbc b300 7d3d a4da 48bd
00000100: 52fe ec3a 6e0d b63d 345e 7bbd f165 193d
00000110: 6baf cfbd ea03 b0bc 4ef1 92bd 0519 e9bd
00000120: 4f63 943d 4b82 163d 9ff3 ca3d def1 1dbe
00000130: 5d4c 9bbd e5e1 47bd ca81 523d b5a6 353c
00000140: 0c5d 59be c241 0cbd 4241 eabc c8ba 8b3d
00000150: 3bcb 203d d54c 0abe 07b0 81bd 0d2f 9dbc
00000160: c7c1 d03c 34dc 66bd fb52 cd3d dea2 c7be
00000170: 2c8e 03bd f13d 90bc fab4 c1bc e563 b73d
00000180: 1a2a 5f3d 2131 f2be 01cf 4ebd 500f 473d
00000190: c945 56bd 74eb 103d ed35 d73b 886b 0e3c
000001a0: a17d 30bd abcd fc3d 1477 28bc 9dcd debd
000001b0: 8394 77bd cf89 f43b 6512 9e3d c344 adbd
000001c0: e99f 47bd 82e5 e6bd d884 9bbb 6bd2 003d
000001d0: 1313 55be 6853 1fbe b7d3 fe3d 9357 90bd
000001e0: f6bc cb3d 314f 36bd b11f ebbc 877d 03be
000001f0: fee5 78bc fc02 a33d e983 babd dd5d bfbd
00000200: 29cf 42bc 8e2e b43d 90b4 6e3c 2395 ab3c
00000210: 385d cd3d 79fa 1fbd 8863 383d 02cc 24bd
00000220: 98e4 04bd 09a6 053e 2d0f 9dbe d4bb c03c
00000230: 2930 e3bb bd3c 6f3d a403 8ebd 6107 24bd
00000240: 049a 79bd b9ea cd3d ec23 a8bd fb25 46bb
00000250: 908e 9f3d d33d eb3c 0905 8bbd 13c5 d93d
00000260: 0d0b e53c debf bf3c e480 d63d 3da0 bdbe
00000270: 2f7a 373d 0d7f 2fbe 7c0e b43d 8415 68bc
00000280: 4b53 5c3d ce7d 6ebd 42c9 17bd e400 d93d
00000290: db29 a9bb bf9e cdbd 4030 813d ac37 80bd
000002a0: 1358 e3bc 831c a93d e65c 86bd b218 1d3c
000002b0: 6750 b0bd f16a 3fbd ff67 12be 037a bb3d
000002c0: 221c d33c 071f 953d ea64 c93d 96e4 a33c
000002d0: 08a5 97bc cbee fbbd 2018 03be 83ba 1dbe
000002e0: 800d 073d 870a b43d 6104 1e3c 5590 c6bd
000002f0: 2f43 8bbd 9cba ecbd be94 68bd 1e7a b43b
00000300: 9797 54bc bb02 8d3d 08e5 673c 9400 e1bd
00000310: 0cdd c63d 3dff 81bd bfe0 a73d b41f 09be
00000320: 3ae8 b13d 78e4 06bc fa07 1e3d 051f 54bd
00000330: 76f5 6ebd 9632 483d 9448 ae3d 8433 4bbd
00000340: 1b7e 20bc a3d1 b7bc 19b7 29bd 6710 97bd
00000350: 4b35 523e 49b7 99be 42ed c4bd de49 2cbe
00000360: 65c6 82bd 4154 adbc 5ab8 15be bbf2 9a3d
00000370: c667 29be 7325 b5be cdd3 da3c 96ef 0fbc
00000380: f5b4 d0bc f2d1 533d a3bc 963d be0c 103d
00000390: 0dc2 0f3d 52a3 72ba 46a2 a0bd 0af0 fdbc
000003a0: bc34 353c bc11 203c 4329 503d 721f 61be
000003b0: 2a69 82bd b22c 79bb dd42 993d 69f9 be3c
000003c0: 4960 1abd d94d b8bc f6cd 62bc d490 1a3d
000003d0: 2a08 573c 5d3c cc3c 45dc 023c 0b96 d4bd
000003e0: a5cf c53b ce59 0dbd cc02 373d c5cf 33bc
000003f0: 3e06 8d3d b065 e73b 32a6 b53d 5ae6 673d
-0.0027727445 -0.05785899 -0.041493103 0.02195241 0.13215306 -0.00958968 -0.0897579 -0.22266889
0.100240484 0.028918663 -0.072925 0.06275066 0.07601853 -0.0020233153 0.0070521366 0.029892052
-0.30587965 -0.064453535 -0.038004942 0.11957571 0.027136885 -0.063367926 0.034834243 0.048688926
0.061791778 -0.013296699 0.080227286 -0.02593148 0.025547795 0.04015175 0.051136583 0.03902123
0.07416012 0.0218086 -0.1296199 -0.05397264 0.13839655 0.08762877 0.09815915 -0.06876555
-0.020453848 -0.02519582 -0.0446601 0.05876809 -0.0156204915 0.05157646 -0.08158411 -0.044328917
0.09221707 -0.048434723 -0.024610654 0.1323138 0.0049607204 -0.35326675 -0.037160378 -0.114668615
-0.19594759 -0.0012992863 0.12751724 0.011940338 -0.26395142 -0.014349935 0.061768245 -0.049036637
0.0018081164 0.0888928 -0.061369136 0.037450735 -0.1014088 -0.021486241 -0.071749315 -0.11381725
0.07245504 0.03674535 0.09909748 -0.15424296 -0.075829245 -0.048799414 0.051393308 0.011087109
-0.21226901 -0.0342424 -0.02859557 0.06822735 0.039256316 -0.13505872 -0.06332403 -0.019187475
0.025483025 -0.056362346 0.10025593 -0.38991445 -0.032118008 -0.017607661 -0.023645867 0.089546
0.05448351 -0.47303107 -0.050490383 0.048598588 -0.052312646 0.035380796 0.0065677078 0.00869263
-0.04308856 0.123439156 -0.010282297 -0.10879061 -0.060444366 0.007462717 0.07718352 -0.08460381
-0.048736487 -0.11274244 -0.004746061 0.03145067 -0.20808057 -0.1555916 0.12442725 -0.070479535
0.09948151 -0.044509117 -0.028701635 -0.12840854 -0.015191553 0.079595536 -0.09107191 -0.09344075
-0.011890211 0.08797942 0.014569417 0.020945137 0.10027546 -0.03905723 0.045016795 -0.04023362
-0.032444566 0.13051619 -0.3067564 0.023527063 -0.0069332314 0.058407534 -0.06934288 -0.0400461
-0.060937896 0.100545354 -0.082099766 -0.003023504 0.077908635 0.028716004 -0.0678807 0.10633292
0.027959371 0.02340692 0.10473803 -0.37036315 0.044794258 -0.1713831 0.08791825 -0.014165286
0.053790372 -0.058225445 -0.03705717 0.10595873 -0.0051624603 -0.10040044 0.06308031 -0.062606186
-0.027751958 0.08257391 -0.06560688 0.009588407 -0.086090855 -0.046732847 -0.14297484 0.09154131
0.02577025 0.072813086 0.09833701 0.02000646 -0.01851131 -0.123014055 -0.12802172 -0.1540318
0.03297186 0.087910704 0.009644599 -0.09695498 -0.06799924 -0.115590304 -0.056782477 0.0055077216
-0.012975595 0.068852864 0.014153726 -0.109864384 0.0971013 -0.06347511 0.08197164 -0.13391
0.08686872 -0.008233182 0.038581826 -0.051787395 -0.05833956 0.048876368 0.08509937 -0.049609676
-0.009795691 -0.02243883 -0.04143438 -0.073761754 0.20528142 -0.30022648 -0.09615566 -0.16825053
-0.06385497 -0.02115834 -0.14621106 0.075658284 -0.16543493 -0.35380134 0.026712323 -0.008785149
-0.025476912 0.05171389 0.07360198 0.035168402 0.03509717 -0.0009255904 -0.07843451 -0.030998249
0.011059936 0.009769853 0.0508206 -0.21984652 -0.06367715 -0.0038021025 0.07483456 0.023312287
-0.03768948 -0.022498058 -0.01384305 0.037735775 0.013124505 0.024931127 0.007987087 -0.10380181
0.006036716 -0.034509473 0.0446804 -0.010974829 0.06885956 0.0070616826 0.0886959 0.056616165

qnet.fc2.bias f4 [128]
00000000: a17b 8d3e 6711 b93e ba3a 8a3e 2c25 c8be
00000010: f567 5c3e dee3 d83e 87e3 45be fd1a a13e
00000020: d293 91be 634c c3be 4000 0cbe 714d ad3e
00000030: fc66 263e 5dbb d5be 271a 753e ef87 a73e
00000040: 60c5 573e 9d11 b93e 2b3d 5fbe a3a9 1f3e
00000050: e3e3 853e a8db 86be 48f7 883e fe0c d8be
00000060: b7cb c43e 7ce7 c5be d532 303e 233e 85bd
00000070: 77db a9be 6375 7fbe b0fd 2cbe 9b53 483e
00000080: da58 773e 139e 883e dd8f a3be 82c9 1e3e
00000090: 043f c5bd 1f31 9b3e 9ec2 63bd ca10 843d
000000a0: a8cd 983d 7248 b0be c0a0 6a3e 147c afbe
000000b0: 58e1 493e d969 c13e ceba be3e eb8e afbe
000000c0: 0186 65be 749a 90b7 469f 9d3e 5610 7e3e
000000d0: ac02 913e 8ba4 9a3e f541 c6be 92ae 9b3e
000000e0: b1db 97be dbef 98be a649 a3be bd58 4ebc
000000f0: e4cf 61be f843 e63e 7e4c de3d 3458 96be
00000100: f664 c83e 3677 c0be bb09 e0be ac92 3dbe
00000110: 8297 e5be cf66 cebe 0a57 9d3d c3ba c4be
00000120: b881 a63e 4db4 3c3c ca39 763e 5eab 793e
00000130: 42f6 da3e f853 d63e 7e15 30be 2862 ca3e
00000140: 7766 a3be 1a21 b53e a2b8 97bd 8145 84bb
00000150: c26b c53e d1c0 c73e 2b49 9cbd 99ab 04bc
00000160: 4d0c 34be 70aa e43e d709 d5bc 4804 2a3e
00000170: 6d8e 9f3e ef21 90be c349 073e 9515 b2be
00000180: 9985 d83d d162 c73e 70f7 85be 13ab d3be
00000190: e103 a53e 655f 8d3e afe1 a7be 1722 b43e
000001a0: 5c0a 8e3e a527 8fbe cfdb 7abe ae21 563e
000001b0: 0d88 f9be e3e4 c13c f78d 8a3e 79aa a43e
000001c0: 8308 a53e c538 9b3e d13e 883e 9378 a03e
000001d0: a1c9 2abe 3983 f73e 5af7 e4be db5e 33be
000001e0: b10b 0fbe a14a 9c3e d4bd df3e d239 863e
000001f0: b53d 7cbd 7031 8ebe b821 2abe f580 b4be
0.27633384 0.3614609 0.2699793 -0.3909086 0.21524031 0.4236135 -0.19325076 0.31465903
-0.2843309 -0.38144216 -0.1367197 0.33848146 0.16250223 -0.4174451 0.23935758 0.32720897
0.21071386 0.3614625 -0.21800677 0.15592055 0.26150426 -0.2633946 0.2675116 -0.42197412
0.38436672 -0.3865317 0.17206891 -0.06505992 -0.3317525 -0.24947123 -0.16893649 0.19563143
0.24154988 0.266831 -0.31945696 0.15506557 -0.0963116 0.30310914 -0.055605523 0.06448515
0.07461101 -0.3443027 0.22912884 -0.34274352 0.19714868 0.37776068 0.37251896 -0.34288725
-0.224144 -1.723806e-05 0.30785578 0.24810919 0.2832235 0.3020366 -0.38722196 0.30406624
-0.296598 -0.29870495 -0.31892127 -0.012594399 -0.2205196 0.4497373 0.108544335 -0.2936417
0.39139527 -0.3759095 -0.43757424 -0.18512982 -0.44842154 -0.40312812 0.07682617 -0.38423738
0.32520843 0.011517596 0.24045482 0.24381778 0.42766005 0.41860938 -0.17195699 0.39528012
-0.31914112 0.35376817 -0.07408263 -0.004036606 0.38558775 0.39014295 -0.07631143 -0.008097553
-0.17582817 0.44661283 -0.026005669 0.16603196 0.3116335 -0.2815089 0.13211732 -0.3478209
0.10572357 0.38942578 -0.26165342 -0.41341457 0.32229522 0.27611843 -0.3278937 0.35182258
0.2774228 -0.27959934 -0.24497913 0.20911285 -0.4873661 0.023668712 0.27061436 0.3216131
0.32233056 0.3031675 0.26610425 0.3134199 -0.16678478 0.48342302 -0.44719964 -0.17516653
-0.13969304 0.30525687 0.43699515 0.26215988 -0.061582286 -0.27772093 -0.16614425 -0.35254636

qnet.A.weight f4 [9, 128]
00000000: d61e bcbc 03c3 cfbb 6949 003d db5a 40bc
00000010: 2c02 f938 e01b 11bc 9ca7 473d ec68 a53c
00000020: 43a9 15bd c457 d23c 6292 693d 3d6c b03c
00000030: 662d 5b3d 0a52 48bc 5dc4 443d 4ccc 3a3d
00000040: 8897 6b3d 08b7 17ba e831 36b9 4b66 243e
00000050: 86de 273c 1ef3 b73c 19f4 08bc a4e1 b0bc
00000060: f3c4 503d e5cb 2d3c b127 cf3d 7a78 b43c
00000070: 9307 553c 2c03 e63c 0bf6 253d b3be cc3d
00000080: 5c4d cc3c d7d2 da3c 28ef 973c 1b0a 8e3d
00000090: f68c 48bd a7b8 c43c 56d2 b83d e1da 803d
000000a0: 5761 0f3e 3f05 f0bc 1ade 063b f0b1 963c
000000b0: ca29 8e3d 5c1c 5d3d 9bd5 243d 535f 463b
000000c0: a464 803c bbd9 62bd 02cd 663d 69c0 533d
000000d0: 28aa 8c3d fd3d ca3c a088 67bb 9e26 043d
000000e0: d7d0 8a3a f8a4 833d 4bca 253d a803 fe3c
000000f0: d36f 62bc 71e1 a13d becb ad3d a91d 463d
00000100: d0de 63bd ad33 5cbc bbee 003d 9a6e cc3c
00000110: ada2 113d 2ce4 123b 6533 2d3d 28f3 093c
00000120: 7478 0f3d 2567 b23d 59d2 f3b5 f146 a7bb
00000130: 97da 053b af8e b43c 1627 2e3d b044 a3bb
00000140: 3157 57bc e5ff af39 014e 913d b3e4 c4ba
00000150: e04b 643c 3974 ea3c 54f8 453d 980e 793c
00000160: f9b5 173c eb69 093d d05e a43d c6fc b33c
00000170: 587e 6f3d d1ae 483d 92e9 16bd 824f 083c
00000180: 7ef6 413d 0879 063d 5f0f 04bd 7f1f 8e3d
00000190: 5601 20bb d46e ce3d b062 01bd b61c 643c
000001a0: 2735 3f3d 64c3 be3c 6d59 e1bb e437 0d3c
000001b0: 5da4 733c 8f41 283d bdd7 46bc 001e 173d
000001c0: e377 b53b ee00 f9bb 3152 80bc 2e2d 76bd
000001d0: 7c11 0c3d 57c8 f23c 3d34 33bb 6e24 3f3c
000001e0: 76a8 9c3d b1d7 9cbc a100 bf3c 95eb 7c3c
000001f0: e3e0 103e a340 a4bc 15de bf3c ca61 0dbd
00000200: 8437 faba 0f5d ecbb 7c0f 943d 7c34 a93b
00000210: 8e13 af3c 4ecc 113d 8c30 523d a48c ec3c
00000220: a5cb 913b 7322 6cbc 3c35 ff3c f4cb ebba
00000230: 441b 823d d291 4d3c 1a42 2f3d 4557 5f3d
00000240: dd86 2a3d 6c48 973d dab3 c03c c36a 1d3e
00000250: ef1f 053d fc88 8438 c2fb da3c a1af 513d
00000260: e96f 38bc dff3 06bd 4f37 973c e73e fdbc
00000270: fcd4 6b3d c328 fdb9 f7bd c63c 458a 0fbe
00000280: d8e3 f63c ca08 8f3c 7bf6 bbba 1931 953b
00000290: 6d1e 43bd 2ed9 c53c 078a ff3c 5f63 843d
000002a0: e099 983b 0f33 0b3d b2a7 20bc 1e1a 52bc
000002b0: 5d1d 373d 052a 5b3d 1582 a93d 5e01 edb9
000002c0: f19c 553c 59db 8e3d 9420 883d 7487 babb
000002d0: a947 783d c904 81bd 3651 4b3a 270c 323c
000002e0: 8b25 f2bc 9dc9 373d cfd4 bdbc 9739 be3c
000002f0: 5f4a 85bd 1dc6 1f3c 86f5 bf3d 6f83 b03c
00000300: 118c f23a d399 d4bc a06c 163c 9c85 4f3c
00000310: 79a4 543c bc70 55bc 31ef 1d3e a861 2cbc
00000320: f449 543d d58f 4f3d 6124 223c 64a9 eb3c
00000330: 482f ad3a aa23 8abc c665 4b3d 3373 8e3d
00000340: 31f9 833b 0de1 cd3d 3f4b 70bd e128 3cbd
00000350: cf4c 3f3d a95d f73c 0a2f 3d3b 709b 813c
00000360: f755 80bb 9879 2e3d 9f12 93bd cd3a 17bc
00000370: 7474 8cbc cd47 fd3c 4397 3c3d 94ed 8ebc
00000380: 17b3 123d ffee 6abc 4844 d5bc ce96 383c
00000390: c6bb 103d 1afd 823d b7fc a03c 2388 733d
000003a0: 8941 ab3b dd04 1f3d 4a1d d2bc cad5 cabc
000003b0: a972 673c 3485 3f3c b802 4f3c 97de c83c
000003c0: 2477 4fbc 6408 303c 07b9 303d b2b4 11bd
000003d0: 8205 9fbd 7017 693d 3e39 d23c 1591 e23c
000003e0: b1bf ae3c e1ea 9abc d34b b03c d169 f63c
000003f0: c8dd 6ebc 3eda 3a3d 38fc 11bd 526a 333d
-0.022963922 -0.006340386 0.03132001 -0.011740412 0.0001187365 -0.008856744 0.04874383 0.020191632
-0.036538374 0.025676616 0.057024367 0.021535987 0.053510092 -0.012226591 0.04803883 0.04560499
0.05751756 -0.00057874667 -0.00017375464 0.16054647 0.010245925 0.022454794 -0.008358979 -0.021591969
0.050969075 0.010607694 0.101149924 0.022030104 0.013002294 0.028077684 0.040517848 0.099973105
0.024939232 0.026711864 0.018546656 0.06935521 -0.048962556 0.02401383 0.090244934 0.06291748
0.14001976 -0.029299377 0.002057916 0.018395394 0.069415644 0.053982124 0.040242773 0.003026922
0.01567299 -0.055383425 0.056347854 0.05169717 0.06868392 0.024687761 -0.0035329238 0.03226339
0.0010590804 0.0642795 0.040476125 0.031007603 -0.013820606 0.07904328 0.08486126 0.04836813
-0.055632412 -0.013440055 0.03147767 0.024955083 0.03555553 0.0022413833 0.04228534 0.008419789
0.035026982 0.087110795 -1.816613e-06 -0.0051048924 0.002042448 0.022040693 0.042517744 -0.0049825534
-0.013143347 0.00033569257 0.07094956 -0.0015021771 0.013934106 0.028619872 0.048332527 0.015201233
0.009259694 0.033548277 0.080258965 0.021971118 0.0584701 0.048994843 -0.036843844 0.008319737
0.047354214 0.03283027 -0.03224122 0.06939601 -0.0024414859 0.100797325 -0.031588256 0.013922861
0.04668155 0.023286529 -0.0068771155 0.008619282 0.01487073 0.041078147 -0.012136397 0.036893845
0.0055379733 -0.007598988 -0.015664192 -0.06010168 0.034196362 0.029636545 -0.002734437 0.0116664
0.07649319 -0.019145818 0.02331573 0.0154370265 0.14148287 -0.020050352 0.023421327 -0.034517087
-0.0019090031 -0.007213242 0.07229516 0.0051637273 0.02137163 0.03559523 0.05131583 0.028875656
0.004449325 -0.01441251 0.031153314 -0.001798986 0.06352857 0.012546973 0.04278765 0.054526586
0.041632522 0.0738686 0.02352326 0.15372758 0.032501157 6.319766e-05 0.026731376 0.051192883
-0.01125715 -0.032947417 0.01845899 -0.030913783 0.057576165 -0.0004828629 0.024260504 -0.1401759
0.030137941 0.017460246 -0.0014340425 0.004552972 -0.04763644 0.02415141 0.031193746 0.06464266
0.004657015 0.03398424 -0.009805607 -0.01282361 0.044705737 0.05350687 0.08276764 -0.0004520518
0.013037906 0.06975431 0.06646839 -0.005692417 0.060615215 -0.06299741 0.0007755937 0.010867155
-0.029558918 0.044870008 -0.023172764 0.02322082 -0.06508326 0.009751824 0.09373002 0.021547047
0.0018504878 -0.025952255 0.009181172 0.012666132 0.012978666 -0.013027366 0.15423276 -0.01052133
0.05182834 0.05067428 0.009896369 0.028767295 0.0013212943 -0.01686271 0.049657606 0.06955566
0.0040275087 0.10052691 -0.05866551 -0.045937423 0.04670411 0.030196028 0.0028867149 0.015821189
-0.003916498 0.04259643 -0.07181286 -0.009230328 -0.017145373 0.030918026 0.046042692 -0.01744727
0.035815325 -0.014339208 -0.026033536 0.011266423 0.035335325 0.063959315 0.019651754 0.059456002
0.0052263183 0.038822997 -0.025648732 -0.024760146 0.014126458 0.011689473 0.012634926 0.024520202
-0.012662683 0.010744188 0.043145206 -0.035572715 -0.077647224 0.056907117 0.02566206 0.027657071
0.02133164 -0.018910827 0.02152053 0.030079754 -0.014579244 0.04561829 -0.035640925 0.043802567

qnet.A.bias f4 [9]
00000000: 2137 eb3d 6366 c8bc 96bd 183d 546e 4dbd
00000010: 1e8d 993d 7882 ba3d fc57 103d 19e0 24bd
00000020: f77b 0e3d
0.114851244 -0.024462884 0.03729018 -0.050154045 0.07497619 0.09106916 0.03524016 -0.04025278
0.03478619
