models2/q_eval_dqn.onnx (onnx, 78238 bytes, 6 tensors)

qnet.fc1.weight f4 [128, 11]
0	0x3ed6ccff	0.41953275
1	0x3e563581	0.20918848
2	0x3d0b5c4f	0.03402358
3	0x3f192714	0.59825253
4	0xbd0a7531	-0.03380317
5	0x3ccbcf1c	0.02487903
6	0x3e0e6caf	0.13908647
7	0xbe6533aa	-0.2238299
8	0x3e9c6105	0.3054277
9	0x3e326043	0.17419533
10	0x3ece2f21	0.40270332
11	0xbe2ac2ac	-0.16675824
12	0x3f119533	0.56868285
13	0xbe3bedb0	-0.1835239
14	0xbebf8443	-0.37405595
15	0x3e288e54	0.16460544
16	0x3e21447b	0.1574878
17	0xbea38639	-0.3193834
18	0x3f4aede6	0.79269254
19	0x3da9e18e	0.08294974
20	0x3eb58ba3	0.35458097
21	0x3ecd69ae	0.4011969
22	0x3f854292	1.0410941
23	0xbdeb712b	-0.114961945
24	0x3ea7f575	0.32804456
25	0x3f3d8e67	0.74045414
26	0x3e4b2afb	0.19840614
27	0x3eabd128	0.3355801
28	0x3ed6660c	0.4187473
29	0xbde03532	-0.10947646
30	0x3d92d80e	0.071701154
31	0x3cff9419	0.031198548
32	0xbe658c87	-0.22416888
33	0xbe6cfeb5	-0.23144038
34	0xbd3a724f	-0.04551917
35	0x3d53ebdd	0.05173861
36	0x3ea9743d	0.33096495
37	0x3ee0ae19	0.43882826
38	0xbddbe9b0	-0.10737932
39	0x3d0d8aaf	0.034556087
40	0xbda2ab38	-0.07942814
41	0x3eee2528	0.46512723
42	0x3f2fa45b	0.6861016
43	0x3e7d4790	0.2473433
44	0xbdca7ebb	-0.09887453
45	0x3ed5a111	0.41724446
46	0x3fdf0f1d	1.7426487
47	0x3e76a08d	0.24084683
48	0xbe4310c0	-0.19049358
49	0x3f0b0f77	0.5432047
50	0xbed0741d	-0.40713587
51	0xbd8fe177	-0.07025426
52	0xbe81d560	-0.25358105
53	0xbd020302	-0.03174115
54	0xbe2197b9	-0.15780534
55	0x3f63d22f	0.8899259
56	0x3eb49f69	0.3527787
57	0xbd87e483	-0.06635382
58	0x3f0b6d4d	0.54463655
59	0xbe356b29	-0.1771666
60	0x3c310efb	0.010806794
61	0xbd6c6309	-0.057711635
62	0x3d55b59a	0.052175142
63	0x3db08bf3	0.08620443
64	0xbc1ccc94	-0.00957026
65	0x3db214d0	0.08695376
66	0x3de8cb83	0.11366942
67	0x3e777f66	0.24169692
68	0xbe1892c2	-0.14899734
69	0x3efef224	0.49794114
70	0xbe40a19e	-0.18811652
71	0x3e639050	0.2222302
72	0x3c669933	0.0140746115
73	0xbdc588ff	-0.096452706
74	0x3e010303	0.12598805
75	0xbb9d1bdc	-0.004794581
76	0x3edd655b	0.4324139
77	0xbe0fe4fc	-0.14052194
78	0xbf6ec50e	-0.9326943
79	0xbb8fd93f	-0.0043899114
80	0xbe000774	-0.12502843
81	0xbf39bf6b	-0.72557706
82	0xbbdfdb51	-0.0068315645
83	0x3e0b2ba4	0.13590866
84	0xbdb7b8c4	-0.08970788
85	0x3cf2d6c9	0.029643433
86	0xbe35a443	-0.17738442
87	0xbd089612	-0.033346243
88	0x3de3b686	0.11118798
89	0xbdbd161f	-0.09232735
90	0xbf33e333	-0.70268553
91	0xbd9f63d8	-0.077827156
92	0xbd03b5ae	-0.032155685
93	0xbf11c97b	-0.5694806
94	0x3eba4786	0.36382693
95	0x3e086403	0.13319401
96	0x3e66f88f	0.22555755
97	0xbe5be9a6	-0.21475849
98	0x3e91b949	0.28461674
99	0x3e2f6093	0.17126684
100	0x3dee0879	0.1162271
101	0x3fb4e669	1.4132816
102	0xbe00dbb0	-0.12583804
103	0x3e7bb955	0.24582417
104	0x3e96fe04	0.29490674
105	0xbe0a2ece	-0.13494417
106	0xbda94bfe	-0.082664475
107	0xbec23dca	-0.37937766
108	0x3cfb6ec9	0.030692475
109	0xbe8363f6	-0.25662202
110	0x3eb9c515	0.36283174
111	0xbd39d54f	-0.045369443
112	0x3f3cb274	0.737098
113	0x3ea76627	0.32695124
114	0x3e00ec60	0.1259017
115	0x3dc8efe0	0.098113775
116	0x3e2b4194	0.16724235
117	0x3eba6991	0.36408666
118	0xbd228e99	-0.039686773
119	0xbd5fd7b1	-0.05464906
120	0xbf01919d	-0.50612813
121	0x3def0d98	0.11672515
122	0x3de9a251	0.114079125
123	0xbe287ffa	-0.16455069
124	0x3eb73573	0.35782966
125	0x3e1d5a16	0.15366396
126	0x3e9aa858	0.3020656
127	0xbe4ad1f9	-0.1980666
128	0xbdafeb98	-0.08589858
129	0x3e83d64e	0.2574944
130	0x3ed1ecbb	0.41000924
131	0x3ec4e240	0.38453865
132	0x3e84fb6c	0.2597307
133	0x3f417539	0.7556949
134	0xbeabf420	-0.3358469
135	0x3e195e43	0.14977364
136	0x3f0aa84d	0.54163057
137	0x3e792f58	0.24334466
138	0x39845764	0.00025242113
139	0x3e107dee	0.14110538
140	0x3d61be36	0.05511304
141	0x3e2b26c4	0.16714007
142	0xbe15b194	-0.14618522
143	0xbe9291a4	-0.2862674
144	0xbd0892c7	-0.033343103
145	0x3bcd3091	0.006261893
146	0x3d82bfa5	0.063842095
147	0x3eb5f269	0.35536507
148	0x3d4612a9	0.04835764
149	0xbf0f7058	-0.560308
150	0xbc8f49db	-0.017491272
151	0x3dfc4513	0.12317862
152	0x3e99a404	0.30007946
153	0x3ef543ea	0.47903377
154	0x3f4d228b	0.80130833
155	0x3e27823f	0.16358279
156	0x3cbf835f	0.023378072
157	0x3f63e809	0.8902593
158	0x3d62a3e5	0.055332083
159	0x3d53dd56	0.051724754
160	0xbe475a5b	-0.19468062
161	0xbe8484b9	-0.2588251
162	0x3dd9c3d1	0.10633052
163	0xbb387e24	-0.0028151358
164	0x3e8ec5c0	0.27885246
165	0xbec20e0c	-0.37901342
166	0x3f2fada0	0.68624306
167	0x3e572782	0.21011165
168	0xbe9be31f	-0.30446717
169	0x3f0c40f4	0.5478661
170	0xbe1d788e	-0.15378019
171	0x3de7bb77	0.11315053
172	0x3ddafb2c	0.106924385
173	0x3e2c1fd3	0.16809015
174	0x3d576271	0.052584115
175	0x3dced201	0.10098649
176	0x3ec1fabd	0.3788661
177	0x3ed2af05	0.41149154
178	0xbf0f880c	-0.56066966
179	0xbdabbda0	-0.083857775
180	0xbe41ba0d	-0.18918629
181	0xbec6daa4	-0.38838685
182	0x3e3e83eb	0.1860501
183	0x3d87582f	0.066086166
184	0xbd928cec	-0.07155785
185	0xbe010dfc	-0.12602991
186	0x3e5c63b5	0.2152241
187	0xbd289a92	-0.041163035
188	0x3f17efe1	0.593504
189	0x3f08b163	0.5339567
190	0x3e1c7df2	0.1528242
191	0x3f1bf6a1	0.609232
192	0x3f1c54b8	0.6106677
193	0x3d87754f	0.06614172
194	0x3ebe9298	0.37221217
195	0xbe9d16b0	-0.30681372
196	0x3ea88532	0.3291412
197	0xbe264334	-0.16236573
198	0x3dde64bd	0.10859058
199	0x3dcd548e	0.10025893
200	0x3e867337	0.26259777
201	0xbdc4c41d	-0.09607718
202	0x3e1c57c3	0.15267853
203	0x3ef3d836	0.47625893
204	0x3e548ca3	0.20756774
205	0xbe7432b6	-0.2384747
206	0x3d8c4fe4	0.068511754
207	0xbea0256f	-0.3127856
208	0x3ee338c1	0.44379237
209	0xbe0f44c9	-0.13991083
210	0xbde8c173	-0.113650225
211	0xbd6442f6	-0.05572792
212	0xbe2f5510	-0.17122293
213	0x3e810687	0.25200292
214	0x3d338f19	0.04383764
215	0xbdcaf3e7	-0.09909802
216	0x3f286be2	0.65789616
217	0x3d79e54c	0.06100969
218	0x3e89ef61	0.26940444
219	0x3e906c97	0.28207847
220	0xbe76d829	-0.24105896
221	0xbe4b61a6	-0.19861469
222	0x3d54ae1b	0.051923852
223	0x3e06db64	0.13169628
224	0x3e889716	0.2667777
225	0xbd627eff	-0.055296894
226	0x3c71cff9	0.014759057
227	0xbe1a9d97	-0.15099178
228	0xbcce4e9f	-0.025183974
229	0xbce65bbf	-0.02811992
230	0x3f3cc87b	0.7374341
231	0x3e84aa26	0.25911063
232	0x3e35209a	0.17688218
233	0xbe62e389	-0.2215711
234	0x3e849edb	0.25902447
235	0x3e2e7b30	0.1703918
236	0x3e3bf22d	0.18354101
237	0xbe919a71	-0.28438142
238	0x3e4497f3	0.19198589
239	0xbddef94f	-0.108873956
240	0x3b4c44a4	0.0031168843
241	0x3f003b3e	0.50090396
242	0xbe05b8f5	-0.13058837
243	0xbe719450	-0.23591733
244	0xbce070d5	-0.027397553
245	0xbecdf95a	-0.40229303
246	0x3e8ff8b4	0.28119433
247	0x3da70ea3	0.081570886
248	0x3d1842fa	0.03717325
249	0x3ea26c23	0.31723127
250	0x3cd62fa5	0.026145766
251	0x3d40f348	0.04710701
252	0x3ede0a0a	0.43367034
253	0xbe2828e3	-0.16421847
254	0xbe6fcc38	-0.23417747
255	0x3fd5d80a	1.6706555

qnet.fc1.bias f4 [128]
0	0x3e5e3da7	0.21703206
1	0x3f021de4	0.5082686
2	0xbe430c5d	-0.19047685
3	0x3f178f7a	0.592033
4	0xbe2a9f07	-0.16662227
5	0x3e8fbf84	0.28075802
6	0x3eca2d43	0.39487657
7	0x3d9688db	0.07350322
8	0x3ea0d001	0.31408694
9	0xbe6f41e3	-0.23364978
10	0x3d828fcb	0.063750826
11	0x3dc2e10c	0.095155805
12	0x3e9949b6	0.2993905
13	0x3f4969af	0.78676885
14	0x3f3574f5	0.7088159
15	0x3e334144	0.17505366
16	0x3e449478	0.19197261
17	0xbeb89b05	-0.3605577
18	0xbe33dc0b	-0.17564408
19	0x3f370f67	0.7150788
20	0x3f05ac55	0.5221608
21	0x3f416e1a	0.75558627
22	0x3f0bd0b2	0.5461532
23	0x3e5246e8	0.20534861
24	0x3ea4bfda	0.3217762
25	0x3ec9f488	0.39444375
26	0x3e644dff	0.22295378
27	0x3eab4b67	0.33455965
28	0x3ef5e22f	0.48024127
29	0x3eb5bff9	0.35498026
30	0x3d0f1704	0.03493406
31	0x3e95fc8c	0.2929424
32	0x3edc0e10	0.4297948
33	0x3e970112	0.29493004
34	0x3ea82db3	0.32847366
35	0xbdad0666	-0.08448486
36	0x3ed7c4d2	0.4214235
37	0xbeb2a8c8	-0.34894395
38	0x3ea52ca7	0.3226063
39	0x3f2cfbcf	0.6757173
40	0xbe0c83e1	-0.13722183
41	0xbf103124	-0.5632498
42	0x3e02e231	0.12781598
43	0x3f39efb7	0.726314
44	0x3eee2e7b	0.46519837
45	0x3eb75c76	0.3581273
46	0x3ed383c5	0.4131147
47	0x3e278227	0.16358243
48	0xbea4b234	-0.32167208
49	0x3ea57ca9	0.3232167
50	0x3b85eb12	0.0040868605
51	0x3f42b9df	0.76064867
52	0x3ebeb40a	0.37246734
53	0x3ee9284b	0.45538554
54	0x3ed7214d	0.42017594
55	0x3e26d77a	0.16293135
56	0x3eca85f3	0.3955532
57	0x3f24b041	0.6433144
58	0xbd5920bc	-0.053009734
59	0x3eb8c38e	0.36086696
60	0x3ebd7bc2	0.37008482
61	0x3dfc2fb2	0.12313785
62	0x3ed05808	0.40692163
63	0x3f095e0b	0.53659123
64	0x3f4ec9f7	0.80776924
65	0x3ed1159a	0.40836793
66	0x3e4b2b61	0.19840766
67	0x3ece50fa	0.40296155
68	0x3f183e7a	0.5947033
69	0x3ece746c	0.40323198
70	0xbdb23257	-0.08701008
71	0x3e8ca992	0.27473122
72	0xbe0f1e30	-0.1397636
73	0xbc652196	-0.013985058
74	0x3dc6b459	0.09702367
75	0x3f16c2ad	0.588908
76	0x3dfbe2da	0.12299128
77	0x3d1aa818	0.037757963
78	0x3eb2dca3	0.34933957
79	0x3ec74b94	0.3892485
80	0x3ea84ea9	0.32872513
81	0x3d915804	0.07096866
82	0x3ed24bdd	0.41073504
83	0x3f227387	0.6345753
84	0x3edf5ddd	0.436263
85	0x3f19cf6d	0.6008213
86	0x3e453c79	0.1926135
87	0x3e4ad054	0.19806033
88	0x3f0eb313	0.55741996
89	0xbec225a5	-0.37919345
90	0x3e86e9b3	0.26350173
91	0x3d98ae25	0.074550904
92	0x3cb36aa7	0.021901442
93	0x3ea1ac4f	0.31576774
94	0x3f384614	0.7198193
95	0x3f12f2ac	0.5740154
96	0x3eb469cc	0.35236967
97	0x3c9adc17	0.018903775
98	0xbdf907de	-0.12159704
99	0x3f09793e	0.53700626
100	0x3e967517	0.29386207
101	0x3e8bd5a1	0.27311423
102	0x3e666552	0.22499588
103	0x3dee0471	0.11621941
104	0x3ea57fd2	0.32324082
105	0xbe260af7	-0.1621512
106	0x3ddf4377	0.1090154
107	0xbc93ec5c	-0.01805704
108	0x3e3b6f0d	0.18304081
109	0x3ef9d5e2	0.48795992
110	0x3dda266d	0.106518604
111	0x3d17060b	0.036870997
112	0xbed810f4	-0.42200434
113	0xbe0ae329	-0.13563217
114	0x3ee15b9c	0.44015205
115	0x3edecded	0.43516484
116	0x3e4c1ddb	0.19933264
117	0x3ef82906	0.48468798
118	0x3ea8f1b4	0.32996905
119	0x3dbd83e5	0.092536725
120	0x3e53e40b	0.2069246
121	0x3e062b58	0.13102472
122	0x3ea8f132	0.32996517
123	0x3e3c3ffa	0.1838378
124	0x3f1fa008	0.62353563
125	0x3ea4963c	0.3214587
126	0x3e436fcb	0.19085614
127	0xbbf9cf5a	-0.007623595

qnet.fc2.weight f4 [128, 128]
0	0x3ddf2236	0.10895197
1	0xbe04cec9	-0.12969507
2	0xbd03d569	-0.032185946
3	0x3d480a96	0.04883822
4	0xbd1ec57b	-0.03876255
5	0xbeba14b5	-0.36343923
6	0x3e7cad44	0.2467547
7	0xbeb91fda	-0.36157113
8	0xbd0535ff	-0.032522198
9	0x3d6e21e2	0.058137782
10	0x3d730aca	0.05933646
11	0x3e737fa0	0.23779154
12	0xbe9a1391	-0.30093053
13	0x3daed5e8	0.08536893
14	0xbd05c314	-0.032656744
15	0xbe9e5d9c	-0.30930793
16	0x3c01f5c5	0.007932131
17	0xbd8e362a	-0.06943925
18	0x3e991c4d	0.29904404
19	0x3d45cca4	0.048290864
20	0x3dad1159	0.084505744
21	0xba7be6b3	-0.0009609267
22	0x3e71aff5	0.23602279
23	0xbdb9e593	-0.09076991
24	0x3e1b0fa7	0.1514269
25	0xbe47ed4f	-0.1952412
26	0x3e5f423c	0.2180261
27	0x3d442e3f	0.047895666
28	0xbe0dab59	-0.13834895
29	0xbe171f6b	-0.14758079
30	0xbe98f2be	-0.29872698
31	0x3e26291b	0.16226618
32	0xbe7349bc	-0.23758596
33	0x3e576fb3	0.21038704
34	0x3e8c5def	0.27415416
35	0xbc703101	-0.014660121
36	0x3e3724cc	0.1788513
37	0x3c005bf2	0.0078344215
38	0x3e83fba0	0.25777912
39	0x3d5c4dd2	0.053785153
40	0xbccc9e62	-0.024977867
41	0xbc8252cb	-0.01590862
42	0xbd9f7c2f	-0.07787358
43	0x3d14a6e4	0.03629197
44	0x3da88225	0.08227948
45	0x3dd3e80f	0.10346996
46	0x3d032a61	0.032022838
47	0xbd426b73	-0.047465753
48	0xbd2d581c	-0.042320356
49	0x3ea1d9e5	0.31611553
50	0x3e3b3373	0.18281345
51	0x3e27511d	0.16339536
52	0x3e4b6463	0.19862513
53	0x3e873d39	0.26413897
54	0xbe677d95	-0.226065
55	0x3e2be5c6	0.1678687
56	0x3e73b085	0.23797806
57	0x3e21ee2f	0.15813516
58	0x3e2c76b1	0.16842152
59	0x3dd45fb0	0.103698134
60	0x3e1bbb58	0.15208185
61	0x3e0aaf58	0.13543451
62	0x3e0ca6cd	0.13735504
63	0xbe3d0e54	-0.18462497
64	0x3e2ffb08	0.17185605
65	0x3df7982f	0.120895736
66	0xbc4d095d	-0.012514439
67	0xbeaa8136	-0.33301705
68	0xbe1357b6	-0.14388928
69	0x3e80c636	0.25151223
70	0x3d007cf6	0.031369172
71	0x3db173be	0.08664654
72	0x3e8a6450	0.27029657
73	0x3e7d0dc9	0.2471229
74	0x3ed4d2e6	0.41567153
75	0x3e3e03a5	0.18556078
76	0x3e27ac44	0.16374308
77	0x3ea95257	0.33070633
78	0x3e6f33e1	0.23359634
79	0x3cfdbe0b	0.030974409
80	0xbe5d0d28	-0.2158705
81	0x3e06dd2d	0.1317031
82	0x3e9c8d69	0.30576637
83	0x3e74801c	0.23876995
84	0xbee32c19	-0.4436958
85	0x3e2ec50f	0.1706736
86	0x3e4481bc	0.19190115
87	0xbdd0c210	-0.101932645
88	0x3e633a85	0.22190292
89	0xbd367e21	-0.04455388
90	0xbe9b3181	-0.30311206
91	0xbe795f66	-0.24352798
92	0x3db63909	0.08897597
93	0xbe9eea3e	-0.31038088
94	0x3de3d50a	0.11124618
95	0xbe0d0bac	-0.13773984
96	0x3e12d16e	0.14337704
97	0xbd8c4f73	-0.06851091
98	0xbea25461	-0.31705
99	0x3e5706fd	0.2099876
100	0x3d8f153e	0.069864735
101	0xbe56246b	-0.2091233
102	0x3d47c6f3	0.048773717
103	0xbea1c030	-0.3159194
104	0xbe255123	-0.16144232
105	0xbdd46210	-0.103702664
106	0x3e594447	0.21217452
107	0xbefca5bb	-0.49345192
108	0xbe8ce470	-0.27518034
109	0xbe80d62e	-0.25163406
110	0xbc14323a	-0.009045178
111	0x3e22515d	0.1585135
112	0x3decc2f1	0.115606196
113	0xbeb06c18	-0.3445747
114	0x3e9230e6	0.28552932
115	0xbe02eb13	-0.12784986
116	0x3e269dca	0.16271129
117	0x3e4cd08e	0.20001432
118	0x3e259053	0.16168337
119	0xbd5867d4	-0.052833393
120	0x3dd764ab	0.10517248
121	0xbe26c132	-0.16284636
122	0xbe3bc88c	-0.18338221
123	0x3e6542c9	0.22388758
124	0x3e8829d0	0.265944
125	0x3e77c68e	0.24196836
126	0x3e9be449	0.30447605
127	0xbd05d4e1	-0.03267372
128	0x3eb9d333	0.36293945
129	0x3cb3aaa5	0.021931956
130	0x3cfa870f	0.03058198
131	0xbb2c0a9e	-0.0026251446
132	0x3d703c9f	0.058651563
133	0x3ef29368	0.47378087
134	0x3dc87d2a	0.09789498
135	0x3ea53911	0.322701
136	0x3def59ed	0.11687074
137	0xbcffc2c1	-0.031220796
138	0xbdad7dff	-0.084712975
139	0x3d66d988	0.056359798
140	0x3ec1f1f8	0.3787992
141	0x3ddcc7de	0.10780309
142	0x3e5386aa	0.20656839
143	0x3e9fcdbe	0.31211656
144	0x3e37ce8f	0.1794989
145	0xbd61443d	-0.054996718
146	0xbd66cb8b	-0.056346457
147	0x3e73b272	0.2379854
148	0xbb16aa45	-0.0022989672
149	0x3e93b77a	0.2885092
150	0x3e0a4032	0.13501051
151	0xbca58090	-0.020202905
152	0xbc574ce2	-0.013140889
153	0x3ece6028	0.40307736
154	0x3e605b58	0.21909845
155	0x3d0f2394	0.03494604
156	0x3e10fdd8	0.14159334
157	0x3e190624	0.14943749
158	0x3e6f7724	0.23385292
159	0xbe4e5786	-0.20150575
160	0x3e53a389	0.20667852
161	0xbd84c5e8	-0.0648306
162	0xbc679653	-0.014134961
163	0x3d7f7259	0.06236491
164	0x3ddd05cd	0.10792122
165	0x3e4161d3	0.18884973
166	0x3d4b4878	0.04962966
167	0x3d02c55b	0.031926494
168	0x3ab861cb	0.001406723
169	0x3dfe0a21	0.12404276
170	0x3e99f7e7	0.30071947
171	0xbda54dc5	-0.08071474
172	0x3d921c29	0.071342774
173	0xbd98b265	-0.07455901
174	0xbcc7f14e	-0.024407055
175	0x3c4e65df	0.01259753
176	0x3e3e27ed	0.18569918
177	0xbec1b9c9	-0.37837055
178	0x3eaa89fd	0.33308402
179	0x3dfad2ad	0.122472145
180	0xbcdcbae0	-0.026944578
181	0x3eb5f4fe	0.35538477
182	0x3e881aa4	0.26582825
183	0xbe8baefe	-0.27281946
184	0xbd83afd1	-0.06430019
185	0x3e8f8bf7	0.28036472
186	0x3e3df2c8	0.18549645
187	0xbd87a373	-0.06622972
188	0x3e1bb865	0.1520706
189	0x3e98fad7	0.29878876
190	0xbc42c9f4	-0.01188897
191	0x3ebc3461	0.36758712
192	0xbe7fbc5d	-0.24974199
193	0xbc073f0c	-0.008254778
194	0xbbdec719	-0.0067986366
195	0x3e3451c0	0.1760931
196	0x3ec49bcc	0.38400114
197	0xbea6b944	-0.3256322
198	0x3d93c497	0.07215231
199	0xbd6703b2	-0.05640001
200	0xbed03699	-0.40666655
201	0x3e3952f3	0.18098049
202	0xbe8d7333	-0.27626953
203	0x3dc3226a	0.09528048
204	0x3e113296	0.14179453
205	0xbef60c3d	-0.48056212
206	0x3bb47ad0	0.0055078045
207	0xbb5f7d5d	-0.0034101822
208	0x3e6442e6	0.22291145
209	0x3e3b5bd5	0.1829675
210	0xbd335a59	-0.043787334
211	0x3ddffa2e	0.1093639
212	0x3e17f786	0.14840516
213	0xbd5bbcf6	-0.053647004
214	0xbe91c5c8	-0.28471208
215	0x3e11e314	0.1424678
216	0x3e1dee3b	0.15422909
217	0x3dbac610	0.09119809
218	0x3e7b5204	0.24543005
219	0x3eade609	0.33964565
220	0x3e70e621	0.23525287
221	0x3eaf199a	0.3419922
222	0x3c3f6cec	0.011683684
223	0x3df13270	0.11777198
224	0x3d72f53f	0.059315916
225	0xbdbec319	-0.09314556
226	0x3ee5317f	0.44764325
227	0x3d28c984	0.041207805
228	0x3c89a5eb	0.016802749
229	0x3e8c5658	0.27409625
230	0x3e2738be	0.16330239
231	0x3ec4dad8	0.38448215
232	0x3e83e402	0.25759894
233	0x3e8117e9	0.25213555
234	0x3afa2210	0.0019083638
235	0xbd801d9a	-0.06255646
236	0x3ee4a9b3	0.4466072
237	0xbbf2c9d3	-0.007409313
238	0x3d4cc287	0.049990203
239	0x3d8c4520	0.06849122
240	0x3d183f2b	0.037169617
241	0x3eb46850	0.35235834
242	0xbd50521c	-0.050859556
243	0x3e54bb6f	0.20774625
244	0xbf2c0c4d	-0.6720627
245	0xbd50f020	-0.05101025
246	0x3d24c6fe	0.040228836
247	0xbc9438a9	-0.018093424
248	0x3dc8ae7d	0.09798906
249	0x3ebcf99b	0.36909184
250	0x3e6a4d66	0.22881088
251	0x3e4eebe2	0.2020717
252	0x3c919ef1	0.017775984
253	0xbe89a91b	-0.2688683
254	0xbea0f0f2	-0.31433827
255	0xbecb0a1e	-0.39656156

qnet.fc2.bias f4 [128]
0	0x3df843ba	0.12122293
1	0x3e01a86c	0.12661904
2	0x3e5c91ca	0.21539989
3	0x3e849cc4	0.25900853
4	0x3de452da	0.11148615
5	0x3e17735d	0.14790101
6	0x3c818649	0.015811102
7	0xbc9b9891	-0.018993648
8	0x3eaeb1df	0.3412008
9	0x3e0aa317	0.13538776
10	0x3da39bdb	0.079887114
11	0x3dfa192a	0.12211831
12	0x3dfcd449	0.12345178
13	0x3e83d138	0.2574556
14	0x3ca68f50	0.020332009
15	0x3de10ab8	0.109883726
16	0xbd52e574	-0.051488355
17	0x3da96e4e	0.08272992
18	0x3e827b4e	0.254847
19	0x3d3cf0f9	0.046128247
20	0x3c8644ee	0.01639029
21	0x3e8b7a01	0.2724152
22	0x3e52ece9	0.20598187
23	0x3e292007	0.16516124
24	0x3e81b903	0.25336465
25	0x3e558c81	0.20854379
26	0x3cd848bc	0.02640187
27	0x3c8334e7	0.016016437
28	0x3e50e5bf	0.20400141
29	0x3c09458e	0.0083784
30	0xbca67c24	-0.020322867
31	0x3e755995	0.23959954
32	0x3e7642f6	0.24048981
33	0x3e26793a	0.16257182
34	0x3cc06836	0.023487192
35	0x3de5f0dc	0.11227581
36	0x3df19d88	0.11797625
37	0x3c9989c3	0.018742448
38	0x3e633602	0.22188571
39	0x3e59dbea	0.21275297
40	0x3d3fe9be	0.046853773
41	0x3e238a1f	0.15970658
42	0x3d2c29d7	0.04203209
43	0x3df403f6	0.11914818
44	0x3e274c05	0.16337593
45	0x3d7d715b	0.061875682
46	0x3e11c861	0.14236595
47	0x3dc0a50b	0.094064794
48	0x3e4a7589	0.19771399
49	0x3e33b996	0.17551264
50	0x3cf9f28c	0.030511163
51	0x3e9d60c7	0.30737898
52	0x3e300743	0.1719027
53	0xbdc91c8e	-0.098198995
54	0xbd838a53	-0.064228676
55	0x3dde62c2	0.1085868
56	0x3d802e0a	0.06258781
57	0x3cb6edf6	0.022330265
58	0x3e017f93	0.12646322
59	0x3e27f7a6	0.16403064
60	0x3c25b011	0.010112778
61	0x3e80cbf0	0.25155592
62	0x3e78e224	0.24305016
63	0x3e8a0fa3	0.26965055
64	0x3dffda99	0.12492866
65	0x3cba78f9	0.022762762
66	0xbd1aae4d	-0.037763882
67	0x3d92b4ae	0.07163368
68	0x3de8b441	0.11362506
69	0x3e46c3a6	0.19410571
70	0x3e6cfa25	0.23142298
71	0x3dfee5ea	0.124461964
72	0x3e0aa9d6	0.1354135
73	0x3e25b3ed	0.16181917
74	0x3e4a5867	0.19760285
75	0x3e0ccaa1	0.13749172
76	0x3bdf7d4e	0.0068203574
77	0x3e045705	0.1292382
78	0x3e48ce9b	0.19610064
79	0xbd7dec4c	-0.06199293
80	0x3e5e4138	0.21704566
81	0x3e2db34f	0.16962932
82	0x3c8f22b7	0.017472608
83	0x3e21b41c	0.15791363
84	0xbb0e372c	-0.0021700365
85	0x3e32d6ee	0.17464802
86	0x3df90374	0.12158862
87	0x3e761d21	0.2403455
88	0x3e2eb10f	0.1705973
89	0x3e1fc0b8	0.1560086
90	0x3df39a44	0.11894658
91	0x3d101498	0.03517589
92	0x3e48510b	0.19562165
93	0x3dd58795	0.10426251
94	0xbca02c82	-0.019552473
95	0x3e4083a0	0.18800211
96	0x3df37c1b	0.118889056
97	0x3d8efe10	0.06982052
98	0x3d023c38	0.03179571
99	0xbc9a5028	-0.01883705
100	0x3e559f0f	0.20861457
101	0x3e5a9baf	0.21348451
102	0x3e50e404	0.20399481
103	0x3e9d5bf9	0.30734232
104	0x3e283465	0.16426237
105	0x3cf2ce21	0.029639306
106	0x3e5430c4	0.20721728
107	0x3e29d5b0	0.16585422
108	0x3d71a67b	0.05899666
109	0x3d740b59	0.059581134
110	0x3e44b27a	0.19208708
111	0xbbe19ed5	-0.0068853893
112	0xbcc11880	-0.023571253
113	0x3e4eafc6	0.2018424
114	0x3e2448fd	0.16043468
115	0x3db3d8c4	0.08781579
116	0x3dc51568	0.096232235
117	0x3e059c61	0.13047935
118	0x3de9602f	0.11395299
119	0x3da45781	0.080245025
120	0x3da7cd9f	0.08193516
121	0x3da0e263	0.0785568
122	0x3e24330c	0.16035098
123	0x3e058d4e	0.13042185
124	0x3e3cd408	0.18440259
125	0x3e164dbd	0.14678092
126	0x3dcbeaaf	0.09956872
127	0x3e82034d	0.25393143

qnet.A.weight f4 [9, 128]
0	0x3c9282c8	0.017884627
1	0xbc385b38	-0.011252217
2	0x3db86aa0	0.09004712
3	0xbcede0fb	-0.029037943
4	0x3da5872c	0.080824226
5	0x3c38e2b6	0.011284521
6	0xbd3a6672	-0.045507856
7	0x3dbf5c2a	0.09343751
8	0x3d504ade	0.05085265
9	0x3d04a9ca	0.032388486
10	0x3e6dff78	0.23241985
11	0x3dff19ca	0.12456091
12	0x3c6a437b	0.014298315
13	0xbd103535	-0.035206992
14	0x3e067aaa	0.1313273
15	0x3cd15e19	0.025557565
16	0xbc0210a5	-0.007938539
17	0xbe10dff2	-0.14147928
18	0x3d8571dc	0.065158576
19	0x3ceeb0d5	0.029137054
20	0x3d6d5be1	0.05794895
21	0x3d8e3834	0.06944314
22	0x3c107895	0.0088178115
23	0xbcaca71d	-0.02107578
24	0x3c68460a	0.014176855
25	0xbd193067	-0.037399676
26	0xbcfad5e4	-0.03061957
27	0x3dcb3953	0.09923043
28	0x3e018677	0.1264895
29	0x3e2618cd	0.16220398
30	0xbc7362c0	-0.014855087
31	0x3c5655e5	0.013082002
32	0x3d4f82f4	0.050661996
33	0x3d62bc92	0.055355616
34	0x3dd86c9a	0.10567589
35	0x3e2abc92	0.16673496
36	0xbd8d1ee6	-0.06890659
37	0x3db7e0d0	0.089784265
38	0x3d94ccd3	0.072656296
39	0x3c931f8c	0.017959379
40	0x3e0dd3f3	0.13850383
41	0x3d98f3bc	0.07468364
42	0xbd43cf39	-0.047805045
43	0x3e1159ed	0.1419446
44	0x3e31af06	0.17351922
45	0x3dad8946	0.084734485
46	0x3dc6c80d	0.097061254
47	0xbc5e0c10	-0.013552681
48	0xbd20a6fe	-0.039221756
49	0x3d064c83	0.03278781
50	0xbb3641c2	-0.002781019
51	0x3d4f2b2a	0.050578274
52	0xbd07a3ca	-0.033115186
53	0x3e010cf9	0.12602605
54	0x3ca1ba90	0.01974228
55	0xbced2185	-0.028946647
56	0x3df0273c	0.11726233
57	0x3e526977	0.20548044
58	0x3ca27fe1	0.019836368
59	0xbd61af22	-0.05509866
60	0x3e3c42e3	0.1838489
61	0x3d0298f3	0.031884145
62	0x3db5847a	0.088631585
63	0xbcddc79a	-0.027072717
64	0x3e01313d	0.12616439
65	0xbc384931	-0.011247919
66	0x3d4acf04	0.04951383
67	0x3ce50976	0.027958613
68	0x3db8bd2d	0.090204574
69	0xbde02435	-0.10944406
70	0x3bbd58d2	0.0057784105
71	0xbcaccca4	-0.021093674
72	0x3c3d1868	0.011541463
73	0xbd5f7ca3	-0.054562222
74	0x3da03b64	0.07823828
75	0xbc97f1aa	-0.018547852
76	0x3cf4cddd	0.02988332
77	0x3c323b80	0.010878444
78	0x3dae0f2c	0.084989876
79	0x3cc50330	0.024049371
80	0xbc9dba6a	-0.019253928
81	0x3db3856b	0.08765682
82	0xbbc9cf82	-0.00615877
83	0xbcb279d5	-0.02178661
84	0x3da4a6e4	0.08039644
85	0xbc370321	-0.01117018
86	0xbb3a6d0f	-0.0028446352
87	0x3dda119f	0.10647892
88	0x3d39b1bb	0.045335513
89	0xbd0faa69	-0.035074625
90	0xbbfb950f	-0.0076776813
91	0x3db5598e	0.08854972
92	0x3cf461e9	0.029831843
93	0x3cfdccaf	0.03098139
94	0x3e3da210	0.18518853
95	0xbdb98722	-0.09058978
96	0xbd60ac23	-0.054851662
97	0x3df7efb8	0.121062696
98	0x3dbf0996	0.09328
99	0x3e8fbdf3	0.28074607
100	0x3dacfd4b	0.08446749
101	0xbd7fddac	-0.062467262
102	0x3d5a031b	0.053225618
103	0x3c77706f	0.01510249
104	0x3dd3f3b0	0.10349214
105	0x3d6d2c9c	0.05790387
106	0x3c07067f	0.008241295
107	0x3daeacfb	0.08529087
108	0x3dade0a2	0.08490111
109	0x3d4b6282	0.04965449
110	0x3dfe521f	0.12418007
111	0x3db3177d	0.087447144
112	0xbd25e54e	-0.040501885
113	0x3d5fe6dd	0.054663528
114	0x3cd83a51	0.026394995
115	0x3da5ce23	0.08095958
116	0x3dafa334	0.085760504
117	0x3e35ad86	0.17741975
118	0x3d66d9b1	0.05635995
119	0x3d967234	0.07346001
120	0x3e2c2f7d	0.1681499
121	0xb9a32c41	-0.00031122754
122	0x3de4563a	0.11149259
123	0xbc2e513b	-0.010639484
124	0xbd96ec64	-0.07369307
125	0x3d340632	0.04395122
126	0x3d6e5c0e	0.05819326
127	0x3cca125a	0.024666954
128	0x3da268ba	0.07930131
129	0x3cb84aa6	0.022496533
130	0xbcdf518f	-0.02726057
131	0xbcf40660	-0.029788196
132	0x3e2b106b	0.16705482
133	0x3c1f1aee	0.00971101
134	0xbd713344	-0.05888678
135	0x3cf665ff	0.030077932
136	0x3d4aa5bb	0.04947446
137	0x3c49a5a9	0.012307563
138	0x3c8079ed	0.015683139
139	0x3d8353ee	0.06412493
140	0x3d6113d2	0.054950543
141	0xbc2ab9d3	-0.0104202805
142	0x3e876b9f	0.26449296
143	0x3d810039	0.062988706
144	0xbcc56ad5	-0.024098793
145	0xbbc31795	-0.005953739
146	0xbbce6ed1	-0.0062998314
147	0xbd9c83ce	-0.07642327
148	0x3d7cbf86	0.06170609
149	0x3d4d69b2	0.050149627
150	0xbd25fd0b	-0.040524524
151	0xbd498387	-0.0491977
152	0x3c8b2a77	0.016988022
153	0x3e128832	0.14309767
154	0x3e0c0fb3	0.13677864
155	0x3d93aa06	0.07210164
156	0x3d383a11	0.04497725
157	0x3ca21fb8	0.019790515
158	0x3e1e8ede	0.15484187
159	0x3d852d15	0.06502739
160	0xbca6cd92	-0.020361695
161	0xbda3e605	-0.08002857
162	0x3d36a465	0.044590373
163	0xbc9b500a	-0.018959064
164	0x3dbc0efd	0.09182546
165	0x3d5b9664	0.05361022
166	0x3dac7406	0.08420567
167	0x3df51a51	0.1196791
168	0x3d5aea8d	0.05344634
169	0xbdb832b0	-0.08994043
170	0xbb1a5b9d	-0.002355314
171	0xbc59de42	-0.013297619
172	0x3dac064e	0.0839964
173	0x3e4801c7	0.19531928
174	0x3de88860	0.113541365
175	0x3ca07177	0.019585354
176	0x3c8bee20	0.01708132
177	0x3d62064d	0.05518179
178	0xbdac5e49	-0.08416421
179	0x3bede264	0.007259654
180	0xba0ec8cf	-0.0005446793
181	0x3d812963	0.06306722
182	0xbd75cff4	-0.060012773
183	0x3db90d0c	0.090356916
184	0x3e12e5c6	0.14345464
185	0x3cd56500	0.026049137
186	0x3b3071de	0.002692334
187	0x3c965f15	0.018355886
188	0x3daa9bf4	0.08330527
189	0x3d813ba5	0.063102044
190	0x3d4de09f	0.050263043
191	0xbd1b737c	-0.03795193
192	0xbd95b470	-0.07309806
193	0x3d3afcfb	0.045651417
194	0xbd446821	-0.047950868
195	0x3cbd05b1	0.023074003
196	0x3e3cd2e7	0.18439828
197	0xbdabb7f7	-0.08384698
198	0xbc875870	-0.016521662
199	0xbcef5287	-0.029214157
200	0x3d3b51f9	0.045732472
201	0x3db72946	0.08943419
202	0xbc559e48	-0.0130382255
203	0x3e21d87a	0.15805236
204	0x3d093bf7	0.033504453
205	0x3d103032	0.035202213
206	0xbe144f76	-0.14483437
207	0xbd139908	-0.036034614
208	0x3e0958c7	0.13412772
209	0x3c1fd0f3	0.009754407
210	0xbd28bbf8	-0.041194886
211	0x3c84e4ea	0.016222436
212	0x3bf3afe4	0.0074367393
213	0x3d857648	0.06516701
214	0xbb06d570	-0.0020573996
215	0x3ce79f16	0.0282741
216	0x3d8d5259	0.06900472
217	0xbb7e4841	-0.003880039
218	0xbbc6dec4	-0.006069036
219	0x3decb43f	0.11557817
220	0x3dd6b37c	0.10483453
221	0x3e10fbf8	0.14158618
222	0x3e481e58	0.19542825
223	0x3da53a3c	0.08067748
224	0x3de11bc2	0.109916225
225	0x3e38103d	0.17974944
226	0x3e3336ad	0.17501326
227	0xbc5d28d1	-0.013498501
228	0x3db7f7b5	0.08982793
229	0x3db633b6	0.08896582
230	0x3d08d010	0.03340155
231	0x3d97a81c	0.07405111
232	0x3da154f8	0.07877535
233	0x3e67a596	0.2262176
234	0xbd06e538	-0.032933444
235	0x3db77b79	0.089590974
236	0x3c63ed17	0.013911507
237	0x3ccedac7	0.025250806
238	0xbdbf31d1	-0.093356736
239	0x3e5717c2	0.21005157
240	0xbc4a3b67	-0.012343264
241	0xbd8eedd6	-0.06978957
242	0xbd227d28	-0.03967014
243	0x3da5451b	0.080698214
244	0x3e095e81	0.13414957
245	0x3c881f38	0.016616449
246	0xbb4661aa	-0.0030270615
247	0xbc2e868d	-0.010652197
248	0xbd870a08	-0.0659371
249	0x3d8f58a7	0.06999331
250	0x3da94d64	0.08266714
251	0xbdddd953	-0.10832467
252	0x3d776c8b	0.06040625
253	0x3da5d212	0.08096708
254	0x3d2bb2cf	0.041918572
255	0x3d621561	0.05519617

qnet.A.bias f4 [9]
0	0x3d87d197	0.06631773
1	0x3d1dc9e3	0.038522612
2	0x3e0ef401	0.13960268
3	0x3c96fa57	0.018429918
4	0xbdbb9c07	-0.09160619
5	0xbbcef70f	-0.006316073
6	0xbe824168	-0.25440526
7	0x3d791872	0.06081433
8	0x3d8eccdb	0.06972667
