models2/q_eval_dqn.onnx (onnx, 149918 bytes, 6 tensors)

qnet.fc1.weight f4 [256, 11]
000000 e2 48 6c be be d2 4a bd a5 ac 14 be a3 cd 56 be
       -0.23074678 -0.049517386 -0.14518984 -0.20976882
000010 6e 65 a3 3e 1c e0 9b be c7 81 14 3e f3 c7 eb bd
       0.31913322 -0.3044442 0.14502631 -0.11512747
000020 65 8d c6 3c 97 e2 53 be 74 9a ba bd 95 a9 74 3e
       0.024237344 -0.20691906 -0.09111491 0.23892815
000030 f7 27 8b 3b a8 05 4e 3d e1 06 83 3e d7 b4 cb 3d
       0.0042467075 0.050298363 0.25591186 0.09946602
000040 39 cb 18 3e 51 6c 56 3e 3f 35 b3 bd 1b f1 73 be
       0.14921273 0.20939757 -0.0875039 -0.23822443
000050 07 bd b4 3d 4f 4e ca bc 9f 9b aa 3e 13 36 9c 3e
       0.088251166 -0.024695544 0.33321854 0.30510005
000060 1d 1f 14 3d e7 1b 4b 3e 5e 6f 47 3e ff 2e 82 bd
       0.036162484 0.19834863 0.19476077 -0.0635662
000070 b1 d1 58 be 24 c5 b3 3c 99 a1 67 bd 41 4a f3 3d
       -0.21173741 0.02194459 -0.056550596 0.11879397
000080 e6 3e e0 bd 8a da ad bd e1 41 3d 3e d5 4c 2c 3e
       -0.10949497 -0.08488949 0.18482162 0.16826184
000090 5b 39 05 3d a4 f2 34 be 85 06 0d 3e a9 ea 53 3d
       0.0325254 -0.17670685 0.13772018 0.05173746
0000a0 f0 b4 f6 3c 8d ac c5 3c 9f 3e 9f bd 93 83 f0 be
       0.030115575 0.02413013 -0.07775616 -0.46975383
0000b0 d7 b8 87 be 55 24 a8 3d 2d a2 94 be 8e f7 b8 bd
       -0.2650821 0.08210055 -0.2902998 -0.09031592
0000c0 ae a7 58 3e 0e af 73 3e 50 30 f0 3c 9f 46 75 3e
       0.21157715 0.23797247 0.029319912 0.23952721
0000d0 65 ff 23 3e 08 b9 23 3e 34 c7 0b 3e 46 8a b0 be
       0.16015394 0.15988553 0.13650209 -0.34480494
0000e0 4f 92 ba 3e 73 81 a5 bd 78 27 15 bd ac 73 88 3d
       0.3643975 -0.08081331 -0.036414593 0.06662688
0000f0 76 ed 8e 3d b2 dc 30 be bb 58 5f 3e c7 eb 89 3d
       0.06978886 -0.17271689 0.21811192 0.06734424
000100 bc 9d 8a 3d ac 97 af bb c4 69 b0 3e 57 be 37 3e
       0.06768367 -0.005358657 0.34455693 0.17943703
000110 75 4e 0d 3e c4 91 10 3e 79 55 90 bd 51 03 01 be
       0.1379946 0.14118105 -0.070475526 -0.12598921
000120 23 57 38 bd b2 19 70 bd 17 af 9b 3d 67 6a ef bc
       -0.045004975 -0.058618255 0.07601755 -0.029225541
000130 d8 77 92 3d 86 9f 25 be 95 b7 80 3e 93 05 83 bc
       0.07151765 -0.16174135 0.25140062 -0.015993869
000140 3f ec ba 3d 63 0f b7 bd 1e 70 e1 3b 15 c7 00 3e
       0.091270916 -0.08938482 0.0068798205 0.12575944
000150 b1 31 82 3e 8b 74 b6 3c 61 44 7f 3d ce 4f 41 bd
       0.25428537 0.022272369 0.06232107 -0.04719525
000160 a6 36 61 be 75 99 83 bd 69 55 9e 3e eb fd 05 3e
       -0.21993503 -0.06425754 0.30924538 0.13085143
000170 0f 49 7c 3d 42 ec 50 3e 0c 84 a6 3e 38 f6 f1 3d
       0.06159311 0.20402625 0.3252262 0.118145406
000180 40 97 70 be f6 a9 90 bc 37 90 b3 3d a3 2b 48 be
       -0.23495197 -0.017659169 0.08767741 -0.19547896
000190 6e 60 44 3e 52 41 a0 be 3a 7d 96 3e 2c 12 89 3b
       0.1917741 -0.31299835 0.29392415 0.0041830745
0001a0 08 f7 59 be a9 65 3b be 13 eb 88 be 9f c4 95 3e
       -0.21285641 -0.18300499 -0.26741847 0.29251572
0001b0 50 35 70 be a0 d5 80 be 94 19 96 3e 39 98 8f be
       -0.23457837 -0.25162983 0.2931639 -0.28045824
0001c0 22 17 53 be d3 f5 f1 3c e3 bc 1b 3e 35 a3 33 bd
       -0.20614293 0.029536163 0.15208773 -0.04385682
0001d0 38 b7 23 be 59 99 9f 3e f4 14 46 3e af 6a 45 3e
       -0.15987861 0.31171682 0.1934393 0.19278978
0001e0 07 f0 31 be 87 0d 0b 3e bd 22 36 be 4c b3 2a be
       -0.1737672 0.13579379 -0.17786689 -0.16669959
0001f0 b1 53 ac 3d 47 ae da 3d 53 7b 80 be bd 10 a8 bc
       0.084144 0.10677772 -0.2509409 -0.020515794
000200 05 96 39 be 6f 7a c7 bd 89 ea 7b be 1a 7b 26 3e
       -0.18123634 -0.09740149 -0.24601187 0.16257897
000210 76 73 c4 bc f5 86 c0 bd e3 bf 77 bc bd 9d 58 3e
       -0.023980837 -0.09400741 -0.015121433 0.21153922
000220 75 aa 8b be 9c 19 84 3e 11 be b1 3d fc 6f be bc
       -0.27278486 0.25800788 0.086788304 -0.023246758
000230 d6 bb 69 3e aa ac 80 be 76 37 29 bd 2c 0a 39 be
       0.2282556 -0.25131732 -0.041312657 -0.18070287
000240 2e bd ae 3d 09 a1 86 bc 53 d2 4d 3c 29 cd 81 3e
       0.08532177 -0.01643421 0.012562352 0.25351837
000250 23 b8 0d be 2e ea 14 3e a9 26 43 3e 89 c5 42 3e
       -0.13839774 0.14542457 0.19057716 0.19020666
000260 07 f6 b6 3c fb 30 08 3e 38 3f 71 bc 90 b4 9c 3e
       0.022334112 0.13299935 -0.014724545 0.30606508
000270 7f a0 01 3e 5f 3c 35 3b 11 4b a5 3e f5 aa 7d bd
       0.1265888 0.0027654392 0.32283834 -0.061930615
000280 3a 33 c3 bd f6 1d 8a 3e 2d 72 18 be 77 15 7c bd
       -0.09531255 0.26975983 -0.14887305 -0.061543908
000290 11 57 6f 3d 15 e5 44 bd 30 f5 72 3d 08 d7 1d 3e
       0.058432642 -0.048070032 0.05931586 0.15414059
0002a0 e3 c7 64 be 05 ed b0 3e 41 6e 1b be 4a dc 78 be
       -0.22341876 0.34555832 -0.15178777 -0.24302784
0002b0 39 fd f9 3d 07 3f 93 3d 38 32 93 bd 5f cd 80 3e
       0.122065015 0.07189756 -0.07187313 0.25156686
0002c0 66 28 57 3d 85 da 43 3e 40 28 03 be 37 c6 0a be
       0.05252876 0.19126327 -0.12808323 -0.13552175
0002d0 e0 e1 5e bd 27 35 f6 bd 98 d2 86 3e c6 52 89 be
       -0.05441463 -0.12021857 0.26332545 -0.26820964
0002e0 53 10 9f be b9 22 87 bd 76 33 ac be 66 4f 86 3e
       -0.31067142 -0.0659842 -0.33633012 0.2623245
0002f0 23 84 88 be 73 dd b0 3d 3b 25 74 be eb a7 76 be
       -0.26663312 0.08635988 -0.23842327 -0.24087493
000300 17 35 ea bd e9 9f a6 bc d1 08 db 3d 7b 7c 75 be
       -0.11435907 -0.020339923 0.10695041 -0.23973267
000310 9c d6 63 3e 75 06 76 3e 51 7a 5a 3e 87 d6 e8 3d
       0.22249836 0.240259 0.21335723 0.11369043
000320 ad 96 2a 3d 9b af b7 3c f0 ef 5b 3e 1f e1 77 3e
       0.041647602 0.022422602 0.21478248 0.2420697
000330 29 03 75 be e0 ed 86 3d c1 e4 f4 bd 2d f8 6c be
       -0.23926987 0.0658834 -0.11957694 -0.23141547
000340 60 3d c6 bc 55 93 a8 be 90 c6 8f be 78 b7 d9 bd
       -0.024199188 -0.32924905 -0.2808118 -0.10630697
000350 07 f6 df bd 57 2c 71 be ce fe 8b 3d 09 07 8f 3e
       -0.10935598 -0.2355207 0.068357095 0.27935055
000360 bc a7 20 bd 79 e0 bd bd 6f ca 05 3d c4 ef 41 3c
       -0.039222464 -0.092713304 0.03266376 0.01183695
000370 dc f9 5e be 84 b1 01 be 71 0a 6e 3d 5d c0 ce be
       -0.21775001 -0.12665373 0.058115426 -0.40381137
000380 de 5d b0 3e 22 b9 8c bc ae 1f 93 bd ea 4d aa bc
       0.34446615 -0.017178122 -0.07183777 -0.020789105
000390 f8 6c 2f 3e c9 ed 9a bd 24 86 5f be f0 ee 8d 3e
       0.17131412 -0.07564885 -0.21828514 0.27721357
0003a0 05 c9 2a be 04 29 1e be 5b 28 46 3d 54 1e e0 3d
       -0.16678245 -0.15445334 0.04837833 0.10943285
0003b0 98 3f ee bb aa ad 33 3d a2 2c de bd e1 61 a6 3d
       -0.0072707646 0.04386679 -0.10848357 0.08124138
0003c0 38 89 e8 3d de dc c3 3e 6b 68 6e be e6 57 91 bd
       0.113542974 0.38254446 -0.2328202 -0.070968434
0003d0 b5 85 a1 3d 13 2c 6c 3d 0b 14 85 be 0c c8 3e 3e
       0.07886831 0.05765922 -0.25991854 0.18631
0003e0 db a7 36 3c 41 72 a6 be b7 0f ac bc 4a c4 49 bb
       0.011148418 -0.32509044 -0.021003587 -0.0030787163
0003f0 71 5d 50 3e bd 89 37 3e 5d a2 1b be dd 99 06 3c
       0.20348145 0.17923637 -0.15198655 0.008215395

qnet.fc1.bias f4 [256]
000000 f7 b7 9d 3d fe 99 4e 3e 49 f5 05 bd 09 63 5a 3d
       0.07701104 0.20175931 -0.032704625 0.053317104
000010 d1 c4 25 be 7b 64 9f 3e 08 c9 8f 3e 0b d6 c7 3d
       -0.16188361 0.31131348 0.28083062 0.09757622
000020 d5 1b 63 3e 2c 8f b5 39 5a a7 70 3e ba 17 6a be
       0.22178586 0.00034629682 0.2350134 -0.22860613
000030 b9 ea 67 3e e7 4b a7 bd 5c 1b a7 3e fb f7 42 3e
       0.22648133 -0.08168774 0.3263806 0.1903991
000040 75 ce f9 3d 99 f1 ab 3e 04 44 be 3d cf b9 56 3e
       0.12197582 0.33582762 0.09290317 0.20969318
000050 a8 c7 6e 3e b0 d3 be 3d fe 73 31 be 0b c3 b5 bd
       0.2331835 0.0931772 -0.17329404 -0.08875092
000060 bd 16 62 3e cb ca 85 3e 06 bc f2 bd a9 9c 2e 3e
       0.22078986 0.2613128 -0.11852269 0.17051949
000070 18 54 67 be 78 b4 58 bd 7a b2 72 be 88 76 9d 3e
       -0.22590673 -0.052906483 -0.23700896 0.30754495
000080 2d f9 d3 bc 0e 62 80 3d 5a d5 34 bb 90 64 37 be
       -0.025875652 0.062687024 -0.0027592988 -0.17909455
000090 67 bd 22 3e 03 96 17 be cc a1 71 3e 76 4b 0b 3d
       0.15892564 -0.14803319 0.23596877 0.034007512
0000a0 5a 9b 0b bd 9f ef 35 be 25 4c 37 bd e9 9f 8f 3e
       -0.0340837 -0.1776719 -0.04475035 0.2805169
0000b0 18 73 4d 3e 31 6c 4d be da 7c 41 bd d4 fb 5e 3d
       0.20063436 -0.20060803 -0.04723821 0.05443938
0000c0 8b 5c 85 be ef 0b 96 3d 94 70 15 3e 45 76 47 3c
       -0.26047167 0.07326495 0.14593726 0.012174194
0000d0 39 90 94 3e 91 b7 0b be 8f 07 6e be 5c a2 9e 3e
       0.29016283 -0.13644244 -0.23245071 0.30983245
0000e0 73 0d 2e 3e 1c 33 03 3e 27 b7 67 3d 22 2a 5c 3e
       0.16997318 0.12812465 0.056571152 0.21500447
0000f0 e7 06 82 3e a8 5b 08 be 7d 23 09 bd 5c c8 af 3e
       0.2539589 -0.13316214 -0.03348111 0.3433255
000100 52 75 07 bd 5a f6 8f 3e 49 d1 5b be 59 ef 99 be
       -0.03307087 0.2811764 -0.21466555 -0.3006542
000110 8e 18 ac 3e ab 04 a4 bd fd 94 fc 3d fe ec 52 bd
       0.33612484 -0.08008703 0.12333105 -0.051495545
000120 b3 ba 90 be 4c 23 e0 3c 2e 5d 38 3d 25 76 ae 3c
       -0.2826744 0.02736058 0.045010738 0.02129657
000130 d1 4f 4e bd f7 6e 25 bd 37 68 ab be 4a 79 9c 3c
       -0.050369088 -0.040389027 -0.33477947 0.019100804
000140 48 2f e2 bd 93 2d e3 bd 39 53 f3 bd 09 d6 f4 bd
       -0.110441744 -0.11092677 -0.11881108 -0.119548865
000150 b8 0a b8 bd 39 2e 4f 3e c7 45 d0 3d c3 75 83 3e
       -0.089864194 0.20232476 0.10169559 0.25675783
000160 4b ca 81 3c 48 2d 80 be b7 a5 d7 3d 06 00 44 3d
       0.015843531 -0.25034547 0.105296545 0.047851585
000170 1b d7 34 be 7a 57 01 be a9 a5 08 be 52 0c 47 be
       -0.17660181 -0.12631026 -0.13344444 -0.19438294
000180 56 4a 0a bc 45 06 92 bc 2e c5 7d 3e a6 1f 80 3e
       -0.008440575 -0.017825255 0.2478225 0.25024146
000190 28 7b 5d be 3e d6 6b 3e 40 bf 42 3e 17 1e 9b be
       -0.21629012 0.23030946 0.19018269 -0.30296394
0001a0 10 a0 b0 3e b2 aa 63 be 49 f0 39 be 73 61 cd 3d
       0.34497118 -0.22233084 -0.18158068 0.100283526
0001b0 1e 38 ea bc e3 e0 c3 3e 4f 5b ae bd 9e 48 62 be
       -0.028591212 0.38257512 -0.085135095 -0.22098014
0001c0 37 78 31 be 7d 4c a6 bd 47 34 8a 3a ab 26 e7 3d
       -0.17331015 -0.08120058 0.0010544144 0.11286672
0001d0 c0 4a 5a 3e 93 44 0a 3e fa de 3c bd fc 71 81 be
       0.21317577 0.13502721 -0.046111085 -0.25282276
0001e0 23 7b 8b be a3 70 9c 3e 59 99 f6 bd 7b 32 0f be
       -0.27242383 0.30554685 -0.120409675 -0.139841
0001f0 20 fa b6 3e 12 51 e5 3c 1f 29 49 be 03 c6 38 be
       0.35737705 0.027992759 -0.19644593 -0.18044285
000200 27 49 f6 3d 53 02 86 be 7d 06 97 bc 9c bf 4c be
       0.120256715 -0.26173648 -0.018435711 -0.19994968
000210 ba 92 44 be 39 f9 ba 3d b8 87 e9 bd a5 2c 7e 3e
       -0.19196597 0.09129567 -0.114028394 0.24821718
000220 fd 49 d5 bd 9a 39 88 3e 81 d0 d5 3c 42 fc 94 3c
       -0.10414503 0.26606447 0.026100399 0.018186692
000230 a1 c8 bf 3e e0 69 cb bd 4a b1 63 3e a9 a9 0c 3e
       0.37457755 -0.099323034 0.22235599 0.13736595
000240 ed 86 f2 3d 66 11 16 be 57 fc 87 3e 66 fe 8b bd
       0.11842141 -0.14655074 0.26559708 -0.06835632
000250 0e c0 b3 3e 4e 91 be 3d 6e 37 c1 bd 81 1f 98 3e
       0.35107464 0.093050584 -0.094344005 0.29711536
000260 7a da f4 bd 02 1e d6 bc 85 1a 35 bd af 52 76 be
       -0.119557336 -0.026137356 -0.044214744 -0.24054979
000270 34 d4 b6 bd 73 ed b5 3d 89 11 54 3e 39 0e 19 bd
       -0.08927193 0.088831805 0.20709814 -0.03736708
000280 db 38 9c 3d f0 cf 06 be be 98 2b 3e fd e6 88 3e
       0.07628032 -0.1316526 0.16757485 0.2673873
000290 51 2f 37 3d 2b 87 39 3e 8f 5d df 3c 3b bf 85 be
       0.04472286 0.18117969 0.027266292 -0.2612246
0002a0 6b 61 8d 3d 6c ad a3 3d 17 54 9d 3e a9 99 06 bd
       0.06903347 0.07992062 0.30728218 -0.032861385
0002b0 ae 50 88 bb 39 48 f8 bd 9d 34 b9 3e 77 e9 9f be
       -0.0041600084 -0.121231504 0.36172953 -0.31232807
0002c0 2f 7d 51 3e e3 ec 6f 3d d5 ab 31 3e a6 4d 9c 3e
       0.2045791 0.058575522 0.17350705 0.3052799
0002d0 ab a9 e5 bd 27 0c b4 3e 5d 12 3a 3e d7 5e 42 3e
       -0.11214002 0.35165522 0.18171068 0.18981491
0002e0 ab b9 94 3e ac 8c 93 3e e2 53 9d 3c 64 6d 77 3d
       0.29047903 0.28818262 0.019205038 0.060407057
0002f0 5b 9c 4e 3e 82 de 7a be 1d bd 50 be 92 98 8b bd
       0.20176832 -0.24498942 -0.20384641 -0.0681621
000300 d5 e9 73 3e b3 f8 0b 3c eb 25 d6 bd 9e 0b 23 be
       0.23819669 0.008543181 -0.10456451 -0.159224
000310 e0 90 53 be 27 84 8e 3e c7 c8 8d 3e 72 08 74 3e
       -0.20660734 0.278352 0.27692243 0.23831347
000320 60 8d f7 3d 58 14 89 3e 41 83 23 bd ea 61 a1 3c
       0.12087512 0.26773334 -0.039920095 0.01970001
000330 29 5d 1f 3e 4e 98 6a 3e 6c a7 e6 bd d5 9f ed bd
       0.15562882 0.22909662 -0.11262402 -0.11602751
000340 dd 2f 21 be 8b 41 a2 3d 30 25 25 3e 94 3c 01 be
       -0.15740915 0.079226576 0.16127467 -0.12620765
000350 9d ad b4 3d a9 a2 58 3e 2d 6c 91 3e 7e dc a3 3c
       0.088221766 0.211558 0.28402844 0.0200026
000360 5b c6 ca 3d 82 97 74 3d 63 58 a1 3e d8 f5 e0 3d
       0.099011146 0.0597148 0.31512746 0.10984391
000370 be 88 47 3e 65 e2 62 3e 9d 1c b1 bd 01 7e 1a 3e
       0.19485757 0.22156675 -0.08648036 0.15087129
000380 3e eb a3 3e 2e 7f 5f be 7c 40 1b be 23 06 92 3d
       0.32015413 -0.21825859 -0.15161318 0.07130077
000390 81 79 6a bd 35 6b 39 be 67 aa f9 bd 05 bb 11 3e
       -0.05724478 -0.18107302 -0.12190705 0.14231499
0003a0 21 47 5a 3e da 89 ca 3d 2e 23 2d 3e fe b7 d2 3e
       0.21316196 0.09889574 0.16907951 0.41156
0003b0 5d 3e cc bd 54 a7 8b 3e 6c c7 d1 3e 9e 92 41 3d
       -0.09972832 0.272761 0.4097246 0.047258966
0003c0 a5 4b 56 be d1 74 82 3e 4c 40 82 3e 3a d4 5d 3e
       -0.20927294 0.2547975 0.2543968 0.2166299
0003d0 bc 4f 8d 3e 2e 13 5f bc fb 1d 5a 3e e0 9f 5f bd
       0.27599895 -0.013615413 0.21300499 -0.054595828
0003e0 5e d2 68 3e c3 b7 88 be 93 f2 21 bd 1e 7b 19 3c
       0.22736499 -0.267027 -0.039537977 0.009367732
0003f0 58 87 6b be 07 96 17 3d 94 44 53 3c 62 e0 94 3d
       -0.23000848 0.03700831 0.012894768 0.0726936

qnet.fc2.weight f4 [128, 256]
000000 79 2e 46 3b 6e 69 1b bc 8e d2 63 bb 98 a1 9d bc
       0.0030240102 -0.009485586 -0.0034762952 -0.019242093
000010 2a 50 81 3d b5 52 d6 bc 36 6b 80 bb 6e 76 44 bc
       0.06314118 -0.026162485 -0.0039190305 -0.011991126
000020 89 6a 00 bd e4 8b 90 3d a8 cd eb 3c 2e cf 77 3d
       -0.0313516 0.07057932 0.028784588 0.060500316
000030 2d c2 67 3d 6f 76 98 3d 65 79 94 bc 65 d7 87 3d
       0.056581665 0.074444644 -0.018124292 0.0663288
000040 1f 36 a3 3c f5 48 b1 ba bd a6 66 bc 2c 88 32 bd
       0.019923268 -0.0013525771 -0.014077839 -0.043586895
000050 c9 c3 1e 3d d5 15 8c 3c c8 cf 0d bd 73 ad ea 3c
       0.038760934 0.017100254 -0.034621984 0.02864716
000060 ea fe be 3c 49 84 d0 3c 7a a3 1d 3d 3c b1 4b 3c
       0.023314912 0.025453703 0.03848598 0.012432393
000070 ce 6c 92 bb 7b b8 1a bd b2 9f 26 3d b5 e1 95 bc
       -0.004468537 -0.03777359 0.04067964 -0.018296102
000080 58 a3 d3 bc f0 c5 20 3d bd 98 74 3d 15 a8 af ba
       -0.025834724 0.039251268 0.059715975 -0.0013401533
000090 3c 44 48 3c 84 5f 48 3d 26 b8 50 bc d8 f9 1b bd
       0.0122233 0.048919216 -0.012739217 -0.038080066
0000a0 c6 61 8e bb 51 9b a7 3b ff 54 a4 3c 0b 70 a7 3d
       -0.0043451516 0.0051149507 0.02006006 0.081756674
0000b0 5d 16 c6 3a 26 7e 53 3d c5 d9 39 3d 43 87 7b bc
       0.0015112866 0.051633976 0.045373697 -0.015352073
0000c0 cd 4d 6a bc 5d 91 81 3d 6f f5 69 bd 89 2d ce bc
       -0.014300776 0.06326554 -0.05711883 -0.025168197
0000d0 92 e8 34 3d c1 ca 9f 3c 79 67 97 3d 27 00 97 3d
       0.04416711 0.01950586 0.07392783 0.07373076
0000e0 47 27 3c 3d ff 15 87 3d 38 e6 f4 bb f6 4f 9d bc
       0.045935895 0.06595992 -0.0074737333 -0.019203167
0000f0 b3 ca 71 3d 3c 23 16 3c 93 b2 2c 3d 0d 6d 9b bc
       0.0590312 0.009163674 0.04216249 -0.018972898
000100 02 de db 3c 56 c8 05 bd ef 71 c4 3a 89 7c ad bc
       0.02683926 -0.03266176 0.0014987568 -0.021177547
000110 f8 ac 6f 3c ae 40 0f 3d 06 77 cd 3d 82 2e 74 3d
       0.014628641 0.034973793 0.100324675 0.059614666
000120 f4 8c a2 bd 25 1e 0c 3d df 20 7f 3d cc 9a 8c 3d
       -0.07937041 0.034208436 0.062287208 0.06865463
000130 0f eb 49 3c 13 94 36 bd b8 46 3f 3d d1 89 78 3c
       0.012324109 -0.04457481 0.046698302 0.015169577
000140 2e ac 91 3c 7b 85 3f 3d 12 3a e6 3d 19 d8 17 bc
       0.017782297 0.046758156 0.11241545 -0.00926783
000150 cb 4b 9f bd 20 e5 62 bc 01 c2 dc 3c ae 19 64 3d
       -0.07778128 -0.013848573 0.026947977 0.055688553
000160 29 2d 02 3d 0d af 07 bc c2 2a d3 bb ae 06 20 3d
       0.03178135 -0.008281481 -0.006444306 0.03906887
000170 89 84 1b bd 9f e6 8c 3d bc 36 90 3c b5 34 87 3b
       -0.037968192 0.06879925 0.017604224 0.004126156
000180 5f 10 d6 bc b5 39 8e 3d 2b 21 90 bc 0f bc bc bc
       -0.026130853 0.069446005 -0.01759394 -0.023038892
000190 8c a2 88 3d 71 80 01 bc 77 a0 86 bd 12 4c d4 bc
       0.06671628 -0.007904158 -0.06573575 -0.02591518
0001a0 27 7f de bc e4 f1 13 3d 82 8a e8 3c 96 b8 71 3d
       -0.02716024 0.036119357 0.028386358 0.059013925
0001b0 60 05 b4 bc 69 b5 93 3c 83 fc e2 3c 83 01 b3 3c
       -0.02197522 0.018030839 0.027708298 0.021851307
0001c0 96 f7 20 3d 40 ac 47 3c 64 e5 31 bc 45 61 2a 3d
       0.039298616 0.012187064 -0.010857914 0.04159667
0001d0 49 57 78 bc ea 79 ce 3b 3f 9e c3 3c 09 09 18 3d
       -0.015157529 0.0063011544 0.023879169 0.03711799
0001e0 05 cc 52 3c 8c ab 95 3d 2a c8 4b 3d 9a 24 1b 3c
       0.012866025 0.073081106 0.04975144 0.009469176
0001f0 cc de 84 3d 99 59 81 bd ac cd f1 bb 2a 9c cf 3c
       0.06487808 -0.063159175 -0.0073792543 0.02534302
000200 60 98 d0 3c b5 59 bb bc 69 94 f7 bc f4 39 7d 3c
       0.025463283 -0.022869924 -0.030222135 0.015455712
000210 5e 24 9d 3d 50 3f e1 bc f9 c2 81 3c ad b5 6f bb
       0.07672952 -0.02749601 0.01584004 -0.0036576793
000220 7b c0 04 bd d8 ec ea 3c 27 1e b7 bc 08 2a ad 3d
       -0.032410126 0.028677389 -0.022353245 0.084552824
000230 e6 9c 13 3b 5e 5d 03 3d 91 44 88 bb a8 ed 5b 3d
       0.0022523939 0.032071464 -0.0041585644 0.053693444
000240 6b 15 c0 3d da 2e 1b 3e 7a 55 0b 3d 65 23 d7 3d
       0.09379085 0.15154591 0.034017064 0.10504798
000250 5f 68 44 3d be d6 1e 3d 74 a1 c4 bb 02 3e b2 bc
       0.0479511 0.038779013 -0.006000692 -0.021758083
000260 80 b6 8f 3d c2 0e e7 3d aa 76 a1 3d 84 50 09 3d
       0.07017231 0.11282112 0.078839615 0.03352405
000270 58 f8 66 bc dd 73 82 bc bd 7b a2 3d c7 e8 61 3d
       -0.014097296 -0.015924389 0.079337575 0.055153634
000280 b1 9c 5a bd 1e 4a 17 3c 7b 58 2f 3d 2a e8 41 3c
       -0.05337209 0.0092339795 0.04280899 0.011835137
000290 d3 11 0f bd dc b5 d6 3c 59 6b 32 bc b8 92 1e bd
       -0.034929108 0.026209764 -0.0108898515 -0.03871414
0002a0 cf 5c 98 bd c9 97 a4 bc 55 ef 1d 3d 64 bc 64 3d
       -0.07439577 -0.020091908 0.038558323 0.055843726
0002b0 e4 3b 5e bd f3 b2 30 bd 13 f8 d2 3c 64 1c b9 bc
       -0.054256335 -0.04313941 0.025753057 -0.022596546
0002c0 25 3e ef 3c 66 0e af 3d 39 fa d3 3b 52 f5 cb 3d
       0.029204438 0.08547668 0.006469038 0.099589005
0002d0 dd 96 3a bd 8f 6d c9 bc 30 bc 86 bd 54 a1 a6 bb
       -0.04555403 -0.024588374 -0.06578863 -0.00508515
0002e0 d9 30 8d bd 05 ed 4a 3d eb 88 e7 3c 0f 32 aa 3c
       -0.068940826 0.049542446 0.02826353 0.020775823
0002f0 6e aa 1c 3c 9e a4 4c ba 3d 39 01 3c 3c 41 5c 3d
       0.009562118 -0.00078065123 0.007887182 0.05377315
000300 59 53 8b 3d fe a5 9e bb bd e1 22 bb b2 e6 69 3c
       0.06803007 -0.004841565 -0.0024853789 0.014276193
000310 ed f3 d5 bc 3d b8 31 3d b9 2c 7f 3c ef 44 d8 3c
       -0.02611729 0.043388594 0.015574628 0.026400058
000320 5e 9b 6a 3d a3 2c b6 bc 25 d4 ce 3c 33 b6 5f 3c
       0.057277076 -0.022238081 0.025247643 0.0136542795
000330 b4 9c 95 bb 2e 52 48 3c d2 da 88 3c e7 99 44 3d
       -0.0045657996 0.012226624 0.016705904 0.047998335
000340 8d 25 1b bd 05 ff 12 bd 8e 84 08 3d fd 3a 92 bc
       -0.037877608 -0.035887737 0.03332954 -0.017850393
000350 f1 c5 39 3c 97 f7 e5 bb e4 2d c0 3d 40 8e 94 bc
       0.011338697 -0.0070180404 0.09383753 -0.018134236
000360 68 bb 21 3d 54 3f c6 3d 93 dd 1f bc 52 a2 c0 3d
       0.039485365 0.09680048 -0.009757417 0.0940596
000370 ad 10 d6 bc 0b ff e0 3c ea c1 b0 3d 73 4c 20 3b
       -0.026130999 0.027465364 0.08630736 0.002445963
000380 5b 09 88 3c 93 1e 28 bc f4 78 e9 3b 48 cd b2 3d
       0.016606024 -0.010261196 0.0071250144 0.087305605
000390 be b4 17 bd 89 1c 2e 3d 17 ad b7 bc 6b 6c 68 3c
       -0.037037604 0.042507682 -0.022421403 0.014186005
0003a0 c8 f8 47 bc f1 de 03 bb 5d de 2e 3d 68 d6 79 3c
       -0.01220531 -0.0020121897 0.04269253 0.015248872
0003b0 ba e7 62 3d 75 79 7b bc 74 cd bd 3c 77 39 94 3c
       0.055396773 -0.015348782 0.023169257 0.018093808
0003c0 7e 99 c3 3c 72 4d 8c 3d 96 28 27 bd d9 b2 4d bd
       0.023876902 0.06850709 -0.04081019 -0.05021939
0003d0 60 02 26 3d df da 40 bd 66 13 5b 3d 87 fd 21 3d
       0.04052961 -0.04708373 0.053485297 0.039548423
0003e0 c6 da 84 3d 79 6a 3f bd a0 ba b8 bb e1 36 2b 3d
       0.0648704 -0.0467324 -0.005637482 0.041800383
0003f0 28 8d 50 bb ab 7b 62 3c 24 be 0b 3c d1 f4 ff 3c
       -0.0031822417 0.01382343 0.00852922 0.031244667

qnet.fc2.bias f4 [128]
000000 24 c1 89 3c 39 61 5b 3d 4c 11 90 3d da b7 c5 bc
       0.01681573 0.053559516 0.07034549 -0.024135519
000010 30 7c 8b 3c b6 fe 95 3d 27 af 85 3d 7a e8 62 3d
       0.01702699 0.07323973 0.06527548 0.05539749
000020 f1 57 02 3c ab 34 bb bc 17 c2 33 3d 55 2a 8c 3c
       0.007955537 -0.022852262 0.04388627 0.01711003
000030 70 ca a5 bc 5f b0 b2 3d 2d e1 0a bc 4d ee 57 3d
       -0.020238131 0.08725046 -0.008476538 0.052717496
000040 c4 02 eb bb fd 1a e2 3b 26 80 78 bc 65 47 07 3c
       -0.0071719605 0.00690019 -0.015167272 0.008256768
000050 df d2 b8 3c 62 cb e1 bb 8c b1 ad 3c 64 74 18 3d
       0.022561489 -0.0068907 0.021202825 0.037220374
000060 57 a7 4d bd 68 17 d0 3c e9 db 18 3c 33 84 dc 3c
       -0.050208416 0.025401786 0.009329774 0.026918506
000070 c7 65 94 3c fd 90 2b 3d 74 cd 37 bc 9a e7 5a 3d
       0.018114937 0.04188632 -0.011218417 0.05344353
000080 70 8a 53 3c e9 3a e5 3c bb d8 13 bd 2e 60 4e 3c
       0.012911424 0.027982192 -0.036095362 0.012596173
000090 ea 60 44 3d 57 cc 76 3c e8 86 dc 3d fc 62 11 3d
       0.047943987 0.015063367 0.10767919 0.03549479
0000a0 10 cd c6 3b 4f 00 16 bd ad 57 0b bd f5 e3 0e 3d
       0.006066926 -0.036621388 -0.03401916 0.034885366
0000b0 6a 83 1f 3d 1b 12 3b 3d 3b 70 15 bd a0 17 1b bd
       0.038943686 0.045671564 -0.036483984 -0.037864327
0000c0 5d de 8d bc 99 f4 8a 3d f0 06 02 bc 47 27 20 3c
       -0.017317945 0.067849346 -0.007936224 0.009774989
0000d0 8d b3 48 3c fb 28 92 3d 61 c3 7d 3d 4f b6 47 bd
       0.0122498395 0.07136723 0.061953906 -0.048757847
0000e0 48 96 73 3d 1c 31 0e bd d0 5f 3a 3d 04 92 6c 3d
       0.05946949 -0.034714803 0.04550153 0.05775644
0000f0 41 66 b4 bc e9 8f 35 3d 0f aa 55 3c 44 2c 0f 3d
       -0.022021415 0.044326697 0.013041033 0.034954324
000100 c4 12 22 3c 44 bf 3f bc e1 1c b6 3d 25 01 28 3d
       0.009892169 -0.011703316 0.08892227 0.041016717
000110 3b be 0c 3d c9 87 3f 3d e9 0b 92 3c 1b 06 a4 3d
       0.034361105 0.046760354 0.017827945 0.08008977
000120 17 f6 5a 3d 2f 8d 0a 3d 9a bc 60 3d f7 24 9c 3b
       0.053457346 0.03382605 0.054867364 0.0047651487
000130 03 81 1b 3d ba c8 40 3c 34 a2 cc bc dd b6 ba bc
       0.037964832 0.011766607 -0.024979688 -0.022792274
000140 10 cb a3 3d 0b 0e 45 3c de 1b 6a 3d 6e 28 6f 3d
       0.079977155 0.012027274 0.057155482 0.058388166
000150 88 b4 92 bc 73 72 8a 3d a1 e1 8d 3c 7f 52 2f 3c
       -0.01790835 0.06760111 0.017319502 0.010700821
000160 8f e3 42 bd 5a 09 2e 3c a4 b8 50 3b 33 91 9d 3c
       -0.047580298 0.010622347 0.0031848336 0.019234275
000170 67 cb cc bc c6 a5 89 3c 6e 71 28 bd 13 fc 66 3d
       -0.024999334 0.01680268 -0.0411238 0.05639274
000180 f9 39 75 3c a6 1e 97 bc fc f4 72 3d 90 c1 90 3d
       0.014967435 -0.018447232 0.059315667 0.07068169
000190 9f 98 a3 3b b9 a3 f5 3c 4c 26 7a 3d 57 b3 86 bc
       0.004992559 0.029985296 0.06107168 -0.016442938
0001a0 e5 c6 53 bc 4f 7b 07 bc 1a 90 fa 3a dc f8 bb bc
       -0.012925838 -0.008269145 0.0019116432 -0.022945814
0001b0 71 cb 5f 3d c5 ca 0c 3d d0 1c f3 bc a7 46 fb 3c
       0.054637376 0.034373064 -0.029676825 0.030673338
0001c0 03 86 37 bb 53 89 98 3d e7 59 95 3c 21 71 08 3d
       -0.0028003461 0.074480675 0.018231345 0.033311013
0001d0 ce 70 47 3d 60 5f c9 bc 57 e3 88 3d 98 3b ad 3d
       0.048691563 -0.024581611 0.06683987 0.08458632
0001e0 29 84 bf bc 9c 0d 04 bc bb 2e 4d bd 09 dd 46 bd
       -0.023378449 -0.008059885 -0.050093394 -0.04855064
0001f0 41 29 50 bd 78 74 87 3d 75 cf c1 3d a0 f7 ac bc
       -0.050820593 0.066140115 0.094633974 -0.02111417

qnet.A.weight f4 [9, 128]
000000 4d 01 b9 3c 99 a5 87 3a c4 38 b0 3d ce a8 71 bc
       0.022583628 0.0010349035 0.08604577 -0.014749719
000010 03 46 23 3d cd b0 99 3b ae 81 88 bc 3e 5f 24 bd
       0.03986169 0.0046902657 -0.016663399 -0.040129893
000020 83 ac 12 bd 8d 35 96 3c b9 ce ae bc 36 6d e5 3d
       -0.03580905 0.018336082 -0.021338807 0.11202471
000030 6e 91 f4 bc ee 1d 66 bd b1 b0 00 bd 82 05 cf 3c
       -0.029854503 -0.056180887 -0.031418506 0.025271181
000040 24 c4 b2 3b 76 73 c3 bc e0 a8 ba 3d 27 c2 2e bc
       0.0054555107 -0.023858767 0.091142416 -0.010666407
000050 6c bd 98 3c 5b 7f cf 3c bf ec cd 3b 89 2a 58 3d
       0.01864501 0.025329283 0.006284326 0.05277494
000060 20 fd 0c 3d 3b 03 5a 3c e4 66 71 ba 93 93 c1 bb
       0.034421086 0.013306434 -0.00092087523 -0.005907485
000070 29 02 34 3b 52 cf 5e bd b4 9f e1 bc fa e3 2b bc
       0.0027467108 -0.054396935 -0.027541973 -0.010491366
000080 88 28 ac 3d 33 32 61 bd f2 a6 a4 3d 01 3d d3 3c
       0.08406168 -0.054979514 0.08039655 0.025785925
000090 6f 4f 91 3d 39 81 60 3d 31 4f 5b bd 72 37 8d bc
       0.07095229 0.054810736 -0.05354232 -0.017238352
0000a0 6a ab 02 bd 04 ca fa ba 4c 79 21 3d ea d4 88 bc
       -0.031901754 -0.0019133692 0.03942232 -0.016703088
0000b0 65 95 24 3c 56 3b cd 3c 08 0f 48 3d 93 02 87 3c
       0.010045384 0.025052708 0.04884246 0.01648072
0000c0 75 e2 97 bd 7e dd 7b bc 82 15 5d 3d 92 0e 5a bd
       -0.0741624 -0.015372632 0.05397559 -0.05323655
0000d0 96 42 08 3e eb a0 c8 bc e7 b7 80 3d d8 22 c9 3c
       0.1330665 -0.024490794 0.062850766 0.024552748
0000e0 54 d3 01 3e 51 c3 4e 3d 1a 43 19 3d e1 bd 8c 3d
       0.12678272 0.050479237 0.03741751 0.06872154
0000f0 59 52 04 3d b2 89 3a bd ac 8d 33 3d 4c c9 41 3d
       0.032305095 -0.045541473 0.04383628 0.047311112
000100 22 d5 e8 bb ec 98 27 bd a0 ed cd bd 6f de 09 3d
       -0.0071054855 -0.040917322 -0.10055089 0.033659395
000110 17 37 f1 3c b5 e7 7c bc 5c 54 4e bd fb 59 eb ba
       0.029445214 -0.015436103 -0.05037342 -0.0017955893
000120 75 3f 42 bd 75 83 0f 3e 31 ff 8b bd b7 5b 66 3d
       -0.0474238 0.1401499 -0.06835783 0.05623981
000130 75 bf 23 bd 72 03 6d 3c a6 79 0a 3d 29 dc 50 bd
       -0.03997751 0.014466153 0.03380742 -0.05099121
000140 2d f6 9b 3c a7 48 1d 3d a6 1c af bc 6a dd 0a bc
       0.019038284 0.038399365 -0.021375965 -0.008475641
000150 c8 39 49 bd 21 b1 06 bd 08 bd 81 bd b7 62 0b bc
       -0.04912737 -0.032883767 -0.06334883 -0.008507422
000160 51 00 32 3c a3 70 0b 3d 06 20 4b 3d a1 d4 c4 3d
       0.010864333 0.034042966 0.049591087 0.09610868
000170 a8 a5 20 3c ee f0 ae 3b 58 96 c6 3d 89 ea 83 3d
       0.0098051205 0.0053387797 0.096966445 0.064412184
000180 05 da c0 bc 5e 23 49 3d 5f 40 98 3d fe d1 bf 3c
       -0.02354146 0.049105994 0.07434153 0.023415562
000190 6c 9f 4e 3d b0 87 03 bb a4 cb 4f bc a6 bf 98 3d
       0.050445005 -0.002006989 -0.012682829 0.07458429
0001a0 1c 55 45 bd 9e fb c4 3d 7e 4e e4 3d 9f 0d ac 3b
       -0.04817687 0.09618305 0.11147784 0.005250647
0001b0 82 71 ef b9 fb a2 53 3c fa 65 3c 3b f2 0d 75 3d
       -0.00045670202 0.012917276 0.0028747306 0.059827752
0001c0 e7 1a a1 3d 4f d0 8e 3c b2 69 27 3c a4 ec 80 bb
       0.07866459 0.017433314 0.010218071 -0.0039344598
0001d0 2c 4c 1f 3d 16 90 82 3c 28 20 a6 3d da 1a 4f 3d
       0.038891003 0.015937846 0.08111602 0.050562717
0001e0 71 6e e6 3c 28 8a 50 3d cd c8 1e 3d 92 97 70 3b
       0.028128834 0.050913006 0.038765717 0.0036711437
0001f0 1f 68 0e bd 5d 6a af bc e6 ba 8e bd 09 55 21 3d
       -0.034767266 -0.021413023 -0.06969242 0.039387736
000200 8e 42 b5 3d f4 a1 b7 bc b3 10 3b bd 9f f7 3c bd
       0.08850585 -0.022416092 -0.045670222 -0.046134587
000210 fc 4a d1 bc f3 a4 4d bd 40 c8 88 3d 88 16 40 bd
       -0.02554845 -0.050206136 0.0667882 -0.046896487
000220 89 f1 16 bd 4a 0e 06 bd 78 72 e0 bb a7 73 34 3d
       -0.03685144 -0.03272847 -0.0068495832 0.044055607
000230 1e 78 06 3d ce 22 ce bc ea c3 89 bd 09 11 1f 3d
       0.032829396 -0.02516308 -0.06726821 0.038834605
000240 e9 7b 8b bd 8e 3f c8 3d 3b 1c 8a 3d b1 80 6f 3d
       -0.06810743 0.09777747 0.06743666 0.05847234
000250 a0 71 57 3d 8e 6c 4a 3d e1 69 29 3d 26 6a da bc
       0.052598596 0.049419932 0.04136074 -0.026661944
000260 d0 72 4a 3b 1e 17 bc bc 2b ab 6e 3d 7d a9 d7 3c
       0.0030891187 -0.022960242 0.058268707 0.026325935
000270 93 af 04 bd bb 9d 9f bc 38 7b 19 bd ea 76 54 bd
       -0.032394003 -0.019484391 -0.037471026 -0.051871218
000280 5d 7f 44 bd eb d6 97 bc 4f 21 67 bc f6 f7 e9 bc
       -0.047973026 -0.018535098 -0.0141070625 -0.02856062
000290 c6 b6 67 3d 86 67 fc 3c a9 58 c8 3c 22 63 04 3d
       0.05657079 0.030811083 0.024456339 0.032321103
0002a0 7d cf 6a 3d 47 c1 0c bc cb 69 62 bd d2 d8 c7 bc
       0.057326782 -0.008591003 -0.055276673 -0.02439538
0002b0 7d 5c d2 ba 91 4d 98 3d 15 f5 81 bd 13 88 95 3d
       -0.0016049292 0.074366696 -0.06345574 0.07301345
0002c0 e7 e1 14 3d fc 89 2a 3d 67 f7 d2 3c 66 1f 17 3d
       0.03634825 0.0416355 0.025752736 0.03689518
0002d0 8b 62 39 bd 96 14 8e bc dd e2 ba 3d e9 be 18 3d
       -0.045259994 -0.0173438 0.09125302 0.03729144
0002e0 69 0c 8e 3d bb 6e 55 3b 89 eb bb 3c cd 55 1d 3d
       0.06935961 0.0032567221 0.02293946 0.038411904
0002f0 bb 8b 18 bd ba 99 9c 3d 4f 95 c0 bc 5d 50 77 bd
       -0.037242632 0.076465085 -0.023508696 -0.060379375
000300 d1 e4 91 3d 38 ad d4 bc 36 9a c1 bb e1 67 81 3c
       0.071237214 -0.025961503 -0.005908276 0.015796604
000310 d6 21 32 3d a8 05 a3 bc b1 a5 f1 3c 4b 31 9f bc
       0.0434893 -0.019900158 0.029497953 -0.019432684
000320 a4 7c 4a 3c 3d 98 77 3d 71 6b b4 3b e6 38 67 3d
       0.012358818 0.06044792 0.005505972 0.056450747
000330 15 b0 31 bb 55 ab 1e 3d 97 9c 12 3e dd d6 12 bd
       -0.002711301 0.038737614 0.14317547 -0.03584944
000340 d9 74 7f bc fe 6b 9f 3d 7e e7 94 bc 3e 9c b7 bc
       -0.0155918235 0.0778427 -0.01817679 -0.02241337
000350 c3 a7 aa bc b8 cb 5b 3d 60 39 6c bd 1d db a2 3c
       -0.020831948 0.05366108 -0.057671905 0.019879872
000360 44 3e 84 3d 68 5c 17 3b 47 dd 03 bd bf 4d e2 bc
       0.06457189 0.002309585 -0.03219345 -0.027624963
000370 f7 68 41 bd 3b d2 ae 3d f8 21 f1 bc 95 5b db 3c
       -0.047219243 0.08536192 -0.029435143 0.026777068
000380 b0 19 eb bc d6 c8 2e 3d 7f 2c 7c 3d 5d e9 f2 3c
       -0.028698772 0.042672 0.061565872 0.029652292
000390 2b 32 80 3d 5b 66 02 3d c6 a1 7d 3d 92 58 46 3d
       0.06259569 0.031835895 0.061921857 0.04842431
0003a0 1b ea 1a 3c c3 b8 c8 bd 04 b9 1b bd b8 12 86 3d
       0.009455229 -0.098008655 -0.03801824 0.06546539
0003b0 5b 7e 19 3d 14 e6 64 3d 17 9f a7 3d 01 94 af bb
       0.037474018 0.055883482 0.08184641 -0.0053582196
0003c0 e8 ce 9b 3d bf 1f 6f 3c 5e af 88 bd 6b 87 cb bc
       0.076078236 0.014594971 -0.06674074 -0.024844846
0003d0 fb ca 14 3d f0 92 84 bd c4 f9 f5 3c 76 b3 86 bb
       0.03632639 -0.064733386 0.030026324 -0.004110749
0003e0 99 2d 5b bd 23 ac 72 3d aa 85 a8 bb 27 53 bf bc
       -0.053510282 0.059246194 -0.005142887 -0.02335508
0003f0 39 c8 80 bd cf 93 f9 bc 08 4c 78 3d 2e b3 cd bc
       -0.062881894 -0.030465988 0.060619384 -0.025109854

qnet.A.bias f4 [9]
000000 ce 39 92 3b 29 1c 29 3d e1 77 83 bb 1b 34 16 3d
       0.0044624573 0.04128662 -0.0040120934 0.036670785
000010 92 cb 64 3d 1a ca 49 bd 91 8d a1 3c 8e b9 93 bd
       0.055858202 -0.049265005 0.019720824 -0.07213126
000020 d5 c2 7f 3d
       0.062441666
