models2/q_eval_dqn.onnx (onnx, 286110 bytes, 6 tensors)

qnet.fc1.weight f4 [256, 11]
00000000: d067 21be 109f 933e 2df9 a93c 65b0 2c3e
00000010: 39e5 efbd 56fe c53d 1798 98bb a4c1 35be
00000020: f0af af3d bc36 123e a0d4 fd3d 3e0d 27be
00000030: 40da 8dbd acdc 3a3e f4b1 5bbd 4da3 27be
00000040: 726f e0ba d12d 5c3e 094c 623e 0dd0 b83d
00000050: ecbc 783e 20de 64be 56f3 8d3d 93aa 3d3d
00000060: 32b1 663d 6c9c e9bc ab71 3abd f5ce c1bb
00000070: 9eef 8bbd 7e31 873b c7c6 77bd 8009 a5bd
00000080: 4570 5cbc e496 a8bd 5960 093d 503b a13d
00000090: 6be4 d8bc 450e 153e 2350 06bd 80b6 9f3d
000000a0: 472c 0cbe 0cfc 903d 0943 f4bd 5388 dcbd
000000b0: 952a 12be 5ef5 023e b879 04bd be28 173e
000000c0: c13c bfbd 709c afbc f126 3fbc a257 4abc
000000d0: ff6d 5e3d 7773 a2bc d2e4 373e a0a4 943e
000000e0: 15bf 7abd ba7d fb3d ba29 d7bd f893 ff3b
000000f0: 9582 d23d 16ea 41be fe95 d3bc 79be 0bbd
00000100: 9a63 c13d a624 f0bd b819 4a3e 7b1a f63d
00000110: e475 143e c735 03be dd1d b13d 11b1 acbd
00000120: 821b b9bd cdb4 33be e43a 5ab9 6cd6 b2bd
00000130: 3d3d de3d e257 37be a0aa a1bb 79d4 af3d
00000140: baea c63d ec20 35be 0233 913d ff4e 1f3e
00000150: ce2b f03d 88d7 c0bd ede8 be3b 606d 00bb
00000160: 36ac b1bc 8dd6 a43d 1327 71bd 9e6c 1b3e
00000170: 919e d03b 24f3 41be 294b f9bc 12f7 6fbe
00000180: 5521 cabc ad9e 6fbd 10dd 903d 3429 34be
00000190: d62d 8e3d b4ab 783e c139 123d 0203 f03b
000001a0: 1141 aebd 335f c13d 4754 50bc 16aa b9bc
000001b0: 212c 543c d675 6b3d d54f 943d 49e8 93bc
000001c0: cc94 8fbc 008f 10be 01b7 29bd df02 143d
000001d0: 5515 843c 36eb b23d 81ef ec3d 561a 0e3c
000001e0: 2694 57be 7ba3 923d f861 1d3e f75b 653e
000001f0: 1915 c5bd 67af 51be 45b2 8abe 3d32 c63c
00000200: 5fdc 5f3d 9544 4fbc 52ed 153d ca52 a23e
00000210: cd96 80be 78fa 583e 57d0 6b3e 6a4a 433e
00000220: b6ec 4abe 9884 193e ed78 743d 7d1f 38bc
00000230: fb56 893b 473c df3b 3bc0 c3bd 0b05 163e
00000240: 16e4 3e3d 77b2 d53d f955 bfbc 2488 38be
00000250: 3234 96bd 285b fbbd 6c70 083e 4ecf 03bc
00000260: 54e0 f0bc 9df3 cb3d 460b 973e 3548 d7bd
00000270: 6812 0cbe 413e bcbd e05a 943d c813 13be
00000280: 6745 4ebe 3dcd 0f3d 94b6 373d 8f25 063b
00000290: 3967 af3e c6eb 1d3d 2ba3 0fbd 2cf2 063e
000002a0: 4aaa 5dbc 5d8a 30be 5b95 8cbd eede c7bc
000002b0: f53b 513e cf6b d83c 8b48 6e3e 2a9a f53c
000002c0: f8d7 02be 2cb2 863e 73a1 68be 8526 593e
000002d0: f8c7 23be 050e 123e 7ef3 d6bd bdbd eabd
000002e0: c38e ad3c ff40 cf3d 4252 683e 88a6 25be
000002f0: 68c8 053e e284 a239 285d 073b 8648 43be
00000300: 7f3f 9c3c 0181 383e b899 033e 1502 9e3d
00000310: db3e 093d df81 27bc b8f5 2b3e 56df 8dbd
00000320: ca2d 213e 6eef 84bd a235 12bd bce6 00be
00000330: 9f2d 01be aee4 963d 88e1 323d f69e 97bc
00000340: fbb3 ea3d 5931 023d ae96 943d cbd5 fabc
00000350: 2605 f3bd d480 19be 1b89 58be 88b4 ecbd
00000360: d699 e3bc d779 a93d f953 98bd 4b2c 11be
00000370: ac35 383e 1835 67bd 7cd2 a4bb 622e 8abd
00000380: b34c 703d 7353 ccbc c14c 9fbd 9aae 66ba
00000390: 019c 143d 4b2b 22be 9ae6 803d bb2f 81bd
000003a0: 201c 213d 79e6 3a3e 4256 a63e b0e0 bbb8
000003b0: b2af 2abe 1f95 86be 34f6 2bbd 90f6 02bf
000003c0: a3c9 07be 1f1a 9f3d 114e 4f3e 5e82 20be
000003d0: c309 2bbb 92e1 91be c0b9 d63d 1333 7e39
000003e0: 4b94 ab3d 8a39 523d 3ab9 6f3e 4d92 dfbb
000003f0: f802 0cbd 3b16 653e c81e 06be 0ea6 e0bd
-0.15762258 0.28832293 0.0207487 0.16864164 -0.117136426 0.09667651 -0.0046568024 -0.1774965
0.08578479 0.14278692 0.123940706 -0.16313645 -0.069263935 0.18248242 -0.053636506 -0.16370888
-0.0017123057 0.21501853 0.22099318 0.090240575 0.24290818 -0.22350359 0.06931178 0.04630525
0.05632133 -0.02851697 -0.04551856 -0.005914564 -0.06832813 0.004125773 -0.060492303 -0.080584526
-0.0134545015 -0.08231905 0.03353915 0.07872641 -0.026476106 0.14556225 -0.032791268 0.07798481
-0.13688765 0.07079324 -0.119268484 -0.10768189 -0.14274056 0.12788913 -0.032342643 0.14761636
-0.0933776 -0.0214369 -0.011666999 -0.012349995 0.05430412 -0.019830449 0.17958382 0.2903185
-0.061217386 0.1227984 -0.105060056 0.0077996217 0.10278813 -0.18936953 -0.025828358 -0.034117196
0.094428256 -0.1172574 0.19736373 0.120167695 0.14498097 -0.12813483 0.08648274 -0.0843221
-0.0903845 -0.17549439 -0.00020812039 -0.08732304 0.10851524 -0.17904618 -0.00493367 0.08585448
0.09712739 -0.1768834 0.07089807 0.15557478 0.11727105 -0.09416109 0.0058261068 -0.0019596443
-0.021688562 0.08048735 -0.058875155 0.15178153 0.006366559 -0.18940407 -0.030431347 -0.23434094
-0.024674097 -0.058500934 0.07073414 -0.17593843 0.06942336 0.2428425 0.03569961 0.0073245773
-0.08508504 0.09441986 -0.012715406 -0.022664111 0.012949974 0.057485424 0.07241789 -0.018055098
-0.017527007 -0.1411705 -0.04143429 0.03613555 0.016123453 0.08736269 0.11569119 0.008673271
-0.21052608 0.07160088 0.15369403 0.22398363 -0.09623165 -0.20477067 -0.27089134 0.024193877
0.05465352 -0.012650629 0.03660328 0.31703788 -0.25115052 0.21189296 0.23028694 0.19071355
-0.1981686 0.14991987 0.059685636 -0.011237976 0.004191277 0.0068126055 -0.095581494 0.14650361
0.04660424 0.1043443 -0.023356425 -0.18020684 -0.07334174 -0.12273246 0.13324136 -0.008045031
-0.029403843 0.09958575 0.29500788 -0.10511819 -0.13678896 -0.091915615 0.072438955 -0.14363015
-0.20143662 0.03510784 0.044851854 0.0020469164 0.3425844 0.03855493 -0.03506772 0.13178319
-0.01352937 -0.17240281 -0.06864425 -0.024398293 0.20433028 0.026418595 0.2326986 0.029980738
-0.12777698 0.2630781 -0.22717838 0.212061 -0.15994251 0.1426316 -0.10495661 -0.11461971
0.021186238 0.10119819 0.22687629 -0.16176808 0.1306473 0.00030998053 0.002065489 -0.19070634
0.019073246 0.18017961 0.12851608 0.07715241 0.03350721 -0.010223835 0.16792953 -0.069273636
0.15740123 -0.0649098 -0.03569568 -0.12588018 -0.1261506 0.07367836 0.043672115 -0.018508416
0.1146011 0.031785343 0.07255302 -0.030619523 -0.11866216 -0.1499055 -0.21146052 -0.11557871
-0.027783316 0.08275192 -0.074378915 -0.14177053 0.17989224 -0.05644712 -0.0050299745 -0.06747128
0.058666896 -0.024942135 -0.077783115 -0.00087998214 0.03628159 -0.15836827 0.06293984 -0.06307932
0.039333463 0.18251981 0.32487684 -8.958706e-05 -0.16668585 -0.26285645 -0.041982844 -0.51157475
-0.13260512 0.07768654 0.20244624 -0.15674731 -0.0026098348 -0.2849241 0.10484648 0.00024242354
0.08377894 0.051324405 0.23410502 -0.0068228603 -0.03418252 0.22371762 -0.1309768 -0.109691724

qnet.fc1.bias f4 [256]
00000000: f612 1a3c 13f5 aebe 08cc 5abe 1dd5 133e
00000010: 9424 b4be f6a3 c3bd 8f5f 4cbe 0e78 a83d
00000020: 1ebe c63d 3c03 90be b9b8 e13d 5906 7fbe
00000030: 5085 15be 1589 1c3e b4a3 b6bd 8fa0 92be
00000040: 628a 41bc 1933 97bd 3018 fcbd 1e8b 793e
00000050: ffec fdbc 97c8 2fbd fd21 1cbe 6736 e53d
00000060: aebf 033e bdc6 0bbe 440b 663e be30 36be
00000070: 4b67 18bd 8856 43be 2962 e83d 2f02 55be
00000080: fc0b cbba c535 48bd afd4 31be c40a d73d
00000090: ab0c afbe 9a38 adbd 013a 023d 3689 c33b
000000a0: f678 74be a125 8ebe 7d87 debd 2ac6 133e
000000b0: 3903 f13c 36d9 87be 3162 b5be 8bbb c83d
000000c0: 8297 8cbd d809 83be 5784 b53e 6003 6d3d
000000d0: b717 28be aefc 72bd 51be db3d 5253 30bd
000000e0: 0750 34be 254a c13d 9a7b 293e 8c72 303e
000000f0: 0e64 abbd 51d4 b9bc b566 70be dfdc b0bd
00000100: ffc5 593e f3f2 563e 9c92 4fbe e289 a33d
00000110: bbe6 9b3d 8029 b63d 84cf 5b3d ec26 103e
00000120: c838 633d 5f35 88be 86ba 66be 27e3 3cbe
00000130: 42f8 f6bc 2b45 6e3e 9adc 0e3e 4871 3c3e
00000140: 1fa5 cc3d b5d3 19bb 6ff6 533e 0770 8f3e
00000150: 7472 383d e644 823d 281d 533e 34f1 41be
00000160: 869d 54be d515 a5be cf29 a6bd 77f8 743d
00000170: b2df ffbd d06b c7be c9ae 01bb 2bc7 30bd
00000180: 4609 a3bd af97 b23d ec6c b1bd 1532 983e
00000190: 2949 153e 1cf5 d5bd e752 8d3e b293 8ebd
000001a0: cff2 a1bd 6e53 a03e aafa ee3d 101e 17be
000001b0: 73f3 19be 669a 66be 4619 43be cbf5 a83c
000001c0: c26c a83e b7f6 28be b950 7fbe e964 23be
000001d0: beac 53be 22e3 863d 1007 ffbd 2596 a2bd
000001e0: f701 9b3e c2fa 52be 5ad4 94be 9943 033e
000001f0: 203f a3bd c750 2abe 3658 013e b773 5bbe
00000200: 5c6a 3ebe 0e81 703d 44bd 213e 995e 79be
00000210: 3b56 1dbd 7f9c dc3c 2b01 1d3e 3788 69be
00000220: ea0e 86be d663 09be 231b b8be bc03 573d
00000230: 9f9f b33d 4039 283e 5db0 27bd 416a 7c3d
00000240: c306 a3be 2107 91bd e028 aebd 5407 603d
00000250: da32 f23c 249b 06bd 6301 1ebe 2808 403d
00000260: c94b bdbe 2357 7a3d 8ec7 5a3a c204 a33e
00000270: 5b68 50bd 6771 f33d 7712 e4bd d837 7d3e
00000280: daf0 acbe 493c 88be ce0b 013e 1f9f f4bb
00000290: c2cf 2a3e 3523 37be 4169 683d 5031 893d
000002a0: 4e36 11be a22e 813e 7f43 b3be 37ad 883e
000002b0: 3c57 893a b31d c1bd fcfd 82be b646 a23d
000002c0: 1b43 b8be fa16 aebe bdd7 123d 8ba8 a93e
000002d0: d7d5 af3e dc19 3fbe e92c 9dbe ed5c 6cbe
000002e0: 06ec 49be cf98 9cbe 0f32 07be c9a5 39bd
000002f0: 6927 6ebe 8f50 923d 6b34 7ebe 082b 8a3e
00000300: 6b82 9dbe e599 3fbe dcee bfbe ab5c 05bd
00000310: 7a63 883c be21 463e c738 8e3e b8ee ee3d
00000320: 253c f73d e0a3 68be 2c91 9a3e ee50 55be
00000330: 9c26 f1bd e6eb aa3d 7498 0f3e c2cd 23be
00000340: 7844 5f3d e5fc 99be e10f 023e 0a54 593e
00000350: 3371 95bd 2b29 5d3e 6fd3 a03c 034f 31be
00000360: 4e14 81be 183a 213e a392 a03d be34 97bd
00000370: f2d5 e7bd b394 233e 07de 69be cda9 84bd
00000380: e6f6 eabc 8ef2 0e3e 6922 cebb 2f05 c3bd
00000390: b6f0 17be 7167 d33d 9cdd efbc a224 893e
000003a0: c599 cc3e 0623 683e 904b 8f3e 436b 733e
000003b0: 599f c4be dbbf 713e 90c3 103e 70b9 77be
000003c0: f52e b53d 0bb0 823e 3913 1f3e d9cd ddbd
000003d0: 93e0 083e 9e58 ebbd fb39 cfba 4700 3e3e
000003e0: 52fc 19be 24d2 cebe e305 143d 36b0 5e3e
000003f0: 7f1b a0be 9e72 3f3d dfb3 4fbe cd6c 2abe
0.009403935 -0.34171352 -0.21366894 0.14436765 -0.35184157 -0.095527574 -0.19958328 0.082260236
0.09704231 -0.28127468 0.11021561 -0.24904765 -0.14601636 0.15286668 -0.08917943 -0.2863812
-0.011812778 -0.07382793 -0.12309301 0.24369475 -0.030996798 -0.042915907 -0.1524734 0.11192017
0.12866089 -0.13650031 0.22465235 -0.17792031 -0.037207883 -0.19075978 0.113468476 -0.20801614
-0.0015491243 -0.048879404 -0.17366289 0.105001 -0.34189352 -0.084580615 0.031793598 0.0059672846
-0.23874268 -0.27763084 -0.10865686 0.14431062 0.029420482 -0.26532906 -0.35426477 0.09801396
-0.06864835 -0.25593448 0.3545253 0.057864547 -0.16415296 -0.059323005 0.10729659 -0.04304821
-0.17608653 0.0943797 0.16551057 0.17231196 -0.08368693 -0.022684248 -0.2347668 -0.08635878
0.21266936 0.20991115 -0.20270771 0.079852834 0.07612368 0.08894634 0.0536647 0.14077348
0.055474073 -0.2660322 -0.2253209 -0.18446027 -0.030147675 0.23268573 0.1395134 0.18402588
0.09992432 -0.0023472134 0.20699476 0.28015158 0.045031026 0.063607976 0.20616591 -0.18939668
-0.20763215 -0.3224322 -0.08113443 0.059807267 -0.12493838 -0.38949442 -0.0019788018 -0.04315869
-0.07960753 0.087203376 -0.08663353 0.2972571 0.1457869 -0.104471415 0.27602312 -0.069617644
-0.0790764 0.31313652 0.11668904 -0.14757562 -0.15034275 -0.22519836 -0.1905261 0.020625016
0.32895476 -0.16500364 -0.24933137 -0.15956463 -0.20671365 0.06586291 -0.12452519 -0.07938794
0.30274937 -0.20603469 -0.2906826 0.12818755 -0.079710245 -0.16632377 0.12631306 -0.2143086
-0.1859526 0.058716826 0.15794855 -0.24352492 -0.038412314 0.026930092 0.15332477 -0.22805868
-0.26183254 -0.1341699 -0.35958204 0.052493796 0.0877068 0.16428089 -0.040939678 0.06162477
-0.31841096 -0.07081438 -0.0850389 0.05469449 0.029565264 -0.032862797 -0.15430216 0.04688278
-0.36971882 0.061118256 0.0008345776 0.31839567 -0.05088077 0.11886864 -0.111363344 0.24728334
-0.33777505 -0.26608494 0.1260216 -0.007465258 0.16680816 -0.17884524 0.056741003 0.06698859
-0.14180872 0.2523089 -0.35012433 0.26694652 0.0010478268 -0.09429493 -0.255844 0.07923643
-0.35988697 -0.34001905 0.035850275 0.331364 0.34342834 -0.18662208 -0.30698326 -0.23082323
-0.19718942 -0.30585334 -0.1320269 -0.04532412 -0.23257221 0.071442716 -0.24824683 0.26985955
-0.30763564 -0.1871105 -0.37486923 -0.03255908 0.016648997 0.19348809 0.27777693 0.11666626
0.120720185 -0.22718763 0.30188882 -0.20831653 -0.11774942 0.08345775 0.14023 -0.15996459
0.054508656 -0.30075756 0.1270137 0.21223465 -0.07296982 0.21597736 0.01963207 -0.17315297
-0.25210804 0.15744817 0.07840469 -0.07383107 -0.11320104 0.15974693 -0.22838603 -0.064776994
-0.028682183 0.13959715 -0.006290723 -0.09522473 -0.14837918 0.10322464 -0.029280476 0.2678576
0.39961067 0.2266961 0.27987337 0.23771386 -0.38402823 0.23608343 0.14137101 -0.24191833
0.08846847 0.25524935 0.15534677 -0.10830278 0.13366918 -0.11491512 -0.0015810126 0.18554793
-0.15037659 -0.403947 0.036138427 0.21746907 -0.31270978 0.046740167 -0.20283459 -0.16643067

qnet.fc2.weight f4 [256, 256]
00000000: a63d d23c c4e9 bf3d bf59 6f3d f341 b93d
00000010: 4493 3ebc 6cbd 3abc 4b9c 39bc ce08 a93c
00000020: 8cdb fd3c d3af 58bd de8e 01be 3337 b8bd
00000030: fb5f 35bd efa5 a2bc 22a3 1a3c 9712 253d
00000040: 3806 823d 7673 08bc 1b16 54bd 9389 ed3c
00000050: e938 0bbe 4898 ce3c dd9e 22be ed97 06be
00000060: d0ef 663d c413 1a3d 506f f13b a15c b9bd
00000070: 0677 a2bd 68ff bcbd 5967 873d 8cc3 5ebd
00000080: 1b3c 83bd 7689 b33c 2804 a73d 7591 d03d
00000090: 83d1 6f3d 7f62 d8bc 0131 8dbd f24e 003d
000000a0: ec72 9dbc 5df4 1cbe 1178 e93c fafb afbc
000000b0: 1127 e6bc 966a 5f3d 9a73 a83a 5a50 b2bd
000000c0: 4173 19bd 4e00 703d 5205 f2bb 254f 8cbc
000000d0: 507f 83bd 281d 463d 450b 04be ab73 db3d
000000e0: 7103 41bd 6585 40bd 3001 e8bd c6a7 3ebe
000000f0: 9575 e13b fb74 04be c85b ac3c 0676 1dbe
00000100: 0211 9b3c fd98 923d f5c0 33bc 4905 e33c
00000110: 9727 f13b e534 823d 542a 3abb 1aa5 0bbd
00000120: 05ca 05bd f818 2abd c40b 46bd b205 b9bc
00000130: 0152 c43d 5b77 463d c5cd 253d 697c 28bb
00000140: 139b b1bc bd55 4f3d 1fc1 a43b bd39 95bc
00000150: bf5d 263d 7a44 49bd 53c2 9dbc f2b0 123c
00000160: abdd 20bc 7316 413d aa1f c5bc 0556 10be
00000170: c240 76bd 5af3 9dbc ac95 29bd 6b70 72be
00000180: a655 5dbd f014 cebd 9702 973d 3bd9 053d
00000190: 4b87 b2bc d151 283d 8baa 7bbd 556c 75be
000001a0: 78ff 9c3c a6cd 6ebc 1891 82bd 6810 cfbd
000001b0: 16a3 913c a7c4 7a3d b710 7e3d 97ae c13a
000001c0: e073 8fbc 4ad4 823d 9a13 88bc 16f0 b7bc
000001d0: 5139 a53b e9c7 20be e0e9 47bd 1c5c e0bc
000001e0: 92b1 fbbd acbe 7bbd 9f67 03ba f2d7 f2bd
000001f0: 920a 4bbc 4345 4bbc 4987 2d3d a605 87bb
00000200: 0ae2 0dbd 5f7b 663d 264f 863d 477a 0ebd
00000210: ebc4 25be 30a6 733d 371d 083d b456 7abd
00000220: 0960 60be 9436 6939 63ee 593c f299 02bc
00000230: c121 123d 759b 17bb 6496 67bd 7d17 adbc
00000240: 15f7 1cbe cf11 a13c 37d5 3abd eb5e 293d
00000250: 1b5b dd3d dc25 0fbd d51e 0d3d 3a98 763c
00000260: 6138 723d bc8b 343d 4174 693d 88ea 51bd
00000270: 35a5 823c ed1c 903c 830f 813d 61a2 243d
00000280: cfc9 08bc 9ca5 473a 57ab 9f3b cec4 923d
00000290: 8741 a6bc beb6 0ebe 6ff3 23bd e38c 88bc
000002a0: 35dd d53d 6431 66bd 78b7 27bd acfd ffba
000002b0: ca93 d0bd dce1 ab3c 076b efbd 9d4f 63bd
000002c0: 3ec3 55bd 2331 583d 5926 83bd 3cd8 40bd
000002d0: ac89 953d 7fd8 d8bb 1fb6 263d 6f6f 80bc
000002e0: 506d 5dbd ba49 2a3d 3c9c 49bd af31 0f3d
000002f0: 09b9 3f3d c4d0 3ebd 48de 5fb9 841a 313c
00000300: 5569 b23c 9103 94bd 991f 93bd d302 97bc
00000310: 5a14 693c 6d64 b73c a0a6 cb3c 70dc 91bc
00000320: f1b5 5fbd 05f0 6fbe 309c e8bb 8157 153b
00000330: bc56 373d 2f44 03bb 774f 983d d68e 1a3c
00000340: d38b 913d 2e25 00bd f7e0 6fba 6e71 3ebd
00000350: 8cd3 0fbc e628 a6bd 4eae e53c b3ac 5bbd
00000360: 7785 633d bdf9 3e3d 2f96 15bd 9aba 8a3d
00000370: 5de5 ac3c c43b 663d a357 e83c 6dbd 57be
00000380: bc2e 473d 4cc7 a3bd 92a7 04bc b468 c9bb
00000390: 814f 38bd 7d1c 18bd cd9a 1dbd 4d9c b83d
000003a0: 9b80 aabd 513e c7bd 05c1 60bc 07e8 cdbe
000003b0: dc75 a5bd 0650 1abd 747d bebc e56c a1bc
000003c0: 000d 03bd 556d 3bbd d99c 9a3d 4e52 543c
000003d0: 2aa8 f83c d819 6fbc 4787 d03b 8814 62bc
000003e0: e4a3 0b3d 55c9 19bd dbfa b4bd c8a6 193d
000003f0: 8bb4 e8bc 105f f9bc 9b28 b03c 1352 c13c
0.025664162 0.09370759 0.058435198 0.09045782 -0.011631791 -0.011397701 -0.011328767 0.020634081
0.030988477 -0.052902054 -0.12652156 -0.089949034 -0.044280987 -0.019854514 0.009438308 0.04030093
0.063488424 -0.008328309 -0.051778894 0.028996265 -0.13595928 0.025219098 -0.15880914 -0.13143893
0.056381047 0.037616506 0.007368006 -0.09050871 -0.07932858 -0.092284024 0.06611509 -0.054385707
-0.064079486 0.021916132 0.081550896 0.10183994 0.058549415 -0.026414154 -0.068941124 0.031325288
-0.019219838 -0.15327592 0.028499635 -0.021482456 -0.0280948 0.054545008 0.0012851835 -0.08706732
-0.03746343 0.05859404 -0.007385888 -0.017127583 -0.06420767 0.04836765 -0.12894924 0.10715421
-0.047122423 -0.047002215 -0.113283515 -0.18618688 0.006880472 -0.1293525 0.021039858 -0.15377054
0.018929008 0.071580864 -0.0109712975 0.027712481 0.007359456 0.06357745 -0.0028406577 -0.034093
-0.032663364 -0.04152772 -0.048351064 -0.022585724 0.095859535 0.04845367 0.04047944 -0.002570892
-0.02168039 0.050618876 0.0050279046 -0.018216008 0.040616747 -0.04913757 -0.0192577 0.00895332
-0.009818475 0.04714055 -0.02406295 -0.14095314 -0.06012035 -0.019281078 -0.041402504 -0.23675697
-0.05403676 -0.10062587 0.07373541 0.03267787 -0.021793028 0.04109365 -0.06144194 -0.23967107
0.019164786 -0.014575398 -0.06375331 -0.10110551 0.01777796 0.0612227 0.06202766 0.0014776763
-0.017511308 0.06388147 -0.01661091 -0.02245335 0.005042233 -0.1570126 -0.048807025 -0.027387671
-0.12289728 -0.061461136 -0.0005012694 -0.118575945 -0.012392657 -0.01240665 0.042365346 -0.0041205464
-0.034639396 0.05627 0.06558065 -0.03478458 -0.161884 0.05948466 0.033230986 -0.061117843
-0.21911635 0.00022240944 0.013301465 -0.007971274 0.03567672 -0.002313343 -0.056539908 -0.021129364
-0.1532863 0.019661812 -0.045613494 0.041350286 0.108083926 -0.034948215 0.03445323 0.015050942
0.0591358 0.044078574 0.056995634 -0.051249057 0.015947917 0.017591918 0.06301787 0.04019392
-0.008348896 0.0007615925 0.00487272 0.07166444 -0.020294918 -0.13936898 -0.04002708 -0.016668743
0.104425825 -0.056199446 -0.040946454 -0.0019530556 -0.101844385 0.020981722 -0.11690336 -0.055495847
-0.05218815 0.052781235 -0.064037986 -0.047081217 0.073016495 -0.006617605 0.040701028 -0.015678136
-0.054059327 0.041574217 -0.049221262 0.03495949 0.046807323 -0.046585813 -0.00021349743 0.0108095445
0.021778742 -0.07227243 -0.07183761 -0.018433964 0.014226044 0.022386754 0.024859726 -0.017805308
-0.054616872 -0.23431404 -0.007098697 0.0022787752 0.04476045 -0.0020029654 0.07437032 0.009433469
0.071067475 -0.031285457 -0.0009150649 -0.046494894 -0.008778464 -0.081132695 0.028037217 -0.053631496
0.055547204 0.046624888 -0.03652018 0.06773873 0.021105463 0.05620934 0.028362101 -0.21068354
0.048628554 -0.07996997 -0.0080965925 -0.006146515 -0.044997696 -0.037136544 -0.038477708 0.09014187
-0.08325311 -0.09728683 -0.013717894 -0.40216085 -0.080791205 -0.037673973 -0.02325318 -0.019705245
-0.03199482 -0.045758564 0.075494476 0.012959076 0.030353624 -0.014593564 0.0063637826 -0.01379884
0.034091845 -0.03754552 -0.088369094 0.03751257 -0.028406402 -0.030440837 0.021503737 0.023598706

qnet.fc2.bias f4 [256]
00000000: cb4b 6ebd 058a 80bc 29f2 4dbd b801 bbbc
00000010: 659e 703c b170 c7b9 8de6 0ebd 15ff e23c
00000020: 5f60 f7bc 17ef 943d 791f 533d 361c 073d
00000030: dfe3 673d fccf 843c 54a9 86bc bc29 29bd
00000040: c752 24bd 20dd 38bb d57c e93c 35b9 693a
00000050: 9d7e 363c 3748 86bd 6805 0f3d d1d0 5d3c
00000060: 5063 d9bc 7efc a6bc 5652 4dbc b90d b03c
00000070: 76a9 2fbc 0753 b73c ba2a 803d 5722 e63c
00000080: eb87 0dbd 72da 0b3d de95 96bd 71a7 5e3c
00000090: 13d3 83bd e9ab 5abc 61e7 1cbc 5f26 773c
000000a0: a59a d7bc 2f92 32bd d10a 22bb d41a 40bd
000000b0: ffee fbbc e17f 6bbd f5f4 95bc 4e2a 58bd
000000c0: d368 a8bd 3b23 ad3c f3e3 2f3d 6160 71bd
000000d0: c0fd 7ebc ce7f 50bd db7d 903a de3a eabc
000000e0: b6af 9abc aef6 adbd aa56 70bd 090e 90bd
000000f0: b9d6 163d 3fa7 363c 5f53 6c3c 1683 933d
00000100: 9e47 af3b 4474 8c3c d42f 1c3d b2c4 bf3c
00000110: 6824 f03a d05a a1bd b192 64bd 51a0 4bbd
00000120: 8365 a3bb cfb1 e2bc 156a 73bd a609 d5bd
00000130: a244 87bd 0225 053d 4699 4e3d ee79 a2bb
00000140: 210d d2bb 705e 283d 9bd2 853d ab23 6dbd
00000150: fa3d aabd 97ab 3fbd 118c ff3c 14cb 483d
00000160: c056 fcbc b63c 87bd 635f 8ebd 1fb3 243d
00000170: 8e5a 673c e0c9 043c ff18 e5bc c7b4 3bbd
00000180: 2adb a2bc 353e b6bc de31 58bb dbda 4bbd
00000190: 4a93 9fbd 1880 bb3c 8094 0d3d b473 46bd
000001a0: d1a5 15bc 1d84 40bc a9de c8bc bc35 5fbd
000001b0: 01cb a43c 30dc 383d 031a 33bd f613 013d
000001c0: 3d48 4abd 2c44 2bbc e6a1 3fbd de44 2f3d
000001d0: bba9 983b 758f 93bd 020b 87bc dcdb 2cbd
000001e0: 237b 57bd 1213 22bc 0abb 183b f920 31bd
000001f0: 2974 8abc e27b d1bc 4e17 bebd 46c6 f53b
00000200: 5ce9 3abd 986f 043d 1008 b83c 2eaf 5dbd
00000210: 9c49 b23b 1ea9 13bd 7200 6ebc 5495 143c
00000220: 8f31 c7bb aaef 423d 1102 d83c 35fb 52bd
00000230: b45f 80bd 090c 493d 26a5 633a 6d70 dfbc
00000240: 639d d2bc b389 bf3c bb25 1f3c 4690 063b
00000250: 8f2e 753c c08c 0fbd 9588 973d 5773 2c3b
00000260: e118 163d ed57 a93a 7b2f 773d 68e3 353d
00000270: fe97 59bd 511a 6cbd b825 25bc 8556 2a3c
00000280: bf3a 07bd b547 47bc 9a39 4fbd 4d8f 88bd
00000290: 2350 0f3d 2459 fdbc 09f7 23bd 8761 0a3d
000002a0: fe29 083d a72c a1bc c76e 4c3d a180 a0bd
000002b0: ac2f 323d f65b bcbb d264 ee3c b591 003d
000002c0: 4bf4 a2bc c66d 9c3c bef7 803d 303d 233c
000002d0: 4f50 0abd 553d 33bc 7f4b 6f3b 60db 5bbc
000002e0: 1eb8 343d 5c34 ac3c 3887 30bd 76fb 9bbc
000002f0: 7f3b 91bd 6f44 133d 37d0 6d3c e908 0bbd
00000300: 0776 9bbb 435c b9bc 1b34 a53c 8189 04bd
00000310: 20b6 fe3c f0be 873c 7733 1e3c c71e c8bc
00000320: fa00 abbb b73b f0bc 7a2f 3e3d 275c 8d3d
00000330: 1f0e 85bd 6b5e 9c3b f4e5 1e3d 5460 38bc
00000340: 2d87 473d ded8 3dbc bf6b 243d 7411 85bc
00000350: 2e8c ddbc 3e9b fabc 100a 3b3d e1af 50bb
00000360: d457 95bd 6714 d23c 9fc8 4abd f0ee 9f3a
00000370: 324a 3abd 993b 3a3d 68b7 84bc e65e e13c
00000380: cf5e 973b c838 a6bd db5e 403d cb1d 84bd
00000390: eebc 02bd 34b9 81bc 8386 a9bb 3908 6dbd
000003a0: 7226 0bbd 62f8 40bd c94b 31bd 7e4f 0c3d
000003b0: 2b1b 8e3c c962 023c 04a8 583c 8241 5a3d
000003c0: 96cb 223d dcf0 12bb fa55 d3bc 896a 2fba
000003d0: af0c a23c 659f b5bd e71e d7bc 7fd2 33bc
000003e0: 5d0d a1bc 6da6 09bd 0cd7 613d 1c42 a23a
000003f0: e24f 80bd 9f0b 863c 56a9 56bd ac38 06bc
-0.05817775 -0.015690813 -0.05027977 -0.022827968 0.014686202 -0.000380402 -0.03488784 0.027709523
-0.03019732 0.07272165 0.051543687 0.03298589 0.0566138 0.016212456 -0.016438164 -0.041299567
-0.040118005 -0.0028207973 0.028501907 0.00089158426 0.011138585 -0.06556743 0.034917265 0.013538555
-0.026536614 -0.02038407 -0.012531837 0.021490918 -0.010721555 0.022378458 0.062581494 0.028092546
-0.03455345 0.034143873 -0.07352804 0.013589726 -0.064367436 -0.013346651 -0.009576649 0.015084832
-0.026318857 -0.043596443 -0.0024725685 -0.046900585 -0.03075361 -0.057495 -0.018305281 -0.05277472
-0.08223119 0.021134963 0.042942 -0.058929805 -0.015563428 -0.050903134 0.0011023836 -0.028592523
-0.018882614 -0.08494316 -0.0586764 -0.07033927 0.03682587 0.011148273 0.014424174 0.07202737
0.0053491136 0.017145284 0.03813155 0.023409221 0.0018321397 -0.07878649 -0.05580396 -0.049713437
-0.0049864664 -0.027672676 -0.05942734 -0.10402231 -0.066048875 0.032505997 0.05043914 -0.004958383
-0.0064102565 0.041105688 0.065343104 -0.057895344 -0.08312602 -0.0467945 0.031194719 0.049021795
-0.030803084 -0.066033766 -0.06951787 0.040209886 0.014120711 0.008104771 -0.02796602 -0.0458267
-0.019879896 -0.02224646 -0.0032988708 -0.049769264 -0.07791765 0.022888228 0.03456545 -0.048450187
-0.009133772 -0.011750248 -0.024520235 -0.054494604 0.020116331 0.045131862 -0.04372598 0.031513177
-0.049385298 -0.010453265 -0.046785258 0.042790286 0.0046589053 -0.07205097 -0.016484741 -0.04220186
-0.052607667 -0.009892242 0.0023304843 -0.043244336 -0.016901093 -0.025571767 -0.09281789 0.0075004427
-0.045632705 0.032332987 0.022464782 -0.054122142 0.005440904 -0.036049955 -0.014526473 0.009068806
-0.006078906 0.047591843 0.026368173 -0.0515091 -0.06268254 0.049083743 0.0008683972 -0.027275288
-0.025709813 0.02338109 0.0097135855 0.002053277 0.014964714 -0.03504634 0.07399098 0.0026313865
0.03664482 0.0012919881 0.060348015 0.044406325 -0.053123467 -0.057642285 -0.010079794 0.010396604
-0.03301501 -0.012163092 -0.050592043 -0.066679575 0.034988534 -0.030926295 -0.040030513 0.033784416
0.033243172 -0.019674612 0.049910333 -0.07837034 0.043502495 -0.0057482673 0.02910081 0.031388957
-0.019891879 0.019095313 0.06297253 0.009963319 -0.033767994 -0.010939916 0.0036513505 -0.013419002
0.0441209 0.02102106 -0.043097705 -0.019040804 -0.07091426 0.035953935 0.014514974 -0.033944044
-0.0047442946 -0.022627002 0.020166447 -0.032357696 0.031092703 0.016570538 0.009655825 -0.024428738
-0.0052186223 -0.02932535 0.046431996 0.06902342 -0.06496834 0.0047719977 0.03879352 -0.011253435
0.048712898 -0.01158735 0.040141817 -0.016243674 -0.027044382 -0.030591603 0.045663893 -0.0031843113
-0.072921425 0.025644494 -0.049507733 0.0012201946 -0.045480914 0.045466993 -0.016200736 0.027511071
0.0046194564 -0.08116299 0.04696546 -0.06450995 -0.03191846 -0.015835382 -0.0051735057 -0.05786917
-0.03397221 -0.047111876 -0.043285165 0.034255497 0.01734694 0.0079581225 0.013223652 0.05328513
0.039744936 -0.0022421395 -0.025797833 -0.0006691595 0.019781439 -0.08868293 -0.026259853 -0.010975479
-0.019659692 -0.03360598 0.055136725 0.0012379321 -0.062652364 0.016362963 -0.052407585 -0.008192223

qnet.A.weight f4 [9, 256]
00000000: ff53 5ebb 592c 1abd 285f c73d 780d 6b3d
00000010: 70d0 1cbd 2be0 3bbc e164 553d 236a f63c
00000020: 01a9 c3ba 84f7 83bb 3337 013b 0500 3d3d
00000030: cb02 813c 35fc 35bd 29fa 69bc 6504 1e3d
00000040: 9ba2 f23c 4ad3 b6bb a177 e63c e58b c53d
00000050: ae8f f4bb 2e57 633d f65b b53c 4a53 723b
00000060: 2246 a3bc 529c 243c 2d59 253c a0c2 ebbb
00000070: 288d 6abd 8f62 ce3c 7616 a03b 3722 f83c
00000080: 0e70 bbbc ce2b b93c 6538 423d 03ef 063c
00000090: e056 013d caaa 8a3c 5271 1fbd 2576 f83b
000000a0: d07e 29bd 268c 1c3d cb7e 8bbc cfc5 fabb
000000b0: b44a ca3d 101e 473d 09f8 b23d bdbf 943b
000000c0: bc64 9b3d a3f3 00bd d892 463d 03cf 783d
000000d0: f9b2 d7bb b927 193c 3598 8f3d 9d89 563d
000000e0: c748 05bc d401 5ebb 92cf acbc 1a0c b5bb
000000f0: e2ad 39bc 8fa8 0a3c 0557 003d 8ba0 ea3b
00000100: d1a8 803d ccdb 9fbc 4d08 e43c 5de7 f7bc
00000110: a175 06bc 4996 22bd d5a4 ddbc 69c4 95bd
00000120: fc1f f13c 0673 e3bc 76ec a13d 8d76 c03c
00000130: 6f1b 4d3d 0ab5 883d 9b80 0abd 1518 cf3a
00000140: b70c 04bd c7f1 4dbd c3c8 bfbc 6d54 e13c
00000150: 5d6b a63b d311 4ebd 07a5 a63c f87e d1bd
00000160: faed 8e3b 205a a6ba 4e1b e4bb e8c1 8dbc
00000170: 8133 9ebd d086 09bd a5b5 c1bc 595f 823c
00000180: 296c 39bd ec3b 383c 5a44 393d 69ca f23c
00000190: 4262 a03d 3967 033c 3d20 663d 344a 35bd
000001a0: 7a70 353b 52f5 1d3c 0eee 1a3d c7c2 49bd
000001b0: 94c6 743c fce7 393d b0fa 323b 28da 253c
000001c0: 16fb 4a3c 460d 083d ccb9 dbbd 310d ab3c
000001d0: 417f 813d 2b07 0c3d ae53 c83d 9ce7 abbc
000001e0: e0c8 b83d c965 b3bc 6901 913c 78b7 6fbc
000001f0: 8101 98bb 9aa4 b13a 9379 cabc 1e75 5a3c
00000200: 3cba e3bc 743e 323c afd3 a23c 4bf9 3dbc
00000210: f593 203c e54e 973c 2cbf b33c e835 24bd
00000220: 226c 123d 49aa e3bc a38b 6b3d 41ae 9abc
00000230: daf2 b9bb dc5b d6bb d595 0e3d b840 82bc
00000240: 2df7 89bd 66d9 47bc a3ef 1e3d 7f00 043b
00000250: f205 12bd 28d7 f6bc f568 8eb8 2db8 163c
00000260: a4b4 f13b 9cb0 293d a178 64ba 19f5 b83c
00000270: 4d29 07bd 6a34 9c3d e20d 1c3d 7d1d c43c
00000280: a049 05bc 02de 0e3d fc55 c03c 69bb 3f3c
00000290: 2012 6d3c e828 80bd 1185 10bd 470c d3bd
000002a0: f44b 6d3d d16c 2d3d e167 cfbc 9164 58bc
000002b0: f5f1 31bc e67e e43c bf94 543c d3ca a93c
000002c0: 82d6 f9bc 3a6d 203c 92a7 e03b cccb 623d
000002d0: 88ec fc3c 1173 523d 4b62 90bc ba93 813d
000002e0: f2fb dbba 21c3 2cbe e9bf 053d b59c 9e3d
000002f0: 69ff a63c e652 e5bb 3249 6dbd 4372 203c
00000300: 8921 d03c 9657 7abd cfe7 ab3c 0080 29bc
00000310: 80ad 253d 297f 953c 172e e43c 98bf 863b
00000320: 3561 063d a952 883b 333a bcbc 8efa 2dbd
00000330: d764 cc3c ba7c fd3c 5fe1 aa3d c031 103d
00000340: 3ac6 2e3d e618 a43d 281a 223d 8d53 453d
00000350: 6283 8abb 769c dc3d 6aa8 453d 19c4 5c3d
00000360: c89e d03c b350 2abe cbbc b3bc 6779 0f3d
00000370: 6111 7ebb c2c2 6e3d 1ac8 5fbd 9624 07bc
00000380: 2fa2 833d a213 6d3d 2b6d fcbc 4fdf 5dbc
00000390: 8512 b63b 8abf f1bb c562 0dbd 6df4 38bd
000003a0: a424 bf3c 6612 c03c 7f98 d8b9 4195 073e
000003b0: 26a2 cc3c 29e8 16bc 5949 163c fa48 8dbd
000003c0: e105 c23c 3878 8d3c eaa7 933b 258b 853c
000003d0: ebbd 213c 7971 a5bd 22a0 70bd 46c5 e1bc
000003e0: 67be 6dbc 2ab6 9abc 28cd 333c 4f88 123c
000003f0: bf4e cdbc c1d9 753d 586d 6bbd 8d4f 0e3d
-0.0033924577 -0.03763995 0.097349465 0.05738589 -0.03828472 -0.01146702 0.05209816 0.030079907
-0.0014927686 -0.004027309 0.001971674 0.046142597 0.015748402 -0.044429976 -0.014280834 0.03857841
0.029618552 -0.005579387 0.028133215 0.096458234 -0.007463417 0.055503063 0.022138577 0.0036975914
-0.019930903 0.010047035 0.010092062 -0.007194832 -0.057263523 0.02519348 0.00488549 0.030289752
-0.02288058 0.022603896 0.047417063 0.008235696 0.03157699 0.016927142 -0.03892643 0.0075824433
-0.041380703 0.038219593 -0.017028233 -0.007652975 0.0987753 0.048612654 0.08738715 0.0045394585
0.07587573 -0.03148235 0.048479885 0.060744297 -0.0065826145 0.0093478495 0.07011453 0.052377332
-0.008135027 -0.0033875601 -0.021095071 -0.0055251243 -0.011332961 0.008463039 0.03133299 0.0071602515
0.06282199 -0.019513987 0.02783599 -0.03026169 -0.008206756 -0.039694104 -0.027056137 -0.07312853
0.029434197 -0.027764808 0.079064295 0.02349403 0.05007499 0.066751555 -0.033814054 0.0015800024
-0.03223869 -0.050279405 -0.02341116 0.027506078 0.0050787167 -0.050309967 0.020342363 -0.102292955
0.004361865 -0.0012691654 -0.006961263 -0.017304376 -0.07724667 -0.033575833 -0.023646185 0.015914606
-0.045269165 0.011244755 0.0452312 0.029637532 0.07831241 0.008020216 0.05618309 -0.04426022
0.002768545 0.009641008 0.037824683 -0.04925802 0.014939923 0.045387253 0.0027310066 0.010122813
0.012388965 0.033215784 -0.10728797 0.020880314 0.063231 0.034186523 0.09781586 -0.020984463
0.09022689 -0.02189912 0.017700868 -0.014631145 -0.004638851 0.0013553083 -0.024716174 0.013333587
-0.027798764 0.010879148 0.01987633 -0.011595081 0.009800901 0.018470237 0.021941744 -0.04009047
0.035747655 -0.02779116 0.057506215 -0.018881919 -0.005674702 -0.006541712 0.03481086 -0.0159
-0.06736598 -0.012197828 0.038802754 0.0020141897 -0.0356502 -0.030131891 -6.7906374e-05 0.009199184
0.0073762704 0.041428193 -0.0008715485 0.02257781 -0.032998372 0.07627185 0.038099177 0.023939842
-0.008135229 0.034879692 0.0234785 0.011702397 0.014469653 -0.06257802 -0.035283152 -0.10305076
0.057933763 0.042340104 -0.025318088 -0.013207571 -0.01086091 0.027892541 0.012974917 0.020726597
-0.030497793 0.009791667 0.0068559134 0.055370137 0.030874506 0.051379267 -0.017624995 0.06327005
-0.001678346 -0.16871311 0.032653723 0.07744733 0.02038546 -0.0069984077 -0.057931133 0.009792867
0.025406616 -0.061118685 0.020984558 -0.010345459 0.040448666 0.018249111 0.027854009 0.004112195
0.032807548 0.0041602445 -0.02297697 -0.042475276 0.024950428 0.030943263 0.083437674 0.035203695
0.042669512 0.080125615 0.039575726 0.048175383 -0.004227088 0.1077203 0.048256315 0.05389795
0.025466338 -0.16632347 -0.02194061 0.035027888 -0.0038767683 0.058291204 -0.05463419 -0.008248469
0.064274184 0.05788005 -0.030813774 -0.01354201 0.005556407 -0.0073775696 -0.034518022 -0.045154978
0.023332901 0.023446273 -0.0004131235 0.1324053 0.024979662 -0.009210625 0.009172761 -0.06898685
0.023684444 0.017269239 0.004506101 0.0163017 0.00987194 -0.08078284 -0.058746465 -0.027559888
-0.0145107275 -0.01888569 0.010974206 0.008943631 -0.025061963 0.06002212 -0.057477325 0.034743834

qnet.A.bias f4 [9]
00000000: 71af 9a3c c7c2 b73c 8194 ccbb 06b1 87bb
00000010: e8a3 f73b 6f8b ccbc 30dd c83a 0d49 5dbd
00000020: 3a21 05bd
0.018882485 0.022431744 -0.006243289 -0.004140976 0.007557381 -0.02496883 0.0015324708 -0.054024745
-0.03250239
