models2/shapedreward.onnx (onnx, 149918 bytes, 6 tensors)

qnet.fc1.weight f4 [256, 11]
000000 7f 74 81 3e 47 80 37 bd 9f bf 4a be 44 a6 07 be
       0.25284192 -0.04480007 -0.1979966 -0.13247019
000010 18 05 cf 3d bc b6 87 be 28 45 f2 bd 30 2f e0 ba
       0.101083934 -0.26506603 -0.11829597 -0.0017103907
000020 80 22 21 3d 54 8a 1e 3c 5a 48 17 3e cd 7c 98 3d
       0.039339542 0.009676535 0.14773694 0.07445679
000030 ea 0a 35 bd bb f4 95 be 08 0c f9 bc 7f b5 37 3e
       -0.04419986 -0.29288277 -0.030401245 0.17940329
000040 74 f6 46 be 24 3e 34 3d 66 46 d8 bc 74 e4 35 be
       -0.19429952 0.044004574 -0.026400756 -0.17762929
000050 29 d2 3e be af 27 7d 3d e8 dd 23 be 13 45 86 bd
       -0.18634857 0.061805423 -0.1600262 -0.065561436
000060 04 e5 e2 3d 7e 11 88 3e 70 7d 4a be 78 1e ec bd
       0.110788375 0.26575845 -0.19774413 -0.11529249
000070 77 f5 c6 bc 29 95 7d bd 6d ef 34 3e 89 b4 89 bc
       -0.024286969 -0.06190983 0.17669459 -0.016809719
000080 81 b8 42 3d 25 a7 c8 bd e5 35 54 3e 80 85 bd 3e
       0.047539238 -0.09797505 0.20723684 0.37015915
000090 b7 e8 4b be 85 e7 23 be 4f 0e 61 3e a1 f3 2b 3e
       -0.19912992 -0.16006286 0.21978115 0.16792156
0000a0 ca 39 27 be 84 e8 13 3e 14 22 3b 3d f2 e0 c6 3d
       -0.16330639 0.14444166 0.045686796 0.09710874
0000b0 a7 b6 fd 3d 14 40 8f ba 74 fa 95 be a7 aa 8d 3e
       0.12388354 -0.0010929131 -0.29292643 0.2766926
0000c0 e3 53 27 be be 9c 3c 3e dc 05 d8 bd c8 8b a0 be
       -0.16340594 0.18419167 -0.105479926 -0.31356645
0000d0 15 6c 1b be bc 5b 0c 3e d9 65 76 3e 2a cf fe 3d
       -0.15177949 0.13706869 0.2406229 0.12441857
0000e0 2f 25 70 bd c2 38 3e be 62 74 6a 3e 62 b6 2e be
       -0.05862921 -0.18576339 0.22895959 -0.17061761
0000f0 49 91 41 be 75 5a 58 3e 82 3f 01 3d 27 db 80 ba
       -0.18903078 0.21128257 0.031554706 -0.0009830937
000100 b2 c4 7b bd ab ca 3d 3e 93 b4 0d 3e c4 80 64 3d
       -0.06146688 0.18534343 0.13838415 0.055786863
000110 f5 84 2e 3e e1 93 d2 3d 0c b0 41 3e cd aa 71 bd
       0.17042907 0.10282112 0.18914813 -0.05900078
000120 c4 a2 da bd 9b fd 4c 3d 61 92 8f 3d 5f f7 b4 bd
       -0.10675576 0.050046545 0.070103414 -0.08836245
000130 d3 f9 fc 3d 11 43 5e bd 38 f9 72 3e b0 f0 61 3e
       0.12352338 -0.05426318 0.23727882 0.22064471
000140 f0 43 13 bd 64 0b 8f be e9 90 0c 3e 9f ac d7 3d
       -0.035953462 -0.27938378 0.13727154 0.10530972
000150 58 aa 8f 3d ff 2f 52 3d 05 29 15 3e 80 cc 7c 3e
       0.07014912 0.051315304 0.14566429 0.24687386
000160 b4 ef 75 3b f5 ef a9 3c 2a 2a bd be e0 4e 08 3e
       0.0037526907 0.020744303 -0.3694623 0.13311338
000170 31 28 6b 3e cc 3f 32 be b4 33 00 bd 3c 07 82 bb
       0.2296455 -0.17407149 -0.031299308 -0.0039681476
000180 2f b1 28 bd 95 0f b8 bd 9c c7 51 3d 4d 5f 57 be
       -0.0411846 -0.08987347 0.051215753 -0.21032448
000190 36 f5 a8 bd ed cc 32 be 42 4f 46 3e 9e 0a e5 3d
       -0.08249895 -0.17460985 0.19366172 0.11183666
0001a0 63 82 a6 3d 55 f8 00 3e c1 d1 86 be ec 5a db 3b
       0.08130338 0.12594731 -0.26331905 0.0066941883
0001b0 a8 20 db 3c ea 21 8f 3e 95 53 8b 3e da 13 a6 be
       0.02674897 0.27955562 0.27212206 -0.3243702
0001c0 91 a5 17 3e 87 0b 95 be 7e b2 aa bd 80 5a 23 be
       0.14809252 -0.29110357 -0.08334826 -0.15952492
0001d0 be 02 14 3e 84 02 46 3d 5a a3 c1 3d 56 91 62 3b
       0.14454171 0.048342243 0.09454985 0.003457149
0001e0 8f f9 47 3d ce 83 a4 3b a8 cc d6 3e d2 03 50 3e
       0.048821982 0.005020595 0.41953015 0.20313957
0001f0 29 af 84 bd bd b5 19 bd b8 57 6f 3e 27 d7 56 3d
       -0.06478722 -0.037526835 0.23373306 0.05245128
000200 89 b5 f5 bd ed 14 94 bd b4 ef 9f 3e 0c 4e 97 bd
       -0.11997516 -0.07230554 0.31237566 -0.07387933
000210 46 68 4a be 25 f3 b5 3e b7 ca 82 3e 2a 98 47 bd
       -0.1976634 0.35537067 0.25545284 -0.0487291
000220 90 da 89 be ec 20 ae 3e 43 ff f2 3d 99 af 87 bd
       -0.26924562 0.34009492 0.118650936 -0.066252895
000230 c1 1d 24 be cc 01 89 be 4b 64 aa bd 0b 75 a0 3d
       -0.16026975 -0.26759183 -0.083199106 0.07834824
000240 f0 bb fa bd 32 b0 66 3c 8f 59 9c 3e 0c 53 5f be
       -0.122428775 0.014080094 0.30537078 -0.21809024
000250 db 68 00 be 25 42 d3 3d ee f2 1e 3e ff 05 80 bd
       -0.12539999 0.103153504 0.15522358 -0.06251144
000260 50 d0 3a 3e 0e c3 54 3e c3 92 d1 bd d8 e8 0f 3e
       0.18243527 0.20777532 -0.10233071 0.14053667
000270 f3 2e 86 bd f4 6f 02 be c3 e8 44 be f4 64 e3 bd
       -0.065519236 -0.12738019 -0.19229417 -0.1110324
000280 7a 20 90 bd 50 07 88 3d fa a4 93 be 83 a0 1d 3e
       -0.070374444 0.0664202 -0.28836805 0.15393262
000290 72 6c 9a 3e 50 fe ed bd 70 22 3c bd b3 78 8a bd
       0.30160862 -0.11620772 -0.04593128 -0.06761303
0002a0 c9 1b 89 3e a0 ca 74 3d 3d 2a f3 3d bc e9 20 3e
       0.2677901 0.05976355 0.11873291 0.15714163
0002b0 26 61 32 bc b9 ef 91 bd 18 d6 c7 bc b0 5f 7f 3e
       -0.01088742 -0.071258016 -0.02439408 0.24938846
0002c0 e8 45 f9 bb 23 78 94 be ec 07 c7 be ea 4f 93 3e
       -0.0076072104 -0.28997907 -0.3887323 0.28771907
0002d0 88 69 bf 3e 46 9a f8 bd f7 97 a0 bd 18 13 0e be
       0.373852 -0.121388 -0.07841485 -0.13874471
0002e0 e4 9e a9 be 01 28 93 3e d3 b3 ea bd 40 92 35 3e
       -0.33129036 0.28741458 -0.1146008 0.17731571
0002f0 2e d6 3d 3d 08 51 0e 3e 0d 1d 3c 3e 43 06 be 3e
       0.046346836 0.13898098 0.18370457 0.37114152
000300 0a f4 06 be a9 ff 03 be 89 40 5d 3b aa 79 c8 bd
       -0.13179031 -0.12890495 0.003376039 -0.097888306
000310 38 78 fe 3b 00 19 d4 bc 87 66 50 3e 82 a6 b3 3e
       0.007765796 -0.025890827 0.20351611 0.35087973
000320 00 d9 bf be 75 81 1b 3d 17 41 43 3d 1c a9 a3 be
       -0.37470245 0.037965257 0.047669496 -0.31964958
000330 9f 93 94 be f0 53 a4 3c c0 bb 4b 3e af 5b 89 bd
       -0.29018876 0.020059556 0.1989584 -0.067069404
000340 8a 02 b5 bd a0 0c f0 3d 1b 4a d8 bc 1e bf 40 be
       -0.08838375 0.11721158 -0.026402524 -0.18822905
000350 16 01 7c bd 65 90 04 be 1a 2b a6 3b 93 98 62 3e
       -0.061524473 -0.12945707 0.005071056 0.22128515
000360 de 38 5c 3e 71 1f 44 3e 3a da 8d bd 00 c1 d5 3d
       0.21506068 0.19152619 -0.06926389 0.104372025
000370 74 23 8e 3c 90 b9 9c be 4c ca 80 3d 83 bd 67 3e
       0.01735089 -0.30610323 0.06288585 0.22630887
000380 c6 e0 1d 3e 48 c2 89 3e 50 97 01 3e d9 e7 6f be
       0.15417776 0.26906037 0.12655377 -0.23428287
000390 b9 e6 09 be d9 6b 7d be 8e 8b c2 3d d8 b3 6c be
       -0.1346692 -0.24748172 0.09499274 -0.2311548
0003a0 eb b4 cf bd 93 d1 43 be 0a 9c 3f be 34 f9 8c 3e
       -0.10141929 -0.19122915 -0.18711868 0.27533877
0003b0 1a d8 8e 3e 2e 38 0f be 29 a3 0f 3e 57 87 a6 be
       0.27899247 -0.13986275 0.14027084 -0.3252513
0003c0 7a aa 8d bd 91 00 53 bd 4a 54 6e 3e c5 81 9b bd
       -0.069172814 -0.051514212 0.23274341 -0.07593111
0003d0 85 91 11 3f 58 67 62 3e 4b 8b 5c be 82 52 83 3e
       0.5686267 0.22109735 -0.21537511 0.25648886
0003e0 d7 4d f8 3b 9f 0c a0 3c a1 50 a6 bc 69 f0 20 3d
       0.0075776386 0.019537268 -0.020302119 0.039291773
0003f0 9a 37 95 3d e5 7e 93 3e ef e2 5e bc 06 b5 dd 3e
       0.07285996 0.2880775 -0.01360391 0.43302172

qnet.fc1.bias f4 [256]
000000 af 3d 69 be ea 6a 0d be e2 a1 c8 3d eb 79 88 3e
       -0.22777437 -0.13810316 0.09796502 0.26655516
000010 89 3e 3c 3e f8 9d b5 bc fa ee 88 3e 91 70 26 be
       0.1838323 -0.022170052 0.26744825 -0.16253878
000020 fc 6b f3 3d 44 1d 86 3e 44 89 04 be 4e 18 42 be
       0.11885831 0.26194203 -0.12942988 -0.18954584
000030 e5 40 25 3e 03 fe 91 3d c2 ff 5c 3c 40 ea 48 3e
       0.16138037 0.07128527 0.013488712 0.1962061
000040 cd dc 93 3e 5c 45 3b be 67 2e 88 3e a4 0b 87 be
       0.28879395 -0.18288177 0.26597902 -0.2637607
000050 ec e8 53 3e e0 65 60 be ee 90 fa 3c 7d 57 5a be
       0.20694321 -0.21913862 0.030586686 -0.21322437
000060 a2 52 39 be a4 98 e4 bd 91 34 73 3e 93 0b 84 bd
       -0.18097928 -0.111619264 0.23750521 -0.0644752
000070 9f e4 71 3c dc 7f 95 bc da a9 a9 3e e6 92 64 3e
       0.01476398 -0.018249445 0.331374 0.22321662
000080 5b f2 51 3e fc 26 40 3d 72 21 6d be bc af 15 3d
       0.20502608 0.04691218 -0.2315729 0.036544546
000090 59 d0 6a 3e 5d 3b 88 3e cf 13 c1 b9 99 4e 7f 3c
       0.22931041 0.2660779 -0.00036826587 0.015582704
0000a0 2e 9d 14 bd b9 94 6f be 2e 92 9e 3e 34 e3 45 bc
       -0.03628271 -0.23396577 0.309709 -0.012078095
0000b0 ad 8d 16 be 68 59 61 be 65 1c e1 bd 1e a4 80 3e
       -0.14702483 -0.22006762 -0.10991744 0.2512521
0000c0 6a 24 19 3d 2d 92 83 be 96 43 0c 3e eb 7b 5a 3d
       0.037388243 -0.2569746 0.13697657 0.053340834
0000d0 9a a1 89 3e 04 c5 23 3d 50 fa e9 3d 46 80 8a 3e
       0.26881105 0.03998281 0.114246964 0.2705099
0000e0 b0 0c 55 3e 1e f4 f4 3d 0c f1 6d bd 31 24 c5 3e
       0.20805621 0.11960624 -0.05809121 0.38504174
0000f0 ed cf 8c be df bd b5 bd e1 8f 9b 3e 14 20 77 3e
       -0.27502385 -0.08874106 0.30383208 0.2413333
000100 48 4a 03 3e 9e 11 a1 bd 09 9b 9f bc 0d c9 6c 3e
       0.12821305 -0.07864688 -0.019483106 0.2312357
000110 46 37 5f be 51 c1 8d be 31 b0 8c be db 15 91 bd
       -0.21798429 -0.2768655 -0.27478173 -0.07084247
000120 d1 39 f9 bd f6 1d 71 3e 63 a3 92 3e bb c5 83 be
       -0.12169231 0.23546585 0.2864028 -0.25736794
000130 1b 09 8b be 79 89 85 3e ac 8c 19 be 07 0b 14 be
       -0.27155384 0.26081446 -0.14995068 -0.14457332
000140 8f e9 f1 3d 3e 43 84 3d bc 3e 84 bc 0d 21 c8 be
       0.11812126 0.06458138 -0.016143195 -0.39087716
000150 f0 d4 33 be 87 90 3e be 95 f2 1c be 54 b4 0d be
       -0.17561698 -0.1860982 -0.15326913 -0.13838321
000160 79 7e 4e be 78 e3 82 3e 3f 61 56 3e 0a 08 4a bd
       -0.20165433 0.2556417 0.20935534 -0.049324073
000170 a6 f6 4b bd 7d 7b 58 3e 9b 97 88 3e 2a 7f 4e be
       -0.04979577 0.21140857 0.26678166 -0.20165697
000180 d8 24 ff 3d b7 82 9e 3d 34 69 0b bd e3 5d 39 3e
       0.12458199 0.07739776 -0.034035876 0.18102221
000190 64 44 86 bd b9 f8 0f be 58 80 72 3e a2 0e 4a 3e
       -0.06556013 -0.14059724 0.23681772 0.19732144
0001a0 a6 a8 1c be 5b 94 0f be 55 ea b0 bd 41 f8 97 bd
       -0.1529871 -0.14021437 -0.08638445 -0.074203975
0001b0 05 75 c9 3d 3d 31 9f 3e b2 40 10 3d 8c 94 b2 bc
       0.09836773 0.31092253 0.03521795 -0.021799348
0001c0 1f 5e 69 3e 83 52 4c be 96 3e 17 be e4 bc 3d 3e
       0.2278981 -0.1995335 -0.14769968 0.18529087
0001d0 00 ff f8 3d e3 1d 9a 3e 68 1f 89 3e 94 e5 8f be
       0.121580124 0.30100927 0.26781774 -0.28104842
0001e0 24 7c ac be 14 a5 d8 3d 2f 14 88 3e 38 e7 98 3e
       -0.33688462 0.10578361 0.265779 0.29863906
0001f0 3c de 7a 3e 65 ba 88 3e 45 0f 1a 3d 0d df 25 3e
       0.24498838 0.26704708 0.03761222 0.16198368
000200 69 b8 75 3e 1b 4b 9a bd 58 46 2e 3e 0c 13 81 be
       0.23996128 -0.075338565 0.17019022 -0.25209844
000210 e9 3f 2a bd b5 4d 6a 3d b2 05 90 3e 8c 35 58 3e
       -0.041564856 0.057203013 0.28129345 0.21114177
000220 ea 23 8b 3e 9f ad 51 be 3c 72 5c 3e 9a 89 38 3c
       0.27175838 -0.20476387 0.21527952 0.0112632755
000230 fb 38 35 be 78 1d b5 3d 03 0d a1 3e 4a 3e c5 bd
       -0.17697518 0.08843511 0.3145524 -0.09631021
000240 85 64 0b 3e c3 40 66 3e 58 a1 15 be 63 d7 21 3d
       0.13612564 0.22485642 -0.14612329 0.03951205
000250 6e 7a 8d be fe 4a 75 be 86 f8 36 3d 45 ab 90 be
       -0.2763247 -0.23954388 0.044670604 -0.28255668
000260 87 7a 8c bb 3f 09 4b 3e 39 b8 b9 3d b1 27 ab 3e
       -0.0042870673 0.19827746 0.09068341 0.3342872
000270 3c c4 16 be 40 55 06 bc 8b 8e c2 3e e7 dc 76 3d
       -0.14723295 -0.008199036 0.37999377 0.060269263
000280 39 52 55 3d 07 83 46 3e 02 8c 15 bd b7 ea 51 3d
       0.052080367 0.1938592 -0.036510475 0.051249232
000290 bb 45 5d 3e cc e0 c3 3d 01 b8 29 be 7b 11 2f 3e
       0.21608631 0.09564361 -0.16574098 0.17096512
0002a0 fa a2 9d 3e 32 7c 99 3e d7 7f be 3e 77 e7 d8 3c
       0.30788404 0.29977566 0.3720691 0.026477559
0002b0 61 e7 43 3e 3a 10 af 3c a1 a4 93 3e 9b 32 c6 3d
       0.19131233 0.021370042 0.2883654 0.09677621
0002c0 6f b8 c6 bc 11 ed 7c 3e a2 e8 58 be 38 59 c4 bd
       -0.024257867 0.24699809 -0.21182492 -0.095873296
0002d0 c1 a7 c6 3c 0f 9e cb bd af 1f cb 3c ea 79 c9 bd
       0.024249913 -0.09942257 0.024795381 -0.098377064
0002e0 e4 63 04 be e1 d7 05 bd 55 60 8d 3d 4e 60 8c bc
       -0.1292873 -0.03267658 0.069031395 -0.017135765
0002f0 74 8c 08 3e 4e 0e 90 be d9 e5 a9 bd 8e 77 67 3e
       0.13334829 -0.28135914 -0.08295793 0.226042
000300 2e 92 9c 3e 88 8d da 3d 03 0d 67 3e 83 dc b4 bd
       0.30580276 0.10671526 0.22563557 -0.08831122
000310 c3 c3 8f be 95 b4 b2 be a7 d1 b7 3e 56 43 36 be
       -0.28079042 -0.34903398 0.3590214 -0.17799124
000320 e0 22 a3 3e c1 97 9a 3e 92 3f fb bb 2b 24 09 3e
       0.31862545 0.30193904 -0.0076674903 0.13392703
000330 1a f0 c5 3d df 16 84 3e 24 3e 10 3e f0 26 9b 3e
       0.09664936 0.257987 0.14086205 0.30303144
000340 0f 7b c4 3d 47 12 49 be eb 4d 55 be b0 cd 9e be
       0.09593784 -0.19635879 -0.20830505 -0.31016302
000350 06 a8 8b be f0 7a 62 be 0a 5d 6e 3b a6 2a 10 be
       -0.2727663 -0.2211721 0.0036371374 -0.14078769
000360 32 98 14 3e 10 b2 6e bd 3b 83 10 3e 9e f0 e2 3d
       0.14511183 -0.058275282 0.1411256 0.1108105
000370 3d b7 c6 3e 0f b8 cc 3d 64 70 18 3e 7f 3c 00 bd
       0.38811675 0.09996044 0.14886624 -0.031307694
000380 89 9d 86 3c 14 4f c2 3e 73 1b 79 3e 10 e0 25 3e
       0.01643254 0.37950957 0.24326877 0.16198754
000390 89 6b 91 3e 5a 28 a7 bd 51 91 5c be 95 e6 a8 3d
       0.28402355 -0.08161993 -0.21539809 0.08247105
0003a0 cf f5 a4 bd 8d 60 24 be 57 49 8f bd 02 7f 0d 3e
       -0.08054697 -0.16052456 -0.0699641 0.13817981
0003b0 77 ee 2d 3e 06 e1 68 3e 71 b9 ac 3e a6 d3 a7 3b
       0.16985498 0.2274209 0.3373523 0.005121666
0003c0 ff 35 73 3e 34 39 69 bc 33 1a 84 3e ff b7 65 be
       0.23751067 -0.01423483 0.25801238 -0.2243347
0003d0 37 02 d4 3b 10 d0 23 3e 94 a7 31 be 8d ce 85 3e
       0.0064699906 0.15997338 -0.17349082 0.26134148
0003e0 a8 b1 40 be 67 45 26 3d 8d d6 c4 3e 79 3c 2f be
       -0.1881777 0.04059353 0.3844494 -0.17112912
0003f0 b8 d8 33 be b2 56 02 bc 64 ca 06 3e 21 c9 d2 bd
       -0.1756314 -0.00795524 0.13163143 -0.102922685

qnet.fc2.weight f4 [128, 256]
000000 48 5a 4a 3d f1 3f 80 bc 06 58 98 3d a6 3f bf bb
       0.049402505 -0.01565549 0.07438664 -0.005836445
000010 1d 65 b1 3d 45 29 08 3d b8 b5 37 bc bc 9d a8 3a
       0.08661864 0.033242483 -0.011212759 0.0012864391
000020 0a 75 c8 3c 0d e1 b9 3d 05 b9 d5 3d f3 88 b2 ba
       0.024469871 0.09076128 0.1043568 -0.0013621136
000030 34 57 bc 3c 7a fe eb 3d 38 ab 83 3d a2 00 e1 3d
       0.0229908 0.11523147 0.06429142 0.10986449
000040 cc eb 9c 3d b3 84 e4 bd 98 c3 7d bd bc 9a c3 3d
       0.07662162 -0.11158123 -0.06195411 0.095509976
000050 a1 5d 7f 3b d3 43 d4 3c 39 a8 a7 bc 25 d1 8e 3d
       0.003896572 0.025911247 -0.020465957 0.06973485
000060 6f 77 f7 bb 62 fd 83 bd ec 06 af bc 41 46 3d 3d
       -0.0075520794 -0.06444813 -0.021365605 0.046209577
000070 dd 9d 8f 3d 8f 52 2c 3d e5 8f 0f 3e b6 2a 95 3b
       0.07012532 0.04207092 0.14019735 0.0045522107
000080 76 54 82 bd 2d 00 a8 3d 75 c8 70 bb ac 0d ec bb
       -0.06363766 0.082031585 -0.0036740575 -0.0072037783
000090 8f ff 84 bc 9a 6a df 3d 35 86 91 3d 37 33 40 bd
       -0.016235141 0.109090045 0.07105676 -0.046923842
0000a0 ee c1 92 bd 83 d2 05 3d 1b 80 5c bd c3 87 11 3d
       -0.071658954 0.032671463 -0.05383311 0.035529863
0000b0 9d 20 56 bd 48 b3 72 3d 73 25 15 bd 27 21 0c bd
       -0.052277196 0.059253007 -0.036412667 -0.034211304
0000c0 a2 43 fe 3d 07 fb 0a bd b5 20 d8 bb 78 6a ad 3c
       0.12415244 -0.033930805 -0.006595696 0.021168932
0000d0 8d f4 a7 3d 52 ea ca 3a dd 42 6f 3d 1e 9b 21 bd
       0.08200941 0.001548121 0.058413375 -0.039454572
0000e0 88 d3 01 ba d5 45 9e bd 4f 01 0f 3d 7d 89 ee 3c
       -0.000495248 -0.07728163 0.034913357 0.029118294
0000f0 a9 3f f2 3d 17 07 72 3d 70 7b 0b bd 00 87 f9 3c
       0.118285485 0.059088793 -0.034053266 0.03045988
000100 40 4b 89 bd 76 17 b7 3c f7 14 d9 38 3a 1d 15 3d
       -0.06703806 0.022350054 0.00010351271 0.036404826
000110 38 9a a5 3d 75 83 87 3c a1 6f fd bc 9f be 99 3c
       0.080860555 0.016542176 -0.030937018 0.018767653
000120 0a ee 52 3c df 5d 5f 3d a0 9e 17 bd 30 e8 be 3d
       0.012874136 0.05453288 -0.03701651 0.0932163
000130 df 21 3b 3d 59 be 0d 3d bd 11 77 bd 72 9f 5d bd
       0.0456866 0.034605358 -0.06031965 -0.054107137
000140 a5 26 29 3d 13 a3 9d 3c d7 8b aa 3d 06 ff 8a bd
       0.04129662 0.019242799 0.083274536 -0.06786923
000150 55 cc 7f 3d a5 72 52 3d 4f d8 60 3d 37 e3 6e bc
       0.062450726 0.051378865 0.054893788 -0.014580539
000160 cf 51 02 3a 57 b0 a9 3b 8e 8e 50 bd 01 b4 9e 3d
       0.0004971297 0.005178492 -0.0509172 0.07749177
000170 6a 32 0b bc cb 84 83 3d f9 d9 79 3b 9d bd a0 bb
       -0.008495906 0.064218126 0.0038124307 -0.004905416
000180 6c a9 1e b9 15 84 9c bd f5 e8 f6 bc 77 d1 07 3d
       -0.00015131169 -0.0764238 -0.03014038 0.033158746
000190 0a 35 8b bd 2a f0 75 3d a4 6c b1 3c 93 1e 2f bc
       -0.06797226 0.06004349 0.02165825 -0.010688442
0001a0 80 b8 45 bc c2 82 ac 3d af d5 a0 bc c9 0f 43 bd
       -0.012067914 0.084233776 -0.019633142 -0.047622476
0001b0 d6 b8 da bd c7 f1 28 3d 19 58 27 bb 2d 8f 83 3d
       -0.10679786 0.0412462 -0.0025534688 0.06423793
0001c0 42 6d 90 3d 4b d3 87 3d 00 41 8a 3d e1 c2 3f 3d
       0.07052089 0.06632098 0.06750679 0.04681671
0001d0 08 fb 99 bb bb 11 47 3d 63 ca 58 3a 67 2e 06 bd
       -0.0046991147 0.048600893 0.0008269904 -0.032759096
0001e0 9a 03 92 3b ab e2 13 3d 5d e8 c7 3c 96 89 c7 3d
       0.0044559957 0.03610484 0.024402792 0.09743039
0001f0 02 06 a7 3d 3f b8 f5 3c 89 61 52 3c 6e 4d 85 3d
       0.08155443 0.029995082 0.012840637 0.06508909
000200 7b f3 71 3d e1 39 79 bd a6 9a c4 3c 58 e5 ea bc
       0.05907009 -0.060846213 0.023999523 -0.028673813
000210 4b 3a 39 3d 9d fd f7 3b e5 37 2c bd 9a 96 d0 3d
       0.045221608 0.007568075 -0.042045493 0.10184975
000220 ea 0e e3 3b df 1d 52 bd e8 fb 8b 3a fa 9a 0b 3c
       0.006929268 -0.05129802 0.0010679932 0.008520836
000230 c7 81 cb 3b 95 1c 0c 3d 66 a2 df 3c 10 78 92 bd
       0.006210539 0.034206945 0.027299117 -0.07151806
000240 f4 40 ab 3d 06 1a 66 bc f9 15 82 3d 3b 15 7a 3d
       0.08361998 -0.01404429 0.06351847 0.061055403
000250 e0 b3 a1 3c f3 da 3b 3d a9 9c 88 bd da 2c 03 bd
       0.019739091 0.045863103 -0.066705056 -0.032025196
000260 99 c7 39 3d 2a db 91 b9 49 5a a8 3d ce 38 72 3d
       0.045356367 -0.00027819845 0.082203455 0.059136204
000270 5b 95 8c bc cf 6d a4 3d 40 f3 a0 3d 04 be 4f 3b
       -0.017161062 0.08028757 0.07858896 0.0031698951
000280 f0 59 07 ba d3 9d d5 3c 2b b0 e3 3d b0 b3 c0 3d
       -0.0005163243 0.026076233 0.11117586 0.09409273
000290 b6 57 02 3d a7 02 6a 3d 65 5c 65 3d 1f 62 3d bd
       0.03182193 0.057131436 0.055996317 -0.046236154
0002a0 31 95 f7 3b 62 02 bd bc 06 e8 03 bd 2b 5c 51 bc
       0.007555627 -0.023072425 -0.032203697 -0.012778322
0002b0 ce 6a f9 bd 68 2d 69 3d b0 f3 f3 3c f1 ef 96 3d
       -0.121785745 0.05692807 0.029779285 0.07369984
0002c0 bf 2c 18 bd b5 c3 32 3c cc da d1 bc 1a 0b c3 bb
       -0.03715205 0.010910918 -0.025617026 -0.005952251
0002d0 ec 28 03 bc 59 b3 16 3d b5 95 83 3c 99 9a 85 ba
       -0.008005362 0.036792133 0.016062597 -0.0010193168
0002e0 37 34 87 3d 36 24 97 bd f8 80 9a 3d c0 cd 7b 3d
       0.06601756 -0.073799536 0.0754413 0.061475515
0002f0 2c ab 1c 3d b8 ce 25 b9 3c fc 3a 3c 5d a9 cc bb
       0.03824918 -0.00015812635 0.011412676 -0.0062457756
000300 e0 11 d1 3c 7e 01 7a 3c a4 41 af 3b 73 80 7f 3c
       0.025521219 0.015259145 0.005348401 0.0155945895
000310 a7 99 26 3d dd 6b 92 3b 01 36 e1 3c 51 a0 df bc
       0.040673878 0.0044684247 0.027491571 -0.027298125
000320 39 3b 97 3d ce bc 33 bd 1c 42 ca 3d 02 14 0e be
       0.07384343 -0.04388123 0.098758906 -0.1387482
000330 26 ff 9a 3a 57 70 8f 3d 80 99 00 3d 0a a1 fb bc
       0.0011825308 0.07003849 0.03139639 -0.030716438
000340 75 c2 5a 3d a2 c8 86 3d 37 12 c2 bd 6e 62 36 3d
       0.053408105 0.065812364 -0.094761305 0.044527464
000350 5e 0c bf 3c 47 e4 a2 3d 93 87 fd bb 08 3d a4 bd
       0.023321327 0.07953697 -0.007737109 -0.08019453
000360 cb 88 67 3d 9d 9c 11 3d 77 84 0d bd 82 db c9 3b
       0.05652694 0.03554975 -0.034550156 0.0061602006
000370 ec 5c 81 3d ce 15 65 3d f2 8b 8c bd 4c 48 71 3d
       0.063165516 0.055928998 -0.0686263 0.05890684
000380 70 ce 5c 3b 3e ae 18 3d 02 36 5a 3d 7b 89 0c 3d
       0.0033692382 0.037275545 0.053274162 0.0343108
000390 8b 35 76 bd a3 d3 d5 bc a3 c5 d8 3d 82 18 88 bd
       -0.060109656 -0.026101893 0.10584571 -0.066452995
0003a0 0d d9 51 bc e8 3b 92 bd 2a 86 af 3d 33 c9 c4 3d
       -0.012808097 -0.071403325 0.08570512 0.09608688
0003b0 fb 38 14 3d 1d c2 af 3d 86 95 8a bc b0 29 7a 3c
       0.036187153 0.08581946 -0.016917001 0.015268728
0003c0 3b ec 7f bc f7 3a b8 3c 71 25 87 3d 01 56 60 3c
       -0.015620287 0.022489054 0.06598938 0.01369238
0003d0 42 88 41 bc 7d 3a 41 bd 20 aa 29 bd a1 98 1d 3d
       -0.011812272 -0.04717492 -0.04142201 0.038475636
0003e0 70 b4 3a bc 4f f9 a1 3c 5a 23 e9 3c 29 ce 47 be
       -0.011395559 0.0197722 0.02845924 -0.19512238
0003f0 b5 3a 40 3d 3b 20 87 3c 2d 50 0b 3d e7 00 07 be
       0.046930987 0.01649486 0.03401201 -0.13183938

qnet.fc2.bias f4 [128]
000000 d1 ac 5f bc 83 2c cb 3c c6 c5 78 bc b7 76 09 bd
       -0.0136520425 0.024801498 -0.015183872 -0.03356048
000010 e7 fc 6d 3d 2b da 68 3b d3 ca bc 3b 4c 9d 02 3d
       0.058102515 0.003553043 0.005761483 0.03188829
000020 15 a8 50 3d 63 15 9b 3c af 36 4f 3d f3 3c 14 3d
       0.050941546 0.018931096 0.05058926 0.03619094
000030 5e df 31 3c 7b f1 8d 3d 9f fd 36 3d df d3 36 bd
       0.010856478 0.06930824 0.044675466 -0.04463565
000040 72 09 5e bd c2 cb 12 3d fc ca f7 3c c4 c9 99 bc
       -0.054208227 0.03583885 0.030248158 -0.018772967
000050 c3 53 88 3d e3 0d 26 bd 92 9b 97 bc 64 a8 83 3c
       0.06656601 -0.040540587 -0.018506799 0.016071506
000060 70 be 26 3d d3 96 51 3d 1f b4 84 3d 7c 13 ba 3c
       0.04070896 0.051169228 0.06479668 0.022714369
000070 c0 f0 f4 bc 0c 66 cd bc 58 1a ed 3a b8 b2 ad bc
       -0.029899955 -0.025073074 0.0018089516 -0.021203384
000080 24 68 e8 bc f4 87 2e 3c 64 05 00 3c e5 11 e3 3b
       -0.02836997 0.010652531 0.007813785 0.0069296234
000090 92 34 34 3d d3 c4 95 bb ff 81 1f bd 1e 84 99 3c
       0.043995447 -0.0045705824 -0.038942333 0.018739756
0000a0 69 c9 d2 3a 3a 0c 20 3d ac 47 08 bb 5d 85 28 3d
       0.0016081753 0.03907416 -0.0020794673 0.04114281
0000b0 81 7b 83 3d fe 4c 1a 3d fb 9c b7 bb 1f d0 3c bc
       0.06420041 0.03767108 -0.0056034303 -0.011524229
0000c0 1b 00 f7 bc 32 2c b5 3d ea 55 a3 3d fe bd 3a bd
       -0.030151417 0.0884632 0.07975371 -0.045591347
0000d0 d5 22 d7 3c 42 62 b4 3b a5 11 56 3d 2b 7d 49 bd
       0.026261726 0.0055048773 0.05226292 -0.049191635
0000e0 40 8f b3 3d 4e 00 ba 3c 6e f2 0a bd 21 d9 99 bb
       0.08767557 0.022705223 -0.033922605 -0.0046950732
0000f0 06 22 36 3d 4f 02 ca bc 35 79 ea 3c 3b a4 19 bd
       0.04446604 -0.024659304 0.02862225 -0.037510138
000100 ca 2a 98 bd f4 31 94 3d 0d bb 1a bd 38 57 a4 bc
       -0.07430036 0.0723609 -0.03777604 -0.02006112
000110 bf 57 23 3d 1b e1 f3 3c 5f 24 38 3d 56 f3 61 3c
       0.039878603 0.029770425 0.04495656 0.013790926
000120 69 52 82 3d 1d 60 2a bb be 5c 5a 3c 7b 55 d0 3c
       0.06363375 -0.002599723 0.0133277755 0.025431385
000130 be fc 98 3d 8d 0a 03 3d ee aa 28 3d fc af e2 3c
       0.07470082 0.031992484 0.041178636 0.027671807
000140 fd 9c ac 3c 4e e1 89 3d d9 2f 06 bd cd 44 a3 3c
       0.021070952 0.067324266 -0.032760475 0.019930268
000150 e8 f8 1e 3d ce 84 a0 3b df 4f 44 bc f0 60 5b bd
       0.038811594 0.004898644 -0.011981933 -0.053559244
000160 f5 19 63 3d 0c 76 8f bd 79 6e ce bc 39 38 25 bd
       0.055444676 -0.070049375 -0.025199162 -0.04033682
000170 73 64 08 3d ec c4 75 bc 30 59 0d bc 6b ab 53 bc
       0.03329892 -0.015000563 -0.008627221 -0.012919287
000180 4c be 80 3d 04 f5 3c 3d 85 90 f0 3c 82 f2 1e bd
       0.06286296 0.046132103 0.029365787 -0.038805492
000190 58 fa 42 3d dd 34 28 3c 59 14 4f bd a3 03 1c 3d
       0.047602028 0.01026651 -0.050556514 0.038089406
0001a0 97 e7 56 3d 86 5b 04 3d 3d 4b 3a bb 50 e5 be ba
       0.052466955 0.032313846 -0.0028426193 -0.001456419
0001b0 3a c5 ee bb 60 b9 98 3b 0d 3e a2 3c 15 33 17 bd
       -0.007286695 0.0046607703 0.019804979 -0.03691395
0001c0 5a 06 35 bd fe 01 3c bd 75 47 5b 3d 12 64 66 bc
       -0.04419551 -0.045900337 0.053534944 -0.014061945
0001d0 3f 63 4a 3d 92 74 49 bc cb f2 c0 bb e7 97 a8 bc
       0.049411055 -0.012295859 -0.005888318 -0.020580245
0001e0 bd 9d 12 3c 12 0a 4c 3d 64 d5 b6 bc 37 9d 02 3d
       0.008948741 0.04981429 -0.02231855 0.031888213
0001f0 cf 51 72 3b 46 25 4f 3d b5 86 e2 bc 6e 59 64 3c
       0.0036975031 0.050572656 -0.027652124 0.013937337

qnet.A.weight f4 [9, 128]
000000 c0 d2 f5 3c 8f a5 ee 3b 50 6e fd 3d 78 0a 29 3d
       0.03000772 0.0072829197 0.12374556 0.04126975
000010 76 7f ee 3c 4a 59 5f 3d 50 50 9a 3c a2 6e ea bc
       0.029113512 0.054528512 0.018837124 -0.028617207
000020 4a 3b b8 3d 08 75 8d 3c f0 fe 37 bd e9 78 82 3d
       0.089956835 0.017267719 -0.04492086 0.06370718
000030 c2 2d e6 ba da 9e 51 bd d3 dd 91 3d d0 38 64 ba
       -0.0017561244 -0.051176883 0.07122388 -0.00087059755
000040 91 db d5 3d b2 bd 49 3d 06 26 74 3d 62 ec aa bb
       0.104422696 0.049253173 0.059606574 -0.0052161673
000050 0b 01 2b bb 52 92 8f bd b9 54 11 bd a1 31 88 bd
       -0.002609315 -0.0701033 -0.03548119 -0.06650091
000060 45 cb 1a 3d 74 64 36 3d 04 f7 a2 3d 27 c5 a9 bd
       0.03779151 0.044529393 0.07957271 -0.08289557
000070 65 a7 9c 3d 6a d2 19 bd ad 10 79 3d 24 01 7a bc
       0.076491155 -0.037554182 0.06080692 -0.015259061
000080 58 c5 ba ba 9b c8 f0 bc 23 c5 ca 3c d8 93 1a 3c
       -0.0014249487 -0.029392531 0.024752205 0.009434663
000090 7b 50 0e 3e f5 b5 b4 3d a6 e6 1c 3d 7f cf 56 bc
       0.13897888 0.08823768 0.0383059 -0.013110994
0000a0 d0 85 5d 3d 7f 5d 08 bc 6c a6 a9 bd 10 f5 e2 3d
       0.05408269 -0.008323072 -0.082836956 0.11081898
0000b0 06 07 4b bd 0b a7 80 3d 5e 67 21 3d f7 be 90 bc
       -0.049567245 0.06281861 0.03940522 -0.017669184
0000c0 57 40 25 3d ff bf b0 3b 71 5d 16 3d c7 4e eb ba
       0.040344562 0.0053939815 0.036710206 -0.0017952555
0000d0 bd 77 9d 3b 01 e0 a2 3c 31 de e6 bc 75 fc 29 bd
       0.0048055337 0.019882204 -0.028182121 -0.041500527
0000e0 d2 78 ce 3a 0e 00 a0 3c 1a cc 16 3d e5 57 1a bd
       0.001575256 0.019531276 0.03681574 -0.03768148
0000f0 58 bf fc 3c 19 59 1d 3d 9d 38 47 3d 37 62 08 3c
       0.030852959 0.03841505 0.048637975 0.0083241975
000100 80 91 1d 3d 6e 95 e3 3c ee 49 77 bd 2e 5a 8d ba
       0.038468838 0.027781215 -0.06037324 -0.0010784322
000110 84 59 e7 3c 79 a3 0c be 9e 84 80 3d 35 3d 00 3d
       0.028240927 -0.13734235 0.06275295 0.03130837
000120 f2 d7 67 bc 66 43 fd bc 61 e7 ac bc 51 09 56 3d
       -0.0141506065 -0.030915927 -0.021106424 0.05225498
000130 ca 36 af 3d d2 95 e0 bc 3a 71 00 bb a0 87 2e 3d
       0.08555372 -0.02741519 -0.0019598738 0.04260981
000140 31 f2 af bc 4f e5 1e bd 5c 7a 0b 3c 09 ed 1e 3d
       -0.02147779 -0.038792904 0.0085130595 0.038800273
000150 44 76 cd 3d 39 95 ca bc e6 fa 83 3c e4 ec d1 bc
       0.10032323 -0.024729358 0.016110849 -0.025625654
000160 b8 a4 86 3d e6 07 11 bd 93 2a dd bc 5d ae 3c bd
       0.06574386 -0.035407923 -0.02699784 -0.046064723
000170 58 14 94 3d 66 3c fd bc f5 1e 96 39 a2 18 9d bc
       0.07230443 -0.03091259 0.00028633294 -0.019176785
000180 b4 a5 86 3d 97 35 b5 bb 20 0d bd 3c 70 c4 f9 bb
       0.06574574 -0.00553007 0.023077548 -0.007622294
000190 d5 c8 5e 3b e3 95 bc bb b3 b6 cd bb c2 02 5d 3c
       0.0033994217 -0.0057551726 -0.006277883 0.013489427
0001a0 8f 1a b7 3d 75 26 a7 3c 96 99 c8 3c b1 ec 83 bb
       0.089406125 0.02040408 0.024487298 -0.0040260185
0001b0 6a 04 80 3d e0 31 1e 3d 19 83 03 3e 40 74 a2 3d
       0.06250842 0.038621783 0.12842979 0.07932329
0001c0 38 93 27 3d 33 e6 9c 3d ab 5b 91 3d 29 9d 52 bc
       0.040911883 0.076610945 0.070975624 -0.012854853
0001d0 f8 75 63 3d 48 e5 dc 3b 53 bc 05 bd 66 41 44 3c
       0.055532426 0.0067411996 -0.032650303 0.011978483
0001e0 41 03 9b bc f4 e1 13 3d 22 cf c3 3d 65 4d 14 3d
       -0.01892245 0.036104158 0.09560992 0.03620662
0001f0 c7 c1 01 3d 2d b4 e6 3c 6a 8f af 3d c0 64 6b bd
       0.03167894 0.028162086 0.08572276 -0.05746913
000200 c0 54 43 3c 55 05 9f bb 0e ee 6f 3d 88 5f b5 bb
       0.011922061 -0.0048529305 0.058576636 -0.00553507
000210 92 78 26 3c ee 0c a6 3d e8 4d e7 bc 52 d7 74 3c
       0.010160582 0.08107935 -0.02823539 0.0149439145
000220 12 7d c0 3c e2 25 81 bc bd e7 43 bd a4 a9 21 bb
       0.023497138 -0.015765134 -0.047828425 -0.0024667764
000230 09 f9 94 b9 8d 9d fa bc 2f e3 53 3d 52 f2 19 3b
       -0.00028414305 -0.030592704 0.05173033 0.0023490381
000240 18 e2 84 bd 35 fc 20 3b db 77 9c bb 3b aa 63 3c
       -0.064884365 0.002456439 -0.00477503 0.013895567
000250 50 3a c7 bc fa f3 b0 bc d7 3c a3 3d c3 29 c8 3c
       -0.024319798 -0.021600712 0.07970589 0.024433976
000260 df 2f ad 3c a6 b6 1a 3d 97 3b f3 3c cd 5e 8a bd
       0.02114099 0.037771843 0.0296915 -0.06756363
000270 ed 18 06 3d bf fe 55 bd 2e 9b bd 3c 1e bd 0e bc
       0.032738615 -0.052244898 0.023145285 -0.008712081
000280 53 44 35 3d 01 03 68 3d e7 a2 89 bc e5 b4 9b 3c
       0.044254612 0.05664349 -0.01680131 0.019007156
000290 be 03 56 bc ce 74 11 3c 7d 84 af 3d 53 f1 ad 3d
       -0.013062416 0.008877946 0.08570192 0.084932946
0002a0 2b e7 48 3d 8f fa 3f 3d 83 97 41 3d 00 e7 ae 3c
       0.049048584 0.04686981 0.047263633 0.021350384
0002b0 44 7f 56 3d a6 6d fb ba ce c2 df 3c da d5 71 3c
       0.052367464 -0.0019182458 0.02731457 0.014760459
0002c0 c0 5d 22 bd 56 9f 9b bd 1f 81 db 3a 91 d0 fa 3c
       -0.03964019 -0.0759875 0.0016746855 0.03061703
0002d0 fd 59 43 3d 33 b7 78 3b 79 24 c5 bc 8b 6c ae bd
       0.04769324 0.0037950992 -0.024065243 -0.08516797
0002e0 93 74 03 3e 7a 75 9b bb 2a cd 0e 3d 0c 7a 0e 3e
       0.12837438 -0.004744229 0.03486363 0.13913745
0002f0 eb 4f 1c 3d b1 55 92 3d 6c 8c 87 3d b5 65 11 bd
       0.038162153 0.071452506 0.0661858 -0.035497386
000300 3b ad d8 3c aa 6d 3b bd 48 4f bc 3c 01 d4 a0 3d
       0.02644979 -0.04575888 0.022987023 0.078529365
000310 ed 0b 2d 3c 89 c0 cc ba 3b 28 e4 3d fc b3 19 3d
       0.010561925 -0.0015621345 0.11140486 0.037525162
000320 f7 f3 c3 bb 9a 9d 40 bd 0e 30 03 3c ad bc ce 3b
       -0.0059800106 -0.0470253 0.008007063 0.006309113
000330 12 76 4a 3e 12 04 6c 3d 97 3c 58 3d 52 0a 8f bc
       0.19771603 0.05762107 0.052792158 -0.017460976
000340 ae 87 8a bc 52 16 b1 3d a7 6b 25 3d c1 9c 3d 3d
       -0.0169104 0.086468354 0.04038587 0.04629207
000350 41 06 2c 3e 1c 7e ff bc 89 bb 82 3c c9 79 c4 3d
       0.1679926 -0.031188063 0.015958564 0.09593541
000360 5b 84 7e 3c c6 5f d6 bd 98 0b d4 3c 30 a4 39 3a
       0.015534486 -0.10467486 0.025884435 0.0007081656
000370 40 45 d0 3d ad e6 dd 3c 26 24 da 3d e4 6f 02 3d
       0.101694584 0.027087534 0.10651426 0.03184499
000380 b7 22 13 3d 23 21 76 3d 30 c3 3b bc b2 a9 f7 bc
       0.03592178 0.060090195 -0.011460111 -0.030232284
000390 0b 5a 28 3c 94 47 4f 3c df 49 44 3c a4 37 a3 3d
       0.010275374 0.012651343 0.011980503 0.07969597
0003a0 26 0c dd bc ed 9b f5 3c 79 34 43 bd 1f 5f cb 3c
       -0.026983332 0.029981578 -0.047657464 0.02482563
0003b0 e7 b8 b1 3d 44 c9 0e bd 1b 7e fb 3d b0 d2 ed 3d
       0.086778454 -0.03485991 0.12279912 0.11612451
0003c0 af 7e 9c bb 32 d5 f0 3c f2 ce 91 3d 30 3a 5a bd
       -0.004775844 0.029398534 0.0711955 -0.05327815
0003d0 35 a1 72 3d f7 36 13 3d 1a c4 c2 bb 58 af 05 3d
       0.05923577 0.03594109 -0.0059437873 0.032637924
0003e0 5f af 6a bc dc b1 e1 3c c6 76 6c 3d 94 22 24 3c
       -0.014324038 0.02755063 0.05773046 0.01001801
0003f0 5b 70 18 bc e3 0b 60 3d 0a a4 cb 3d b7 25 91 3d
       -0.009304131 0.054698836 0.09943397 0.07087272

qnet.A.bias f4 [9]
000000 30 9e 95 3d d4 2c 7f bd 84 de 39 bd 26 8f 30 bd
       0.073055625 -0.06229861 -0.045378223 -0.043105267
000010 46 3d 68 3d f9 75 25 bd 48 76 a8 3d 5b 17 47 bd
       0.05669906 -0.04039571 0.08225685 -0.048606258
000020 29 72 37 3d
       0.044786606
