models/backup/less_gama_02/q_eval_dqn.onnx (onnx, 286110 bytes, 6 tensors)

qnet.fc1.weight f4 [256, 11]
0	0xbe2888cd	-0.16458435
1	0x3e8d2989	0.2757075
2	0x3d4dcead	0.05024593
3	0x3e2766a6	0.16347751
4	0xbe0288ad	-0.1274745
5	0x3e081805	0.13290413
6	0xbc3630b1	-0.011120007
7	0xbe3b7b31	-0.18308713
8	0x3d7647d5	0.060127098
9	0x3e26d4e7	0.16292153
10	0x3e2e1117	0.16998707
11	0xbe273647	-0.16329299
12	0xbd9ed2b8	-0.07755035
13	0x3e4fcbe6	0.20292625
14	0xbd06d77d	-0.03292035
15	0xbe349280	-0.1763401
16	0x3cbe6722	0.023242537
17	0x3e497ce8	0.19676554
18	0x3e4c5d38	0.19957435
19	0xbc19dc1b	-0.009390856
20	0x3da6df09	0.08148009
21	0xbe593fe9	-0.21215786
22	0x3d48761d	0.048940767
23	0x3d0f4f7c	0.03498791
24	0x3d8ed269	0.06973726
25	0xbd4816ac	-0.048849747
26	0xbd63006e	-0.05542033
27	0x3bc9b109	0.0061551374
28	0xbda8675b	-0.082228385
29	0xbc5ace95	-0.013354917
30	0x3ce0aad7	0.027425213
31	0x3c924de3	0.017859405
32	0xbb8232ec	-0.0039733555
33	0xbdb1e024	-0.086853296
34	0x3cf14b8f	0.029454974
35	0x3da12337	0.07868045
36	0xbd01acf6	-0.03165909
37	0x3e1a9213	0.15094785
38	0xbcaa345d	-0.020776922
39	0x3d65d624	0.056112424
40	0xbdf72520	-0.12067628
41	0x3e052f0f	0.13006233
42	0xbe1fda3d	-0.15610595
43	0xbdcb4a2e	-0.09926258
44	0xbe0a9aca	-0.1353561
45	0x3e0d60a7	0.13806401
46	0xbbdde393	-0.0067715137
47	0x3e1b3c5d	0.15159746
48	0xbda98d1a	-0.08278866
49	0x3c027af3	0.007963884
50	0xbc363b69	-0.011122563
51	0xba4be855	-0.00077784556
52	0x3d83c5d9	0.06434221
53	0x3c42c20a	0.011887083
54	0x3e6370dc	0.22211021
55	0x3e971682	0.2950936
56	0xbdc93dbd	-0.09826229
57	0x3e1c7a52	0.15281036
58	0xbdbc5c8f	-0.09197342
59	0xbcb1f5a7	-0.021723581
60	0x3e046519	0.1292919
61	0xbe45882d	-0.19290228
62	0xbd92f351	-0.07175315
63	0x3afbb923	0.0019204955
64	0x3e232d44	0.15935236
65	0xbdff7b42	-0.124746814
66	0x3e1ec9c2	0.15506652
67	0x3e170a57	0.14750038
68	0x3e3a76b0	0.18209338
69	0xbe350373	-0.17677097
70	0x3e013d45	0.12621029
71	0xbd588731	-0.052863304
72	0xbdf3aca4	-0.11898163
73	0xbe1f5f6a	-0.15563741
74	0xbc5504a3	-0.013001594
75	0xbd789a92	-0.060694285
76	0x3e0af12e	0.13568565
77	0xbe25c197	-0.1618713
78	0xbcc69f82	-0.024245981
79	0x3e10fa8d	0.14158078
80	0x3defc140	0.117067814
81	0xbe41b368	-0.18916094
82	0x3e170ff2	0.14752176
83	0x3e2ccf30	0.16875911
84	0x3daafe60	0.083492994
85	0xbd42f370	-0.04759544
86	0xbc9e4810	-0.019321471
87	0x3d98cee3	0.074613355
88	0xbc0f3d35	-0.00874262
89	0x3d916917	0.071001224
90	0xbd620b72	-0.055186696
91	0x3e30d5c3	0.17269044
92	0x395c419a	0.00021005273
93	0xbe49077e	-0.19631764
94	0xbbfd24b7	-0.007725324
95	0xbe8a54df	-0.27017877
96	0xbae055db	-0.0017115431
97	0xbc80fb24	-0.015744753
98	0x3d57f25b	0.052721363
99	0xbe581242	-0.21100715
100	0x3dcdb7d5	0.10044829
101	0x3e81e3ee	0.2536921
102	0x3c06e5f5	0.008233537
103	0x3d0b5a0c	0.034021422
104	0xbd3ac428	-0.045597225
105	0x3d678dfb	0.056531888
106	0x3d1c2583	0.03812171
107	0xbd705e3a	-0.05868361
108	0xbd0bc6e2	-0.034125216
109	0x3da23219	0.079197116
110	0x3d8b7e22	0.06811167
111	0xbc8b433e	-0.016999837
112	0x3c0bea42	0.008539738
113	0xbe1a24c2	-0.15053084
114	0xbd44936b	-0.04799215
115	0x3d8e00ec	0.069337696
116	0x3c6558ab	0.013998191
117	0x3dc8ad71	0.09798706
118	0x3d2b53e6	0.04182806
119	0xbc9bf8ef	-0.0190396
120	0xbe25da34	-0.16196519
121	0x3d907220	0.070530176
122	0x3e2236b0	0.15841174
123	0x3e4e502e	0.20147774
124	0xbdaac095	-0.08337513
125	0xbe526780	-0.20547295
126	0xbe8d3b5f	-0.2758436
127	0x3cfb302c	0.030662619
128	0x3d882603	0.06647875
129	0x3d27ac42	0.040935762
130	0x3d5d10d7	0.053971138
131	0x3e953c67	0.29147646
132	0xbe85c7e0	-0.26129055
133	0x3e5b46f8	0.21413791
134	0x3e6277e3	0.22116046
135	0x3e39b183	0.18134122
136	0xbe4c9837	-0.1997994
137	0x3e10d800	0.14144897
138	0x3d6b795d	0.057488788
139	0xbcaf107e	-0.021370169
140	0x399ce463	0.000299248
141	0xbd194e9e	-0.03742849
142	0xbdcbae4a	-0.099453524
143	0x3e181849	0.14853014
144	0x3d800af3	0.062520884
145	0x3dbfece7	0.093713574
146	0xbbb91750	-0.005648531
147	0xbe299956	-0.165624
148	0xbd8772f6	-0.06613724
149	0xbdc79ed0	-0.09747088
150	0x3e137c67	0.14402924
151	0xbbe89bd3	-0.007098654
152	0x3c392a26	0.011301553
153	0x3dc562ba	0.09637971
154	0x3e8ecb9d	0.2788972
155	0xbdb541ae	-0.08850418
156	0xbde78185	-0.11304001
157	0xbdd782e5	-0.10523013
158	0x3da51e6b	0.080624424
159	0xbe0d28e9	-0.13785137
160	0xbe4d8d3b	-0.20073406
161	0x3d470733	0.04859085
162	0x3d209c63	0.039211642
163	0xbb3c2899	-0.0028710722
164	0x3ea5e129	0.32398346
165	0x3d91f07a	0.071259454
166	0xbc0cf022	-0.008602174
167	0x3df8b918	0.12144679
168	0x3d01606e	0.031586103
169	0xbe1f3b15	-0.15549882
170	0xbd9165be	-0.07099484
171	0x3cf4fbdd	0.029905254
172	0x3e730489	0.23732199
173	0xbd58f739	-0.052970145
174	0x3e5b9c96	0.21446452
175	0x3ca650ed	0.02030226
176	0xbe1e6145	-0.15466793
177	0x3e887d9d	0.26658335
178	0xbe6b6a92	-0.22989872
179	0x3e45fe32	0.19335249
180	0xbe21e40d	-0.1580965
181	0x3e15651d	0.14589353
182	0xbe0aa02b	-0.13537662
183	0xbdeba621	-0.11506296
184	0x3d8f4376	0.06995289
185	0x3ddd92c2	0.108190075
186	0x3e6a10f5	0.22858031
187	0xbe228fc0	-0.15875149
188	0x3e09c3a2	0.13453534
189	0x3d0eda28	0.03487602
190	0xbc991616	-0.01868729
191	0xbe47e42f	-0.19520639
192	0x3d099a1a	0.03359423
193	0x3e351fe9	0.17687954
194	0x3e0228c0	0.12710857
195	0xbc2e3864	-0.010633562
196	0x3cf6344f	0.03005424
197	0x3c33e312	0.010979431
198	0x3e3fc1fb	0.18726341
199	0xbdb81b64	-0.08989599
200	0x3e249e3d	0.16075988
201	0xbd31c939	-0.04340479
202	0xbd8a68fc	-0.067583054
203	0xbdf3da62	-0.119068876
204	0xbdcbbcc0	-0.099481106
205	0x3d6ba543	0.057530653
206	0x3d088db6	0.03333827
207	0xbda0700f	-0.078338735
208	0x3debe252	0.115177765
209	0x3c8a140a	0.016855258
210	0x3da519ab	0.080615364
211	0xbab36c5c	-0.001368891
212	0xbdf21776	-0.11820881
213	0xbe1bc06b	-0.1521012
214	0xbe551711	-0.2080958
215	0xbe0da2d4	-0.13831645
216	0xbd009f9a	-0.031402208
217	0x3e07b2df	0.13251828
218	0xbe31a415	-0.17347749
219	0xbe2440ab	-0.16040294
220	0x3e394a67	0.18094788
221	0xbd45f618	-0.048330396
222	0xbaf1dae5	-0.0018452076
223	0xbd53645b	-0.05160938
224	0x3db171ba	0.0866427
225	0xbca633f2	-0.020288441
226	0xbd801667	-0.06254273
227	0xbc245788	-0.010030635
228	0x3bb518e5	0.0055266493
229	0xbdd29064	-0.102814466
230	0x3d50bbeb	0.050960463
231	0xbd759680	-0.05995798
232	0x3d210374	0.039309934
233	0x3e550efb	0.20806496
234	0x3ea51b5e	0.32247442
235	0xbc1dd61d	-0.009633568
236	0xbe1f9e93	-0.15587835
237	0xbe865d0b	-0.2624286
238	0xbd2070ff	-0.03917026
239	0xbebc2367	-0.3674576
240	0xbc6f3323	-0.014599594
241	0x3d3d0013	0.04614265
242	0x3e31b373	0.1735361
243	0xbe1913bb	-0.14948933
244	0xbcfc9c9e	-0.0308364
245	0xbe83900a	-0.2569583
246	0x3dee3fdf	0.11633276
247	0x3b1da6d8	0.0024055745
248	0x3db2b2d5	0.08725516
249	0x3d6a0906	0.05713751
250	0x3e84be0f	0.25926253
251	0xbdce8d67	-0.10085564
252	0xbd15f284	-0.036608234
253	0x3e3115e3	0.17293505
254	0xbe08dfbe	-0.13366601
255	0xbda2f770	-0.07957351

qnet.fc1.bias f4 [256]
0	0x3d557d50	0.05212146
1	0xbea01993	-0.31269512
2	0xbe4fea16	-0.2030414
3	0x3e2b2ab4	0.16715509
4	0xbea36192	-0.31910378
5	0xbd94e1a4	-0.072696
6	0xbe31ab6b	-0.17350547
7	0x3e34565b	0.17611067
8	0x3da5e0f0	0.08099544
9	0xbe5d6aac	-0.21622723
10	0x3e1af2f7	0.15131746
11	0xbe73f7cf	-0.23825
12	0xbe1db3dc	-0.15400642
13	0x3e347de7	0.17626153
14	0xbdd18bdf	-0.102317564
15	0xbe900c15	-0.28134218
16	0xbb52a5c0	-0.0032142252
17	0xbd9e4fe9	-0.077300854
18	0xbde61eb4	-0.11236325
19	0x3e64a2b8	0.22327697
20	0xbcd29060	-0.025703609
21	0xbd3d24eb	-0.046177786
22	0xbdfb872e	-0.12281643
23	0x3db55e01	0.088558204
24	0x3e0676c7	0.13131247
25	0xbe495c9c	-0.19664234
26	0x3e6968ee	0.22793934
27	0xbe17a2fb	-0.14808266
28	0xbd3a0177	-0.045411553
29	0xbe5495d9	-0.20760287
30	0x3e0a65b9	0.13515367
31	0xbe415952	-0.18881729
32	0x3c734b16	0.014849445
33	0xbd95119d	-0.0727875
34	0xbe2fd074	-0.17169362
35	0x3da91a48	0.08256966
36	0xbe9cde0d	-0.3063816
37	0xbd0cfef8	-0.034422845
38	0x3dab3d38	0.08361286
39	0xbb07e20a	-0.0020734095
40	0xbe7a226a	-0.2442719
41	0xbe8fc0db	-0.28076825
42	0xbd9f8fb7	-0.07791083
43	0x3e1467d6	0.14492735
44	0xbb97057c	-0.004608808
45	0xbe8e398a	-0.27778274
46	0xbeb362a4	-0.35036194
47	0x3de180ba	0.11010881
48	0xbd7fdf20	-0.062468648
49	0xbe422ba0	-0.18961954
50	0x3e8ea49e	0.27859968
51	0x3d52d9a7	0.0514771
52	0xbe02f1a6	-0.12787494
53	0xbd364a7b	-0.044504624
54	0x3dd4d601	0.103923805
55	0xbd365cbc	-0.044522032
56	0xbe39255e	-0.1808066
57	0x3d8406a8	0.06446582
58	0x3e1d1742	0.15340903
59	0x3ddb5a3d	0.10710571
60	0xbcbcb30c	-0.023034595
61	0xbc934725	-0.01797826
62	0xbe566010	-0.20935082
63	0xbd9bb382	-0.07602598
64	0x3e58b53e	0.21162888
65	0x3e4e872f	0.20168756
66	0xbe561496	-0.2090629
67	0x3d5cb1cc	0.053880498
68	0x3da4b00f	0.08041393
69	0x3dcf174f	0.10111868
70	0x3d8cf2a6	0.06882219
71	0x3e1e4d17	0.15459095
72	0x3d893a6c	0.06700596
73	0xbe70a825	-0.23501642
74	0xbe8ab97f	-0.27094647
75	0xbe246ce8	-0.1605717
76	0xbc2db993	-0.010603326
77	0x3e63921d	0.22223707
78	0x3d100dd4	0.035169438
79	0x3e507c66	0.20359954
80	0x3d8b97f9	0.06816096
81	0xbcfc2c62	-0.030782882
82	0x3e4a2dbe	0.19744012
83	0x3e8bf786	0.27337283
84	0x3d8de6dd	0.06928799
85	0x3d89feaa	0.067380264
86	0x3e836603	0.25663766
87	0xbe5123ae	-0.20423767
88	0xbe400a0e	-0.18753836
89	0xbe8bcc7b	-0.27304444
90	0xbdd5f1e4	-0.104465276
91	0x3d3cde0a	0.04611019
92	0xbdd4a7db	-0.103835784
93	0xbeb3f541	-0.3514805
94	0x3cb729c4	0.022358783
95	0xbde17315	-0.11008278
96	0xbdc90e72	-0.09817208
97	0x3d8bbd05	0.06823162
98	0xbde0cbcc	-0.10976371
99	0x3e95184e	0.29120106
100	0x3d7a484c	0.061104104
101	0xbda89f9e	-0.082335696
102	0x3e7a9ab9	0.24473085
103	0xbca19b08	-0.019727245
104	0xbdb7b0ec	-0.08969292
105	0x3e95878f	0.29204985
106	0x3dd180d9	0.10229654
107	0xbe23ded0	-0.16002965
108	0xbdc10f4e	-0.09426747
109	0xbe66fd79	-0.2255763
110	0xbe506960	-0.20352697
111	0xbcfa80ca	-0.03057899
112	0x3e9e389c	0.30902565
113	0xbe321531	-0.17390896
114	0xbe65ba22	-0.22434285
115	0xbe4c8348	-0.19971955
116	0xbe51cca0	-0.20488214
117	0x3d474d88	0.048657924
118	0xbddb96f6	-0.10722153
119	0xbdfee5f5	-0.124462046
120	0x3e8e38c3	0.2777768
121	0xbe5e3f53	-0.21703844
122	0xbe835117	-0.25647804
123	0x3d904af1	0.07045544
124	0xbdd9db06	-0.106374785
125	0xbe4178e5	-0.18893774
126	0x3e12f1f8	0.14350116
127	0xbe62e24b	-0.22156636
128	0xbe672c3d	-0.2257547
129	0x3d39fed4	0.04540904
130	0x3e299135	0.16559298
131	0xbe5d0e2e	-0.2158744
132	0xbd2044b3	-0.039128017
133	0x3d1970e8	0.03746119
134	0x3dff6f8b	0.12472447
135	0xbe3b1339	-0.18269052
136	0xbe753f39	-0.23949899
137	0xbe2f9af1	-0.17148949
138	0xbeabf574	-0.33585703
139	0x3d9c33f9	0.076271005
140	0x3df9356a	0.12168391
141	0x3e412f62	0.18865731
142	0xbd1ee42b	-0.038791817
143	0x3de3b9a8	0.111193955
144	0xbea3396d	-0.3187975
145	0xbddb227d	-0.106999375
146	0xbda45747	-0.08024459
147	0x3d25415f	0.040345546
148	0x3c0896aa	0.008336702
149	0x3cac3a60	0.02102393
150	0xbe14f6bb	-0.14547245
151	0xbc6644a3	-0.01405445
152	0xbeb48065	-0.35254207
153	0x3d875619	0.06608219
154	0xb981bd83	-0.00024745995
155	0x3e9f3562	0.31095415
156	0xbcdbd27a	-0.026833761
157	0x3d8fb677	0.07017224
158	0xbe00e006	-0.12585458
159	0x3e61cc6c	0.22050637
160	0xbe962856	-0.2932765
161	0xbe8179f9	-0.2528837
162	0x3e21384a	0.15744129
163	0xbdb4c6cd	-0.08826981
164	0x3e0b23be	0.13587853
165	0xbe468b66	-0.19389114
166	0x3df7ec89	0.121056624
167	0x3e12c237	0.143319
168	0xbddb176e	-0.10697828
169	0x3e82b2ac	0.2552694
170	0xbea2a08c	-0.31763113
171	0x3e8a3fdc	0.27001846
172	0xbcb6f43c	-0.022333257
173	0xbdf5707c	-0.11984345
174	0xbe6dd2ca	-0.23224941
175	0x3d6a3285	0.057177085
176	0xbebcb07b	-0.36853394
177	0xbeaa4811	-0.33258107
178	0x3c960b04	0.0183158
179	0x3e9b6ee6	0.30358046
180	0x3ea0e67a	0.3142584
181	0xbe4c37b3	-0.19943123
182	0xbe81e677	-0.25371143
183	0xbe888339	-0.26662615
184	0xbe26252d	-0.16225119
185	0xbe8cb519	-0.27481917
186	0xbe05cc33	-0.13066177
187	0xbc977412	-0.018487964
188	0xbe669830	-0.22518992
189	0x3bf2e8e8	0.0074130185
190	0xbe8ad3ee	-0.27114815
191	0x3e8d6617	0.2761695
192	0xbe8b4414	-0.27200377
193	0xbe557c05	-0.20848091
194	0xbe9f1f23	-0.31078443
195	0xbd877283	-0.06613638
196	0xbc7c2764	-0.015390251
197	0x3e0c9b27	0.13731061
198	0x3e57bc84	0.21068007
199	0x3e144265	0.14478453
200	0x3e0acf1b	0.13555567
201	0xbe8614d1	-0.26187757
202	0x3e9c01af	0.30470034
203	0xbe6f0483	-0.23341565
204	0xbdd947c5	-0.10609392
205	0x3da61df7	0.08111184
206	0x3e29355a	0.16524258
207	0xbe10773d	-0.14107986
208	0x3d6287bf	0.05530524
209	0xbe8e0035	-0.27734533
210	0x3dc478cc	0.09593353
211	0x3e7c2054	0.24621707
212	0xbd678acd	-0.056528855
213	0x3e43bb19	0.19114341
214	0x3d905e95	0.0704929
215	0xbe2bdcb8	-0.16783416
216	0xbe56544e	-0.20930597
217	0x3dec6280	0.11542225
218	0x3def2ed6	0.11678855
219	0xbdd0e696	-0.10200231
220	0xbda2be70	-0.07946479
221	0x3e243615	0.16036256
222	0xbe8d4905	-0.27594772
223	0xbe1e62aa	-0.15467325
224	0xbd2d2c58	-0.042278618
225	0x3dc360af	0.09539925
226	0xb9d51f41	-0.00040649812
227	0xbda3eb8b	-0.08003911
228	0xbe1f0716	-0.15530047
229	0x3d960900	0.07325935
230	0xbc2a11ad	-0.010380191
231	0x3e8dfb6f	0.2773089
232	0x3ea7600d	0.32690468
233	0x3e61a053	0.22033815
234	0x3e8936e5	0.26799694
235	0x3e833599	0.2562683
236	0xbeb2305a	-0.34802514
237	0x3e6a880f	0.22903465
238	0x3e31acc8	0.17351067
239	0xbe319c09	-0.17344679
240	0x3dba4493	0.09095111
241	0x3e7a8b5f	0.24467228
242	0x3e10e997	0.14151607
243	0xbe0c8fe4	-0.13726765
244	0x3db99b6e	0.09062849
245	0xbd655a86	-0.055994533
246	0x3bb85c33	0.0056262254
247	0x3e49034e	0.19630167
248	0xbe17a566	-0.14809188
249	0xbebc87e7	-0.36822435
250	0x3cba8a22	0.022770945
251	0x3e664b34	0.22489625
252	0xbe966d30	-0.29380178
253	0x3db99f84	0.09063628
254	0xbe85ed24	-0.26157486
255	0xbe2b8bce	-0.1675255

qnet.fc2.weight f4 [256, 256]
0	0x3cd9c062	0.026580993
1	0xbb98da0d	-0.0046646656
2	0x3d5a06d8	0.053229183
3	0x3c86f5cd	0.016474629
4	0xbc46966b	-0.012120823
5	0xbb4b87be	-0.003105625
6	0xbc2706c0	-0.01019448
7	0x3ce066bb	0.027392736
8	0xbccf59f7	-0.025311453
9	0xbd32debc	-0.043669447
10	0xbc8c3c47	-0.017118586
11	0xbd97d7ad	-0.07414184
12	0xbd1a8850	-0.037727654
13	0xbc5fe29d	-0.013664869
14	0x3c4a6534	0.01235323
15	0x3d3a7aad	0.04552715
16	0x3d7159b2	0.05892343
17	0x3ccfb7e9	0.02535625
18	0xbd9a6304	-0.07538417
19	0x3bf54085	0.007484498
20	0xbdb84594	-0.08997646
21	0xbc674316	-0.014115116
22	0xbd132108	-0.035920173
23	0xbd385e93	-0.045012068
24	0x3d2856e0	0.041098475
25	0x3cfdb3a5	0.03096945
26	0xbd12e15e	-0.03585946
27	0xbd946197	-0.07245176
28	0xbc13d48f	-0.009022846
29	0xbe163f61	-0.14672615
30	0x3d933821	0.0718844
31	0xba6db1fb	-0.00090673537
32	0xbd80992b	-0.062792145
33	0x3d204a31	0.039133254
34	0x3c9cb647	0.019129885
35	0x3c5448db	0.012956823
36	0x3d728b54	0.059214905
37	0xbccde17a	-0.02513193
38	0xbd608740	-0.054816484
39	0x3cc3628d	0.023850704
40	0xbcb70ede	-0.022345956
41	0x3c5ee9ea	0.013605574
42	0x3d13ec51	0.03611404
43	0xb9ea0d00	-0.00044641644
44	0xbd17f695	-0.037100393
45	0x3d5c04ef	0.053715643
46	0xbc839712	-0.016063247
47	0x3d9951c6	0.074863
48	0xbd67bc81	-0.056576256
49	0x3d81a609	0.06330497
50	0x3d214ea9	0.039381657
51	0xbcb281dc	-0.021790437
52	0xbdacd235	-0.08438531
53	0x3d847956	0.064684555
54	0xbd050b9a	-0.032481767
55	0xbcc592c6	-0.024117839
56	0x3c84e240	0.016221166
57	0x3bd3d9d9	0.0064651784
58	0xbdb7205d	-0.0894172
59	0x3db72f25	0.08944539
60	0xbd24327d	-0.040087212
61	0x3d2df940	0.04247403
62	0x3c90208d	0.017593646
63	0xbd710cb2	-0.058849998
64	0x3b935c0d	0.0044970573
65	0x3d361e99	0.044462774
66	0xbd42f0a2	-0.047592767
67	0x3c7d0df7	0.015445224
68	0xbcee5430	-0.029092878
69	0x3d5ca29d	0.053866018
70	0xbc1814a9	-0.0092822695
71	0xbd2931ee	-0.041307382
72	0xbd18413b	-0.037171584
73	0xbd260c0a	-0.040538825
74	0x3d0aca96	0.033884607
75	0xbcbc8b78	-0.023015723
76	0xbcc4142e	-0.023935404
77	0x3ce932c6	0.028466593
78	0x3cd5b0f6	0.026085358
79	0x3d12cd4f	0.03584033
80	0xbac74cd4	-0.0015205392
81	0x3d21aadc	0.039469585
82	0xbcfba075	-0.03071616
83	0xbca87249	-0.020562308
84	0x3d50a785	0.05094101
85	0xbd47f441	-0.048816923
86	0xbc812c7e	-0.015768286
87	0x3b0f7afa	0.0021893368
88	0xbd0cde1b	-0.034391504
89	0x3d503d50	0.050839722
90	0x3da08c6d	0.07839284
91	0x3c5e6e42	0.013576092
92	0xbcb670c9	-0.022270577
93	0xbc7815fe	-0.015141962
94	0xbd147fdc	-0.03625475
95	0x3dcfc3e5	0.10144786
96	0xbc76a91d	-0.015054968
97	0xbde4f095	-0.111787
98	0x3daf547f	0.08561038
99	0x3d2fbc02	0.042903908
100	0xbd7311b7	-0.059343066
101	0x3c70b841	0.014692367
102	0x3b3681ec	0.0027848436
103	0xbda8f96f	-0.08250701
104	0xbac13b88	-0.0014742473
105	0xbd360864	-0.044441596
106	0xbb25cf18	-0.002530044
107	0xbdeeb110	-0.11654866
108	0x3c963110	0.018333942
109	0x3d7a0905	0.061043758
110	0x3cf1ecbb	0.029531827
111	0x3a91bd91	0.0011119117
112	0xbca51997	-0.020153804
113	0x3d6d3275	0.057909448
114	0x3d0d59cf	0.034509476
115	0xbb92b4e4	-0.0044771302
116	0x3d0c81c0	0.034303427
117	0xbce389b5	-0.027775625
118	0xbc23738a	-0.009976277
119	0xbd6aebfa	-0.05735395
120	0xbc521b3c	-0.012823876
121	0xbd75f922	-0.060052045
122	0x3cebc3db	0.028779915
123	0xbdc8fac6	-0.09813456
124	0xbca48afa	-0.0200858
125	0x3c30b48a	0.010785231
126	0x3bbbd2ce	0.005731917
127	0x3abdf3eb	0.0014492249
128	0x3cd714c8	0.026255026
129	0xbca409df	-0.020024238
130	0x3caa2e30	0.020773977
131	0xbcee4e88	-0.029090181
132	0xbbfb42fb	-0.007667897
133	0xbaeaf3fd	-0.0017925497
134	0x3d31e4a0	0.043430924
135	0xbd3d84f0	-0.046269357
136	0xbe06975d	-0.13143678
137	0xbba8e81b	-0.0051546223
138	0x3cf6b654	0.030116238
139	0xbd71d819	-0.059043977
140	0x3d1b6b51	0.03794414
141	0xbc19aa71	-0.009379015
142	0xbd7f3685	-0.062307853
143	0xbccaeaef	-0.024770228
144	0xbd6e81f9	-0.05822942
145	0xbc8fc231	-0.017548652
146	0xbd817c35	-0.06322519
147	0xbc6a8329	-0.014313498
148	0x3d26e007	0.040740993
149	0xbd0dca46	-0.03461673
150	0x3d6853ea	0.05672065
151	0xbc5801fe	-0.013184069
152	0x3c91e4b0	0.017809242
153	0x3d569484	0.05238773
154	0x3d4aed3c	0.04954265
155	0x3e018af1	0.12650658
156	0x3c995162	0.018715564
157	0xbd070814	-0.03296669
158	0x3d346a48	0.04404667
159	0xbd2739a7	-0.040826466
160	0x39bd9dbd	0.00036166413
161	0x3bdc6ac3	0.006726594
162	0x3c07af3e	0.008281527
163	0xbb3a68b3	-0.0028443753
164	0xbd1d1724	-0.038352147
165	0x3b15cfee	0.0022859531
166	0xbd1d519d	-0.03840791
167	0xbc2e9635	-0.010655929
168	0x3da61366	0.08109169
169	0xbda40999	-0.08009643
170	0xbd412462	-0.047153838
171	0x3cc703b3	0.024293756
172	0xba9b5bac	-0.0011852882
173	0xbc9a8795	-0.018863479
174	0xbdc1335e	-0.09433626
175	0xbd677dca	-0.056516446
176	0xbd83b929	-0.06431801
177	0x3d51e53c	0.051244006
178	0xbd8f37b7	-0.06993049
179	0xbd9d3e56	-0.07677905
180	0x3bcf8a43	0.0063336208
181	0xbd21c93c	-0.039498553
182	0x3d30b3b7	0.04314014
183	0x3c4f8709	0.012666472
184	0xbbe5aead	-0.0070093484
185	0x3d2d4eab	0.04231135
186	0xbd670c20	-0.056408048
187	0x3d0f1fca	0.034942426
188	0x3cbf5a2e	0.02335843
189	0xbd171052	-0.0368808
190	0x3d5ff781	0.054679397
191	0xbda56ce1	-0.08077408
192	0x3ca1e63b	0.019763103
193	0x3cc6ba97	0.024258895
194	0xbd2efaa3	-0.042719495
195	0xbcf7846e	-0.030214515
196	0x3c726956	0.014795622
197	0x3c29272c	0.010324281
198	0x3d49201e	0.049102895
199	0xbc8e6a09	-0.017384546
200	0xbcb7a4c7	-0.02241744
201	0xbdc4a8ed	-0.096025325
202	0xbc1e4d94	-0.009662051
203	0xbcc51668	-0.024058536
204	0xbd8e7b94	-0.069571644
205	0xbce7d0ab	-0.028297743
206	0xbb7ff733	-0.0039057254
207	0x3c9a6534	0.018847086
208	0xbdd89520	-0.10575318
209	0xbd163468	-0.036671072
210	0x3d2ab8b7	0.041680064
211	0xbc9e232b	-0.019303879
212	0xbbc65e90	-0.006053753
213	0xbbc992b5	-0.006151522
214	0x3ced4185	0.028961906
215	0xbba22419	-0.004948151
216	0x3d827d23	0.06371524
217	0x3d374e8c	0.044752643
218	0xbd4ecd58	-0.0504888
219	0x3cd295a0	0.025706112
220	0x3ca93878	0.02065681
221	0x3d87148d	0.065957166
222	0x3cbace2c	0.022803389
223	0xbe1b9031	-0.15191723
224	0x3cb7c9cd	0.022435093
225	0x3c908efe	0.017646309
226	0xbcbeef76	-0.023307543
227	0x3d5ece23	0.054395806
228	0xbce4a8b4	-0.027912475
229	0xbc5801cb	-0.013184021
230	0xbc0898a9	-0.008337178
231	0xbb22bfc1	-0.0024833533
232	0xbd96dda4	-0.07366493
233	0xbe38600b	-0.18005387
234	0xba8ba0f7	-0.001065283
235	0xbde78205	-0.11304096
236	0xbd412f71	-0.047164384
237	0xbd426c32	-0.047466464
238	0xbd147950	-0.036248505
239	0xbc7e0a11	-0.01550533
240	0x3cc5b45f	0.02413386
241	0xbd731241	-0.05934358
242	0x3d897cac	0.067132324
243	0x3c885743	0.016643172
244	0x3d50300a	0.050827064
245	0xbc46e802	-0.012140276
246	0xbc0b986d	-0.008520228
247	0xbc346b5d	-0.0110119255
248	0x3d8b5277	0.06802838
249	0x3b2e461d	0.0026592084
250	0xbd799e49	-0.060941968
251	0xbd50d773	-0.05098672
252	0xbd47bcd3	-0.04876406
253	0xbd00b7f6	-0.03142544
254	0x3d09c0ed	0.033631254
255	0xbcbb4608	-0.022860542

qnet.fc2.bias f4 [256]
0	0xbd8192f9	-0.06326861
1	0xbc4c6230	-0.012474582
2	0xbd4280b5	-0.047486026
3	0xbcbb01b8	-0.022827968
4	0x3d076b23	0.033061158
5	0xbc1b1856	-0.009466251
6	0xbcc102d2	-0.023560915
7	0x3cf69296	0.030099194
8	0xbd05c8ba	-0.03266213
9	0x3d3611b4	0.044450477
10	0x3d5ce3df	0.053928252
11	0x3d2d1ef4	0.042265847
12	0x3d33f679	0.043936227
13	0x3c952cca	0.018209834
14	0x3bcc2f24	0.0062312055
15	0xbd23c2b7	-0.039980616
16	0xbcfbb2d2	-0.030724917
17	0xbcb2a9ac	-0.021809421
18	0x3d12da22	0.03585256
19	0x3c550c82	0.01300347
20	0x3cb12814	0.021625556
21	0xbd862474	-0.06549922
22	0x3d0282df	0.03186309
23	0x3c52dc10	0.01286985
24	0xbd046631	-0.03232402
25	0xbcdb1a14	-0.026745833
26	0xbbcace4e	-0.006189144
27	0x3cf03eea	0.029326875
28	0xbc2d4e65	-0.010577773
29	0x3cbcd86b	0.023052415
30	0x3d5a20f5	0.053254087
31	0x3d28c9ea	0.041208185
32	0xbcb1c5e5	-0.021700809
33	0x3d2c345d	0.042042125
34	0xbd8d76ad	-0.06907401
35	0x3c2a70f2	0.010402905
36	0xbd56ea39	-0.052469466
37	0x3bf64b02	0.007516266
38	0xbbb9ea1d	-0.0056736604
39	0x3d0d43f0	0.03448862
40	0xbcd79aa5	-0.026318857
41	0xbcbbb7a1	-0.02291471
42	0x3b8d59a9	0.004313667
43	0xbd3305fe	-0.043706886
44	0xbcb9c5c8	-0.022677317
45	0xbd6559d2	-0.055993862
46	0xbcb03c15	-0.021513024
47	0xbd0f4251	-0.034975354
48	0xbd849890	-0.064744115
49	0x3d07999c	0.033105478
50	0x3d58d730	0.052939594
51	0xbd648dcf	-0.0557993
52	0x3a9a63a7	0.0011778966
53	0xbce87275	-0.02837489
54	0xba549a3c	-0.0008110141
55	0xbd1b2e69	-0.037886057
56	0xbb93a5a5	-0.0045058304
57	0xbd8f6f97	-0.07003706
58	0xbd547675	-0.051870782
59	0xbd6b4361	-0.057437304
60	0x3d2ba242	0.041902788
61	0x3cd2e357	0.02574317
62	0x3cc94f25	0.024573872
63	0x3d7a5d43	0.061124098
64	0x3c7173da	0.014737094
65	0x3c4a06c6	0.0123307165
66	0x3d19332a	0.03740231
67	0x3cea2263	0.02858085
68	0x3c4b8e49	0.01242406
69	0xbd90d243	-0.07071354
70	0xbd5f6373	-0.0545382
71	0xbcfba64b	-0.030718943
72	0xbc1e574d	-0.009664369
73	0xbce2b1cf	-0.027672676
74	0xbd650f1e	-0.05592262
75	0xbdacabcf	-0.084312074
76	0xbd7ae986	-0.06125786
77	0x3d141dce	0.036161236
78	0x3d5bf4bb	0.05370019
79	0xbb32f563	-0.0027306906
80	0x382f1d89	4.1750758e-05
81	0x3d265dd3	0.04061682
82	0x3d827f31	0.06371916
83	0xbd4e4d5d	-0.050366748
84	0xbd8e3dd6	-0.06945388
85	0xbd02144a	-0.03175763
86	0x3d25b525	0.040455956
87	0x3d48cb14	0.049021795
88	0xbcca2717	-0.024676843
89	0xbd53daa8	-0.0517222
90	0xbd655d53	-0.055997204
91	0x3d3868e0	0.04502189
92	0x3cb442c2	0.022004489
93	0x3bc5b264	0.0060332287
94	0xbc7f6910	-0.015589014
95	0xbd49e975	-0.049294908
96	0xbc9b8dc1	-0.018988492
97	0xbc0cad53	-0.008586246
98	0xbb0389b3	-0.0020071089
99	0xbd299df1	-0.04141039
100	0xbd83f659	-0.064434715
101	0x3d2bde1b	0.041959863
102	0x3d1a58ac	0.03768222
103	0xbd34e9e6	-0.044168375
104	0xbb892801	-0.004185677
105	0xbc109156	-0.008823713
106	0xbca61406	-0.02027322
107	0xbd536be5	-0.051616568
108	0x3ca72721	0.0204044
109	0x3d2da6d8	0.042395443
110	0xbd66eabb	-0.0563762
111	0x3d39d189	0.045365844
112	0xbce47ffa	-0.027893055
113	0x3ace4e90	0.0015739966
114	0xbd3b99d2	-0.04580099
115	0x3d1b09ef	0.03785127
116	0x3c4b63af	0.012413903
117	0xbd7d6b61	-0.061869983
118	0xbc1148fb	-0.008867498
119	0xbd2b8f20	-0.04188454
120	0xbd23e3fb	-0.04001234
121	0x3c2cda1a	0.010550046
122	0x3c97a05f	0.018509088
123	0xbd21f961	-0.039544467
124	0xbc501dcb	-0.012702416
125	0xbcd3310f	-0.025780229
126	0xbd8d5efe	-0.06902884
127	0x3c2c8a62	0.01053104
128	0xbd27269d	-0.04080831
129	0x3d486bb4	0.04893084
130	0x3d411b8b	0.047145408
131	0xbceeaa83	-0.02913404
132	0x3c88ead7	0.016713543
133	0xbccc8a6e	-0.024968352
134	0xbc5f83a1	-0.013642223
135	0x3c9191ec	0.017769776
136	0x3a58339b	0.0008247436
137	0x3d42efaa	0.047591843
138	0x3cdf31a0	0.027245343
139	0xbd446f75	-0.047957856
140	0xbd805fb4	-0.06268254
141	0x3d46534d	0.048419286
142	0x3c46b596	0.012128254
143	0xbcb718ad	-0.022350634
144	0xbcaeb8f5	-0.021328429
145	0x3cecd06d	0.028907979
146	0x3d16455c	0.03668724
147	0x3c845b40	0.016156793
148	0x3ca034dc	0.019556455
149	0xbc83572d	-0.01603278
150	0x3da26de6	0.07931118
151	0x3cb76362	0.022386257
152	0x3d1dadb4	0.038495734
153	0x3c34b93a	0.01103049
154	0x3d7ebb39	0.06219027
155	0x3d35d13b	0.04438899
156	0xbd08b8b1	-0.03337926
157	0xbd186f8e	-0.03721576
158	0xbc380a28	-0.01123289
159	0x3c76594e	0.01503594
160	0xbd3d1bd2	-0.04616911
161	0x398f92ff	0.00027384606
162	0xbd2cdf7e	-0.042205326
163	0xbd68a06a	-0.056793608
164	0x3d42eaff	0.04758739
165	0xbd15b590	-0.036550105
166	0xbd1e032d	-0.038577247
167	0x3d172bdc	0.036907062
168	0x3d55e762	0.052222617
169	0xbca12ca7	-0.019674612
170	0x3d3959f5	0.045251805
171	0xbd540d28	-0.05177036
172	0x3d3e47e0	0.046455264
173	0x3ca9ec42	0.02074254
174	0x3d2042e2	0.039126284
175	0x3d3c6d9e	0.046002977
176	0xbcb53704	-0.02212096
177	0x3c9c6dc6	0.019095313
178	0x3d48c115	0.049012262
179	0x3c38af72	0.011272298
180	0xbd0a504f	-0.033767994
181	0x39b1053f	0.0003376398
182	0x3c072c84	0.008250359
183	0xbc911132	-0.017708395
184	0x3d1c76a1	0.03819907
185	0x3cfbf85c	0.030758075
186	0xbd1413b9	-0.03615162
187	0xbc956b46	-0.018239629
188	0xbd6a72d2	-0.057238407
189	0x3caf5129	0.021401005
190	0x3c9b7fbc	0.018981807
191	0xbcba05db	-0.02270787
192	0xba0bf4ba	-0.00053388963
193	0xbc981b1d	-0.018567616
194	0x3c7175b7	0.014737538
195	0xbd43ab0c	-0.047770545
196	0x3cfeb620	0.031092703
197	0x3d07b060	0.03312719
198	0x3c34a1da	0.011024917
199	0xbc1567e4	-0.009119008
200	0xb7983710	-1.8145452e-05
201	0xbcddab94	-0.027059354
202	0x3d1215af	0.03566521
203	0x3d90ea8e	0.07075988
204	0xbd667aeb	-0.056269567
205	0x3bd762d4	0.0065730605
206	0x3d438e78	0.04774329
207	0xbabefbcf	-0.0014570894
208	0x3d549b20	0.05190575
209	0xbc26ec28	-0.01018814
210	0x3d4ab450	0.049488366
211	0x3a4496bd	0.00074992684
212	0xbcbbfa45	-0.022946486
213	0xbc4c6b58	-0.012476765
214	0x3d3cd3ba	0.046100356
215	0xba827580	-0.0009953231
216	0xbd884375	-0.066534914
217	0x3cdcd6f8	0.026957974
218	0xbd4ac89f	-0.049507733
219	0x3c399d99	0.011329078
220	0xbd337097	-0.043808546
221	0x3d4eddf4	0.05050464
222	0xbc20f4a6	-0.009823954
223	0x3c447ea6	0.011993086
224	0x3c815fee	0.015792813
225	0xbd862d86	-0.06551652
226	0x3d5ec166	0.054383658
227	0xbd37d568	-0.044881254
228	0xbc997dbc	-0.018736713
229	0xbc15aadd	-0.009134975
230	0x3c005df2	0.007834898
231	0xbd42d817	-0.04756936
232	0xbd050bd2	-0.032481976
233	0xbd20b13b	-0.03923152
234	0xbcfe9a17	-0.031079335
235	0x3d0f9847	0.035057332
236	0x3cb0f294	0.021600045
237	0x3bf9a905	0.0076190257
238	0x3caf2f4a	0.021384854
239	0x3d6570f0	0.05601591
240	0x3d4a6a68	0.049417883
241	0xbca560fb	-0.020187845
242	0xbc8cb58a	-0.017176408
243	0x3bcf9d44	0.006335886
244	0x3c306fc5	0.010768835
245	0xbdbbbfaa	-0.091674164
246	0xbc413112	-0.011791484
247	0xbc1ff0d5	-0.009762009
248	0xbc970db1	-0.018439146
249	0xbcd457b8	-0.025920734
250	0x3d4692d3	0.048479866
251	0x3cc076d9	0.023494171
252	0xbd77cc17	-0.06049737
253	0x3c8d9eba	0.0172876
254	0xbd3c949b	-0.04604016
255	0xbb5b8038	-0.0033493172

qnet.A.weight f4 [9, 256]
0	0x37e94351	2.7807111e-05
1	0x3d679ba4	0.056544915
2	0x3ca9c95a	0.020725895
3	0x3d6b0d78	0.05738589
4	0xbca3db71	-0.020002099
5	0xbc6dc06a	-0.014511207
6	0xbc0dd24f	-0.0086560985
7	0x3ca56674	0.020190455
8	0x38183599	3.628954e-05
9	0xbbd5f426	-0.006529349
10	0x3b0fde54	0.0021952586
11	0xba6d8823	-0.00090611185
12	0x3c5481bf	0.012970387
13	0xbd723ad2	-0.059138127
14	0x3b152691	0.0022758583
15	0x3cb77438	0.022394285
16	0x3d31a796	0.043372713
17	0xbc283ca6	-0.010268366
18	0x3cc70c1a	0.024297763
19	0xbc1fd77f	-0.009755968
20	0xbbc0c149	-0.0058824164
21	0x3b8f43fc	0.004372118
22	0x3c133311	0.008984343
23	0x3c1fd1c8	0.009754606
24	0xbb728c65	-0.0037009951
25	0x3cddb953	0.027065909
26	0x3c64bab7	0.013960532
27	0xbc1c332a	-0.009533683
28	0xbd6b6bb9	-0.05747578
29	0x3d2e49fe	0.042551033
30	0x3aa0133a	0.0012212761
31	0x3c14e11c	0.009086873
32	0xbc95e564	-0.018297859
33	0x3b4d911e	0.0031367014
34	0x3d2ae7e7	0.041725066
35	0x3ba2932e	0.004961393
36	0x3c825639	0.015910255
37	0xbc7f2f02	-0.015575172
38	0xbb5b4237	-0.0033456215
39	0x3afe6b66	0.0019410669
40	0xbd297ed0	-0.041380703
41	0xba78f86a	-0.0009497466
42	0xbc97b642	-0.018519524
43	0x3c0d0dd0	0.00860925
44	0x3c76c899	0.015062475
45	0xbb964f37	-0.00458708
46	0x3c0dbaa2	0.008650454
47	0x3bb151c6	0.0054113595
48	0x3cea67ca	0.028613944
49	0xbc74198e	-0.014898671
50	0x3c390658	0.011293016
51	0x3d349654	0.044088677
52	0xbc83b5e8	-0.01607795
53	0xbc3aa4da	-0.011391843
54	0x3a39425e	0.00070670794
55	0x3c580327	0.013184345
56	0xbc63c3a3	-0.013901624
57	0x3a47fe05	0.00076290994
58	0x3a8880ff	0.001041442
59	0x3c4eb1b5	0.012615611
60	0xbbf01f98	-0.007327985
61	0x3b44cb0d	0.0030028254
62	0x3c7efe01	0.015563489
63	0x3b9ab67d	0.0047214613
64	0x3c6a1b7d	0.01428878
65	0xbc7866c5	-0.015161221
66	0x3cd89560	0.026438415
67	0xbcef8d75	-0.029242257
68	0x3bb042d9	0.0053790626
69	0xbc801c95	-0.015638629
70	0xbcdd61b6	-0.027024131
71	0xbcbcf71a	-0.023067046
72	0x3cbe99f9	0.02326678
73	0xbce37306	-0.027764808
74	0xbb8424aa	-0.004032691
75	0xbb900423	-0.0043950244
76	0x3d55cbf9	0.052196477
77	0x3c0497ed	0.008092863
78	0xbca36ab7	-0.019948347
79	0xbb53b357	-0.003230294
80	0xbb9658e3	-0.004588233
81	0xbd02f074	-0.031967595
82	0xbbf8e867	-0.007596064
83	0xbc24932d	-0.010044855
84	0x3bdcbd34	0.006736422
85	0x3bad4a91	0.00528843
86	0x3aa273d8	0.0012394143
87	0xbdd17ef8	-0.102292955
88	0xbc2d8325	-0.010590349
89	0x3b83b8e8	0.0040198453
90	0x3c2966ec	0.01033948
91	0xbc2c4560	-0.010514587
92	0x3b588043	0.0033035434
93	0xbd230086	-0.03979542
94	0xbb3b98e8	-0.0028625075
95	0x3c5e2211	0.013557927
96	0xbd386301	-0.045016292
97	0x3a8483a6	0.0010110035
98	0x3c090abb	0.008364375
99	0x3c775d05	0.015097861
100	0x3cf10eea	0.029426057
101	0x3bf90a45	0.007600101
102	0x3b8f16ac	0.0043667164
103	0xbc779497	-0.01511111
104	0x3ca873f1	0.020563098
105	0x3cb66fa5	0.022270033
106	0x3c37dd1c	0.01122215
107	0x3b9f8d1a	0.0048691155
108	0x3c86875c	0.016421966
109	0x3b57590f	0.003285948
110	0x3abcff43	0.0014419336
111	0x3c605af2	0.013693558
112	0xbaa9cda7	-0.0012954966
113	0x3d0038b6	0.031304084
114	0xbddfe2f2	-0.10931958
115	0x3c9ce24a	0.019150872
116	0xbb340964	-0.0027471418
117	0x3bb8540c	0.0056252535
118	0x3c8b5081	0.01700616
119	0xbcae7f6b	-0.021300992
120	0x3bec8f60	0.00721924
121	0xbc8f103d	-0.017463798
122	0x3c554d0a	0.013018856
123	0x3c41001f	0.011779814
124	0xbc2bb045	-0.010479038
125	0xbbab33b6	-0.0052246703
126	0xbc0e2259	-0.008675181
127	0x3b9818a9	0.0046416116
128	0x3c8091a3	0.015694445
129	0x3c110546	0.008851355
130	0x3c3e743f	0.011624395
131	0x3ce6959e	0.028147515
132	0x3c650e0a	0.013980398
133	0x3c6ae0fb	0.014335866
134	0x3b40af84	0.002940149
135	0x3a00f6ac	0.00049195695
136	0x3d06624a	0.03280858
137	0xbce3aa49	-0.02779116
138	0x3cd41357	0.025888128
139	0xbbaa3c5d	-0.005195184
140	0xbbb9f2da	-0.005674702
141	0x3b430880	0.0029759705
142	0xbc574d2c	-0.013140958
143	0xbd301804	-0.042991653
144	0xbbf1d917	-0.0073806155
145	0x3c53cbe9	0.012927034
146	0x3d00dbc3	0.03145958
147	0x3b4bb1ad	0.0031081245
148	0xbc4dba87	-0.012556679
149	0x3aa3bf31	0.0012492893
150	0xbb329d23	-0.0027254305
151	0x3c55ac63	0.0130415885
152	0x3c4ef5ed	0.012631875
153	0x3c055be0	0.0081395805
154	0xbd299c66	-0.04140892
155	0xbc82436f	-0.015901295
156	0xbca19f73	-0.019729352
157	0x3cbbd0d5	0.022926727
158	0x3c4a5351	0.012348966
159	0xbbb70162	-0.0055848816
160	0xbc63fb84	-0.0139149465
161	0x3b0572ba	0.0020362572
162	0xbc17123c	-0.009220656
163	0x3c46f04f	0.012142255
164	0xb9e7d6f4	-0.00044219906
165	0xbc9104af	-0.017702429
166	0xbcb5ac7a	-0.02217697
167	0xbc4f9f4e	-0.012672259
168	0xbc6089fb	-0.013704772
169	0x3d2d6cd1	0.042340104
170	0xbbf6c461	-0.0075307344
171	0xbc982d9e	-0.01857644
172	0xbc056a0b	-0.008142958
173	0x3c22ca60	0.009935945
174	0x3b362698	0.0027794
175	0xbc903ddd	-0.017607624
176	0xbd3274c8	-0.043568403
177	0x3c206d3a	0.009791667
178	0x3c3ecdcd	0.011645746
179	0x3cb84138	0.022492036
180	0x3cfcec88	0.030874506
181	0xbc05b2cc	-0.008160304
182	0x3c9ba2b2	0.018998478
183	0x3ccf71f0	0.025322884
184	0x39dac3db	0.00041726124
185	0x3b0998f6	0.0020995713
186	0xbb88baec	-0.0041726734
187	0x3d85adcf	0.06527292
188	0xbc3c434c	-0.011490654
189	0xb8461639	-4.7227575e-05
190	0xbc8fc83c	-0.017551534
191	0xbb9e487e	-0.004830419
192	0x3b7d7801	0.0038676264
193	0xbd618333	-0.055056762
194	0x3bcae88f	0.006192274
195	0xbc3a8714	-0.011384744
196	0x3d25ad80	0.040448666
197	0x3cc9ed7f	0.02464938
198	0x3c898298	0.016785905
199	0x3c85a7d0	0.01631537
200	0x3d0b11c3	0.033952486
201	0xbc279c55	-0.010230144
202	0xbcea5c2d	-0.028608406
203	0xbc83f784	-0.016109236
204	0x3c8119bb	0.01575934
205	0x3b4dde57	0.0031413042
206	0x3cd8047d	0.026369328
207	0x3c9912af	0.018685667
208	0x3c33f499	0.01098361
209	0x3b104deb	0.00220191
210	0xbb5f7b00	-0.0034100413
211	0x3b73c297	0.0037194842
212	0xbc3419c7	-0.010992474
213	0x3c7907e5	0.015199636
214	0x3d2cd231	0.04219264
215	0x3d6096d8	0.054831356
216	0xbcbc4e2a	-0.02298649
217	0xbe1cac6a	-0.15300146
218	0xbcb3bccb	-0.02194061
219	0x3ba42c21	0.0050101434
220	0xba555f1b	-0.0008139477
221	0x3d546231	0.051851455
222	0xbbe2ac92	-0.0069175446
223	0xbc34d34d	-0.011036706
224	0xbc065205	-0.008198266
225	0x3c10a68b	0.008828769
226	0x3b81c1a3	0.003959851
227	0xbc7cc275	-0.015427222
228	0xbab51915	-0.0013816679
229	0x3c8f0eee	0.017463174
230	0xbcbfd404	-0.023416527
231	0xbc18bca9	-0.009322324
232	0xb6feda0b	-7.5951734e-06
233	0xbb7876b5	-0.0037912552
234	0xbc528692	-0.012849467
235	0x3ac15c9d	0.0014752332
236	0x3b179fc3	0.0023135997
237	0xbc509e7a	-0.012733096
238	0xbbe5471a	-0.0069970014
239	0xbc90d4fb	-0.017679682
240	0x3c043daf	0.008071347
241	0x3c76a816	0.015054723
242	0x3bca80c3	0.0061799004
243	0x3c42cde1	0.011889906
244	0x3bd2d36b	0.0064338944
245	0xbe04b7d5	-0.12960751
246	0xbb8b0af2	-0.004243248
247	0xbd789503	-0.060688984
248	0xbbf81113	-0.007570395
249	0x3b8c65ff	0.00428462
250	0xba412808	-0.0007368331
251	0xbcdbfce8	-0.026853994
252	0xbc47cded	-0.012195093
253	0x3b6f5b38	0.0036522876
254	0x3c5bf008	0.013423927
255	0x3bc56188	0.0060235895

qnet.A.bias f4 [9]
0	0xbbebb5ee	-0.0071933186
1	0x3c5fcf25	0.013660227
2	0xbd72166b	-0.05910341
3	0xbd7fe479	-0.062473748
4	0x3bf3c209	0.0074389023
5	0x3d6b8091	0.057495657
6	0x3ca72666	0.020404052
7	0xbcb9f9c4	-0.022702105
8	0xbcf36ce8	-0.029715016
