models/backup/less_gama_01/q_eval_dqn.onnx (onnx, 286110 bytes, 6 tensors)

qnet.fc1.weight f4 [256, 11]
-0.17174745 0.27212334 0.071202084 0.15911731 -0.1301583 0.15505694 -0.018436573 -0.18877046
0.063869804 0.15282714 0.19265282 -0.14427024 -0.08176034 0.19925202 -0.025711609 -0.18164404
0.023131367 0.21820708 0.18600498 -0.020139491 0.06095104 -0.2118408 0.035446107 0.02523002
0.08581161 -0.054728832 -0.065148 0.020202657 -0.09388154 -0.027401866 0.036353286 0.022839805
0.0065008355 -0.08926564 0.02804529 0.06850568 -0.024723034 0.16698706 -0.026710775 0.037137315
-0.11649605 0.10879787 -0.1740722 -0.11795996 -0.1340312 0.1408257 -0.0010380734 0.15450077
-0.079338424 0.016589427 -0.0109194135 0.006712137 0.057847235 0.024903692 0.23322144 0.29974443
-0.12700512 0.17315227 -0.08787033 -0.044660844 0.15196061 -0.19077054 -0.09907584 0.0026224407
0.18047348 -0.111768395 0.13873813 0.16166158 0.20796989 -0.1954271 0.14841712 -0.026620079
-0.13476034 -0.1454509 -0.008170374 -0.03412425 0.1608669 -0.14062265 -0.03977718 0.15862317
0.13302723 -0.21299627 0.17475104 0.1815186 0.07665256 -0.05058203 -0.050242715 0.10423138
-0.005870513 0.092670575 -0.111287035 0.17904627 0.018538566 -0.23302032 -0.009170824 -0.24791923
0.044376776 -0.086286746 0.034164917 -0.22911438 0.11380766 0.26367915 -0.010530754 0.047011256
-0.026711093 0.046206858 0.050875258 -0.08327534 -0.011245284 0.09755088 0.058698248 -0.02157556
-0.0043674223 -0.1533944 -0.043146715 0.067533925 0.0079902895 0.091062725 0.01696539 0.0026385463
-0.1606432 0.0732585 0.1617552 0.21471396 -0.08232728 -0.21322942 -0.2697737 0.036548804
0.07250501 0.06373342 0.016813671 0.28123036 -0.267947 0.21938196 0.22232047 0.1801801
-0.20250376 0.14159662 0.05197452 -0.023404475 0.015436868 -0.06993928 -0.10287214 0.14879999
0.08748263 0.106258884 -0.0040844358 -0.13873504 -0.04808916 -0.09814744 0.16027787 0.010768101
0.0243502 0.11410366 0.27230108 -0.06598194 -0.10827164 -0.11315447 0.10671417 -0.14437556
-0.20747694 0.050917175 0.03842013 -0.019624248 0.31524506 0.09638538 0.006271526 0.10470443
0.057726238 -0.14170462 -0.082717374 0.052473534 0.24787313 -0.11268646 0.1802513 0.012132343
-0.16165848 0.26670054 -0.23007447 0.18845618 -0.1574564 0.15109827 -0.14785118 -0.11828411
0.071305305 0.1231163 0.23811598 -0.1581612 0.15250468 0.030913284 -0.024059476 -0.18192032
0.035607856 0.16712514 0.14770539 -0.019077718 0.016898373 0.01835877 0.19924307 -0.1039485
0.15707204 -0.030226368 -0.08615446 -0.12450156 -0.07879825 0.04810366 0.039073873 -0.058023755
0.11388995 0.010079999 0.09694802 4.5098393e-05 -0.125205 -0.14583199 -0.21274322 -0.14423504
-0.015108287 0.09525453 -0.16660628 -0.17276177 0.18700561 -0.022522828 0.005980447 -0.04734136
0.12049195 -0.010536984 -0.049948864 0.018891368 0.0026190192 -0.08549066 0.052954882 -0.07187594
0.035786197 0.19579177 0.31873134 -0.013159309 -0.1588801 -0.27004778 -0.0541163 -0.36545497
-0.023425246 0.03452156 0.1735784 -0.14577086 -0.024280975 -0.25175267 0.11060603 0.0034045938
0.09086004 0.050983287 0.21777336 -0.1065807 -0.033857677 0.14762951 -0.14094144 -0.09683643
00000000: 90de 2fbe c053 8b3e 66d2 913d a6ef 223e
00000010: 3848 05be 3fc7 1e3e 4c08 97bc 0b4d 41be
00000020: 2cce 823d b87e 1c3e c846 453e 94bb 13be
00000030: f771 a7bd b908 4c3e 27a1 d2bc e500 3abe
00000040: fe7d bd3c ad71 5f3e 1778 3e3e 93fb a4bc
00000050: cca7 793d cbec 58be f02f 113d 30af ce3c
00000060: ffbd af3d 572b 60bd 516c 85bd 0b80 a53c
00000070: f744 c0bd e179 e0bc 2fe7 143d 8b1a bb3c
00000080: f604 d53b e7d0 b6bd 3cbf e53c b54c 8c3d
00000090: f687 cabc a8fe 2a3e 8ed0 dabc 4c1d 183d
000000a0: 7b95 eebd 6bd1 de3d fc3f 32be fe94 f1bd
000000b0: 7a3f 09be 9d34 103e f70f 88ba 7335 1e3e
000000c0: 2f7c a2bd 8de6 873c 57e7 32bc 7cf1 db3b
000000d0: 39f1 6c3d d402 cc3c 9ad1 6e3e 1a78 993e
000000e0: a10d 02be d44e 313e 5cf5 b3bd 4aee 36bd
000000f0: 909b 1b3e 5a59 43be 46e8 cabd 41dd 2b3b
00000100: 0ace 383e d4e6 e4bd 5e11 0e3e 9d8a 253e
00000110: 0ff6 543e 0b1e 48be a8fa 173e 5a12 dabc
00000120: 9dfe 09be 15f1 14be 08dd 05bc dfc5 0bbd
00000130: 4bba 243e 62ff 0fbe 65ed 22bd 1d6e 223e
00000140: 4a38 083e b21b 5abe f0f1 323e 03e0 393e
00000150: 04fc 9c3d 1a2f 4fbd 4ecb 4dbd 4377 d53d
00000160: 6f5d c0bb 12ca bd3d 75ea e3bd e857 373e
00000170: 31de 973c e19c 6ebe 3941 16bc 8ade 7dbe
00000180: 6cc4 353d 1bb7 b0bd 83f0 0b3d f69c 6abe
00000190: fe13 e93d f400 873e 2f89 2cbc e08e 403d
000001a0: 39d1 dabc 6743 3d3d 9362 503d 438c aabd
000001b0: 243e 38bc c1c8 c73d 936d 703d 3bbf b0bc
000001c0: 981c 8fbb 6c13 1dbe 9cba 30bd 3a4f 8a3d
000001d0: b4e9 023c 187f ba3d 00fb 8a3c 76eb 2c3b
000001e0: a77f 24be 8d08 963d 28a3 253e fadd 5b3e
000001f0: 349b a8bd d058 5abe c71f 8abe 33b4 153d
00000200: 827d 943d ab86 823d d3bc 893c 6dfd 8f3e
00000210: 5930 89be aaa5 603e faa7 633e 2281 383e
00000220: 255d 4fbe b4fe 103e 3ce3 543d beba bfbc
00000230: ebea 7c3c 533c 8fbd a1ae d2bd 065f 183e
00000240: 182a b33d 429e d93d bbd6 85bb 8f10 0ebe
00000250: 24f9 44bd 8601 c9bd e21f 243e b06c 303c
00000260: 127a c73c 2eaf e93d 0c6b 8b3e 8a21 87bd
00000270: 86bd ddbd 88bd e7bd f58c da3d 30d7 13be
00000280: d674 54be 878e 503d 6d5e 1d3d 08c3 a0bc
00000290: cd67 a13e b365 c53d 6081 cd3b 476f d63d
000002a0: 5972 6c3d 041b 11be ba67 a9bd 7dee 563d
000002b0: 74d2 7d3e 29c8 e6bd cc93 383e bcc6 463c
000002c0: cd89 25be f98c 883e a498 6bbe a8fa 403e
000002d0: 403c 21be 81b9 1a3e 4d66 17be f13e f2bd
000002e0: 8408 923d 6624 fc3d add4 733e 02f5 21be
000002f0: 302a 1c3e db3d fd3c 6118 c5bc 5249 3abe
00000300: 8bd9 113d da22 2b3e 1540 173e e048 9cbc
00000310: 756e 8a3c 2265 963c 6006 4c3e f3e2 d4bd
00000320: 7ed7 203e 4a9d f7bc c071 b0bd adfa febd
00000330: fa60 a1bd 5808 453d ed0b 203d 51aa 6dbd
00000340: 223f e93d 9526 253c af8c c63d 0828 3d38
00000350: bd35 00be fb54 15be 5cd9 59be 5ab2 13be
00000360: c088 77bc cf14 c33d d69a 2abe 76e8 30be
00000370: 667e 3f3e cb81 b8bc a0f7 c33b 04e9 41bd
00000380: 7cc4 f63d 50a3 2cbc 2e97 4cbd 12c2 9a3c
00000390: daa3 2b3b ba15 afbd 38e7 583d b133 93bd
000003a0: 8c94 123d a37d 483e c130 a33e 249a 57bc
000003b0: 77b1 22be b443 8abe 0ea9 5dbd ea1c bbbe
000003c0: 4de6 bfbc 7b66 0d3d 89be 313e f544 15be
000003d0: e5e8 c6bc bae5 80be 6a85 e23d 9b1f 5f3b
000003e0: d414 ba3d dad3 503d fbff 5e3e fb46 dabd
000003f0: 59ae 0abd 312c 173e f452 10be 2e52 c6bd

qnet.fc1.bias f4 [256]
0.073413864 -0.3090495 -0.19132939 0.16519903 -0.30844653 -0.04834932 -0.14742957 0.21222663
0.061368957 -0.18949279 0.1605403 -0.23848045 -0.15465365 0.19934434 -0.11688499 -0.28720945
0.0067552407 -0.07027067 -0.119228244 0.21051699 -0.01400508 -0.040599745 -0.1253962 0.08999894
0.14129856 -0.21910882 0.22745934 -0.1316923 -0.028640756 -0.22754185 0.1440544 -0.17677723
0.02040189 -0.08909464 -0.15800838 0.0907803 -0.288372 -0.009157773 0.08530062 0.0064117126
-0.24464235 -0.28473502 -0.063899375 0.12953041 -0.0047941227 -0.2727031 -0.33316484 0.10805103
-0.05944079 -0.16658695 0.26337802 0.07607834 -0.11732724 -0.04544517 0.09869177 -0.053099066
-0.1847209 0.052378032 0.13542244 0.09426344 -0.024312286 -0.026046107 -0.20047115 -0.084316835
0.21154192 0.2037875 -0.20848 0.050201114 0.061326627 0.122560315 0.09018854 0.15688808
0.08648446 -0.22096649 -0.25610408 -0.14164257 0.011127091 0.22895761 0.015414037 0.20468377
0.06585981 -0.030509988 0.19475155 0.28172764 0.06869248 0.08020337 0.2710239 -0.20264354
-0.16631785 -0.24566579 -0.12011546 0.04289134 -0.112116694 -0.3359091 0.040774334 -0.12872529
-0.08975235 0.05800778 -0.1276902 0.28971326 0.035005238 -0.08041815 0.2380968 -0.009992953
-0.09129721 0.28477493 0.060312446 -0.15222867 -0.0919578 -0.21670188 -0.20783813 -0.028845705
0.30048206 -0.16696149 -0.21170507 -0.22353679 -0.2164108 0.05068634 -0.08939468 -0.13573648
0.26908293 -0.20689812 -0.24710184 0.07358127 -0.12943499 -0.1850102 0.15672365 -0.22256742
-0.210082 0.05387753 0.13837065 -0.19985467 -0.049156092 0.05223439 0.11163164 -0.17660597
-0.25993028 -0.1767684 -0.29846185 0.090680115 0.13926159 0.19331734 -0.0366568 0.13085432
-0.30451816 -0.13208008 -0.05954644 0.04034845 -0.008818494 0.038713578 -0.1520134 -0.028568152
-0.3253886 0.07797513 0.002539657 0.30747056 -0.006053292 0.049093038 -0.10909723 0.24409313
-0.26709992 -0.25100532 0.17067279 -0.11365946 0.13329509 -0.19772768 0.14884219 0.16649935
-0.10364256 0.2520087 -0.29631257 0.2736225 -0.0287486 -0.122842535 -0.22120619 0.052222963
-0.3506982 -0.3331793 0.014151871 0.2812606 0.3000878 -0.19638424 -0.2303688 -0.23667306
-0.170518 -0.26294315 -0.12924322 -0.0028590723 -0.22544102 -0.017546043 -0.26353753 0.28699744
-0.2563216 -0.21457809 -0.29662386 -0.071301274 -0.025895486 0.11028646 0.18314159 0.16172658
0.13946669 -0.2589419 0.29917097 -0.22721621 -0.10623128 0.07461627 0.16145073 -0.13909474
0.042787816 -0.27908054 0.07484037 0.2605981 -0.03540367 0.18428099 0.08736756 -0.18257508
-0.19301246 0.10838095 0.12520765 -0.113387115 -0.06139072 0.15739386 -0.2756419 -0.1912019
-0.035984732 0.08113656 0.0043549826 -0.08952389 -0.14637345 0.06882545 -0.0006086349 0.27809203
0.290444 0.21317454 0.26678503 0.26471528 -0.33034125 0.2216963 0.14032839 -0.1559245
0.08587277 0.24237666 0.14493963 -0.14511713 0.07307998 -0.039954662 0.0187536 0.21645097
-0.1723743 -0.35665587 0.034711666 0.2185964 -0.2840173 0.11468934 -0.26697606 -0.15215422
00000000: 025a 963d bc3b 9ebe daeb 43be ef29 293e
00000010: b4ec 9dbe f009 46bd c7f7 16be f051 593e
00000020: 045e 7b3d 660a 42be ad64 243e 3834 74be
00000030: 875d 1ebe ec20 4c3e 6661 efbd 1e0d 93be
00000040: 115b dd3b 12ea 8fbd f02d f4bd c491 573e
00000050: 9075 65bc eb4b 26bd dd67 00be 5d51 b83d
00000060: 92b0 103e 105e 60be 1aeb 683e 59da 06be
00000070: 05a0 eabc bb00 69be ff82 133e 1705 35be
00000080: dd21 a73c 4077 b6bd f3cc 21be 06eb b93d
00000090: 7fa5 93be 7c0a 16bc 17b2 ae3d 5819 d23b
000000a0: 8683 7abe cac8 91be addd 82bd 9fa3 043e
000000b0: 0418 9dbb be9f 8bbe 9594 aabe dc49 dd3d
000000c0: 3078 73bd c595 2abe 7cd9 863e f6ce 9b3d
000000d0: 4449 f0bd b724 3abd e91e ca3d 687e 59bd
000000e0: 7a27 3dbe 598a 563d 2eac 0a3e 310d c13d
000000f0: 8f2a c7bc a55e d5bc 4f48 4dbe 4eae acbd
00000100: 729e 583e acad 503e c87b 55be af9f 4d3d
00000110: a131 7b3d e700 fb3d c5b4 b83d 45a7 203e
00000120: c41e b13d 0a45 62be 1320 83be c00a 11be
00000130: 674e 363c dd73 6a3e 288b 7c3c 9f98 513e
00000140: 82e1 863d 15f0 f9bc f36c 473e 9b3e 903e
00000150: a5ae 8c3d aa41 a43d a5c3 8a3e ca81 4fbe
00000160: 3a4f 2abe d08f 7bbe 18ff f5bd d4ae 2f3d
00000170: 709d e5bd 47fc abbe fd02 273d 90d0 03be
00000180: 14d0 b7bd 9199 6d3d 38c1 02be 4c55 943e
00000190: a761 0f3d 45b2 a4bd a6cf 733e 7cb9 23bc
000001a0: 08fa babd 05ce 913e 2f0a 773d d5e1 1bbe
000001b0: 5f54 bcbd 19e7 5dbe 85d3 54be d44d ecbc
000001c0: c9d8 993e f4f7 2abe 37c9 58be d4e6 64be
000001d0: cb9a 5dbe 7b9c 4f3d 8f14 b7bd 81fe 0abe
000001e0: 3dc5 893e 1add 53be 4408 7dbe c7b1 963d
000001f0: 9b8a 04be 5073 3dbe 2a7c 203e b7e8 63be
00000200: bc1f 57be afae 5c3d 09b1 0d3e b4a6 4cbe
00000210: e657 49bd baf3 553d 219f e43d 32d8 34be
00000220: 9515 85be c702 35be fecf 98be 7fb6 b93d
00000230: 979a 0e3e fbf4 453e 7125 16bd adfe 053e
00000240: cee9 9bbe 0040 07be f8e6 73bd 6b44 253d
00000250: 727b 10bc 2192 1e3d 67a9 1bbe c207 eabc
00000260: 5699 a6be 6db1 9f3d 6070 263b c86c 9d3e
00000270: b25a c6bb c815 493d 5e6e dfbd 8df3 793e
00000280: 52c1 88be c583 80be d9c4 2e3e 4ac6 e8bd
00000290: 827e 083e 2079 4abe 166a 183e ce7e 2a3e
000002a0: 8d42 d4bd 4907 813e 48b6 97be 4018 8c3e
000002b0: 2f82 ebbc de94 fbbd e083 62be bfe7 553d
000002c0: b78e b3be 7a96 aabe 40dd 673c 6401 903e
000002d0: 1ca5 993e f318 49be cce5 6bbe 6c5a 72be
000002e0: 459c 2ebe 7ca0 86be 5658 04be 465f 3bbb
000002f0: 03da 66be b8bc 8fbc 64ee 86be 54f1 923e
00000300: 963c 83be 5cba 5bbe 15df 97be 6706 92bd
00000310: c522 d4bc dedd e13d 7889 3b3e a79b 253e
00000320: 5bd0 0e3e 0894 84be f02c 993e 5eab 68be
00000330: c98f d9bd 6ad0 983d 5753 253e da6e 0ebe
00000340: 4742 2f3d a5e3 8ebe e845 993d 1d6d 853e
00000350: 7003 11bd 28b4 3c3e c3ed b23d f6f4 3abe
00000360: 0fa5 45be d5f6 dd3d 6f36 003e 8137 e8bd
00000370: d674 7bbd db2b 213e ef20 8dbe 6eca 43be
00000380: ba64 13bd ed2a a63d 3eb4 8e3b 4d58 b7bd
00000390: ece2 15be 5cf4 8c3d cc8c 1fba 1462 8e3e
000003a0: 13b5 943e 6d4a 5a3e 0c98 883e c388 873e
000003b0: 7d22 a9be 5b04 633e 3fb2 0f3e acaa 1fbe
000003c0: 10de af3d 9631 783e 0e6b 143e 9699 14be
000003d0: f5aa 953d 80a7 23bd 26a1 993c 53a5 5d3e
000003e0: e382 30be 999b b6be d22d 0e3d bcd7 5f3e
000003f0: b76a 91be 3fe2 ea3d 16b1 88be 51ce 1bbe

qnet.fc2.weight f4 [256, 256]
0.022468437 0.007759694 0.046334237 0.025537167 -0.014064852 -0.010394177 -0.012754951 0.024213025
-0.034508113 -0.04271871 -0.0012616186 -0.04329905 -0.03874438 -0.0058570434 0.013245055 0.055650353
0.055624187 0.019317854 -0.079911746 0.025016438 -0.1066615 0.021621004 -0.040772155 -0.03983613
0.037057094 0.04018923 -0.050409026 -0.06469293 -0.00023061557 -0.06958616 0.06697141 -0.011883133
-0.07007225 0.047391854 0.043558363 0.016993333 0.05516746 -0.022681784 -0.058923174 0.02756349
-0.023086749 0.032265678 0.052116062 0.0023651647 -0.020351943 0.052058704 -0.021499712 0.051777728
-0.05480802 0.060026135 0.025219366 -0.026838928 -0.08280154 0.061761275 -0.043947533 -0.015480081
0.01457209 0.024058485 -0.041162673 0.044209965 -0.038363833 0.03709854 0.014282047 -0.041264586
0.0037474004 0.025907675 -0.04546751 0.017122218 0.02119583 0.059523612 -0.007756717 -0.03207013
-0.03178627 -0.04259238 0.021642372 -0.026781665 -0.024374885 0.03672667 0.021778056 0.030155098
0.006687859 0.055392474 -0.026467694 -0.02360184 0.030464644 -0.045198917 -0.022216534 0.019012716
-0.029332757 0.056706376 0.073260844 0.058424074 -0.0026297877 -0.0144064585 -0.041506756 0.0016224349
-0.009736544 -0.100201674 0.06856372 0.05125989 -0.028452434 0.02838484 0.014460695 -0.084552206
-0.0039582336 -0.00078238855 0.00060015684 -0.053606134 0.023457136 0.061770402 0.037513148 -0.0022718043
-0.025162138 0.059915602 0.03732497 0.011625102 0.035742234 0.004715415 -0.0009262602 -0.0554196
0.0059037297 -0.06121354 0.023861112 -0.06905159 -0.07006195 0.005708672 0.0070793033 0.007029702
0.030522231 0.016473321 0.074456826 -0.032292146 0.016158925 -0.0004965158 0.027336732 -0.04713541
-0.098705396 -0.005175218 0.024526637 -0.052534916 0.03701271 -0.0029837498 -0.06085605 -0.021702979
-0.046558492 0.016585737 -0.03127529 -0.0011178664 0.037380166 -0.028785735 0.06323074 0.0039703655
0.01785863 0.052003954 0.04753809 0.12831777 0.022958592 -0.015014924 0.041422855 0.051225655
-0.0023053368 0.003117515 0.0028399592 -0.0055574556 -0.015280084 0.0093503045 -0.042425618 -0.010230102
0.05289548 -0.07338719 -0.044745266 0.024830645 -0.04248883 -0.034603793 -0.09436217 -0.050421685
-0.05952805 0.045434367 -0.06437957 -0.066476144 0.0060380013 -0.048811227 0.048858598 0.009107436
-0.008425514 0.045401894 -0.057005264 0.040709943 0.041953404 -0.013056529 0.052635685 -0.06927034
0.015308002 0.025802117 -0.04897912 -0.03130279 0.030187968 0.018388275 0.05148772 -0.0105899805
-0.0152546 -0.1336738 -0.016273653 -0.026050335 -0.018226774 0.042277984 -0.007336551 0.01865305
-0.020991016 -0.042312454 0.042144693 0.010580299 -0.008969111 0.006733376 0.03842298 0.003739595
0.06160988 0.0412785 -0.051672183 0.032020662 0.016323732 0.062229417 0.042798027 -0.11762155
0.030460846 0.010282928 0.0092492 0.032649357 -0.020020043 -0.00463714 -0.00814308 0.0041562933
-0.059200376 -0.09490423 -0.00026430894 -0.050739784 -0.040613916 -0.04319738 -0.051497158 -0.02028348
0.031221416 -0.045787297 0.0038094635 0.01208371 0.014970797 -0.016523158 -0.0014983856 -0.015727084
0.053423803 -0.004706921 0.005724771 -0.024034834 -0.033452682 -0.031091336 0.045558248 -0.022192994
00000000: ba0f b83c 0845 fe3b f8c8 3d3d 5233 d13c
00000010: 4470 66bc 574c 2abc 24fa 50bc 655a c63c
00000020: 6158 0dbd d0f9 2ebd e55c a5ba 585a 31bd
00000030: 6db2 1ebd 71ec bfbb ca01 593c a0f1 633d
00000040: 30d6 633d 7a40 9e3c c5a8 a3bd 46ef cc3c
00000050: 5871 dabd 881e b13c b400 27bd 362b 23bd
00000060: 2ec9 173d 769d 243d b279 4ebd ba7d 84bd
00000070: 65d1 71b9 3083 8ebd 4e28 893d 79b1 42bc
00000080: 0a82 8fbd f61d 423d 416a 323d 9a35 8b3c
00000090: 46f7 613d 26cf b9bc 6d59 71bd d4cc e13c
000000a0: 6c20 bdbc 0429 043d a777 553d e100 1b3b
000000b0: 1eb9 a6bc 823b 553d 2a20 b0bc e214 543d
000000c0: 607e 60bd f7dd 753d d898 ce3c 50dd dbbc
000000d0: db93 a9bd 64f9 7c3d 5402 34bd 2aa0 7dbc
000000e0: c6bf 6e3c 4d16 c53c 319a 28bd 8215 353d
000000f0: 6523 1dbd a4f4 173d 3fff 693c 0e05 29bd
00000100: f296 753b 553c d43c 243c 3abd e543 8c3c
00000110: e1a2 ad3c 08cf 733d 0f2c febb f85b 03bd
00000120: 5232 02bd 5975 2ebd 584b b13c 3965 dbbc
00000130: d7ad c7bc b46e 163d e567 b23c d307 f73c
00000140: d425 db3b 38e3 623d c7d2 d8bc a558 c1bc
00000150: fd90 f93c 8022 39bd 73ff b5bc 8ec0 9b3c
00000160: 404b f0bc f244 683d c809 963d 154e 6f3d
00000170: 8458 2cbb 1109 6cbc fd02 2abd e2a7 d43a
00000180: 0786 1fbc 8936 cdbd 236b 8c3d e4f5 513d
00000190: 1415 e9bc 5387 e83c 8dec 6c3c b529 adbd
000001a0: 12b4 81bb 3519 4dba d853 1d3a 1b92 5bbd
000001b0: 2e29 c03c f602 7d3d 63a7 193d 8de2 14bb
000001c0: d420 cebc 106a 753d 11e2 183d 3677 3e3c
000001d0: 7366 123d c583 9a3b 45d0 72ba aaff 62bd
000001e0: 1374 c13b 0dbb 7abd 6178 c33c ec6a 8dbd
000001f0: a47c 8fbd d00f bb3b 80f9 e73b 6a59 e63b
00000200: c209 fa3c 0ff3 863c d27c 983d c544 04bd
00000210: b95f 843c 9c28 02ba 48f1 df3c 0f11 41bd
00000220: 0e26 cabd e094 a9bb 16ec c83c da2e 57bd
00000230: a49a 173d 048b 43bb 3244 79bd 72ca b1bc
00000240: 1eb4 3ebd d0de 873c 851a 00bd 5f85 92ba
00000250: f21b 193d 10d0 ebbc 1e7f 813d d719 823b
00000260: 434c 923c 1902 553d 4db7 423d bc65 033e
00000270: a813 bc3c 2801 76bc 03ab 293d fed1 513d
00000280: 2215 17bb 394f 4c3b 9c1e 3a3b 511b b6bb
00000290: 5159 7abc 0532 193c 7cc6 2dbd 289c 27bc
000002a0: eea8 583d 064c 96bd d046 37bd a369 cb3c
000002b0: c408 2ebd b5bc 0dbd f440 c1bd f886 4ebd
000002c0: afd3 73bd 6319 3a3d 70d9 83bd a524 88bd
000002d0: 6dda c53b 48ee 47bd f41f 483d 5b37 153c
000002e0: 2b0b 0abc 56f7 393d 5a7e 69bd 78bf 263d
000002f0: 55d7 2b3d 0deb 55bc 8498 573d 9cdd 8dbd
00000300: 6ace 7a3c f65e d33c 549e 48bd 5b37 00bd
00000310: c24c f73c 02a3 963c cae4 523d 9981 2dbc
00000320: 6eee 79bc c9e1 08be 5350 85bc 8367 d5bc
00000330: 5150 95bc ae2b 2d3d 7367 f0bb 48ce 983c
00000340: 5af5 abbc d34f 2dbd ea9f 2c3d fe58 2d3c
00000350: 2ef3 12bc a7a3 dc3b 6a61 1d3d fe13 753b
00000360: a45a 7c3d a513 293d 36a6 53bd 1928 033d
00000370: 59b9 853c 46e4 7e3d fc4c 2f3d 91e3 f0bd
00000380: 0689 f93c ba79 283c f589 173c 55bb 053d
00000390: 1301 a4bc 26f3 97bb 8e6a 05bc 8431 883b
000003a0: 187c 72bd 265d c2bd f292 8ab9 85d4 4fbd
000003b0: c75a 26bd bcef 30bd afee 52bd 8a29 a6bc
000003c0: 0ec4 ff3c 768b 3bbd 31a8 793b c1fa 453c
000003d0: 1348 753c 935b 87bc 7a65 c4ba 16d6 80bc
000003e0: ebd2 5a3d 843c 9abb dc96 bb3b b3e4 c4bc
000003f0: ae05 09bd 42b3 febc 499b 3a3d 15ce b5bc

qnet.fc2.bias f4 [256]
-0.06466174 -0.012474582 -0.046111036 -0.02191536 0.03543527 -0.012200656 -0.019509334 0.027953517
-0.03335659 0.03913611 0.056325972 0.042942863 0.040484674 0.021339584 0.009433328 -0.04070577
-0.02806769 -0.027385999 0.035541173 0.013509416 0.030912362 -0.06294441 0.034577236 0.0152856875
-0.038848802 -0.032455936 -0.0054450664 0.030280994 -0.009761165 0.030228183 0.05027393 0.041965913
-0.020149985 0.038579762 -0.06907401 0.009899819 -0.053583283 0.012457093 -0.00838083 0.03947072
-0.026318857 -0.019303191 0.004207934 -0.037358303 -0.026339646 -0.057086412 -0.021951785 -0.03731963
-0.05711173 0.03224497 0.05553777 -0.052012593 0.004574883 -0.026659807 0.0005540444 -0.040679257
-0.0022474546 -0.06763869 -0.047878567 -0.05508305 0.038549803 0.034219258 0.023926614 0.059375234
0.017988509 0.010961122 0.037854813 0.030743305 0.014615067 -0.06805665 -0.05383368 -0.026105216
-0.012377521 -0.027672676 -0.055328008 -0.08083845 -0.06125786 0.03387485 0.05153703 0.0059319297
0.0061941096 0.036818035 0.06129111 -0.049864676 -0.06568553 -0.02493493 0.040183082 0.049494024
-0.020856597 -0.053227223 -0.05771382 0.046820592 0.019362818 0.0109209865 -0.018819839 -0.052926462
-0.017887563 -0.008197762 0.00037818478 -0.03749984 -0.057906505 0.04624442 0.035214342 -0.045418754
-0.0035344372 -0.006600982 -0.025917187 -0.054780778 0.019220756 0.039073844 -0.059246723 0.04731877
-0.02408023 0.0058464804 -0.044888332 0.03384923 0.014469972 -0.055355407 -0.00481702 -0.041444298
-0.035164546 0.013265539 0.016651327 -0.036256082 -0.0151721025 -0.023422401 -0.06307568 0.012217155
-0.044076346 0.053050626 0.051638313 -0.025758343 0.016974684 -0.025100008 -0.017185045 0.020000331
0.005396845 0.047591843 0.028950857 -0.04277368 -0.06268254 0.04986164 0.0123133715 -0.021484094
-0.01676316 0.032867674 0.034888625 0.02069245 0.025317362 -0.009977927 0.07761597 0.023831619
0.035054117 0.01465184 0.068442635 0.042307895 -0.030072123 -0.036632244 -0.012740954 0.018815374
-0.04564262 0.0052109854 -0.040277924 -0.05428854 0.05236352 -0.033256024 -0.038054306 0.038255
0.050933816 -0.01901967 0.04005855 -0.048285846 0.046709277 0.030598413 0.044064675 0.04857664
-0.01383298 0.019095313 0.049072266 0.013333421 -0.033767994 0.0040685195 0.012227351 -0.017390566
0.03428921 0.030781621 -0.038381588 -0.021199394 -0.052812684 0.02193634 0.021785289 -0.022937216
-0.002356406 -0.018728035 0.016384218 -0.049721632 0.031092703 0.03872659 0.014370105 -0.009183968
0.002578947 -0.023646884 0.0362566 0.06867971 -0.054433674 0.006219492 0.05353161 -0.0024165295
0.050832123 -0.014831969 0.047425438 -0.00033783482 -0.0211073 -0.009731845 0.047247972 -0.0009953231
-0.062928885 0.027480975 -0.049507733 0.017551983 -0.045695286 0.057520006 -0.008348053 0.009244031
0.01726971 -0.066525966 0.050762482 -0.038479935 -0.0154501675 -0.006607089 0.011472321 -0.04352449
-0.029502364 -0.04086585 -0.025640208 0.04097506 0.018633012 0.0068784794 0.01782205 0.054921724
0.048400536 -0.021454806 -0.016218409 0.008183907 0.00784263 -0.08918628 -0.010141457 -0.012025343
-0.017888695 -0.025092745 0.043436766 0.027642919 -0.054012842 0.015539157 -0.04717063 -0.0030922021
00000000: 606d 84bd 3062 4cbc edde 3cbd d787 b3bc
00000010: 9324 113d 43e5 47bc 0ad2 9fbc c6fe e43c
00000020: eba0 08bd 304d 203d 10b6 663d dbe4 2f3d
00000030: 42d3 253d 5ad0 ae3c 3f8e 1a3c 18bb 26bd
00000040: 36ee e5bc 9a58 e0bc 9f93 113d 9956 5d3c
00000050: ec3b fd3c 00e9 80bd dca0 0d3d d270 7a3c
00000060: ec1f 1fbd 84f0 04bd 876c b2bb d90f f83c
00000070: 4bed 1fbc 18a1 f73c 09ec 4d3d 73e4 2b3d
00000080: 9511 a5bc d005 1e3d ad76 8dbd da32 223c
00000090: 257a 5bbd d618 4c3c c04f 09bc 0dac 213d
000000a0: a59a d7bc ba21 9ebc b5e2 893b 0505 19bd
000000b0: 3ec6 d7bc 71d3 69bd 3bd4 b3bc 78dc 18bd
000000c0: fded 69bd 4d13 043d 937b 633d 280b 55bd
000000d0: e6e8 953b ab65 dabc 4a3d 113a 4b9f 26bd
000000e0: 084a 13bb 2786 8abd 511c 44bd c49e 61bd
000000f0: 66e6 1d3d 7e29 0c3d bf01 c43c 7233 733d
00000100: a35c 933c 4796 333c a60d 1b3d 62d9 fb3c
00000110: 0974 6f3c 4961 8bbd b480 5cbd 9bda d5bc
00000120: 16cb 4abc cfb1 e2bc 9f9f 62bd a18e a5bd
00000130: 86e9 7abd 5bc0 0a3d 7e18 533d a260 c23b
00000140: f5f7 ca3b 82ce 163d 630c 7b3d e73e 4cbd
00000150: 2386 86bd 5744 ccbc 0497 243d 3fba 4a3d
00000160: 74db aabc ca04 5abd 5465 6cbd f3c6 3f3d
00000170: c69e 9e3c f0ed 323c 102c 9abc 6bc9 58bd
00000180: f088 92bc e84f 06bc 1a47 c639 6f99 19bd
00000190: 5f2f 6dbd ca6a 3d3d ea3c 103d 0409 3abd
000001a0: 04a2 67bb 0d4d d8bb 4850 d4bc cf61 60bd
000001b0: d974 9d3c e50b 203d b1ac 72bd 54d1 413d
000001c0: e743 c5bc d593 bf3b d4dc 37bd 7da5 0a3d
000001d0: 7613 6d3c 5abc 62bd 18d8 9dbb 7fc1 29bd
000001e0: b308 10bd b457 593c 5d68 883c 4281 14bd
000001f0: 6994 78bc 56e0 bfbc d22d 81bd 762a 483c
00000200: 6689 34bd 9d4b 593d b282 533d 2903 d3bc
00000210: 7e0e 8b3c 889e cdbc a7c7 8cbc bcd7 a33c
00000220: 04d8 b03b aaef 423d 592a ed3c 7433 2fbd
00000230: b45f 80bd b83b 4c3d 06be 493c 69ff afbc
00000240: e552 89bc 41a0 063d 60e7 0e3d 3783 a93c
00000250: 5b66 cf3c 767a 23bc 1ff5 9e3d 873a c33c
00000260: e894 0f3d 450e 703c a72b 8c3d 0b4b 2d3d
00000270: d059 f6bc b10b 16bd 6fbf 50bc b322 9a3c
00000280: c2f3 3abd eac0 aa3b 77fa 24bd a95d 5ebd
00000290: 217b 563d 7837 08bd d5de 1bbd 46b1 1c3d
000002a0: fa9f 503d 24cf 9bbc 6f14 243d 61c7 45bd
000002b0: 3a52 3f3d 86a9 fa3c 297d 343d 4df8 463d
000002c0: b9a3 62bc c66d 9c3c 0000 493d 6c74 5a3c
000002d0: 4f50 0abd 3751 853b 3a55 483c a976 8ebc
000002e0: d872 0c3d bd29 fc3c 0336 1dbd 5aaa adbc
000002f0: 1d52 58bd d7b3 b33c 1077 b23c d4e6 bbbc
00000300: ef6d 1abb 896b 99bc 3238 863c e9a8 4bbd
00000310: 20b6 fe3c c69f 1e3d 9770 6b3c 5b78 16bc
00000320: 8d03 293b 1cb7 c1bc cd81 143d f3a7 8c3d
00000330: d8f5 5ebd e1cc cb3b f643 5b3d a35e 1ebb
00000340: 5835 503d c901 73bc 2d41 423d 6c1f b1b9
00000350: 37e9 acbc 5172 1fbc 1787 413d 8075 82ba
00000360: dce0 80bd c81f e13c 9fc8 4abd 2dc9 8f3c
00000370: fb2a 3bbd 199a 6b3d 46c6 08bc 4774 173c
00000380: 3579 8d3c c43e 88bd 52ec 4f3d 239d 1dbd
00000390: b322 7dbc 4880 d8bb 67f6 3b3c bc46 32bd
000003a0: f1ae f1bc f362 27bd 6a0b d2bc 77d5 273d
000003b0: 42a4 983c de64 e13b 8cff 913c 9af5 603d
000003c0: a43f 463d fdc1 afbc 78dc 84bc cb15 063c
000003d0: 607e 003c 4ca7 b6bd 5b28 26bc f205 45bc
000003e0: 508b 92bc 4d8f cdbc c0ea 313d 6773 e23c
000003f0: 923c 5dbd f397 7e3c fe35 41bd 8ba6 4abb

qnet.A.weight f4 [9, 256]
0.0018291597 0.056544915 0.0165421 0.029252386 -0.017383585 -0.020559201 -0.012357285 0.022277525
-0.0067140604 -0.0073321997 0.0029087444 -0.0010697999 0.012933677 -0.026958937 -0.0053521544 0.027287235
0.036187317 -0.006302737 0.035720114 0.0016411374 -0.003017773 0.009351639 0.014770796 0.012325061
0.010156525 0.029882764 0.0077903764 -0.0036638614 0.012178694 0.02176235 0.0015236792 0.0057770996
-0.0182693 0.0068833944 0.041725066 -0.002990446 0.015814716 -0.019714663 0.0016497832 -0.0076704198
-0.041380703 -0.008188408 -0.054381993 -0.0059714136 0.021926569 0.040461194 -0.026689468 0.008764996
0.029618774 -0.022210397 0.01359347 0.032140862 -0.02243372 -0.00861887 -0.008901983 0.011202205
-0.023159595 0.0097001055 -0.0071548973 0.014655763 -0.0034486942 0.0009563877 0.011634948 0.0056059826
0.021732345 -0.01676514 0.023960602 -0.025161913 -0.0046932176 -0.01764268 -0.010374813 -0.03399913
0.012255439 -0.027764808 -0.0034525944 -0.011051592 0.052196477 0.006966411 -0.018993814 -0.022309039
-0.0060220244 -0.028601637 0.0034551802 -0.021596417 0.010046944 0.0033786453 -0.002897616 -0.10768059
-0.011675815 0.0016645519 0.024504019 -0.012305014 -0.005781978 -0.0124369515 -0.0006880146 0.010020955
-0.050598595 0.0006605351 0.0078064823 0.02730692 0.017549181 0.0059928196 0.004429276 -0.012975013
0.024552856 -0.0018153186 -0.0001214122 0.0080291135 0.056139495 -0.0045719435 -2.4848117e-05 0.016430175
0.001776034 -0.02002757 -0.07548086 0.035643138 0.001896881 0.00064519205 0.010231208 -0.021628592
0.0029141398 -0.016118962 0.011485212 0.011979749 -0.01973885 0.0070414846 -0.0066264505 0.0062612765
0.021653902 0.011304709 0.025888907 0.018871875 0.0076340702 0.033248093 0.004934521 0.011497718
0.065045774 -0.02779116 0.020841835 -0.017151423 -0.005674702 0.0016026632 -0.016035361 -0.003280016
-0.012623653 0.006947004 0.027028961 0.0051171 -0.021543197 -0.001516516 -0.009115992 0.029482458
0.013204024 0.0012652819 -0.0074823117 -0.02392522 -0.025640948 0.02538698 0.0022667982 -0.013782734
-0.01929611 0.0065425257 -0.0036306458 0.021229954 0.0031215777 -0.017202042 -0.087856404 -0.014175359
-0.010577743 0.042782933 -0.006980237 -0.026573991 -0.008464431 0.012296945 0.00799855 -0.010891423
-0.0043000644 0.009791667 0.008712519 0.0019040065 0.030874506 -0.007761093 0.010421955 0.01812794
0.0072838455 0.018934298 -0.001825288 0.06819539 -0.0028517477 0.008412021 -0.022427445 -0.009613147
0.0060785115 -0.05098668 0.0031912387 -0.012599241 0.040448666 0.026971009 0.006754251 0.015546531
0.031461287 -0.0056551974 -0.03521254 -0.011489073 0.016937904 0.026127161 0.028670723 0.019619957
0.015622267 0.003208361 -0.011080703 -0.0010078223 -0.0067371586 0.020365316 0.047793157 0.054831356
-0.025910193 -0.08037429 -0.02194061 0.0041691423 -0.0051991115 0.010406408 0.0027952401 -0.0063361013
-0.009008182 0.0070433733 0.013432119 -0.022487935 -0.0066354014 0.015726866 -0.014266296 -0.015287478
0.00030675266 -0.007885807 -0.025076017 -0.008163238 -0.0095863575 -0.02187872 -0.009063902 -0.005126992
0.018215364 0.011667618 0.0050632954 0.0116000045 0.006511642 -0.046037212 -0.008699076 -0.06997475
-0.007704944 0.0038539155 0.0016665125 -0.040441822 -0.022372792 0.0005116845 0.028878773 0.0063890554
00000000: 6ac0 ef3a a49b 673d 4c83 873c b3a2 ef3c
00000010: 0568 8ebc c56b a8bc 3676 4abc 5b7f b63c
00000020: 9f01 dcbb f342 f0bb a2a0 3e3b 8738 8cba
00000030: c6e7 533c fdd8 dcbc 2061 afbb 7b89 df3c
00000040: 2739 143d 3187 cebb 414f 123d 6f1b d73a
00000050: d4c5 45bb 9e37 193c 3501 723c 0def 493c
00000060: 8e67 263c b3cc f43c 6a46 ff3b 651d 70bb
00000070: 2589 473c f546 b23c 31b6 c73a d34d bd3b
00000080: 80a9 95bc 198e e13b e7e7 2a3d 5cfb 43bb
00000090: dd8d 813c a580 a1bc 8a3d d83a 2558 fbbb
000000a0: d07e 29bd ac28 06bc a7bf 5ebd d9ab c3bb
000000b0: 599f b33c a3ba 253d dfa3 dabc 0f9b 0f3c
000000c0: 12a3 f23c 94f2 b5bc 25b7 5e3c 23a6 033d
000000d0: ecc6 b7bc 2936 0dbc 9fd9 11bc 7489 373c
000000e0: 31b9 bdbc 31ed 1e3c a173 eabb ba1e 703c
000000f0: 7d03 62bb 18b6 7a3a 82a0 3e3c 64b2 b73b
00000100: 0808 b23c 0c57 89bc 0649 c43c 5b20 cebc
00000110: 90c9 99bb 6287 90bc 1ffb 29bc ac42 0bbd
00000120: 09cb 483c 0673 e3bc ec44 62bb bd11 35bc
00000130: f9cb 553d 7e46 e43b ea98 9bbc 72c1 b6bc
00000140: 6754 c5bb fb4d eabc 4e70 623b f8ea b0bc
00000150: f09b 243c 436c 5d3b eee5 3dbb a487 dcbd
00000160: eb4b 3fbc 182d da3a a7bc c83c f89a 49bc
00000170: bf76 bdbb 5bc4 4bbc e15b 34ba ee2e 243c
00000180: 7940 4fbd c327 2d3a 85cd ff3b c3b2 df3c
00000190: 4dc3 8f3c 6a5f c43b 7623 913b 2695 54bc
000001a0: 1223 c93c fcef edba ae9e feb8 8b8c 033c
000001b0: 87f2 653d 3ed0 95bb ed70 d0b7 9398 863c
000001c0: d0c9 e83a dc10 a4bc b695 9abd 8afe 113d
000001d0: c4a0 f83a 1b22 293a cca0 273c 722e b1bc
000001e0: 27fb 3e3b ea0b 84bc 782c 3c3c b646 443c
000001f0: 5eb3 a1bc 41bc e63b b222 d9bb 652b cd3b
00000200: 8663 b13c 6337 393c f914 d43c 3199 9a3c
00000210: 3927 fa3b 272f 083d c3b1 a13b ed60 3c3c
00000220: b836 853d 49aa e3bc 7fbc aa3c 2481 8cbc
00000230: daf2 b9bb 7410 d23a 975c 83bc 89f5 56bb
00000240: 70d3 4ebc b1a3 e33b d76b dd3c 59ad a73b
00000250: 5c7b b0bc d5c5 c6ba 3e5b 15bc 3285 f13c
00000260: b155 583c d1d7 a53a 2e2e f5bb d3fe c3bc
00000270: f70c d2bc 5bf8 cf3c 908e 143b fad0 61bc
00000280: e012 9ebc af62 d63b 21f0 6dbb 71ea ad3c
00000290: 6293 4c3b 4ceb 8cbc 0fee b3bd c43f 68bc
000002a0: 454e 2dbc 283d 2f3d 79ba e4bb b3b1 d9bc
000002b0: 66ae 0abc 2079 493c 5a0c 033c f071 32bc
000002c0: 8ee7 8cbb 3a6d 203c f4be 0e3c db8f f93a
000002d0: 88ec fc3c c450 febb d9c0 2a3c 0c81 943c
000002e0: 53ad ee3b 1a1c 9b3c 813e efba 06aa 8b3d
000002f0: 63e4 3abb 93d2 093c c3b9 b7bc 7680 1dbc
00000300: 402e c73b 69d7 50bd 1a24 513b 0c6d 4ebc
00000310: 80ad 253d 4ef2 dc3c c452 dd3b e1b6 7e3c
00000320: 8ddd 003d 3c4f b9bb 063b 10bd aa3c 3cbc
00000330: 5cc1 8a3c a108 d63c ddde ea3c 08ba a03c
00000340: 89f4 7f3c 5e43 523b d68b 35bc e818 84ba
00000350: 62c3 dcbb 2ad5 a63c c2c2 433d d896 603d
00000360: 9d41 d4bc 479b a4bd cbbc b3bc 4d9d 883b
00000370: 4f5d aabb a47f 2a3c 5930 373b 129f cfbb
00000380: 0e97 13bc 19cc e63b 6412 5c3c 9e38 b8bc
00000390: c86d d9bb a1d5 803c 2fbd 69bc 5578 7abc
000003a0: a5d3 a039 7933 01bc 386c cdbc 1abf 05bc
000003b0: 1910 1dbc 003b b3bc c380 14bc 5300 a8bb
000003c0: 6338 953c 8929 3f3c 00ea a53b f20d 3e3c
000003d0: 9d5f d53b 8491 3cbd 9286 0ebc ec4e 8fbd
000003e0: c179 fcbb f991 7c3b e16e da3a 53a6 25bd
000003f0: 2547 b7bc 9122 063a 2d93 ec3c 485b d13b

qnet.A.bias f4 [9]
-0.007382496 0.014479544 -0.05963588 -0.06318546 0.0052572433 0.059452757 0.021439457 -0.024993867
-0.02784327
00000000: dde8 f1bb 9c3b 6d3c c144 74bd 6167 81bd
00000010: f444 ac3b bc84 733d cda1 af3c f0bf ccbc
00000020: 9217 e4bc
