models/q_eval_dqn.onnx (onnx, 286110 bytes, 6 tensors)

qnet.fc1.weight f4 [256, 11]
-0.16049176 0.2922909 -0.042292047 0.16588078 -0.11381379 0.03668733 -0.0060371705 -0.17673357
0.078201555 0.12316315 0.056068867 -0.16751727 -0.0643064 0.16241162 -0.059615836 -0.1457889
-0.043427687 0.20281294 0.20210141 0.045714427 0.26784927 -0.31837398 0.077462666 0.051034793
0.057196826 -0.023890957 -0.052237235 -0.014543013 -0.06246443 0.0053029694 0.029967496 -0.0023392206
-0.02809576 -0.07321913 0.026474582 0.115280665 -0.021534698 0.13228121 -0.0240292 0.084130205
-0.1635795 0.16040225 0.039425015 -0.12263056 -0.14047979 0.12279126 -0.083123095 0.14853255
-0.09768256 -0.05307315 -0.0047734254 -0.025605503 -0.0005619413 0.024793742 0.14711232 0.29113555
-0.033043403 0.10171902 -0.11210554 0.022406796 0.059268378 -0.18273649 0.016405188 -0.087303564
0.09085822 -0.15434927 0.20929417 0.115300454 0.10721696 -0.114747465 0.075809576 -0.10956088
-0.09033752 -0.19150983 0.053225618 -0.0339746 0.107538156 -0.20729394 0.004263303 0.0473234
0.0725614 -0.14965425 -0.0035408945 0.1316303 0.1387631 0.081975386 0.09929172 -0.09190899
-0.061627526 0.112390146 -0.13784781 0.11603908 0.03749593 -0.16796589 -0.08216848 -0.17463253
-0.06572843 -0.10757534 0.11342444 -0.15135701 0.050028622 0.2076162 0.048433285 -0.016782021
-0.12543604 0.109039076 -0.036138963 -0.03273496 -0.039052542 0.061512798 0.08438598 0.006038984
0.006278543 -0.10852075 0.0032652959 0.02890032 0.037259568 0.013818552 0.4110869 -0.082532026
-0.3334581 0.076840274 0.1504455 0.24015972 -0.094409496 -0.20722167 -0.29041925 0.019612243
0.055587184 0.015863586 0.059874136 0.32189375 -0.24786137 0.2094494 0.26882437 0.19230926
-0.19920737 0.1681334 0.058144156 -0.012874463 -0.021422464 -0.006946325 -0.09085317 0.1505521
0.047581818 0.10517015 -0.025723262 -0.18228614 -0.08939292 -0.12718463 0.1343721 -0.00033123535
-0.042197097 0.10414613 0.2933003 -0.10152641 -0.1410417 -0.09620937 0.05567455 -0.14990477
-0.20081574 0.048210632 -0.007961435 -0.012042576 0.36206403 0.03905296 -0.038845018 0.1004836
-0.012950628 -0.16008453 -0.07601892 -0.025457436 0.1986741 -0.05116624 0.45380104 0.039899606
-0.119745776 0.26809928 -0.26254213 0.21665753 -0.159295 0.09897057 -0.097455636 -0.110119425
0.0022826318 0.097071566 0.17580676 -0.16721384 0.10672693 -0.024249742 0.005375282 -0.20889013
0.027984977 0.169456 0.11303848 0.038474817 -0.093212865 -0.026503535 0.18061835 -0.058902845
0.1264852 -0.04688371 -0.026373174 -0.126965 -0.13253136 0.0857227 0.27704924 0.008773021
0.12131026 0.08558757 0.08721975 -0.081407025 -0.07636736 -0.12959093 -0.23089267 -0.050726615
0.0038005006 -0.0043744915 0.060331713 -0.12811409 0.17703162 -0.071771726 -0.017871648 -0.089726254
0.06788876 -0.042505004 -0.08774076 0.0040355595 -0.015183959 -0.048700944 0.051115777 -0.05680008
0.036917564 0.16366903 0.31668943 -0.0020121844 -0.17278911 -0.26254863 -0.038055103 -0.519689
-0.11987911 0.11384406 0.22500092 -0.15929036 0.023394605 -0.28423774 0.09531488 -0.010260386
0.058258332 0.06353145 0.31582603 -0.0024012774 -0.037688732 0.24761741 -0.14132008 -0.09770615
00000000: f457 24be 27a7 953e 6d3a 2dbd a7dc 293e
00000010: 3417 e9bd 7445 163d 75d3 c5bb a5f9 34be
00000020: 2328 a03d f63c fc3d 78a8 653d a689 2bbe
00000030: 13b3 83bd 3b4f 263e bc2f 74bd af49 15be
00000040: 3be1 31bd 32ae 4f3e acf3 4e3e 0d3f 3b3d
00000050: 8a23 893e ea01 a3be bfa4 9e3d dc09 513d
00000060: 3847 6a3d f8b6 c3bc b6f6 55bd d145 6ebc
00000070: b4da 7fbd 88c4 ad3b 657e f53c 9c4d 19bb
00000080: 1429 e6bc e9f3 95bd 39e1 d83c 4518 ec3d
00000090: 8969 b0bc ba74 073e e3d8 c4bc 754c ac3d
000000a0: 6281 27be 7d40 243e 207c 213d bb25 fbbd
000000b0: efd9 0fbe fc79 fb3d 713c aabd eb18 183e
000000c0: cb0d c8bd 3b63 59bd 656a 9cbb a2c2 d1bc
000000d0: 3e4f 13ba 3f1c cb3c 9da4 163e b80f 953e
000000e0: 8558 07bd 1052 d03d 9797 e5bd 758e b73c
000000f0: 66c3 723d 461f 3bbe 2c64 863c 36cc b2bd
00000100: e013 ba3d bc0d 1ebe 3651 563e a522 ec3d
00000110: 9194 db3d b800 ebbd 0d42 9b3d 7461 e0bd
00000120: e102 b9bd 271b 44be 1b03 5a3d f328 0bbd
00000130: f73c dc3d dd44 54be 2db3 8b3b 2ed6 413d
00000140: 129b 943d f73e 19be 5a0e 68bb 18ca 063e
00000150: ea17 0e3e b6e2 a73d 7559 cb3d c83a bcbd
00000160: 256d 7cbd ce2c e63d fa27 0dbe e6a5 ed3d
00000170: 5595 193d 40ff 2bbe f347 a8bd dfd2 32be
00000180: a19c 86bd 7650 dcbd 134b e83d 55fd 1abe
00000190: d0ea 4c3d 5799 543e fb61 463d 737a 89bc
000001a0: 4e72 00be e14f df3d 7306 14bd 1815 06bd
000001b0: 8ff5 1fbd d8f4 7b3d 8fd2 ac3d abe2 c53b
000001c0: 3cbc cd3b 2140 debd 93fe 553b 5dc0 ec3c
000001d0: 7d9d 183d 3567 623c fb79 d23e 8d06 a9bd
000001e0: 05bb aabe 6f5e 9d3d 630e 1a3e 6eec 753e
000001f0: c459 c1bd eb31 54be d5b1 94be dba9 a03c
00000200: 63af 633d 5af4 813c 953e 753d 42cf a43e
00000210: 5fcf 7dbe e779 563e 59a3 893e b8ec 443e
00000220: 04fd 4bbe 292b 2c3e 9128 6e3d 69ef 52bc
00000230: 2a7e afbc ff9d e3bb 3a11 babd 542a 1a3e
00000240: 27e5 423d 7363 d73d 97b9 d2bc 38a9 3abe
00000250: a313 b7bd b03c 02be d798 093e a8a9 adb9
00000260: ddd6 2cbd 914a d53d 752b 963e 14ed cfbd
00000270: 3c6d 10be 6b09 c5bd ff0a 643d a380 19be
00000280: a4a2 4dbe 8378 453d ae70 02bc 3a4e 45bc
00000290: 7560 b93e fff5 1f3d f41b 1fbd 58ca cd3d
000002a0: df2e 54bc 33ed 23be cfaf 9bbd 1d8c d0bc
000002b0: 3971 4b3e b193 51bd 9c58 e83e c56d 233d
000002c0: 463d f5bd 4f44 893e ec6b 86be 79db 5d3e
000002d0: 3a1e 23be 15b1 ca3d d296 c7bd 4b86 e1bd
000002e0: 3598 153b 75cd c63d b006 343e 1b3a 2bbe
000002f0: a693 da3d 65a7 c6bc 2223 b03b 4be7 55be
00000300: c040 e53c e085 2d3e b880 e73d c597 1d3d
00000310: 63e6 bebd f11d d9bc 04f4 383e 1c44 71bd
00000320: 5685 013e 2209 40bd 8e0c d8bc 1d03 02be
00000330: 4db6 07be 628f af3d 66d9 8d3e b8bc 0f3c
00000340: 8371 f83d 8948 af3d 45a0 b23d bab8 a6bd
00000350: 7e66 9cbd 7cb3 04be 216f 6cbe b6c6 4fbd
00000360: d211 793b e557 8fbb 631e 773d 5730 03be
00000370: c747 353e 0efd 92bd 9067 92bc 66c2 b7bd
00000380: 4309 8b3d ba19 2ebd 6db1 b3bd ba3c 843b
00000390: 24c6 78bc a47a 47bd c75e 513d 33a7 68bd
000003a0: df36 173d db98 273e 1e25 a23e dade 03bb
000003b0: a1ef 30be c66c 86be abdf 1bbd 570a 05bf
000003c0: 2e83 f5bd 1327 e93d a466 663e 031d 23be
000003d0: 0ba6 bf3c 9c87 91be 7334 c33d 2e1b 28bc
000003e0: 4aa0 6e3d c71c 823d f3b3 a13e c05e 1dbb
000003f0: 805f 1abd 6b8f 7d3e 36b6 10be 291a c8bd

qnet.fc1.bias f4 [256]
-0.050735828 -0.40670177 -0.23124826 0.11813833 -0.36717808 -0.15937379 -0.2126938 -0.020414768
0.1352215 -0.32650983 0.06811674 -0.29530042 -0.14459969 0.119477026 -0.09736016 -0.27980182
-0.059109468 -0.03686742 -0.1038165 0.25991625 -0.052495364 -0.035001893 -0.19556688 0.10467662
0.11671274 -0.07002305 0.15450433 -0.23501344 -0.011744262 -0.17579107 0.121321194 -0.24672462
-0.044388544 -0.022495663 -0.21138053 0.11157244 -0.39324594 -0.17116876 -0.004248146 -0.032126542
-0.17017677 -0.32031712 -0.16549882 0.14765747 0.07866264 -0.26843888 -0.32043046 0.097854234
-0.06721437 -0.33188513 0.3809942 0.053777356 -0.15045212 -0.07364214 0.06627868 -0.050280713
-0.16306272 0.09669155 0.12996826 0.16080165 -0.16149339 -0.060663376 -0.26811737 -0.07160276
0.2346246 0.18639727 -0.22364968 0.13318932 0.15080024 0.05959539 0.043068185 0.12909426
0.016967697 -0.3446853 -0.2680072 -0.22711274 -0.10541989 0.23851678 0.20558478 0.2137101
0.16251709 0.014219324 0.19889769 0.27758846 0.06668595 0.04701149 0.12873091 -0.22477828
-0.2673926 -0.40141195 -0.11982829 0.0034984204 -0.1985814 -0.44692394 -0.03846552 0.0105339065
-0.12575142 0.17493021 -0.08944296 0.31849554 0.1624908 -0.061215788 0.25910628 -0.10717363
-0.058891665 0.3434603 0.13541283 -0.14670858 -0.1581302 -0.23942521 -0.16942813 0.05813341
0.34199762 -0.15783806 -0.28603032 -0.15500757 -0.19228266 0.12026518 -0.16816518 -0.01845809
0.31665558 -0.20084703 -0.3444127 0.16478239 -0.00043837796 -0.15930828 0.103907965 -0.23274052
-0.17315722 0.014227804 0.1611493 -0.26012146 -0.046719395 0.019666603 0.1891301 -0.2825599
-0.2754369 -0.094610944 -0.3845945 -0.02981059 0.0769411 0.16756782 -0.037427515 -0.030431757
-0.3189704 -0.058508236 -0.06817218 0.039388333 0.07586397 -0.117274456 -0.12168898 0.047897782
-0.3941631 0.019790614 0.03245348 0.33719614 -0.10298043 0.17542294 -0.11499526 0.25476676
-0.3995597 -0.251609 0.09831092 0.040412694 0.19888712 -0.2295109 0.0018659597 -0.029070973
-0.19000727 0.22490259 -0.43801373 0.32339108 0.094274014 -0.06791414 -0.31365323 0.091314524
-0.386594 -0.38139507 0.04980498 0.37467298 0.36299515 -0.18331589 -0.36948696 -0.263056
-0.2325035 -0.37530866 -0.18291524 -0.122996725 -0.21376835 0.10936202 -0.20537038 0.25320205
-0.34396756 -0.19562982 -0.45258197 -0.005698007 0.009643357 0.23152545 0.34125865 0.03630276
0.05412349 -0.18770656 0.31331298 -0.17188698 -0.13147794 0.07587543 0.107927 -0.1734377
0.1086583 -0.33251947 0.1240506 0.2043132 -0.06860953 0.22638676 -0.023443727 -0.15560439
-0.2858941 0.21923237 0.11720112 0.001829758 -0.16832933 0.19893454 -0.18128917 -0.03726494
-0.03747296 0.1810668 0.0060019554 -0.089999884 -0.16609454 0.13013613 -0.061423097 0.27588493
0.4746171 0.22050129 0.31005862 0.23877476 -0.40429735 0.27590612 0.111847445 -0.31561932
0.09601298 0.21301185 0.15703945 -0.08581961 0.07537857 -0.2199916 -0.0085515585 0.15576747
-0.20827283 -0.47611487 0.0784896 0.18856068 -0.36263847 0.008494013 -0.19087258 -0.20109613
00000000: 5fd0 4fbd 373b d0be 58cc 6cbe 82f2 f13d
00000010: c4fe bbbe e232 23be 67cc 59be df3c a7bc
00000020: 8177 0a3e 4c2c a7be ca80 8b3d 9e31 97be
00000030: f111 14be 5fb0 f43d c364 c7bd 2f42 8fbe
00000040: c51c 72bd 4b02 17bd bf9d d4bd be13 853e
00000050: 6105 57bd 255e 0fbd af42 48be b260 d63d
00000060: 1707 ef3d 3f68 8fbd 6236 1e3e 5da7 70be
00000070: 016b 40bc 9302 34be 3f77 f83d 61a5 7cbe
00000080: c3d0 35bd d348 b8bc 2374 58be 1780 e43d
00000090: 8857 c9be dd46 2fbe 0834 8bbb 1f97 03bd
000000a0: d242 2ebe 9b00 a4be 8678 29be 8533 173e
000000b0: e119 a13d d270 89be 760f a4be cd67 c83d
000000c0: b0a7 89bd d9ec a9be ac11 c33e a545 5c3d
000000d0: 1f10 1abe b1d1 96bd 1ebd 873d 26f3 4dbd
000000e0: eaf9 26be 3806 c63d 6616 053e 30a9 243e
000000f0: 865e 25be 297a 78bd ae46 89be 78a4 92bd
00000100: 6e41 703e edde 3e3e 6c04 65be c862 083e
00000110: 616b 1a3e 4c1a 743d 4468 303d 4931 043e
00000120: d7ff 8a3c 977a b0be 3d38 89be 3e90 68be
00000130: 62e6 d7bd be3d 743e d184 523e d2d6 5a3e
00000140: e16a 263e 2bf8 683c d6ab 4b3e 1320 8e3e
00000150: a592 883d 1f8f 403d 09d2 033e 472c 66be
00000160: afe7 88be de85 cdbe 8968 f5bd c145 653b
00000170: ec58 4bbe 37d3 e4be 058e 1dbd 6896 2c3c
00000180: fbc4 00be e820 333e df2d b7bd d911 a33e
00000190: fd63 263e 68bd 7abd 94a9 843e d97d dbbd
000001a0: 6338 71bd 07da af3e a9a9 0a3e c63a 16be
000001b0: e2ec 21be e22b 75be 917e 2dbe 4c1d 6e3d
000001c0: 501a af3e 4da0 21be 9172 92be 4eba 1ebe
000001d0: bfe5 44be 974d f63d 7e33 2cbe 6c35 97bc
000001e0: ae20 a23e d8aa 4dbe dd56 b0be b7bc 283e
000001f0: 18d6 e5b9 b621 23be b3cd d43d 8853 6ebe
00000200: 2050 31be bc1b 693c 5204 253e a42e 85be
00000210: d65c 3fbd db1b a13c 52ab 413e b1ab 90be
00000220: 1106 8dbe 62c3 c1bd 92e9 c4be 5735 f4bc
00000230: 4c93 9d3d e696 2b3e 984d 19bd 054c f9bc
00000240: 1750 a3be 55a6 6fbd db9d 8bbd a955 213d
00000250: 925e 9b3d 972d f0bd 1238 f9bd 7730 443d
00000260: bfcf c9be ed1f a23c f1ed 043d f9a4 ac3e
00000270: 67e7 d2bd 12a2 333e a382 ebbd ca70 823e
00000280: 1793 ccbe e5d2 80be 3c57 c93d c887 253d
00000290: 11a9 4b3e e804 6bbe 3893 f43a 4026 eebc
000002a0: 4491 42be dd4c 663e 5643 e0be 8493 a53e
000002b0: bc12 c13d 9216 8bbd 2897 a0be 1c03 bb3d
000002c0: a6ef c5be 3746 c3be 4f00 4c3d 23d5 bf3e
000002d0: 80da b93e 29b7 3bbe 652d bdbe 47af 86be
000002e0: 6615 6ebe 7528 c0be 224e 3bbe b5e5 fbbd
000002f0: 17e6 5abe 32f9 df3d 9d4c 52be b3a3 813e
00000300: 841c b0be 2f53 48be d3b8 e7be 59b6 babb
00000310: 2cff 1d3c 0215 6d3e 74b9 ae3e 34b2 143d
00000320: 98b0 5d3d 2636 40be 8f6a a03e 2403 30be
00000330: 27a2 06be 9464 9b3d d508 dd3d a799 31be
00000340: 3e88 de3d fe3f aabe 3e0e fe3d 7b37 513e
00000350: 2783 8cbd eed1 673e 0f0d c0bc c256 1fbe
00000360: b660 92be 737e 603e 2407 f03d 7ed4 ef3a
00000370: 865e 2cbe 7fb5 4b3e dea3 39be 1fa3 18bd
00000380: 3f7d 19bd 9369 393e 0dac c43b dc51 b8bd
00000390: b014 2abe 6842 053e c996 7bbd ca40 8d3e
000003a0: 0301 f33e 17cb 613e 01c0 9e3e 5f81 743e
000003b0: 1000 cfbe 9143 8d3e 4610 e53d db98 a1be
000003c0: 74a2 c43d c71f 5a3e f3ce 203e 31c2 afbd
000003d0: 1460 9a3d 7a45 61be d61b 0cbc 8281 1f3e
000003e0: 7945 55be 54c5 f3be 28bf a03d 0d16 413e
000003f0: c0ab b9be 792a 0b3c 1a74 43be 25ec 4dbe

qnet.fc2.weight f4 [256, 256]
0.017397176 0.014017664 -0.16585448 -0.0026032391 -0.053889096 0.0031064062 0.07563498 0.058293104
0.21906485 0.00041756305 -0.14068545 -0.15489258 -0.03183497 -0.01393333 0.030242931 -1.3761225e-05
0.04352663 -0.009268066 -0.080158785 0.036894355 0.016916156 0.03165176 0.008220152 -0.10974113
0.06557496 0.07536024 0.006780204 -0.17763281 -0.06732463 0.09936279 0.09269786 -0.12369742
-0.0076224096 -0.039676957 0.08085816 0.067488596 0.053595174 0.041172065 -0.05970889 0.021128768
0.038385507 -0.078756526 0.040296372 -0.017046096 0.006653566 0.061185397 0.11297931 0.057291508
-0.04087462 0.06585124 -0.06774871 0.043423966 0.028281895 0.051927663 -0.6594689 0.065424964
0.10658121 -0.09577551 -0.089301676 -0.091930084 0.11988385 -0.1324289 0.0333959 -0.2518958
0.019067269 0.047646023 0.07398011 -0.050541535 -0.027316902 -0.019275293 -0.012206958 -0.034987364
-0.00083890336 -0.036209498 -0.17902939 -0.019008106 0.058486193 0.053759433 -0.062565066 0.0140541075
-0.0047015348 0.061553385 0.006911284 -0.020344365 -0.028402677 -0.023114273 -0.040947232 0.1520521
0.06691375 0.04499797 -0.012490841 -0.109707005 -0.09363513 -0.01820202 -0.03722629 -0.16917129
0.12515332 -0.058713317 0.088296674 -0.01992695 -0.09450311 -0.07198476 -0.056796 -0.4196757
0.0127566885 -0.015292638 -0.028375754 0.044814397 0.011519176 -0.026848217 0.032071482 0.00075498817
-0.10776541 0.0518677 0.037217088 0.032141365 -0.08820414 -0.115106165 -0.10402226 0.010677896
-0.124082215 -0.07377339 -0.11220505 -0.3551772 0.01958843 -0.0056104115 -0.007987474 0.0054239263
0.017956069 0.053981196 0.09456837 -0.046890207 -0.05134973 -0.019965548 0.046261072 -0.013304578
-0.1573541 0.00418435 0.007813506 -0.017940808 0.027738458 0.02106357 -0.031693295 -0.036258616
-0.004233554 0.0049465904 -0.041533757 0.068784095 0.07929809 -0.05571248 0.0661691 -0.04367222
0.09317158 0.048659954 0.048457306 0.21918519 0.01498871 0.1113945 0.07539585 0.0061171884
0.0004562805 0.041095976 0.011797342 0.04713267 0.019986795 -0.16250072 0.046874277 -0.024251154
0.17186432 0.04071375 -0.020624854 0.01342431 -0.02463055 0.0020807465 -0.10429115 -0.02333128
-0.02116091 0.10328845 -0.020534066 -0.030971779 -0.044684477 0.03145944 0.014110599 -0.0013626151
-0.0035218648 0.033617232 -0.034452546 0.010375138 0.3220366 -0.46035293 0.06883966 -0.044117194
0.01015353 -0.031387676 -0.12396764 0.08935447 -0.073626876 -0.11969998 0.067836285 -0.022000054
0.13287003 -0.32413688 0.00015342512 0.006875499 0.08309803 -0.023453826 0.06787002 0.007972536
0.030431798 -0.06327732 -0.030321086 -0.05631402 0.014479247 0.09358426 0.05961759 -0.023142561
0.026545474 0.044039737 -0.01878482 -0.04798666 0.026267797 0.09420979 -0.014452847 -0.13000661
0.0113297 -0.0025974147 0.09780289 -0.08640327 -0.024955714 -0.05490477 -0.40994096 0.012251571
-0.07480101 -0.101780765 -0.04238104 -0.13657229 0.0088244695 -0.012700927 -0.008297578 -0.010021696
0.15295628 -0.024758767 -0.03172541 0.054404795 0.02690019 -0.0020073613 -0.08347922 -0.0040385746
0.21516022 -0.018350765 -0.020431314 -0.012999361 -0.02864703 0.024042025 0.14222568 0.022815457
00000000: 8684 8e3c 58aa 653c c2d5 29be 1b9b 2abb
00000010: d0ba 5cbd d994 4b3b 83e6 9a3d c0c4 6e3d
00000020: 8952 603e 5dec da39 d90f 10be 299c 1ebe
00000030: 6365 02bd 9f48 64bc 06c0 f73c 03e0 66b7
00000040: fb48 323d 16d9 17bc 4a2a a4bd 891e 173d
00000050: c093 8a3c 47a5 013d d1ad 063c f5bf e0bd
00000060: 2a4c 863d 7856 9a3d 792c de3b 60e5 35be
00000070: 7fe1 89bd b87e cb3d 60d8 bd3d 1355 fdbd
00000080: 68c5 f9bb 4e84 22bd f798 a53d 7637 8a3d
00000090: 9d86 5b3d 0aa4 283d 4f91 74bd 3d16 ad3c
000000a0: 1f3a 1d3d 1a4b a1bd cf0d 253d 41a4 8bbc
000000b0: 2806 da3b 8a9d 7a3d b261 e73d 80aa 6a3d
000000c0: 256c 27bd 04dd 863d d6bf 8abd 54dd 313d
000000d0: 6faf e73c 1ab2 543d f4d2 28bf 86fd 853d
000000e0: 4047 da3d f325 c4bd cce3 b6bd d745 bcbd
000000f0: aa85 f53d 719b 07be 24ca 083d 7cf8 80be
00000100: f632 9c3c 7a28 433d e282 973d a404 4fbd
00000110: b2c7 dfbc 38e7 9dbc b1ff 47bc e94e 0fbd
00000120: dae9 5bba 6950 14bd 7b53 37be e3b6 9bbc
00000130: 388f 6f3d da32 5c3d 1d22 80bd 3343 663c
00000140: 550f 9abb 671f 7c3d 0d78 e23b 3aa9 a6bc
00000150: bbac e8bc 255a bdbc 49b8 27bd 8cb3 1b3e
00000160: 130a 893d cb4f 383d 62a6 4cbc 11ae e0bd
00000170: c6c3 bfbd 671c 95bc 987a 18bd 3d3b 2dbe
00000180: 3128 003e 607d 70bd e3d4 b43d d83d a3bc
00000190: d98a c1bd bf6c 93bd eca2 68bd bcdf d6be
000001a0: 6e01 513c f98d 7abc 4574 e8bc 4d8f 373d
000001b0: edba 3c3c cbf0 dbbc 635d 033d 66ea 453a
000001c0: 1cb4 dcbd 3a73 543d f270 183d aaa6 033d
000001d0: 5fa4 b4bd c8bc ebbd 9f09 d5bd 58f2 2e3c
000001e0: d11e febd 8116 97bd c3cb e5bd c9d9 b5be
000001f0: ea77 a03c 8bd7 b7bb e5dd 02bc 31bb b13b
00000200: 9b18 933c 631b 5d3d 10ad c13d f20f 40bd
00000210: 1854 52bd ca8e a3bc 407c 3d3d 72fb 59bc
00000220: 6f21 21be df1c 893b 3804 003c 9af8 92bc
00000230: c33b e33c 828d ac3c d4d0 01bd ea83 14bd
00000240: a0b9 8abb 0217 a23b 4d1f 2abd adde 8c3d
00000250: 0967 a23d c532 64bd aa83 873d a4e1 32bd
00000260: bed0 be3d a94f 473d 2b7b 463d 1572 603e
00000270: 3593 753c cd22 e43d 2469 9a3d b272 c83b
00000280: ef38 ef39 4154 283d a449 413c 300e 413d
00000290: 59bb a33c 9766 26be 3eff 3f3d 5baa c6bc
000002a0: 33fd 2f3e 76c3 263d 74f5 a8bc a3f1 5b3c
000002b0: 02c6 c9bc 225d 083b 9996 d5bd 3e21 bfbc
000002c0: a559 adbc e588 d33d 0f37 a8bc 87b8 fdbc
000002d0: 1207 37bd 9ddb 003d 2430 673c c799 b2ba
000002e0: 16cf 66bb 39b2 093d 1d1e 0dbd 7cfc 293c
000002f0: fbe1 a43e 61b3 ebbe cffb 8c3d 3bb4 34bd
00000300: fe5a 263c 5d90 00bd bfe2 fdbd 7aff b63d
00000310: b0c9 96bd 4325 f5bd c0ed 8a3d 7539 b4bc
00000320: 150f 083e 45f5 a5be bee0 2039 de4b e13b
00000330: 4d2f aa3d 3d22 c0bc 70ff 8a3d 3d9f 023c
00000340: 1b4c f93c 8a97 81bd ed63 f8bc 88a9 66bd
00000350: 5d3a 6d3c 1ba9 bf3d 9331 743d 7895 bdbc
00000360: e575 d93c 0363 343d 9fe2 99bc a98d 44bd
00000370: 902f d73c 10f1 c03d a2cb 6cbc 7420 05be
00000380: 35a0 393c 6339 2abb e24c c83d 33f4 b0bd
00000390: ed6f ccbc d3e3 60bd c8e3 d1be d0ba 483c
000003a0: 4631 99bd 6f72 d0bd be97 2dbd 9bd9 0bbe
000003b0: 8294 103c 8d17 50bc 91f2 07bc 0a32 24bc
000003c0: 92a0 1c3e e6d2 cabc 81f2 01bd 90d7 5e3d
000003d0: ca5d dc3c ef8d 03bb 27f7 aabd 0556 84bb
000003e0: f652 5c3e 5854 96bc 925f a7bc 46fb 54bc
000003f0: 2dad eabc c8f3 c43c 9ca3 113e 7be7 ba3c

qnet.fc2.bias f4 [256]
-0.052118286 -0.023128932 -0.0516974 -0.025104744 0.004852971 0.008542379 -0.043859903 0.022872493
-0.031545527 0.10305274 0.051543687 0.03242422 0.071937166 0.014480003 -0.026695231 -0.04394194
-0.054206632 0.011484351 0.026095068 -0.0041131456 0.0003004949 -0.07199554 0.027802559 0.003414135
-0.021547033 -0.021039946 -0.03281081 0.021929672 -0.013637548 0.017194819 0.07212677 0.025319725
-0.04121246 0.03198736 -0.07429058 0.002372187 -0.064367436 -0.017872864 -0.01000923 -0.005134581
-0.033998746 -0.045394875 -0.011692935 -0.053698253 -0.031569626 -0.057495 -0.023596583 -0.058359943
-0.08618242 0.014897965 0.04031154 -0.06014326 -0.026545856 -0.055468958 -0.0022779645 -0.031107632
-0.04028967 -0.08655016 -0.06333573 -0.08417972 0.021593207 0.0048274365 0.015574983 0.09506694
0.002188583 0.005726128 0.027231468 0.010103309 -0.0012141918 -0.08462451 -0.061596587 -0.05451857
0.004332901 -0.027672676 -0.05942734 -0.107541084 -0.06800536 0.02960144 0.04401032 -0.014096864
-0.009144332 0.03793639 0.056929365 -0.067426465 -0.09860066 -0.051318463 0.027078405 0.044024
-0.04160363 -0.07032052 -0.06801074 0.018716114 0.013796674 0.003199739 -0.03450246 -0.059102446
-0.02123958 -0.026482461 -0.02074187 -0.04829213 -0.08432705 0.018493159 0.027989268 -0.055894364
-0.0087887775 -0.017565398 -0.037560116 -0.05854283 0.021140797 0.043141764 -0.05388182 0.020003187
-0.057932306 -0.008677264 -0.053197805 0.046158213 -0.001446495 -0.083976984 -0.028838333 -0.04364218
-0.057259735 -0.012238772 0.0020147 -0.04350787 -0.009607916 -0.02588746 -0.105506636 -0.0078262305
-0.053869363 0.011433784 0.014940859 -0.060141586 -0.0043407492 -0.04922362 -0.014457425 0.009255
-0.0065832394 0.047591843 0.03231435 -0.051509894 -0.06380142 0.049643528 -0.0021911645 -0.038096953
-0.033842903 0.021527976 -0.0026590428 -0.016506976 0.014964714 -0.039311804 0.06252574 0.0005064703
0.034244932 0.00097610086 0.058517896 0.044120274 -0.0497903 -0.07009734 -0.020006156 0.0021900323
-0.04497712 -0.017766425 -0.056971803 -0.076467104 0.031556226 -0.040307753 -0.04273285 0.030686503
0.027245127 -0.025258742 0.043688167 -0.085243724 0.036838938 -0.022606816 0.011217251 0.02826028
-0.018216023 0.01383452 0.09678569 0.0067031938 -0.04107371 -0.016841184 -0.0055588917 -0.014177439
0.028092213 0.012484233 -0.04971769 -0.026967077 -0.07514957 0.022658516 0.01033825 -0.039311685
-0.011129952 -0.022239279 0.020166447 -0.02897806 0.033836056 0.01511437 0.009033174 -0.018467639
-0.009031327 -0.03267114 0.052148946 0.06573198 -0.072624154 0.015831145 0.03118156 -0.016832862
0.043625858 -0.019445667 0.029526819 -0.02825106 -0.027386455 -0.029799268 0.041595437 -0.0061908197
-0.08348208 0.025529025 -0.054207414 -0.0057543656 -0.040985167 0.03893716 -0.019641602 0.015894525
-0.0025743083 -0.088133015 0.046612892 -0.06409206 -0.04397466 -0.01877078 -0.0068815826 -0.06428354
-0.03823468 -0.05138411 -0.053944074 0.034255344 0.014272582 0.0076045836 -0.0052427812 0.047955524
0.033565134 0.0074671987 -0.038764387 -0.024732137 0.002719707 -0.0970537 -0.025754863 -0.017587034
-0.026283348 -0.037573244 0.059488997 0.00035459056 -0.0634699 0.01023999 -0.057773173 -0.009081201
00000000: fc79 55bd e378 bdbc a7c0 53bd 77a8 cdbc
00000010: ac05 9f3b 56f5 0b3c 71a6 33bd 185f bb3c
00000020: e235 01bd 510d d33d 791f 533d 42cf 043d
00000030: cb53 933d 893d 6d3c f5af dabc 77fc 33bd
00000040: c607 5ebd dc28 3c3c 53c5 d53c 91c7 86bb
00000050: be8b 9d39 6672 93bd 31c2 e33c aebf 5f3b
00000060: 6783 b0bc f75b acbc a164 06bd dba5 b33c
00000070: 0670 5fbc 26dc 8c3c 33b7 933d 506b cf3c
00000080: 65ce 28bd 2e05 033d a925 98bd b276 1b3b
00000090: 13d3 83bd 1d6a 92bc c1fd 23bc fd3f a8bb
000000a0: 4542 0bbd faef 39bd b993 3fbc b3f2 5bbd
000000b0: 274f 01bd e17f 6bbd 9f4d c1bc d60a 6fbd
000000c0: 6980 b0bd 9816 743c b71d 253d c758 76bd
000000d0: b276 d9bc 6b33 63bd e749 15bb 6fd5 febc
000000e0: c806 25bd 3641 b1bd 2ab6 81bd 6b66 acbd
000000f0: 3de4 b03c 792f 9e3b 372e 7f3c 75b2 c23d
00000100: 546e 0f3b 3ea2 bb3b 8714 df3c 5988 253c
00000110: 8425 9fba 9d4f adbd b44c 7cbd dd4e 5fbd
00000120: 02fb 8d3b cfb1 e2bc 156a 73bd 803e dcbd
00000130: 6546 8bbd b87e f23c 2a44 343d 88f6 66bc
00000140: 1cd2 15bc 3063 1b3d c42e 693d e316 8abd
00000150: 25ef c9bd 4f33 52bd 88d3 dd3c 8352 343d
00000160: 9168 2abd 3404 90bd 3749 8bbd 8952 993c
00000170: 720b 623c b6b2 513b 7452 0dbd 6815 72bd
00000180: a1fe adbc bff1 d8bc dbea a9bc f8cd 45bd
00000190: a9b3 acbd f77e 973c c049 e53c 7df1 64bd
000001a0: cefe 0fbc 4fe5 8fbc a3d8 19bd 9bca 6fbd
000001b0: 772f ad3c 6bb5 303d 2fb3 5cbd b9dd a33c
000001c0: 6d4a 6dbd 152b 0ebc f1e5 59bd 6510 3d3d
000001d0: 5198 bdba 20fc abbd 5e3e ecbc 24c2 32bd
000001e0: 2f89 6abd 2185 48bc 0f09 043b 4f35 32bd
000001f0: 856a 1dbc f011 d4bc dd13 d8bd 9739 00bc
00000200: 1fa6 5cbd c454 3b3c 81ca 743c 0657 76bd
00000210: d83c 8ebb b59e 49bd d6de 6cbc 49a2 173c
00000220: 37b8 d7bb aaef 423d 0d5c 043d 0afc 52bd
00000230: 52aa 82bd 0357 4b3d a499 0fbb 8d0b 1cbd
00000240: db9e 0abd 705b b03c 5643 2ebb a339 87bc
00000250: 8f2e 753c 6a05 21bd 7f0d 803d a5c4 043a
00000260: 6a44 0c3d 05e1 7f3a 76b0 6f3d 76b7 343d
00000270: eaf0 4bbd 328f 8fbd f3e3 a3bc a586 0f3b
00000280: ee39 38bd e58a 91bc 445b 69bd c99a 9cbd
00000290: 1a41 013d be19 25bd a408 2fbd 4362 fb3c
000002a0: 2c31 df3c 6ceb cebc 5df2 323d 4394 aebd
000002b0: 6de4 163d ee31 b9bc 90c8 373c 1a82 e73c
000002c0: c539 95bc 2faa 623c 9337 c63d 77a6 db3b
000002d0: e83c 28bd 86f6 89bc 5d27 b6bb 7d48 68bc
000002e0: a421 e63c ab8a 4c3c c7a4 4bbd 0fea dcbc
000002f0: 05e8 99bd 5a9e b93c c361 293c 4a05 21bd
00000300: 675a 36bc 262f b6bc 1b34 a53c 6663 edbc
00000310: ad97 0a3d 43a2 773c e1ff 133c 7249 97bc
00000320: 22f8 13bc 2cd2 05bd 229a 553d 7d9e 863d
00000330: f9bb 94bd 51b0 813c 7970 ff3c 12e5 89bc
00000340: 07b1 323d 854c 9fbc 3ae2 f13c c46e e7bc
00000350: 8f59 e0bc 981d f4bc fa5f 2a3d 5cdc cabb
00000360: a7f8 aabd 3f22 d13c 9808 5ebd 1e8f bcbb
00000370: 10e0 27bd 927c 1f3d 6de7 a0bc 3c35 823c
00000380: bab5 28bb 157f b4bd 29ed 3e3d b342 83bd
00000390: c61e 34bd 2ec5 99bc e67e e1bb 17a7 83bd
000003a0: f89b 1cbd 2578 52bd 76f4 5cbd 554f 0c3d
000003b0: 8cd7 693c df2f f93b a3cb abbb 036d 443d
000003c0: 987b 093d 67af f43b 68c7 1ebd 0d9b cabc
000003d0: 1d3d 323b 17c4 c6bd ddfb d2bc af12 90bc
000003e0: 2d50 d7bc 67e6 19bd bcaa 733d 57e8 b939
000003f0: 82fc 81bd a2c5 273c 90a3 6cbd 51c9 14bc

qnet.A.weight f4 [9, 256]
0.0048182793 -0.049387194 0.09534864 0.05943628 -0.064141944 -0.0050780335 0.044127088 0.03412125
-0.0022632212 0.003253914 0.001971674 0.046700235 0.02312757 -0.04345804 0.0037462846 0.12955172
0.04920492 0.0063395463 0.1032823 0.061259042 -0.0012017016 0.09401575 -0.05770579 0.043296535
-0.048739973 0.026872333 0.024902988 0.049913403 -0.03399686 0.05632685 0.017670313 0.071370505
-0.021698363 0.03837552 0.046570003 -0.030382723 0.03157699 0.0045510903 -0.050390396 0.013567818
-0.04237595 -0.0027385605 0.07991076 0.028760491 0.074593194 0.048612654 0.035526298 -0.008515825
0.1427181 0.04828474 0.04623991 0.08540847 0.07155847 0.01794825 0.06774753 0.058862437
0.00035807828 -0.0011545335 0.03394649 0.0150649585 -0.078080796 0.09621978 -0.033381388 0.010787623
0.13683996 -0.008871605 0.026032787 -0.021009771 -0.017330151 -0.025094194 0.050671253 -0.015156621
0.02562191 -0.027764808 0.079064295 0.00927872 0.044967756 0.06370672 -0.056824055 0.009221371
-0.02577281 -0.12920806 -0.0032934628 0.03188634 0.0055781603 -0.03014627 0.021897426 -0.085607424
0.013140186 0.022422293 0.036227133 -0.07278946 -0.02003119 -0.034686226 -0.038592443 0.07468783
-0.04409021 0.09229959 0.06725564 0.042766728 0.2524679 0.006794876 0.05201986 -0.032070708
-0.011758502 0.04144857 0.07035283 -0.06712575 0.008326475 0.08306641 0.0046497034 0.008778536
0.0010077193 0.039095245 -0.070782274 0.03387459 0.11731108 0.07631375 -0.012542613 -0.021886166
0.1099212 0.016545845 0.017389117 -0.09920626 0.004185178 0.0016365849 -0.035472125 0.022283912
-0.06614418 0.030160176 -0.004945752 -0.041426096 0.1034021 -0.051009446 -0.0049242643 -0.04255735
0.035923034 -0.02779116 0.20577466 -0.01913793 -0.0042144293 0.011055494 0.043019433 -0.06774812
-0.06211875 0.0016258276 0.050941158 0.10255352 -0.0356502 -0.009701636 0.0079873465 0.013073595
-0.015248253 0.04173809 0.024470216 0.08967861 -0.02708945 0.05843909 0.09050025 0.09991571
0.047160298 0.08335917 0.18184854 0.045860153 0.028837547 -0.04196032 -0.023017481 -0.070757695
0.046115734 0.03610045 -0.03571579 -0.11087932 -0.012585884 0.037869744 0.045172654 0.062463153
-0.21197103 0.008883059 0.023539405 0.013966517 0.031273354 0.017058663 0.081657335 0.058925908
-0.038245298 -0.11134596 0.04256565 0.09598254 0.117750496 0.07089454 -0.02320527 -0.025477484
0.06374667 -0.06238449 0.020984558 -0.0030005039 0.082172856 0.087507874 0.027845817 -0.07139171
0.035041492 0.05052224 -0.012555358 -0.07993087 0.027047105 -0.0073816744 0.06102022 0.03403286
0.0056726183 0.0446248 0.03675281 -0.03060748 -0.0043431628 0.12052164 0.035135232 0.04287102
0.07208533 -0.19314621 -0.059352472 0.11066547 0.09098301 0.052115686 -0.09209998 0.021732336
-0.06940019 0.09860376 -0.026664127 -0.03859908 0.023283938 -0.0070822183 -0.049407225 0.034401644
-0.023830831 0.023841947 0.11290692 0.13303788 0.07088403 -0.12433337 -0.027770586 -0.038600534
-0.093565576 0.0054094987 0.013737361 -0.015126773 0.07921732 -0.06610808 -0.06142929 -0.031157168
-0.01827012 -0.0030619483 -0.017905733 -0.0055993167 -0.024486378 0.0645715 -0.039940823 0.035945993
00000000: a8e2 9d3b 3a4a 4abd 2646 c33d 7573 733d
00000010: da5c 83bd a265 a6bb 9bbe 343d b9c2 0b3d
00000020: 8d52 14bb 9e3f 553b 3337 013b bf48 3f3d
00000030: 0876 bd3c 0f01 32bd 3a84 753b 35a9 043e
00000040: 198b 493d f8bb cf3b ac85 d33d c3ea 7a3d
00000050: 6a82 9dba 548b c03d e85c 6cbd b557 313d
00000060: 91a3 47bd 5e23 dc3c 5a01 cc3c ff71 4c3d
00000070: 4b40 0bbd fcb6 663d 55c1 903c b32a 923d
00000080: c4c0 b1bc a62f 1d3d 30c0 3e3d 30e5 f8bc
00000090: e056 013d 5021 953b 2966 4ebd 8e4b 5e3c
000000a0: 6792 2dbd 6c79 33bb 41a8 a33d 1f9b eb3c
000000b0: 51c4 983d 101e 473d 0684 113d f585 0bbc
000000c0: b224 123e 38c6 453d 0f66 3d3d a3ea ae3d
000000d0: 3f8d 923d 3508 933c 38bf 8a3d bd19 713d
000000e0: 74bc bb39 b753 97ba 7a0b 0b3d 04d3 763c
000000f0: d3e8 9fbd e00e c53d ecba 08bd 92be 303c
00000100: c61f 0c3e 355a 11bc b642 d53c af1c acbc
00000110: f6f7 8dbc 5792 cdbc a98c 4f3d 7a53 78bc
00000120: 0ae5 d13c 0673 e3bc 76ec a13d c605 183c
00000130: 1c30 383d ab78 823d 57c0 68bd 3c15 173c
00000140: 8021 d3bc 1e4f 04be 23d7 57bb 409b 023d
00000150: 00c9 b63b 4ff5 f6bc 3b62 b33c f252 afbd
00000160: ef49 573c f5ae b73c e762 143d a412 95bd
00000170: 7318 a4bc 2513 0ebd 1c13 1ebd eff5 983d
00000180: f097 34bd 9107 bd3d 53bd 893d 2a2c 2f3d
00000190: 7943 813e 8da7 de3b c712 553d 935c 03bd
000001a0: bba6 40bc fac5 293d 2515 903d 3a79 89bd
000001b0: c46b 083c b91e aa3d 8a5c 983b d9d3 0f3c
000001c0: 7315 843a 5622 203d 4cf6 90bd 15c0 0a3d
000001d0: cb40 f03d 624a 9c3d 887f 4dbc 9e4a b3bc
000001e0: 5e1e e13d 278b 873c 9f73 8e3c a72c cbbd
000001f0: d123 893b ad82 d63a 384b 11bd c08c b63c
00000200: 9a76 87bd 7912 f73c fa0f a2bb 69ae 29bd
00000210: 7bc4 d33d 48ef 50bd b95b a1bb 9e50 2ebd
00000220: 0824 133d 49aa e3bc 98b6 523e 26c7 9cbc
00000230: 3219 8abb 1a22 353c 2535 303d 87bf 8abd
00000240: 3b70 7ebd b919 d53a ada7 503d 9407 d23d
00000250: f205 12bd 9cf3 1ebc 5cdd 023c a232 563c
00000260: cfd3 79bc 8ff5 2a3d c375 c83c 6ba9 b73d
00000270: b2ea ddbc d45d 6f3d 3258 b93d 9ca0 cc3d
00000280: 282b 413d 36b8 aa3d 8136 3a3e dbd7 3b3d
00000290: b83c ec3c 96de 2bbd 288f bcbc 69e9 90bd
000002a0: dae3 3c3d 11de 133d b84a 12bd b214 e3bd
000002b0: 0635 4ebc 4e1d 1b3d f606 393d 5dd9 7f3d
000002c0: ef0e 59be 408a 113c b6d5 c03c d1d3 643c
000002d0: 7d18 003d 9cbe 8b3c f63b a73d 4b5c 713d
000002e0: 1aa7 1cbd 5a09 e4bd 5259 2e3d 7e92 c43d
000002f0: 2c27 f13d 2831 913d fa18 bebc 28b6 d0bc
00000300: 9d8d 823d e186 7fbd cfe7 ab3c 1aa4 44bb
00000310: 3e4a a83d 5437 b33d e91c e43c d135 92bd
00000320: ab87 0f3d 69f0 4e3d fdb4 4dbc ccb2 a3bd
00000330: e491 dd3c f9e1 f1bb 57f0 793d 0a66 0b3d
00000340: 5fe1 b93b 7fc8 363d 1d8a 163d 8abc fabc
00000350: 1751 8ebb 0dd4 f63d f6e9 0f3d 8699 2f3d
00000360: 79a1 933d 1fc8 45be 941b 73bd 94a4 e23d
00000370: 4d55 ba3d 4277 553d ea9e bcbd 0308 b23c
00000380: b021 8ebd c5f0 c93d ba6e dabc 121a 1ebd
00000390: f5bd be3c f411 e8bb 3b5f 4abd bde8 0c3d
000003a0: e038 c3bc 3050 c33c be3b e73d 153b 083e
000003b0: a52b 913d 7ea2 febd 247f e3bc 981b 1ebd
000003c0: 4f9f bfbd 2a42 b13b ab12 613c 49d6 77bc
000003d0: b13c a23d ac63 87bd 479d 7bbd 513d ffbc
000003e0: 38ab 95bc f8aa 48bb 0baf 92bc 797a b7bb
000003f0: a897 c8bc 103e 843d fd98 23bd 1b3c 133d

qnet.A.bias f4 [9]
0.03464181 0.029222364 0.0142696295 0.00851297 0.011988906 -0.014677688 -0.0041664387 -0.036637157
-0.08375423
00000000: 92e4 0d3d bd63 ef3c 2acb 693c fc79 0b3c
00000010: 1e6d 443c af7a 70bc 9f86 88bb d810 16bd
00000020: 5687 abbd
